config/ppo/results/RayShoot0610/Shooting/Shooting-162426.pt (torch, 80863 bytes, 31 tensors)

discrete_act_size_vector f4 [1, 2]
4.0 3.0
00000000: 0000 8040 0000 4040

network_body._body_endoder.seq_layers.0.weight f4 [20, 128]
0.25141385 -0.112547144 0.015271079 0.23232803 0.17569728 -0.15147947 0.081522115 -0.05343171
-0.15862998 0.19877535 0.12058123 -0.1105892 0.0084983185 0.006333073 0.023498792 0.19712032
0.10151635 -0.095545374 0.122274026 0.19230288 -0.112321325 0.14107166 0.019964509 0.044508956
-0.071435764 -0.10876731 -0.10086614 -0.02486727 -0.08885186 -0.091874264 -0.1053522 -0.22026594
-0.13302621 0.39523676 0.21823426 -0.09283934 -0.07516793 -0.03583596 -0.04503572 -0.020563535
0.03745845 -0.05814643 -0.06718324 0.2335142 0.061229084 0.20591192 0.02950923 -0.07829478
0.10790883 0.15521695 -0.03673989 -0.048497315 -0.0035741974 -0.013910458 0.03346831 0.007299177
0.15631047 -0.006902674 -0.1596913 -0.01198283 -0.082892716 -0.16507491 -0.029857485 0.105422564
-0.054508347 -0.018212035 0.06158191 0.05342077 0.17774108 -0.046847403 0.0652509 -0.1772592
-0.061978843 -0.18507345 -0.11053644 0.08583338 -0.082058206 0.08590069 -0.16217054 0.0906359
-0.062292174 0.12772907 -0.07350124 -0.15597035 -0.06524139 0.015339043 -0.023925856 0.09780508
0.23562652 0.067101404 -0.23355934 -0.20261899 -0.21697742 -0.045081377 -0.063987054 -0.07749458
-0.04745134 0.05243439 0.09463062 0.3322558 0.10409895 -0.147056 -0.1592267 -0.020878874
0.029017312 0.13754173 0.04044516 -0.114864215 -0.20363559 -0.05727729 0.094391234 0.13582355
0.09801949 -0.18075442 -0.062113613 -0.018398594 -0.11193955 0.18066862 0.12164015 0.0470625
0.0024342644 0.021690818 0.027471801 -0.12372915 -0.16168742 -0.04193588 0.06413295 -0.12535222
-0.0016566985 0.052111953 0.23565173 0.27766916 0.023173815 0.13518247 -0.1320391 -0.031357955
0.15071656 0.45747826 -0.07954103 0.1523028 -0.35818353 0.05968799 -0.04122092 0.375816
0.01357329 0.20118171 -0.34852716 0.0471988 0.14501686 0.46739793 -0.14362326 0.099077515
-0.5443822 0.11984929 0.34340453 0.28644636 -0.045720026 0.05006999 -0.42824355 0.06670989
0.2048913 0.5069521 0.031991813 0.04350827 -0.07597576 -0.16381949 0.16798763 0.20117463
-0.036584508 0.26744664 -0.3260403 -0.05185514 0.08933116 0.32335556 -0.08145859 0.18610118
-0.34458795 -0.05234664 0.13016582 0.39843807 0.036283243 0.19039884 -0.2796219 0.06553035
0.22511318 0.41146135 -0.24900638 0.03491019 -0.3139869 -0.05368912 0.19157816 0.39273643
-0.053901974 0.23404506 -0.21492127 -0.05866318 0.21758397 0.11963451 -0.05741621 0.15142715
-0.48332426 0.10203786 0.23225053 0.44579035 -0.042621277 0.097182415 -0.26494458 -0.10345027
0.08510467 0.37985703 -0.0025303545 0.034235086 -0.2563312 -0.025619922 0.21811745 0.31851324
0.014323917 0.013862579 -0.32638624 -0.0023874776 0.19902326 0.25333723 -0.07450075 0.014259962
-0.23737903 0.06220815 0.032249752 0.2151405 0.01083513 0.06716182 -0.33864424 0.11520845
-0.01806903 0.31241205 0.17263842 0.04511002 -0.42121094 0.22226171 0.19000712 0.3062696
-0.07340489 0.110608265 -0.18132484 0.12460777 0.005813951 0.30353895 -0.06944306 0.083661325
-0.31359407 0.056360137 0.12004728 -0.010251411 -0.021511398 0.065461256 0.016796278 -0.06544908
00000000: 51b9 803e 1e7f e6bd 8c33 7a3c 66e7 6d3e
00000010: fde9 333e 6f1d 1bbe 11f5 a63d 35db 5abd
00000020: e66f 22be c48b 4b3e 4bf3 f63d 977c e2bd
00000030: 883c 0b3c ab85 cf3b 8a80 c03c e9d9 493e
00000040: cee7 cf3d 4bad c3bd ce6a fa3d 0ceb 443e
00000050: b908 e6bd 1775 103e 9c8c a33c 064f 363d
00000060: ea4c 92bd 65c1 debd e892 cebd 72b6 cbbc
00000070: f7f7 b5bd 9328 bcbd e5c2 d7bd 658d 61be
00000080: 0638 08be 795c ca3e cd78 5f3e 8d22 bebd
00000090: a5f1 99bd bac8 12bd 6077 38bd dc74 a8bc
000000a0: 086e 193d f32a 6ebd 5e97 89bd 591e 6f3e
000000b0: 59cb 7a3d 93da 523e 57bd f13c 0359 a0bd
000000c0: 4eff dc3d 31f1 1e3e 917c 16bd 1fa5 46bd
000000d0: 153d 6abb b1e8 63bc 1116 093d ef2d ef3b
000000e0: da0f 203e d42f e2bb 1e86 23be a253 44bc
000000f0: a8c3 a9bd 6609 29be af97 f4bc c9e7 d73d
00000100: 2544 5fbd 6831 95bc 503d 7c3d bdcf 5a3d
00000110: c201 363e 10e3 3fbd 44a2 853d 7083 35be
00000120: 87dd 7dbd e583 3dbe ee60 e2bd 69c9 af3d
00000130: 220e a8bd b3ec af3d 0910 26be 519f b93d
00000140: 1426 7fbd 69cb 023e d187 96bd b1b6 1fbe
00000150: 479d 85bd 9c50 7b3c 2800 c4bc 084e c83d
00000160: 1448 713e 766c 893d 2e2a 6fbe 5a7b 4fbe
00000170: 542f 5ebe 40a7 38bd a50b 83bd 7ab5 9ebd
00000180: 565c 42bd 71c5 563d b3cd c13d 6f1d aa3e
00000190: d531 d53d d995 16be 530c 23be 2c0a abbc
000001a0: b7b5 ed3c bdd7 0c3e d3a9 253d ee3d ebbd
000001b0: d985 50be 979b 6abd 3150 c13d 5415 0b3e
000001c0: 71be c83d b017 39be d86a 7ebd a6b8 96bc
000001d0: 9040 e5bd 3201 393e 791e f93d 9cc4 403d
000001e0: 2e88 1f3b f1b0 b13c 8b0c e13c b565 fdbd
000001f0: 6391 25be f5c4 2bbd 2358 833d 555c 00be
00000200: 9425 d9ba 5873 553d b04e 713e a72a 8e3e
00000210: 03d7 bd3c 466d 0a3e 4235 07be 3371 00bd
00000220: 7155 1a3e 973a ea3e 68e6 a2bd 44f5 1b3e
00000230: d563 b7be 657b 743d 44d7 28bd f46a c03e
00000240: 8162 5e3c 9402 4e3e 2772 b2be 8753 413d
00000250: 4d7f 143e c84e ef3e fa11 13be 27e9 ca3d
00000260: a25c 0bbf 8b73 f53d b8d2 af3e 19a9 923e
00000270: ec44 3bbd 3116 4d3d bd42 dbbe 329f 883d
00000280: 06cf 513e 9dc7 013f d909 033d ba35 323d
00000290: 2e99 9bbd 4cc0 27be f304 2c3e b900 4e3e
000002a0: a3d9 15bd c4ee 883e c1ee a6be 0e66 54bd
000002b0: 41f3 b63d dc8e a53e c3d3 a6bd 4f91 3e3e
000002c0: d56d b0be 6e69 56bd 304a 053e 1300 cc3e
000002d0: bd9d 143d eaf7 423e 9a2a 8fbe c734 863d
000002e0: 1284 663e 10ab d23e 87fb 7ebe fdfd 0e3d
000002f0: e4c2 a0be 1fe9 5bbd 112d 443e c014 c93e
00000300: 51c8 5cbd 82a9 6f3e 5214 5cbe cd48 70bd
00000310: 55ce 5e3e f002 f53d 432d 6bbd b80f 1b3e
00000320: 4776 f7be 3af9 d03d 15d3 6d3e a23e e43e
00000330: a693 2ebd 9307 c73d d1a6 87be bcdd d3bd
00000340: 5b4b ae3d 9f7c c23e 4ed4 25bb 173a 0c3d
00000350: d83d 83be dfe0 d1bc 2e5a 5f3e 2b14 a33e
00000360: ddae 6a3c df1f 633c 191c a7be 3a77 1cbb
00000370: c1cc 4b3e 6bb5 813e d993 98bd 9ea2 693c
00000380: 7d13 73be f9cd 7e3d 5118 043d cb4d 5c3e
00000390: d485 313c 238c 893d c762 adbe 68f2 eb3d
000003a0: 8105 94bc 79f4 9f3e 20c8 303e 49c5 383d
000003b0: f6a8 d7be 9398 633e 3a91 423e 5ecf 9c3e
000003c0: 4e55 96bd 9686 e23d 38ad 39be 5c32 ff3d
000003d0: f582 be3b 7569 9b3e 2a38 8ebd a156 ab3d
000003e0: 678f a0be e3d9 663d 59db f53d 89f5 27bc
000003f0: ac38 b0bc 8d10 863d 5998 893c 2b0a 86bd

network_body._body_endoder.seq_layers.0.bias f4 [20]
-0.07714182 0.16026935 0.071734905 -0.0035312276 0.13755608 0.016107071 0.23297848 0.04014579
-0.075846255 -0.011419595 0.028655766 0.054894414 0.11209993 0.0041346177 0.14995216 0.120660566
-0.00030270504 0.1299813 -0.09123479 0.02100955
00000000: 88fc 9dbd a61d 243e c0e9 923d 2b6c 67bb
00000010: 80db 0c3e faf2 833c e991 6e3e e96f 243d
00000020: 4855 9bbd 4119 3bbc 7fbf ea3c f7d8 603d
00000030: a694 e53d b07b 873b 0f8d 193e e31c f73d
00000040: 62b4 9eb9 d119 053e 4ed9 babd 381c ac3c

action_model._continuous_distribution.mu.weight f4 [1, 20]
0.030556733 0.38280568 0.23558846 -0.08559522 -0.24088977 -0.00556972 -0.2400749 0.09089116
0.035026092 -0.10782466 0.080046944 0.116275325 -0.098055616 0.11041522 0.29411468 -0.14159447
0.10386766 -0.122544035 0.0017374614 0.16110098
00000000: 1d52 fa3c 1bff c33e 1a3e 713e 8c4c afbd
00000010: cfab 76be 3382 b6bb 32d6 75be 2525 ba3d
00000020: 8577 0f3d 2dd3 dcbd a7ef a33d c221 ee3d
00000030: 62d1 c8bd 6021 e23d 3396 963e 24fe 10be
00000040: 91b8 d43d 5ef8 fabd 88bb e33a a8f7 243e

action_model._discrete_distribution.branches.0.weight f4 [4, 20]
0.020530602 -0.10749788 -0.03885039 0.035158895 0.033761933 -0.058976036 -0.016395206 -0.036493376
-0.020284321 0.024601666 -0.034738164 -0.030635707 -0.10764752 -0.0033257378 -0.0593199 -0.013180611
-0.010665434 -0.08715275 0.014870618 -0.046197537 -0.05509019 -0.012811764 -0.000306191 0.033307653
0.04759979 0.07004764 0.032791346 0.07643101 0.006267916 -0.062088683 0.0690834 0.009100966
0.07261011 -0.074750245 -0.058457844 -0.031372383 -0.03080637 0.06727656 0.017251836 -0.029164907
-0.008715393 0.07256296 0.047752116 -0.02160656 -0.055622526 -0.010967284 -0.0094637675 0.0682106
-0.052533057 -0.015841208 0.021684641 0.046051685 0.0107344575 0.061122593 0.08013416 -0.02105719
0.02604416 0.010059799 -0.008300032 0.08436638 -0.023909185 0.016557429 -0.006172834 -0.007431476
-0.0353313 0.0053449455 0.018941436 -0.044849515 0.04104176 0.0090707 0.00672899 -0.0067354385
0.05884515 0.03270423 -0.0068444805 0.023578964 0.015829515 0.035298165 0.05510698 0.04164243
00000000: cb2f a83c d927 dcbd 9621 1fbd c602 103d
00000010: f449 0a3d db90 71bd 3d4f 86bc 147a 15bd
00000020: 4e2b a6bc 6f89 c93c 9b49 0ebd bcf7 fabc
00000030: 4e76 dcbd 9ff4 59bb 6cf9 72bd 7df3 57bc
00000040: 13be 2ebc 247d b2bd e4a3 733c a139 3dbd
00000050: 40a6 61bd 6fe8 51bc 4388 a0b9 9b6d 083d
00000060: fff7 423d 2375 8f3d 3850 063d dd87 9c3d
00000070: 1763 cd3b b450 7ebd 997b 8d3d 381c 153c
00000080: 9cb4 943d a816 99bd 7e71 6fbd 5480 00bd
00000090: a45d fcbc 4bc8 893d b953 8d3c 3eeb eebc
000000a0: 02cb 0ebc e49b 943d b997 433d 3e00 b1bc
000000b0: 72d4 63bd 20b0 33bc eb0d 1bbc 00b2 8b3d
000000c0: e72c 57bd 6cc5 81bc fda3 b13c b1a0 3c3d
000000d0: 94df 2f3c af5b 7a3d 611d a43d 2180 acbc
000000e0: 905a d53c dbd1 243c dbfc 07bc 48c8 ac3d
000000f0: 32dd c3bc 72a3 873c 7c45 cabb bd83 f3bb
00000100: 8eb7 10bd a724 af3b 122b 9b3c 20b4 37bd
00000110: 681b 283d 469d 143c dc7e dc3b f4b4 dcbb
00000120: 9d07 713d dff4 053d aa47 e0bb ac28 c13c
00000130: e6ac 813c cf94 103d dbb7 613d 4191 2a3d

action_model._discrete_distribution.branches.0.bias f4 [4]
-0.06356293 0.032845907 -0.008606765 0.044894394
00000000: 482d 82bd 6e89 063d 6403 0dbc 2fe3 373d

action_model._discrete_distribution.branches.1.weight f4 [3, 20]
-0.017280113 -0.007884387 -0.00322074 -0.024480063 0.03334061 0.009277728 0.05269787 0.014955966
0.0062156254 -0.010679331 -0.007854134 -0.008641906 0.02727915 -0.0112502165 0.015445781 0.012781407
0.021292131 0.03196148 -0.024198467 -0.051126543 -0.022653457 -0.05470781 0.036599964 0.022964386
-0.037550475 -0.02043511 -0.037319083 0.059135232 0.028625922 0.027777283 0.001815623 0.04043053
-0.04421059 -0.025907679 -0.08491848 0.0026666983 -0.021784931 -0.08090672 -0.0097404355 0.021300217
0.04464506 0.12308866 -0.031577583 -0.059829585 -0.042826593 0.0032332852 0.020424744 0.03448029
-0.0145750865 -0.030593203 -0.04323735 -0.035538908 0.019876886 0.02604249 0.07381889 -0.022727292
0.017986733 -0.011130279 0.058685232 -0.020421876
00000000: 068f 8dbc 842d 01bc 0d13 53bb 6a8a c8bc
00000010: 2a90 083d 9d01 183c b9d9 573d de09 753c
00000020: 72ac cb3b 5cf8 2ebc a0ae 00bc c896 0dbc
00000030: 8678 df3c d452 38bc 4d10 7d3c 1b69 513c
00000040: d66c ae3c 0aea 023d dd3b c6bc 116a 51bd
00000050: be93 b9bc 4c15 60bd d8e9 153d cf1f bc3c
00000060: 87ce 19bd 8867 a7bc e5db 18bd c937 723d
00000070: e980 ea3c 2f8d e33c 33fa ed3a 7c9a 253d
00000080: 2a16 35bd 573c d4bc bde9 adbd c6c3 2e3b
00000090: 5076 b2bc 6cb2 a5bd 5996 1fbc cb7d ae3c
000000a0: bddd 363d e815 fc3d 7f57 01bd de0f 75bd
000000b0: f06a 2fbd 86e5 533b cb51 a73c 343b 0d3d
000000c0: 58cc 6ebc 999e fabc a619 31bd 3f91 11bd
000000d0: dad4 a23c 0f57 d53c 5c2e 973d 962e babc
000000e0: ea58 933c c65b 36bc ed5f 703d c74b a7bc

action_model._discrete_distribution.branches.1.bias f4 [3]
0.055960182 -0.087014355 0.038487766
00000000: 8136 653d 9534 b2bd 59a5 1d3d

exp_avg f4 [20, 128]
1.9125919e-09 -3.6915992e-13 -2.630559e-05 2.4738392e-10 -3.6915992e-13 -8.608893e-06 6.4565703e-10 -3.6915992e-13
-1.9637135e-05 4.9635105e-09 -3.7282276e-13 -8.98576e-06 -9.248969e-09 -3.341683e-13 -1.7205943e-05 1.4037154e-08
-3.7282276e-13 -1.519694e-05 -9.248485e-09 -3.341683e-13 -1.4282136e-05 1.4054023e-08 -3.7282276e-13 -3.7094644e-06
-1.1970175e-08 -3.341683e-13 -6.9997927e-06 1.4046367e-08 -3.7282276e-13 -8.474332e-06 -1.3129271e-08 -3.341683e-13
-2.2636917e-05 9.2252455e-09 -4.0131288e-13 -4.6186398e-07 -3.4994503e-09 -3.341683e-13 -7.1665763e-06 -1.1321041e-10
-4.0131288e-13 7.098407e-06 -3.4994438e-09 -3.341683e-13 -2.4120682e-05 -1.1317522e-10 -4.0131288e-13 -6.9669304e-06
-2.9043315e-10 -3.341683e-13 -2.5477184e-05 7.538002e-09 -4.0131288e-13 -1.1215961e-05 -2.9062908e-10 -3.571918e-13
2.574271e-05 7.643213e-09 -4.0131288e-13 6.549441e-06 -2.9062908e-10 -3.4522642e-13 1.1603486e-05 7.6432185e-09
-4.0131288e-13 1.8598019e-05 -2.9063374e-10 -3.4522642e-13 2.4891779e-05 7.6435125e-09 -4.415802e-13 1.255991e-05
-4.513889e-15 -3.4522642e-13 -2.8679465e-06 -2.0738426e-14 -4.2950604e-13 1.2483479e-05 9.663015e-14 -3.4522642e-13
1.5432777e-05 2.154566e-31 -4.2950604e-13 -3.0059948e-06 8.8234e-41 -3.4522642e-13 1.8690496e-05 6.6395165e-14
-4.2950604e-13 -1.5051966e-05 1.2800843e-13 -3.4522642e-13 4.6213285e-05 3.9709003e-16 -4.2950604e-13 -3.4335477e-05
-6.717365e-10 -3.4522642e-13 -1.5478572e-05 -5.4701206e-18 -4.2950604e-13 -1.887751e-05 -6.7168676e-10 -3.4522642e-13
-1.2608108e-05 -2.4110098e-15 -4.2950604e-13 -2.7430327e-05 -6.7168676e-10 -3.5416323e-13 -1.9689394e-05 1.0316767e-18
-4.2950604e-13 -2.6174868e-05 -6.716944e-10 -3.5416323e-13 -8.542805e-06 -1.3889783e-13 -4.2913142e-13 -2.9086488e-05
-1.28159185e-14 -3.5416323e-13 2.6945461e-05 0.00781575 -0.010423376 0.00040432945 0.00029703075 1.9125919e-09
-6.829571e-09 -3.807724e-12 0.0009269387 -9.76006e-09 -3.807724e-12 0.0009473732 -5.8984595e-09 -3.807724e-12
0.0007024415 1.3275265e-08 -3.6932926e-12 0.0010267157 -8.564031e-09 -3.612982e-12 0.0007181034 4.876151e-08
-3.6932926e-12 0.00094736845 -8.557991e-09 -3.612982e-12 0.00064555084 4.9200146e-08 -3.6932926e-12 0.0009774553
2.9975603e-10 -3.612982e-12 0.0007015177 4.9503818e-08 -3.6932926e-12 0.00088366156 -4.4235184e-09 -3.612982e-12
0.0007348015 2.6105164e-08 -3.70292e-12 0.0009220926 7.560014e-09 -3.612982e-12 0.0007912597 -6.058578e-11
-3.70292e-12 0.0008934588 7.560018e-09 -3.612982e-12 0.0006806848 -6.0461455e-11 -3.70292e-12 0.000861665
-5.926112e-10 -3.612982e-12 0.000608471 5.9827634e-08 -3.70292e-12 0.00083317515 -5.9107785e-10 -4.0912425e-12
0.0005635093 6.019122e-08 -3.70292e-12 0.00085296604 -5.9107785e-10 -4.039286e-12 0.00023054953 6.0191375e-08
-3.70292e-12 0.00081424706 -5.910799e-10 -4.039286e-12 0.00032355663 6.0190565e-08 -3.991277e-12 0.00062698795
-3.6094104e-16 -4.039286e-12 5.41677e-05 -4.9410454e-13 -3.9959815e-12 0.000540373 8.103759e-13 -4.039286e-12
3.515673e-05 4.0622004e-30 -3.9959815e-12 0.0005249909 3.79257e-40 -4.039286e-12 -6.301772e-05 3.9550362e-13
-3.9959815e-12 0.0004434506 1.0143656e-12 -4.039286e-12 -0.00010033963 -3.1748578e-13 -3.9959815e-12 0.00032369772
-8.589235e-09 -4.039286e-12 -0.0003807658 -4.245326e-17 -3.9959815e-12 0.00037742325 -8.589725e-09 -4.039286e-12
-0.0002897331 -5.996116e-14 -3.9959815e-12 7.823565e-05 -8.589725e-09 -4.0527824e-12 -0.00030584502 2.3228663e-18
-3.9959815e-12 7.370141e-05 -8.589583e-09 -4.0527824e-12 -0.000401714 -1.1003716e-12 -3.9945052e-12 -1.0138344e-05
-6.803568e-14 -4.0527824e-12 -0.00033388013 0.037137073 -0.07942191 0.0047788303 -0.0018649115 -6.829571e-09
00000000: ac6e 0331 8dd1 cfaa d3aa dcb7 3100 882f
00000010: 8dd1 cfaa ea6e 10b7 137a 3130 8dd1 cfaa
00000020: 6dba a4b7 808b aa31 6ce1 d1aa 8cc1 16b7
00000030: 65e5 1eb2 ba1e bcaa 7b55 90b7 0e28 7132
00000040: 6ce1 d1aa 5cf6 7eb7 44e3 1eb2 ba1e bcaa
00000050: 4f9d 6fb7 3f72 7132 6ce1 d1aa 1df0 78b6
00000060: 63a5 4db2 ba1e bcaa c3df eab6 9350 7132
00000070: 6ce1 d1aa fb2c 0eb7 258f 61b2 ba1e bcaa
00000080: 69e4 bdb7 0f7d 1e32 48eb e1aa 1af6 f7b4
00000090: fb7a 70b1 ba1e bcaa 6c78 f0b6 ccf3 f8ae
000000a0: 48eb e1aa da2e ee36 de7a 70b1 ba1e bcaa
000000b0: c556 cab7 fcdf f8ae 48eb e1aa 7ac5 e9b6
000000c0: d5aa 9faf ba1e bcaa d6b7 d5b7 7c80 0132
000000d0: 48eb e1aa 302c 3cb7 68c6 9faf c314 c9aa
000000e0: 0cf2 d737 354f 0332 48eb e1aa 45c3 db36
000000f0: 68c6 9faf 5f58 c2aa 98ac 4237 3b4f 0332
00000100: 48eb e1aa f102 9c37 10c7 9faf 5f58 c2aa
00000110: b0ce d037 8650 0332 6a96 f8aa 67b8 5237
00000120: 47a1 a2a7 5f58 c2aa f276 40b6 8ecb baa8
00000130: 58ca f1aa 2270 5137 7d97 d929 5f58 c2aa
00000140: a375 8137 ded6 8b0c 58ca f1aa 99ba 49b6
00000150: f6f5 0000 5f58 c2aa 89c9 9c37 3582 9529
00000160: 58ca f1aa b487 7cb7 eb1f 102a 5f58 c2aa
00000170: 23d5 4138 25e8 e425 58ca f1aa 7003 10b8
00000180: 41a5 38b0 5f58 c2aa fbd7 81b7 d4cf c9a2
00000190: 58ca f1aa 255b 9eb7 c1a1 38b0 5f58 c2aa
000001a0: 6987 53b7 48bb 2da7 58ca f1aa 2e1a e6b7
000001b0: c1a1 38b0 4d60 c7aa a72a a5b7 a53f 9821
000001c0: 58ca f1aa 1a92 dbb7 4ba2 38b0 4d60 c7aa
000001d0: 1153 0fb7 9362 1caa 5b94 f1aa c2fe f3b7
000001e0: fede 66a8 4d60 c7aa f008 e237 a20d 003c
000001f0: cfc6 2abc 2efc d339 cbba 9b39 ac6e 0331
00000200: 8ba9 eab1 eef8 85ac cefd 723a 33ad 27b2
00000210: eef8 85ac 2459 783a 66ab cab1 eef8 85ac
00000220: 0d24 383a 3c11 6432 39f2 81ac dd92 863a
00000230: 0221 13b2 b33d 7eac 1a3f 3c3a d96d 5133
00000240: 39f2 81ac d258 783a 7106 13b2 b33d 7eac
00000250: 2f3a 293a 2250 5333 39f2 81ac f51d 803a
00000260: e9ca a42f b33d 7eac 0ee6 373a 069e 5433
00000270: 39f2 81ac 86a5 673a aefd 97b1 b33d 7eac
00000280: b29f 403a dd3d e032 f048 82ac 96b8 713a
00000290: 4be1 0132 b33d 7eac 8a6c 4f3a c33a 85ae
000002a0: f048 82ac 0137 6a3a 50e1 0132 b33d 7eac
000002b0: fc6f 323a c6f4 84ae f048 82ac 5ce1 613a
000002c0: 4ee5 22b0 b33d 7eac cc81 1f3a 977a 8033
000002d0: f048 82ac 7069 5a3a 6879 22b0 a3f2 8fac
000002e0: 78b8 133a 7942 8133 f048 82ac 9599 5f3a
000002f0: 6879 22b0 a71e 8eac abbf 7139 8f42 8133
00000300: f048 82ac 3273 553a 8d79 22b0 a71e 8eac
00000310: 09a3 a939 1d42 8133 3a6e 8cac 735c 243a
00000320: 7f11 d0a5 a71e 8eac 2032 6338 fc13 0bab
00000330: 9a98 8cac d1a7 0d3a bd19 642b a71e 8eac
00000340: 4075 1338 4dc8 a40e 9a98 8cac 8b9f 093a
00000350: 3721 0400 a71e 8eac 6128 84b8 14a6 de2a
00000360: 9a98 8cac ef7e e839 5fc2 8e2b a71e 8eac
00000370: 6e6d d2b8 86ba b2aa 9a98 8cac f9b5 a939
00000380: db8f 13b2 a71e 8eac 85a1 c7b9 f7c7 43a4
00000390: 9a98 8cac e4e0 c539 0392 13b2 a71e 8eac
000003a0: 52e7 97b9 4105 87a9 9a98 8cac 7212 a438
000003b0: 0392 13b2 3898 8eac d359 a0b9 b465 2b22
000003c0: 9a98 8cac 2590 9a38 6391 13b2 3898 8eac
000003d0: 249d d2b9 11dd 9aab 4e8b 8cac db17 2ab7
000003e0: e633 99a9 3898 8eac a20c afb9 0b1d 183d
000003f0: f4a7 a2bd bc97 9c3b 0c70 f4ba 8ba9 eab1

exp_avg_sq f4 [20, 128]
4.2435104e-07 2.0290313e-08 1.1739271e-07 1.6415066e-07 1.913906e-08 1.1158402e-07 3.939248e-07 2.0530651e-08
1.1644908e-07 3.7021704e-07 1.914195e-08 1.06462444e-07 4.0117794e-07 2.0552552e-08 1.1644913e-07 6.081657e-07
1.914195e-08 1.0083516e-07 5.88655e-07 2.0552635e-08 1.0859907e-07 6.5110237e-07 1.914195e-08 9.94405e-08
4.6891765e-07 2.0552635e-08 1.1215245e-07 6.501394e-07 1.9131837e-08 1.00747954e-07 1.4964726e-07 2.0552635e-08
1.1658776e-07 4.5942176e-07 1.9085272e-08 1.0092236e-07 9.080135e-08 2.0552726e-08 1.1996568e-07 1.3506177e-07
1.8827746e-08 1.09836144e-07 7.694996e-08 2.058614e-08 1.1979928e-07 7.423429e-08 1.7884032e-08 1.0641317e-07
4.1877453e-08 2.058614e-08 1.14955384e-07 2.1644777e-07 1.406893e-08 1.0047751e-07 1.1194984e-08 1.864975e-08
1.1118882e-07 1.9594569e-07 1.406893e-08 9.793798e-08 1.9723174e-08 1.8051749e-08 1.0937007e-07 2.076352e-07
1.406893e-08 9.755969e-08 2.104501e-08 1.8048961e-08 1.0634399e-07 2.6278943e-07 1.4650256e-08 9.461489e-08
3.525121e-08 1.8048961e-08 1.09235415e-07 7.115358e-08 1.5883224e-08 1.00878395e-07 1.2181433e-08 1.8048961e-08
1.0619476e-07 4.231855e-08 2.1465901e-08 1.06079696e-07 7.719309e-09 1.8048961e-08 1.0342159e-07 3.332278e-08
2.139611e-08 1.0787688e-07 1.8706675e-08 1.8048961e-08 1.0205782e-07 5.442499e-09 2.1315346e-08 1.0925988e-07
9.9582484e-09 1.8048961e-08 1.0739822e-07 1.6821916e-08 2.13206e-08 1.0895199e-07 9.899201e-09 1.8048961e-08
1.0584121e-07 2.0340227e-08 2.13206e-08 1.11704644e-07 8.230411e-09 1.676771e-08 1.0571673e-07 1.0125132e-08
2.13206e-08 1.1185187e-07 1.1953143e-08 1.6767707e-08 1.05788324e-07 1.4399053e-08 2.1319362e-08 1.1490066e-07
9.74415e-09 1.6767707e-08 1.05435205e-07 0.0008666521 0.0020236473 1.9282052e-06 2.8350335e-06 4.2435104e-07
1.2131131e-05 3.2176151e-06 1.0859542e-05 1.0715389e-05 2.7697379e-06 1.0143334e-05 1.5085356e-05 3.242257e-06
1.0971505e-05 2.4111449e-05 2.772127e-06 9.585405e-06 6.3257485e-06 3.2363102e-06 1.0754282e-05 3.96405e-05
2.772127e-06 9.325011e-06 9.801578e-06 3.2363102e-06 1.0123139e-05 3.3796598e-05 2.772127e-06 9.2157625e-06
6.975548e-06 3.2363102e-06 1.0204797e-05 3.3603985e-05 2.7725125e-06 9.420068e-06 1.5851921e-06 3.2363102e-06
1.02133445e-05 2.194097e-05 2.8148397e-06 9.567128e-06 2.191289e-06 3.236357e-06 1.0537036e-05 1.4975454e-05
2.801123e-06 9.623205e-06 2.5085917e-06 3.248298e-06 1.0708616e-05 7.529664e-06 2.7460653e-06 9.003459e-06
2.6560647e-06 3.248298e-06 1.0593747e-05 9.339727e-06 2.528595e-06 8.799037e-06 6.4463575e-07 2.3827527e-06
9.508109e-06 7.319031e-06 2.5285979e-06 8.76869e-06 5.5258937e-07 2.3736195e-06 9.617331e-06 7.0214674e-06
2.5285979e-06 8.854652e-06 1.0573235e-06 2.374225e-06 9.44367e-06 4.935561e-06 2.5426589e-06 8.724613e-06
5.532111e-07 2.3741825e-06 9.520392e-06 4.728056e-06 2.7012022e-06 8.783492e-06 6.8285465e-07 2.3741825e-06
9.149038e-06 4.6081313e-06 2.9922423e-06 9.012122e-06 2.5599252e-07 2.3741825e-06 9.199367e-06 1.7086973e-06
2.96118e-06 8.999019e-06 5.819195e-07 2.3741825e-06 9.21667e-06 9.931001e-07 2.9514395e-06 8.877133e-06
1.3989563e-06 2.3741734e-06 9.416748e-06 1.243872e-06 2.9353007e-06 8.890555e-06 3.8415206e-07 2.3741734e-06
9.335873e-06 1.2149135e-06 2.9353007e-06 8.966192e-06 1.199038e-06 2.3718462e-06 9.230132e-06 1.1651871e-06
2.9352905e-06 8.797131e-06 5.604369e-07 2.371847e-06 9.0761905e-06 2.0508728e-06 2.9352668e-06 9.056043e-06
2.0065114e-07 2.3710472e-06 8.973097e-06 0.07069501 0.10493033 0.00016104677 0.0001708711 1.2131131e-05
00000000: 5dd2 e334 df4a ae32 5319 fc33 6441 3034
00000010: 3d67 a432 f79f ef33 9d7c d334 615b b032
00000020: 8f12 fa33 3ec2 c634 986d a432 59a0 e433
00000030: 7a61 d734 8a8b b032 9612 fa33 d440 2335
00000040: 986d a432 b78a d833 1004 1e35 b98b b032
00000050: f836 e933 6ac7 2e35 986d a432 fe8b d533
00000060: 8dbf fb34 b98b b032 76d8 f033 3d85 2e35
00000070: 5b57 a432 c65a d833 baae 2034 b98b b032
00000080: cd5e fa33 72a6 f634 f5f0 a332 a7ba d833
00000090: 92fe c233 ec8b b032 eacf 0034 7f05 1134
000000a0: a7ba a132 0fdf eb33 b03f a533 67d5 b032
000000b0: 2da2 0034 bc6a 9f33 679f 9932 4285 e433
000000c0: bfdc 3333 67d5 b032 64dd f633 b668 6834
000000d0: cfb3 7132 18c6 d733 0f54 4032 3c33 a032
000000e0: b3c6 ee33 2465 5234 cfb3 7132 f951 d233
000000f0: b86b a932 3710 9b32 d5de ea33 54f2 5e34
00000100: cfb3 7132 0282 d133 77c6 b432 160a 9b32
00000110: 3a5f e433 8115 8d34 82b0 7b32 162f cb33
00000120: 1e67 1733 160a 9b32 ce94 ea33 18cd 9833
00000130: 946f 8832 7ca2 d833 8246 5132 160a 9b32
00000140: 300d e433 bdc1 3533 0464 b832 eecd e333
00000150: e19d 0432 160a 9b32 9f18 de33 c91e 0f33
00000160: 8bca b732 f1a9 e733 6ab0 a032 160a 9b32
00000170: e12a db33 ba00 bb31 f118 b732 41a2 ea33
00000180: d714 2b32 160a 9b32 cca2 e633 c97f 9032
00000190: 7f24 b732 fdf8 e933 2511 2a32 160a 9b32
000001a0: d24a e333 a2b8 ae32 7f24 b732 47e2 ef33
000001b0: bb65 0d32 9608 9032 6306 e333 cdf2 2d32
000001c0: 7f24 b732 3733 f033 7b5a 4d32 9408 9032
000001d0: bf2d e333 b45f 7732 c621 b732 4ebf f633
000001e0: 3a67 2732 9408 9032 9e6b e233 0a30 633a
000001f0: 2b9f 043b 5066 0136 8141 3e36 5dd2 e334
00000200: d086 4b37 35ee 5736 6131 3637 3fc6 3337
00000210: bcdf 3936 4a2d 2a37 1c17 7d37 8d95 5936
00000220: 4112 3837 f142 ca37 c708 3a36 00d1 2037
00000230: c441 d436 632f 5936 4a6d 3437 aa43 2638
00000240: c708 3a36 9e72 1c37 7571 2437 632f 5936
00000250: 8dd6 2937 d2c0 0d38 c708 3a36 669d 1a37
00000260: 800f ea36 632f 5936 4535 2b37 01f2 0c38
00000270: 670f 3a36 e20a 1e37 c9c2 d435 632f 5936
00000280: fb59 2b37 e00d b837 94e6 3c36 8082 2037
00000290: 0f0e 1336 3130 5936 3ac8 3037 163f 7b37
000002a0: edfa 3b36 5a73 2137 4759 2836 56fd 5936
000002b0: 28a9 3337 52a7 fc36 0b49 3836 900d 1737
000002c0: d83e 3236 56fd 5936 ccbb 3137 d2b1 1c37
000002d0: eeb0 2936 939f 1337 080b 2d35 61e7 1f36
000002e0: 0485 1f37 ff95 f536 fbb0 2936 3d1d 1337
000002f0: a755 1435 794a 1f36 1f5a 2137 f299 eb36
00000300: fbb0 2936 718e 1437 5ce9 8d35 e054 1f36
00000310: 4170 1e37 259c a536 8ca2 2a36 ed5f 1237
00000320: 6180 1435 2554 1f36 c6b9 1f37 b1a5 9e36
00000330: 4d46 3536 d05c 1337 6a4d 3735 2554 1f36
00000340: d27e 1937 8c9f 9a36 55ce 4836 c532 1737
00000350: 586f 8934 2554 1f36 fb56 1a37 6456 e535
00000360: afb8 4636 7efa 1637 3435 1c35 2554 1f36
00000370: 4ca1 1a37 a94a 8535 5811 4636 ffee 1437
00000380: c6c3 bb35 fd53 1f36 a0fc 1d37 1ef3 a635
00000390: 15fc 4436 a528 1537 753d ce34 fd53 1f36
000003a0: 45a1 1c37 1c10 a335 15fc 4436 806d 1637
000003b0: a2ee a035 022c 1f36 1ddb 1a37 8663 9c35
000003c0: e8fb 4436 6497 1337 ee70 1635 052c 1f36
000003d0: f145 1837 baa1 0936 80fb 4436 69ef 1737
000003e0: 9172 5734 481e 1f36 288b 1637 8cc8 903d
000003f0: b6e5 d63d aade 2839 dd2b 3339 d086 4b37

exp_avg f4 [20]
0.00040436749 0.004779131 0.0022697821 -0.0010218436 -0.002037168 -0.0001013365 -0.0019170179 -0.000110093955
0.00046049393 -0.0014810626 4.3136704e-05 0.0004915976 -0.00018734518 0.00016909034 0.0017261395 -0.0017004659
-0.00030111705 -5.946102e-05 0.00062325306 0.0010942657
00000000: 4901 d439 429a 9c3b a0c0 143b 62ef 85ba
00000010: 0282 05bb 9f84 d4b8 7244 fbba 3ee2 e6b8
00000020: 736e f139 3720 c2ba afed 3438 8ede 003a
00000030: 1772 44b9 d84d 3139 a13f e23a 2be2 deba
00000040: 3fdf 9db9 c965 79b8 ce61 233a 776d 8f3a

exp_avg_sq f4 [20]
5.7506713e-06 0.00035126501 0.000100288 1.0101052e-05 0.00011808599 2.4086282e-06 0.00011506628 1.1701509e-05
4.319074e-06 1.4542676e-05 6.862069e-06 1.9311527e-05 1.4971103e-05 2.1733696e-05 0.00013934313 4.914763e-05
9.723234e-06 2.0190892e-05 5.192883e-06 5.025491e-05
00000000: e4f5 c036 fe29 b839 b651 d238 b077 2937
00000010: efa4 f738 eba3 2136 bd4f f138 9951 4437
00000020: 90ec 9036 51fc 7337 b940 e636 30ff a137
00000030: 662c 7b37 c250 b637 a31c 1239 de23 4e38
00000040: f920 2337 9c5f a937 863e ae36 ccc8 5238

exp_avg f4 [1, 20]
0.021752397 0.011460473 0.013264111 0.0036005992 0.009563032 -0.0012005295 0.0035456973 0.00042542955
0.006450116 0.006269321 -0.0019239541 0.0031328886 -0.0005914523 -0.00092805125 -0.0008247908 0.049880605
-0.0066069285 -0.0005171171 0.04650111 0.014677342
00000000: 1532 b23c b5c4 3b3c b751 593c 08f8 6b3b
00000010: 43ae 1c3c 165b 9dba ee5e 683b 300c df39
00000020: 7f5b d33b e06e cd3b 302d fcba 2651 4d3b
00000030: b10b 1bba 7748 73ba c636 58ba 9b4f 4c3d
00000040: ef7e d8bb 248f 07ba f377 3e3d 3c79 703c

exp_avg_sq f4 [1, 20]
0.019198542 0.0033625243 0.003352814 0.0005035807 0.0018933425 0.0069709574 0.008462023 0.0029578719
0.00095924584 0.00028272928 0.00501374 0.0035787516 0.008638735 0.00599962 0.0025270667 0.04368023
0.010052746 0.012399362 0.04864756 0.00369826
00000000: 4346 9d3c cc5d 5c3b e2ba 5b3b bb02 043a
00000010: 082a f83a a16c e43b 4ca4 0a3c dbd8 413b
00000020: e675 7b3a 483b 9439 4d4a a43b 7d89 6a3b
00000030: 7b89 0d3c 7698 c43b 259d 253b 0aea 323d
00000040: 46b4 243c b226 4b3c aa42 473d 825e 723b

exp_avg f4 [4, 20]
0.010188713 0.00047148514 0.00033713036 -0.00019214359 0.00022252325 0.00065959373 -0.0008646066 -0.0018568739
0.0015185388 -2.7071063e-05 0.00048278517 -0.0030321125 0.00075540977 0.0024911873 0.0002857258 0.009895042
-0.0005591716 0.0006197971 0.013604985 0.00044822053 0.01790274 0.0045789927 0.0029628999 0.0008081666
0.0037954133 -0.00053852744 0.0029267122 -0.0026548374 0.0024775788 0.0014988102 -0.00040314195 -0.0032721933
-0.00087052264 0.004762818 0.0015681223 0.02506043 -0.0006762434 -0.0008732623 0.028506363 0.003921507
-0.0139596565 -0.006034919 -0.008785249 -0.0029360098 -0.005192824 0.0011707954 -0.0014255308 -0.00066366605
-0.0039409567 -0.003230586 0.0015221924 -0.005008883 0.0012609785 -0.0017347828 -0.00039379453 -0.033528525
0.0008335854 0.0011801099 -0.028481014 -0.009777632 -0.014130939 0.0009854861 0.0054862043 0.0023204708
0.0011754547 -0.0012918778 -0.00063656026 0.005175531 -5.5059445e-05 0.0017591512 -0.0016019745 0.011313731
-0.0011459207 -0.0055193296 -0.0014600905 -0.0014235337 0.00040142256 -0.0009266246 -0.013628689 0.0054093264
00000000: 8fee 263c aa31 f739 dfc0 b039 277a 49b9
00000010: 2155 6939 96e8 2c3a c4a6 62ba 5962 f3ba
00000020: b509 c73a aa16 e3b7 541e fd39 68b6 46bb
00000030: b106 463a 3043 233b 78cd 9539 d01e 223c
00000040: 5f95 12ba e179 223a 71e7 5e3c 24ff ea39
00000050: c4a8 923c 600b 963b 362d 423b 24db 533a
00000060: 78bc 783b f72b 0dba 15ce 3f3b c8fc 2dbb
00000070: e05e 223b ba73 c43a cc5c d3b9 4b72 56bb
00000080: c933 64ba 6a11 9c3b 7489 cd3a 884b cd3c
00000090: ed45 31ba a4eb 64ba 2d86 e93c fc7f 803b
000000a0: 0bb7 64bc 92c0 c5bb 01f0 0fbc 126a 40bb
000000b0: 9128 aabb 6075 993a e0d8 baba e0f9 2dba
000000c0: 2423 81bb 3db8 53bb 4d84 c73a 8e21 a4bb
000000d0: 6b47 a53a a761 e3ba 3576 ceb9 3555 09bd
000000e0: f884 5a3a ebad 9a3a 0451 e9bc 5c32 20bc
000000f0: 7485 67bc 6d2b 813a 9ec5 b33b 0a13 183b
00000100: b711 9a3a 3a54 a9ba d6de 26ba 8097 a93b
00000110: a1ef 66b8 5293 e63a 58f9 d1ba 3a5d 393c
00000120: b832 96ba 7edb b4bb 8260 bfba dd95 baba
00000130: 0676 d239 b9e8 72ba dd4a 5fbc b840 b13b

exp_avg_sq f4 [4, 20]
0.003435848 0.00043463073 0.0004373587 6.888029e-05 0.0003173735 0.00030098777 0.0008200544 0.00021540164
0.00015205411 3.564729e-05 0.00028948658 0.0003796785 0.00037076624 0.0007581848 0.00024864805 0.007583843
0.0006564446 0.0005313243 0.008589082 0.0004766686 0.0031995275 0.0007442375 0.00070176215 0.000116908675
0.0003818661 0.0018714214 0.001812279 0.0007922419 0.00019383816 4.718063e-05 0.0013776601 0.00087293074
0.0022933271 0.0010338373 0.0005869139 0.0075163436 0.002408819 0.003310937 0.008149015 0.0007220052
0.0024509905 0.0007477584 0.00064510904 7.756703e-05 0.00030241942 0.0014769112 0.0015342704 0.0006034768
0.00011614444 4.0198905e-05 0.0011000647 0.00067207095 0.0018053869 0.0009706322 0.0005808861 0.0062358975
0.0023536955 0.002694796 0.006469752 0.00071380957 0.004477026 0.00085261674 0.00086671987 8.856441e-05
0.0003851785 0.0010402022 0.002085789 0.00044439966 0.00026523083 5.2852633e-05 0.0006965821 0.00075734494
0.0016683814 0.0014101512 0.00061770505 0.009897384 0.0026265855 0.002633974 0.011426186 0.000996659
00000000: f72b 613b 26df e339 4b4d e539 d373 9038
00000010: 2665 a639 e5cd 9d39 ebf8 563a 70dd 6139
00000020: b770 1f39 fc83 1538 3bc6 9739 960f c739
00000030: 6763 c239 ecc0 463a fa5c 8239 e381 f83b
00000040: 4015 2c3a 9248 0b3a 39b9 0c3c 60e9 f939
00000050: 2aaf 513b ef18 433a 76f6 373a de2c f538
00000060: 3335 c839 7b4a f53a fe89 ed3a 74ae 4f3a
00000070: 0941 4b39 d1e3 4538 9a92 b43a 64d5 643a
00000080: a54b 163b d381 873a 20db 193a a94b f63b
00000090: 47dd 1d3b 4efc 583b 7283 053c f344 3d3a
000000a0: cca0 203b 3705 443a 891c 293a 7bab a238
000000b0: 0c8e 9e39 eb94 c13a 9219 c93a a432 1e3a
000000c0: 9292 f338 3f9b 2838 0c30 903a eb2d 303a
000000d0: bba2 ec3a 0672 7e3a 9b46 183a 8056 cc3b
000000e0: 7540 1a3b 2d9b 303b 3700 d43b f31e 3b3a
000000f0: 04b4 923b 2482 5f3a 9634 633a a8bb b938
00000100: c8f1 c939 6557 883a bcb1 083b 50fe e839
00000110: ae0e 8b39 15ae 5d38 d59a 363a 8f88 463a
00000120: 97ad da3a d3d4 b83a 7ced 213a a328 223c
00000130: cb22 2c3b c09e 2c3b e634 3b3c 54a2 823a

exp_avg f4 [4]
0.00095627113 0.0035939948 -0.0065266746 0.0019764074
00000000: 45ae 7a3a 3a89 6b3b b7dd d5bb 9d86 013b

exp_avg_sq f4 [4]
0.00046021023 0.000687448 0.00058823626 0.0006710869
00000000: 5f48 f139 db35 343a de33 1a3a e1eb 2f3a

exp_avg f4 [3, 20]
0.0004124795 0.003308354 0.0001191754 0.00014722659 0.0033683707 -0.0009847939 0.007295892 4.2629574e-05
-0.0006354498 0.0008622489 -0.0009912994 -0.00021497496 -0.00054512493 0.0027457546 0.0026633649 0.0027106502
0.00042860935 -0.0007321144 0.002860159 -0.00015816528 -0.0039202254 -0.004251537 -0.008810289 -0.0033640899
-0.0050633443 0.0015552375 -0.0011989725 -0.00231715 -0.0033925234 -0.0035438284 0.002270717 -0.008033972
0.0009793265 0.0023424462 0.00026981474 -0.025863158 0.0014261262 0.00081798434 -0.015222769 -0.009246841
0.0035033429 0.0009407808 0.00868943 0.0032164229 0.0016931787 -0.00057041674 -0.006098616 0.002275442
0.0040274463 0.0026809194 -0.0012791739 0.008249511 -0.00043422316 -0.005089205 -0.0029338216 0.023144009
-0.0018542571 -8.591461e-05 0.012354485 0.0094028665
00000000: 1042 d839 f8d0 583b ceed f938 d660 1a39
00000010: e2bf 5c3b 3314 81ba 6112 ef3b 28cd 3238
00000020: 5094 26ba 8b08 623a 7dee 81ba e76a 61b9
00000030: b7e6 0eba 1ef2 333b d98b 2e3b 2aa5 313b
00000040: f9b6 e039 5eeb 3fba 8171 3b3b 2bd9 25b9
00000050: 3c75 80bb 7a50 8bbb 0859 10bc 1078 5cbb
00000060: 69ea a5bb 1cd9 cb3a d726 9dba 53db 17bb
00000070: 1955 5ebb 933f 68bb 4fd0 143b eca0 03bc
00000080: bf5c 803a ba83 193b ec75 8d39 f9de d3bc
00000090: dbec ba3a 006e 563a ec68 79bc 1080 17bc
000000a0: 5798 653b bb9e 763a 1c5e 0e3c 9fca 523b
000000b0: a6ed dd3a 0588 15ba e6d6 c7bb 951f 153b
000000c0: abf8 833b 5db2 2f3b f4a9 a7ba f528 073c
000000d0: 72a8 e3b9 59c3 a6bb 5c45 40bb 8198 bd3c
000000e0: 8b0a f3ba 0e2d b4b8 776a 4a3c 7b0e 1a3c

exp_avg_sq f4 [3, 20]
0.004365479 0.00073538173 0.00079959445 0.000108240216 0.00043064187 0.0015448679 0.0020904278 0.00062728085
0.0002587013 5.479907e-05 0.001088815 0.0007893991 0.0021414175 0.0013264682 0.00060399267 0.010095253
0.002878654 0.0032598237 0.011148902 0.0008737489 0.0023229446 0.00062323676 0.0007083044 0.00010011183
0.00027491353 0.0009492974 0.0007165197 0.00061168394 0.00018024826 4.64841e-05 0.00089662726 0.0008322942
0.00094074046 0.0004799753 0.00030646523 0.0062184916 0.000698668 0.0012247725 0.0066844923 0.0007983261
0.005108379 0.0009497803 0.0009767168 0.00012165119 0.00044379084 0.0014868985 0.0020550946 0.0006933862
0.00028751796 6.148604e-05 0.0011256217 0.00095955975 0.0020263388 0.0014852837 0.00068883767 0.011414751
0.0028785698 0.0031083948 0.013082075 0.0010718652
00000000: 4b0c 8f3b a2c6 403a e09b 513a 06ff e238
00000010: c6c7 e139 2a7d ca3a 8fff 083b 1b70 243a
00000020: 4da2 8739 0ed8 6538 92b6 8e3a adef 4e3a
00000030: 0657 0c3b e3dc ad3a 4355 1e3a 8f66 253c
00000040: cda7 3c3b c4a2 553b e2a9 363c 4c0c 653a
00000050: 8b3c 183b b660 233a 81ad 393a 21f3 d138
00000060: 4522 9039 45da 783a d3d4 3b3a 6a59 203a
00000070: 0601 3d39 ecf7 4238 a30b 6b3a 512e 5a3a
00000080: 069c 763a 32a5 fb39 11ad a039 7dc4 cb3b
00000090: d126 373a 8c88 a03a 9609 db3b c246 513a
000000a0: 3064 a73b adfa 783a 2d05 803a fc1e ff38
000000b0: 99ac e839 09e4 c23a c4ae 063b 5cc4 353a
000000c0: 02be 9639 11f2 8038 9989 933a f78a 7b3a
000000d0: 53cc 043b daad c23a 1d93 343a f004 3b3c
000000e0: 63a6 3c3b 36b6 4b3b 3356 563c d47d 8c3a

exp_avg f4 [3]
0.003522694 -0.0080229305 0.0045002373
00000000: 00dd 663b 9c72 03bc ba76 933b

exp_avg_sq f4 [3]
0.00073692703 0.00052224525 0.0007865285
00000000: 562e 413a 49e7 083a 092f 4e3a

exp_avg f4 [20, 128]
7.761889e-08 8.484887e-14 0.00053891185 1.3416668e-07 8.484887e-14 0.0005698512 1.5867775e-08 8.484887e-14
0.00064368197 -3.1721393e-07 1.5484711e-12 0.00044624793 -3.81428e-07 -4.2868514e-14 0.0005958204 -1.0191786e-06
1.5484711e-12 0.00053722446 -3.8142164e-07 -4.2868514e-14 0.0006180848 -1.0399607e-06 1.5484711e-12 0.0005412733
-5.218677e-07 -4.2868514e-14 0.0006889453 -1.0375302e-06 1.5484711e-12 0.00065817364 -4.57168e-07 -4.2868514e-14
0.00060398923 -5.8886985e-07 6.601961e-13 0.0007601618 -1.7325833e-07 -4.2868514e-14 0.000696325 -2.9492517e-10
6.601961e-13 0.00081944093 -1.7325813e-07 -4.2868514e-14 0.0006165838 -2.953842e-10 6.601961e-13 0.00080831035
-9.248255e-09 -4.2868514e-14 0.0007468833 -6.2872357e-07 6.601961e-13 0.00084501534 -9.249913e-09 2.9898488e-13
0.00082735793 -6.259981e-07 6.601961e-13 0.0008521093 -9.249913e-09 3.2120368e-13 0.0010189012 -6.259981e-07
6.601961e-13 0.0008600707 -9.249979e-09 3.2120368e-13 0.0009780352 -6.260015e-07 2.8802394e-13 0.00089057925
3.140128e-14 3.2120368e-13 0.00082850386 5.563685e-13 1.8747027e-12 0.00094878353 8.3476834e-13 3.2120368e-13
0.0010035348 5.142154e-30 1.8747027e-12 0.00093682634 1.991479e-39 3.2120368e-13 0.0010527201 3.806874e-13
1.8747027e-12 0.0009456066 3.070276e-12 3.2120368e-13 0.0011305198 -8.6211317e-13 1.8747027e-12 0.000876577
-4.3099117e-08 3.2120368e-13 0.0011608487 3.461787e-17 1.8747027e-12 0.0009708148 -4.3100396e-08 3.2120368e-13
0.0011871029 -6.198041e-13 1.8747027e-12 0.00087778457 -4.3100396e-08 2.627051e-13 0.0012751421 1.6718265e-17
1.8747027e-12 0.00085418497 -4.3100158e-08 2.627051e-13 0.0011816149 -7.157188e-13 2.1710498e-12 0.00083525456
3.3210476e-13 2.627051e-13 0.0012204811 0.03134046 -0.17932473 0.008142893 -0.00089183135 7.761889e-08
-3.0662328e-08 -4.3597453e-14 -0.0002537899 -5.097655e-08 -4.3597453e-14 -0.0002718495 -9.8795265e-09 -4.3597453e-14
-0.0003101614 1.1498316e-07 -8.31854e-13 -0.00021348441 1.2525065e-07 2.1347117e-14 -0.00028569193 3.4593435e-07
-8.31854e-13 -0.0002527439 1.2524757e-07 2.1347117e-14 -0.0002876484 3.5338203e-07 -8.31854e-13 -0.00025964202
1.7513948e-07 2.1347117e-14 -0.00032201764 3.5245912e-07 -8.31854e-13 -0.00031332835 1.5351998e-07 2.1347117e-14
-0.00028188122 1.8748435e-07 -3.584525e-13 -0.00036170124 6.191935e-08 2.1347117e-14 -0.00032400346 6.447747e-11
-3.584525e-13 -0.00039206492 6.191934e-08 2.1347117e-14 -0.00028083 6.471521e-11 -3.584525e-13 -0.00038449402
3.4023155e-09 2.1347117e-14 -0.00033983574 2.4377545e-07 -3.584525e-13 -0.00040394932 3.403216e-09 -1.5737882e-13
-0.00039097 2.4278822e-07 -3.584525e-13 -0.000412589 3.403216e-09 -1.6868332e-13 -0.00048660394 2.4278822e-07
-3.584525e-13 -0.00041513357 3.4032492e-09 -1.6868332e-13 -0.0004615763 2.4278995e-07 -1.6085093e-13 -0.00043515355
-1.748585e-14 -1.6868332e-13 -0.00039651516 -2.842302e-13 -9.970728e-13 -0.00046073386 -4.088905e-13 -1.6868332e-13
-0.00047370148 -2.2585565e-30 -9.970728e-13 -0.00045358684 1.02508e-40 -1.6868332e-13 -0.00049095275 -2.3197774e-13
-9.970728e-13 -0.00045771437 -1.5844846e-12 -1.6868332e-13 -0.0005306676 5.129433e-13 -9.970728e-13 -0.0004228696
1.6469091e-08 -1.6868332e-13 -0.0005614432 -1.0552948e-17 -9.970728e-13 -0.0004677302 1.6469734e-08 -1.6868332e-13
-0.0005780817 3.5357554e-13 -9.970728e-13 -0.00042937376 1.6469734e-08 -1.3880229e-13 -0.0006231631 -7.120892e-18
-9.970728e-13 -0.00041975157 1.646963e-08 -1.3880229e-13 -0.0005748058 4.1097724e-13 -1.1514429e-12 -0.0004201929
-1.6240976e-13 -1.3880229e-13 -0.00059008715 -0.013965279 0.08814114 -0.003996416 0.00071744487 -3.0662328e-08
00000000: 70af a633 0b10 bf29 c345 0d3a 750f 1034
00000010: 0b10 bf29 1162 153a 9b4d 8832 0b10 bf29
00000020: c4bc 283a 8d4d aab4 8ded d92b 62f6 e939
00000030: 11c7 ccb4 0810 41a9 d530 1c3a b6ca 88b5
00000040: 8ded d92b 86d4 0c3a 31c6 ccb4 0810 41a9
00000050: f806 223a c794 8bb5 8ded d92b 3ce4 0d3a
00000060: 7a16 0cb5 0810 41a9 569a 343a 4441 8bb5
00000070: 8ded d92b 4989 2c3a b170 f5b4 0810 41a9
00000080: 0855 1e3a d412 1eb5 24d4 392b 9845 473a
00000090: e308 3ab4 0810 41a9 9489 363a 0723 a2af
000000a0: 24d4 392b c0cf 563a d508 3ab4 0810 41a9
000000b0: 3da2 213a a163 a2af 24d4 392b cae4 533a
000000c0: 41e2 1eb2 0810 41a9 7dca 433a 8ec5 28b5
000000d0: 24d4 392b 0584 5d3a 8ce9 1eb2 4350 a82a
000000e0: 0de3 583a 430a 28b5 24d4 392b 1660 5f3a
000000f0: 8ce9 1eb2 54d2 b42a a78c 853a 430a 28b5
00000100: 24d4 392b 5e76 613a d6e9 1eb2 54d2 b42a
00000110: 6a31 803a 7f0a 28b5 a024 a22a c375 693a
00000120: 366b 0d29 54d2 b42a f42f 593a 939a 1c2b
00000130: a4eb 032c c9b7 783a 66f7 6a2b 54d2 b42a
00000140: 0a89 833a 2e97 d00e a4eb 032c 5a95 753a
00000150: 6faf 1500 54d2 b42a 6dfb 893a d64e d62a
00000160: a4eb 032c 96e2 773a 2d0d 582c 54d2 b42a
00000170: f32d 943a cda9 72ab a4eb 032c 16ca 653a
00000180: fb1b 39b3 54d2 b42a 9e27 983a 91a5 1f24
00000190: a4eb 032c 477e 7e3a 631d 39b3 54d2 b42a
000001a0: 9098 9b3a 9875 2eab a4eb 032c 201b 663a
000001b0: 631d 39b3 cbe3 932a ab22 a73a e332 9a23
000001c0: a4eb 032c 62eb 5f3a 201d 39b3 cbe3 932a
000001d0: 6be0 9a3a fa74 49ab 28c6 182c fcf4 5a3a
000001e0: 57f5 ba2a cbe3 932a 8df8 9f3a db5e 003d
000001f0: e7a0 37be c569 053c cac9 69ba 70af a633
00000200: 96b1 03b3 7158 44a9 1b0f 85b9 4ff1 5ab3
00000210: 7158 44a9 0687 8eb9 9eba 29b2 7158 44a9
00000220: 299d a2b9 a9ec f633 6625 6aab c9da 5fb9
00000230: a37c 0634 1a47 c028 ecc8 95b9 dbb8 b934
00000240: 6625 6aab b682 84b9 ca7b 0634 1a47 c028
00000250: 84cf 96b9 75b8 bd34 6625 6aab 9020 88b9
00000260: f90d 3c34 1a47 c028 7ad4 a8b9 9d39 bd34
00000270: 6625 6aab 3846 a4b9 40d7 2434 1a47 c028
00000280: 75c9 93b9 4e4f 4934 73ca c9aa b8a2 bdb9
00000290: 86f8 8433 1a47 c028 02df a9b9 97c9 8d2e
000002a0: 73ca c9aa 108e cdb9 84f8 8433 1a47 c028
000002b0: 5d3c 93b9 6d4f 8e2e 73ca c9aa ea95 c9b9
000002c0: 2bce 6931 1a47 c028 fb2b b2b9 3ee0 8234
000002d0: 73ca c9aa 29c9 d3b9 02de 6931 5b31 31aa
000002e0: 1bfb ccb9 8f58 8234 73ca c9aa c250 d8b9
000002f0: 02de 6931 a8eb 3daa e01e ffb9 8f58 8234
00000300: 73ca c9aa 49a6 d9b9 98de 6931 a8eb 3daa
00000310: b9ff f1b9 cc58 8234 201a 35aa 5225 e4b9
00000320: a07f 9da8 a8eb 3daa 5de3 cfb9 e401 a0aa
00000330: 5553 8cab a78e f1b9 552f e6aa a8eb 3daa
00000340: 235b f8b9 623c 378e 5553 8cab 65cf edb9
00000350: c01d 0100 a8eb 3daa 48b3 00ba 8497 82aa
00000360: 5553 8cab 62f9 efb9 13ff deab a8eb 3daa
00000370: 801c 0bba 7661 102b 5553 8cab 99b4 ddb9
00000380: ea77 8d32 a8eb 3daa d12d 13ba e3aa 42a3
00000390: 5553 8cab af39 f5b9 5479 8d32 a8eb 3daa
000003a0: 688a 17ba 9b0b c72a 5553 8cab 921d e1b9
000003b0: 5479 8d32 0947 1caa c55b 23ba 765b 03a3
000003c0: 5553 8cab 1a12 dcb9 1979 8d32 0947 1caa
000003d0: 90ae 16ba 105c e72a 1a0d a2ab 564d dcb9
000003e0: 6ddb 36aa 0947 1caa 14b0 1aba a0ce 64bc
000003f0: 5883 b43d 5ef4 82bb e912 3c3a 96b1 03b3

exp_avg_sq f4 [20, 128]
0.0008262252 2.5594547e-05 9.7184515e-05 0.00069788273 2.5615804e-05 9.822036e-05 0.0008623778 2.7344611e-05
9.5685224e-05 0.000825736 2.5774489e-05 9.10229e-05 0.00087505026 2.7150149e-05 8.9998466e-05 0.0009695373
2.5774489e-05 8.702801e-05 0.00087179313 2.7150161e-05 8.6338616e-05 0.0009483965 2.5774489e-05 8.917062e-05
0.00084472913 2.7150161e-05 8.37277e-05 0.0009178898 2.6373991e-05 9.415587e-05 0.0007221631 2.7150161e-05
8.3959516e-05 0.00071737415 2.6654829e-05 0.0001047476 0.0005339034 2.7166765e-05 8.622165e-05 0.00044807672
2.5261652e-05 0.00011465175 0.00043652236 2.7324091e-05 8.750463e-05 0.00031126998 2.098806e-05 0.00011466845
0.000299151 2.7324091e-05 9.080655e-05 0.00040595853 1.5594323e-05 0.00010233168 0.00022854291 2.691077e-05
9.1679925e-05 0.0003529591 1.5613496e-05 0.000103978164 0.00019372771 2.6820842e-05 8.9077956e-05 0.00030722324
1.5613496e-05 0.00010660422 0.00012282573 2.7219981e-05 8.972331e-05 0.0002614504 1.5736336e-05 0.00010323058
0.000107995686 2.721998e-05 9.240684e-05 0.0001287281 1.6361359e-05 0.00010980889 0.000107987544 2.721998e-05
9.021731e-05 0.0001248946 2.156301e-05 0.00011485261 9.386237e-05 2.721998e-05 8.890782e-05 0.00012216314
1.8752866e-05 0.000113740796 9.558192e-05 2.721998e-05 8.9298905e-05 9.025599e-05 1.765151e-05 0.000114805254
9.584543e-05 2.7217075e-05 8.8293105e-05 8.95686e-05 1.7235454e-05 0.00011471933 9.105619e-05 2.7217075e-05
8.807885e-05 8.847783e-05 1.7235454e-05 0.00011758717 9.24216e-05 2.7147169e-05 8.828455e-05 8.13113e-05
1.7235454e-05 0.00011668275 9.10285e-05 2.7138993e-05 8.867723e-05 7.680948e-05 1.7224656e-05 0.000118772674
8.322351e-05 2.7138818e-05 8.935879e-05 0.7169406 1.0022826 0.0005395786 0.001379226 0.0008262252
3.0061829e-05 3.5400973e-07 7.140998e-06 1.934338e-05 3.543365e-07 6.9834896e-06 2.9164385e-05 3.565529e-07
7.174832e-06 3.320328e-05 4.0598107e-07 6.065251e-06 3.8905102e-05 3.0660433e-07 6.5517947e-06 6.188243e-05
4.0598107e-07 5.3162285e-06 4.2640226e-05 3.0660433e-07 5.76606e-06 6.266963e-05 4.0598107e-07 5.22634e-06
4.6867906e-05 3.0660433e-07 5.4263596e-06 6.131722e-05 4.0696773e-07 5.6805884e-06 3.6785965e-05 3.0660433e-07
5.461158e-06 5.0618535e-05 4.85851e-07 6.6365274e-06 2.8430706e-05 3.0660465e-07 5.822927e-06 1.8124954e-05
4.8294015e-07 7.774212e-06 2.669624e-05 3.0573761e-07 5.623934e-06 1.302746e-05 4.743739e-07 7.6756405e-06
1.1895768e-05 3.0573761e-07 6.110688e-06 2.6043252e-05 4.710839e-07 6.5896083e-06 5.6936587e-06 1.9257712e-07
5.936076e-06 2.4341742e-05 4.7107847e-07 6.5174245e-06 3.459964e-06 1.6900516e-07 5.6945796e-06 2.2202932e-05
4.7107847e-07 6.6060416e-06 3.0637239e-06 1.6803506e-07 5.3035596e-06 2.2778107e-05 5.0521567e-07 6.256613e-06
2.7163696e-06 1.6618583e-07 5.584916e-06 3.4753039e-06 6.775042e-07 7.2483867e-06 2.337867e-06 1.6618583e-07
5.2829578e-06 3.4146901e-06 6.779738e-07 7.2738485e-06 1.9194388e-06 1.6618583e-07 4.89353e-06 2.8274462e-06
6.714988e-07 7.4365907e-06 2.858243e-06 1.6618583e-07 4.92622e-06 1.1813034e-06 6.691147e-07 7.803736e-06
3.3827623e-06 1.6618567e-07 4.910397e-06 8.5229624e-07 6.685824e-07 7.854437e-06 2.3723e-06 1.6619167e-07
4.7451317e-06 7.580688e-07 6.685824e-07 8.012451e-06 2.5264967e-06 1.4837522e-07 4.65358e-06 6.2634405e-07
6.685811e-07 8.1634225e-06 2.5682868e-06 1.483751e-07 4.4778053e-06 1.2542719e-06 6.655417e-07 8.687256e-06
2.170864e-06 1.475211e-07 4.4354956e-06 0.044131156 0.11364408 5.7459736e-05 0.0001004325 3.0061829e-05
00000000: 0997 583a dfb3 d637 8acf cb38 1ef2 363a
00000010: 85e1 d637 a7fb cd38 3211 623a 1b62 e537
00000020: 9daa c838 3476 583a 4b36 d837 8ce3 be38
00000030: a163 653a 80c0 e337 8fbd bc38 8c28 7e3a
00000040: 4b36 d837 cf82 b638 0c89 643a 87c0 e337
00000050: b110 b538 d09d 783a 4b36 d837 1d01 bb38
00000060: d070 5d3a 87c0 e337 f796 af38 8b9e 703a
00000070: b73d dd37 8c75 c538 8c4f 3d3a 87c0 e337
00000080: 6c13 b038 2a0e 3c3a cf98 df37 f1ab db38
00000090: a7f5 0b3a 2fe4 e337 e5d1 b438 d7eb ea39
000000a0: fce8 d337 3171 f038 0add e439 0a36 e537
000000b0: b182 b738 f331 a339 840f b037 287a f038
000000c0: 5ed7 9c39 0a36 e537 656f be38 d5d6 d439
000000d0: 8ed0 8237 e79a d638 05a5 6f39 70be e137
000000e0: 4944 c038 5e0d b939 baf9 8237 da0e da38
000000f0: 6323 4b39 52fd e037 5dcf ba38 ce12 a139
00000100: baf9 8237 b490 df38 c8ca 0039 7756 e437
00000110: d629 bc38 4713 8939 8601 8437 7f7d d838
00000120: be7b e238 7656 e437 8bca c138 30fb 0639
00000130: c03f 8937 3349 e638 5f77 e238 7656 e437
00000140: 0d33 bd38 24f6 0239 36e2 b437 07dd f038
00000150: fad7 c438 7656 e437 0674 ba38 eb18 0039
00000160: 794f 9d37 2088 ee38 2773 c838 7656 e437
00000170: fc45 bb38 d147 bd38 5412 9437 9ac3 f038
00000180: a000 c938 3950 e437 002a b938 c7d6 bb38
00000190: db94 9037 7995 f038 6bf5 be38 3950 e437
000001a0: f9b6 b838 2c8d b938 db94 9037 2299 f638
000001b0: 78d2 c138 1aba e337 6825 b938 ac85 aa38
000001c0: db94 9037 93b3 f438 8ee6 be38 8ba8 e337
000001d0: 3af8 b938 c714 a138 ab7d 9037 9815 f938
000001e0: 4888 ae38 2ba8 e337 2366 bb38 6b89 373f
000001f0: cc4a 803f 8272 0d3a 25c7 b43a 0997 583a
00000200: 492d fc37 ba0e be34 b59c ef36 9843 a237
00000210: a33b be34 b853 ea36 0aa6 f437 426c bf34
00000220: 56bf f036 c043 0b38 9df5 d934 1c84 cb36
00000230: 092e 2338 619b a434 7dd7 db36 e0c6 8138
00000240: 9df5 d934 0e62 b236 98d8 3238 619b a434
00000250: 147a c136 806d 8338 9df5 d934 eb5d af36
00000260: 0894 4438 619b a434 1314 b636 6f97 8038
00000270: 387d da34 e29b be36 a14a 1a38 619b a434
00000280: fd3e b736 3d4f 5438 6d6b 0235 56af de36
00000290: 7a7e ee37 6c9b a434 9062 c336 0b0b 9837
000002a0: 65a3 0135 fc6d 0237 bdf1 df37 4224 a434
000002b0: 3ab5 bc36 8490 5a37 74ad fe34 a0c6 0037
000002c0: ef93 4737 4224 a434 690a cd36 7577 da37
000002d0: 47e9 fc34 4e1c dd36 280c bf36 32c7 4e34
000002e0: 812e c736 7e31 cc37 88e8 fc34 40b0 da36
000002f0: bb31 6836 c977 3534 1114 bf36 6f40 ba37
00000300: 88e8 fc34 77a9 dd36 609a 4d36 206d 3434
00000310: 3bf5 b136 9d13 bf37 289e 0735 e5ef d136
00000320: e04a 3636 d070 3234 1066 bb36 4439 6936
00000330: bcdd 3535 2b37 f336 40e4 1c36 d070 3234
00000340: 4344 b136 ee27 6536 01fe 3535 e211 f436
00000350: b5cf 0036 d070 3234 1a33 a436 28bf 3d36
00000360: 0c41 3435 d487 f936 3ed0 3f36 d070 3234
00000370: e84b a536 478d 9e35 369d 3335 caec 0237
00000380: 6a03 6336 c570 3234 fdc3 a436 5ac9 6435
00000390: a278 3335 8dc6 0337 ce33 1f36 6b72 3234
000003a0: 5f38 9f36 177e 4b35 a278 3335 376d 0637
000003b0: e28c 2936 1251 1f34 f325 9c36 0922 2835
000003c0: 8b78 3335 a2f5 0837 d55a 2c36 0951 1f34
000003d0: 0e40 9636 7458 a835 ada7 3235 7bbf 1137
000003e0: 29af 1136 4b66 1e34 9ed4 9436 dfc2 343d
000003f0: 3abe e83d ec00 7138 4a9f d238 492d fc37

exp_avg f4 [20]
0.008140537 -0.0039961473 -0.00036326575 0.0031563558 -0.00017680663 -0.005132237 -0.004353404 -0.0018622596
-0.006628606 0.0005456685 -0.0029679907 -0.0030932892 0.0040850355 -0.0065616127 -0.0002633716 -0.008440043
0.0034225855 0.00351528 -0.0031291791 -6.884756e-06
00000000: e35f 053c 1df2 82bb b474 beb9 ddda 4e3b
00000010: 2b65 39b9 532c a8bb 00a7 8ebb 1017 f4ba
00000020: c734 d9bb 310b 0f3a 9f82 42bb c8b8 4abb
00000030: c3db 853b cc02 d7bb 2315 8ab9 1b48 0abc
00000040: 754d 603b 9d60 663b ea12 4dbb 9b03 e7b6

exp_avg_sq f4 [20]
0.004114961 0.00033142752 0.00011700099 0.002504004 4.8291782e-05 0.00059900974 0.00050021603 6.756175e-05
0.0015137169 0.00037380992 0.00029436505 0.00089856336 0.001942519 0.0012119776 9.3956885e-05 0.0019054184
0.00057834375 0.0006683843 0.00032895562 0.00032756003
00000000: cbd6 863b 73c3 ad39 6e5e f538 371a 243b
00000010: e88c 4a38 dd06 1d3a ee20 033a f0af 8d38
00000020: e967 c63a ebfb c339 0255 9a39 918d 6b3a
00000030: 1f9c fe3a 38db 9e3a b80a c538 3bbf f93a
00000040: fe9b 173a 8336 2f3a ad77 ac39 5dbc ab39

exp_avg f4 [1, 20]
0.017388422 0.022762602 -0.0025579708 0.0024711436 -0.0024356318 0.009224443 0.004927617 0.019640164
0.0064598047 -0.0003505002 0.010400538 -0.00036270285 0.008585721 0.017676182 -0.0024229314 0.00869731
0.0329501 0.04294053 0.006973394 -0.002069222
00000000: 2a72 8e3c a378 ba3c a1a3 27bb e9f2 213b
00000010: 1f9f 1fbb 1e22 173c d977 a13b 69e4 a03c
00000020: c5ac d33b 57c3 b7b9 0567 2a3c 2729 beb9
00000030: 20ab 0c3c a4cd 903c 0bca 1ebb 2a7f 0e3c
00000040: aff6 063d 69e2 2f3d 1281 e43b c99b 07bb

exp_avg_sq f4 [1, 20]
0.05678263 0.0069759274 0.0008979915 0.060979374 0.0031259502 0.0023849413 0.0013389329 0.007252119
0.0028269396 0.051714037 0.019377287 0.004374007 0.04808435 0.025467364 0.005927349 0.0018759066
0.07776426 0.07500616 0.01297869 0.11414885
00000000: e794 683d 5296 e43b 3067 6b3a 82c5 793d
00000010: bedc 4c3b ad4c 1c3b 227f af3a 2fa3 ed3b
00000020: 2d44 393b 19d2 533d 1ebd 9e3c d553 8f3b
00000030: 18f4 443d efa0 d03c 353a c23b fbe0 f53a
00000040: de42 9f3d d49c 993d 92a4 543c dfc6 e93d
