config/ppo/results/RayShoot0605/Shooting/Shooting-21989.onnx (onnx, 13927 bytes, 7 tensors)

action_model._discrete_distribution.branches.0.bias f4 [3]
0.00911635 -0.023814838 0.0071957777
00000000: be5c 153c 5617 c3bc 8fca eb3b

action_model._discrete_distribution.branches.0.weight f4 [3, 20]
0.028450929 0.018243212 0.020438619 -0.0095606195 0.027049076 -0.014820821 0.01008153 -0.00151744
0.009928468 0.015950115 0.01749328 -0.0022640957 -0.042247068 -0.010932524 -0.018874113 0.0021414387
0.02163046 0.0040072165 0.0021128613 -0.045552418 -0.01592528 -0.023932157 0.027119452 0.013617831
0.0007834853 0.011718763 -0.036773786 -0.04340184 -0.035814565 -0.028415022 -0.022918819 -0.012858497
0.09704332 0.00792692 0.009251573 -0.025193524 0.015527706 0.01517127 -0.025969364 0.0034325018
-0.041717116 0.033447914 0.010457157 -0.049673103 0.04490409 0.0033307252 0.0077376245 0.015112921
-0.007895457 0.003612999 0.010644225 -0.028763764 -0.04596653 -0.012439476 0.000868751 -0.013778206
0.022712493 0.00073672086 0.018454514 -0.02455795
00000000: ec11 e93c ca72 953c e46e a73c 25a4 1cbc
00000010: 0696 dd3c 07d3 72bc 002d 253c d6e4 c6ba
00000020: 03ab 223c d1a9 823c 114e 8f3c 3961 14bb
00000030: 430b 2dbd 541e 33bc e29d 9abc 6157 0c3b
00000040: 5d32 b13c f84e 833b ee77 0a3b 2c95 3abd
00000050: bc75 82bc 5f0d c4bc 9d29 de3c 531d 5f3c
00000060: cf62 4d3a 0e00 403c 1ca0 16bd 21c6 31bd
00000070: 4bb2 12bd 9fc6 e8bc 3fc0 bbbc 72ac 52bc
00000080: a6be c63d eadf 013c e993 173c a662 cebc
00000090: eb67 7e3c eb90 783c b4bd d4bc d3f3 603b
000000a0: 91df 2abd ae00 093d 7f54 2b3c 0676 4bbd
000000b0: 5aed 373d 4c48 5a3b e68b fd3b 2f9c 773c
000000c0: f25b 01bc 11c8 6c3b 1e65 2e3c fca1 ebbc
000000d0: 6647 3cbd f2ce 4bbc e5bc 633a fcbd 61bc
000000e0: 8d0f ba3c 8020 413a ec2d 973c c12d c9bc

action_model._discrete_distribution.branches.1.bias f4 [3]
-0.007707046 -0.00622048 0.00888881
00000000: 638b fcbb 2bd5 cbbb 5fa2 113c

action_model._discrete_distribution.branches.1.weight f4 [3, 20]
-0.0077609955 0.023047412 -0.016832734 0.009101956 0.004645652 0.082222514 0.033625595 0.017529344
-0.0044997744 -0.0050392547 -0.018587058 0.016128989 -0.00091096247 -0.021594264 0.023961239 0.0011753842
0.04402752 0.040068764 -0.0072375718 0.008466121 -0.08688282 -0.014986549 0.02213537 0.025265494
-0.043495923 -0.05427023 0.035983916 -0.04576046 -0.05810367 -0.0013357961 -0.029026104 -0.07287171
-0.028178062 -0.042687885 0.010883507 0.0071086925 0.025207002 -0.0017351531 -0.06950471 0.03265793
0.011776784 0.0028791754 0.014466558 0.019789498 0.034662385 0.0186234 0.000519664 0.055584636
-0.015683703 0.027873566 -0.031185895 -0.017458163 0.014065781 0.024256386 0.021682288 -0.023725277
0.011175944 -0.016364118 0.034465685 0.0167106
00000000: f34f febb edcd bc3c cde4 89bc 5f20 153c
00000010: 8e3a 983b 4764 a83d feba 093d b399 8f3c
00000020: d872 93bb 5520 a5bb e343 98bc f120 843c
00000030: a8cd 6eba 74e6 b0bc 5c4a c43c 590f 9a3a
00000040: 3356 343d 251f 243d 2729 edbb 7cb5 0a3c
00000050: 9fef b1bd 248a 75bc 3c55 b53c 95f9 ce3c
00000060: c828 32bd 764a 5ebd df63 133d 526f 3bbd
00000070: 1dfe 6dbd e115 afba 27c8 edbc c33d 95bd
00000080: aed5 e6bc 7ed9 2ebd bd50 323c 09f0 e83b
00000090: ea7e ce3c 146e e3ba 7c58 8ebd 52c4 053d
000000a0: 6af3 403c 8cb0 3c3b 2405 6d3c 961d a23c
000000b0: 25fa 0d3d 1a90 983c 103a 083a b7ac 633d
000000c0: 1c7b 80bc 1b57 e43c 9079 ffbc 6c04 8fbc
000000d0: 2974 663c 54b5 c63c 0e9f b13c 835b c2bc
000000e0: 4e1b 373c 0b0e 86bc e42b 0d3d abe4 883c

discrete_action_output_shape f4 [1, 2]
3.0 3.0
00000000: 0000 4040 0000 4040

network_body._body_endoder.seq_layers.0.bias f4 [20]
0.027692307 -0.012228754 -0.003354609 -0.012589159 0.029958352 0.024246352 0.008312919 0.033561382
0.021102378 0.010777926 -0.0112521695 0.011549425 0.019527866 -0.003470154 -0.024759224 -0.018890228
-0.016252136 -0.0076626516 0.03568536 -0.016951624
00000000: fada e23c 1d5b 48bc 00d9 5bbb c342 4ebc
00000010: 386b f53c 49a0 c63c e932 083c a977 093d
00000020: e5de ac3c e695 303c 055b 38bc cd39 3d3c
00000030: e7f8 9f3c 866b 63bb dbd3 cabc aebf 9abc
00000040: 3323 85bc fb16 fbbb d02a 123d 22de 8abc

network_body._body_endoder.seq_layers.0.weight f4 [20, 133]
-0.096032515 0.0053066304 -0.16357362 -0.08800269 0.052755997 -0.02517829 -0.10454383 0.0072345654
0.024178993 0.07712797 0.068047956 -0.124330275 -0.15332995 -0.017116815 -0.07549158 -0.07080604
-0.058240294 0.012890538 0.024984937 -0.017243447 0.006446563 -0.07497278 0.15812966 -0.033548925
-0.0030040715 0.033271585 0.024094822 0.044164293 -0.13966312 -0.1660125 -0.06700257 0.01364884
0.06540487 0.06044687 0.14653455 -0.062411953 0.24742118 0.04542347 0.020368775 -0.008490825
0.13204783 0.08437107 0.020850394 -0.09319487 0.13941357 -0.028413342 -0.12580964 -0.043143272
0.118733466 -0.004859713 0.08495834 0.0060928287 0.107491314 0.11489105 0.22061731 -0.0372288
-0.024792243 0.025862383 -0.019408314 -0.054405853 -0.027256032 -0.048478875 0.009360347 0.049476225
-0.08124147 -0.039569635 -0.19685583 0.0025956375 0.15825741 0.049860537 0.0907863 0.0006652859
0.019227302 -0.03536195 0.12663469 0.078980565 0.17724317 0.11097093 -0.028167756 0.042664416
-0.023380386 0.031876493 -0.068770796 0.07606373 -0.009393893 -0.11794739 -0.0030472886 0.053652707
0.014023977 0.030213403 0.085293464 0.07203937 0.027564282 -0.066662885 -0.063755654 0.29440343
-0.122547105 -0.099093676 0.099452466 -0.04466521 -0.082939126 0.029713525 -0.039875213 -0.11266576
0.11087551 0.14594232 -0.023129309 0.1340532 -0.0726946 0.014573559 0.09247707 0.1587836
0.116028346 0.027659021 0.042190846 0.014354844 -0.057445034 0.113065995 -0.026626222 -0.03747736
0.13159463 0.031577412 0.029816968 0.030978061 -0.019564284 0.0080444375 0.17230207 0.021244818
0.009759865 0.008133081 0.148417 0.16482145 -0.015308359 -0.06397689 -0.2281579 0.05273409
0.054176085 -0.19673987 -0.083573155 -0.07589457 0.07753777 -0.006532699 -0.17121789 -0.106482
-0.06262803 0.042164788 0.01182596 0.022040525 0.0064718476 0.026880572 0.047332466 0.057095114
0.04302952 0.07719988 -0.07822691 -0.10890391 -0.030852932 0.07120565 0.06524409 -0.111862354
-0.03696281 0.023328224 -0.013804794 0.11357151 0.034634262 0.06518072 -0.043095052 -0.09075869
-0.020858811 0.02095209 -0.100448504 0.118751936 -0.023742897 0.03838025 0.04665578 0.04755761
0.056351572 0.006162696 0.07700592 -0.032373905 0.07403348 0.03936943 -0.013014648 -0.07298692
-0.052941255 0.020746704 -0.05650462 0.13335104 -0.09217663 -0.14753416 0.08762281 -0.08718906
0.10565158 -0.01728399 -0.11352023 0.0117506115 0.13472767 0.05725392 0.030295739 -0.11844433
0.012887449 0.026606325 0.09765157 -0.12953077 -0.0036138229 -0.08744792 -0.03208705 0.1375636
0.07117735 0.015034848 0.062183734 -0.16413912 -0.04374537 -0.1006216 -0.02324273 -0.0035813276
-0.028261673 -0.07306865 -0.108495235 0.18377085 0.12103686 0.030438453 -0.09559506 -0.06844926
-0.022990506 -0.068821356 0.009514608 -0.031022552 0.039451145 0.046853736 0.17134474 0.13244742
0.022918815 0.08765177 0.08602168 -0.039975878 0.030155899 -0.005209092 0.050471235 -0.02993977
-0.21354727 -0.086769044 -0.09635531 0.0101488875 0.14764068 -0.09558178 0.014933498 0.09594102
0.05323264 0.0073975693 -0.016981088 -0.08959286 -0.041807096 0.1461739 -0.08762607 -0.073789425
00000000: b2ac c4bd 3ee3 ad3b d87f 27be c13a b4bd
00000010: ac16 583d b442 cebc 131b d6bd ef0f ed3b
00000020: 0613 c63c 45f5 9d3d ba5c 8b3d dfa0 febd
00000030: 8702 1dbe 9038 8cbc 549b 9abd c202 91bd
00000040: 608d 6ebd d632 533c 36ad cc3c 2142 8dbc
00000050: b13d d33b 548b 99bd beec 213e 996a 09bd
00000060: f5df 44bb c947 083d 8162 c53c 9ee5 343d
00000070: d903 0fbe 2eff 29be a538 89bd 629f 5f3c
00000080: fdf2 853d 2397 773d 270d 163e ada3 7fbd
00000090: fa5b 7d3e f60d 3a3d 6bdc a63c 1a1d 0bbc
000000a0: 8c37 073e bdca ac3d 72ce aa3c f4dc bebd
000000b0: 6ec2 0e3e 19c3 e8bc 3ed4 00be 00b7 30bd
000000c0: 882a f33d 3a3e 9fbb a3fe ad3d 5aa6 c73b
000000d0: 6824 dc3d 004c eb3d 81e9 613e 3a7d 18bd
000000e0: 1a19 cbbc 59dd d33c 2ffe 9ebc acd8 5ebd
000000f0: 0b48 dfbc c991 46bd 245c 193c 95a7 4a3d
00000100: ee61 a6bd c513 22bd 9394 49be 921b 2a3b
00000110: 3b0e 223e 903a 4c3d 2bee b93d 9566 2e3a
00000120: 9382 9d3c b1d7 10bd 86ac 013e 90c0 a13d
00000130: 3c7f 353e ba44 e33d 11c0 e6bc e2c0 2e3d
00000140: 3988 bfbc ed90 023d b4d7 8cbd 4dc7 9b3d
00000150: d8e8 19bc 678e f1bd 05b5 47bb f1c2 5b3d
00000160: d3c4 653c 1982 f73c 57ae ae3d 6189 933d
00000170: 7dce e13c 8d86 88bd 5392 82bd 0cbc 963e
00000180: faf9 fabd a0f1 cabd bcad cb3d def2 36bd
00000190: fddb a9bd c769 f33c 3154 23bd 4ebd e6bd
000001a0: b312 e33d e771 153e ad79 bdbc 3e45 093e
000001b0: e8e0 94bd f0c5 6e3c 9e64 bd3d 2b98 223e
000001c0: 45a0 ed3d 2c95 e23c 4fd0 2c3d 9430 6b3c
000001d0: 7c4b 6bbd 258f e73d 3c1f dabc dc81 19bd
000001e0: bec0 063e 5157 013d b742 f43c b4c5 fd3c
000001f0: 4745 a0bc d1cc 033c f46f 303e 9d09 ae3c
00000200: d7e7 1f3c 9d40 053c a0fa 173e f4c6 283e
00000210: e9cf 7abc 5106 83bd 39a2 69be b3ff 573d
00000220: bee7 5d3d 2d76 49be 6728 abbd 9d6e 9bbd
00000230: 1fcc 9e3d 4010 d6bb be53 2fbe 3c13 dabd
00000240: 2043 80bd fcb4 2c3d acc1 413c 558e b43c
00000250: cb11 d43b a534 dc3c b0df 413d 91dc 693d
00000260: b93f 303d f81a 9e3d 6e35 a0bd 0309 dfbd
00000270: 4abf fcbc 45d4 913d b29e 853d 1718 e5bd
00000280: 5166 17bd d51a bf3c 812d 62bc 2e98 e83d
00000290: a8dc 0d3d 787d 853d 7084 30bd b1df b9bd
000002a0: 19e0 aabc b8a3 ab3c f2b7 cdbd 3734 f33d
000002b0: 7780 c2bc 9c34 1d3d 221a 3f3d c5cb 423d
000002c0: e8d0 663d 71f0 c93b 48b5 9d3d 809a 04bd
000002d0: dd9e 973d d741 213d 643b 55bc 2b7a 95bd
000002e0: eed8 58bd fef4 a93c 6371 67bd 2d8d 083e
000002f0: 1ac7 bcbd 3213 17be 9673 b33d 2e90 b2bd
00000300: db5f d83d 2797 8dbc 4b7d e8bd a385 403c
00000310: 0df6 093e 1683 6a3d c52e f83c f192 f2bd
00000320: e125 533c 82f5 d93c 8cfd c73d b7a3 04be
00000330: e3d5 6cbb e517 b3bd b66d 03bd 79dd 0c3e
00000340: 6ec5 913d b954 763c 5fb4 7e3d 1614 28be
00000350: 582e 33bd b312 cebd 8a67 bebc b5b4 6abb
00000360: 0685 e7bc 04a5 95bd c032 debd 6d2e 3c3e
00000370: 2ce2 f73d 105a f93c 58c7 c3bd 202f 8cbd
00000380: 9656 bcbc 36f2 8cbd 29e3 1b3c 0223 febc
00000390: 8697 213d b4e9 3f3d ff74 2f3e 4ca0 073e
000003a0: 3dc0 bb3c c582 b33d 222c b03d bfbd 23bd
000003b0: 8109 f73c 08b1 aabb edba 4e3d 4044 f5bc
000003c0: 23ac 5abe f8b3 b1bd ef55 c5bd 8547 263c
000003d0: 1e2f 173e 61c0 c3bd a1ab 743c ba7c c43d
000003e0: 780a 5a3d 4f67 f23b ec1b 8bbc 767c b7bd
000003f0: eb3d 2bbd 9cae 153e 4c75 b3bd e91e 97bd
