config/ppo/results/RayShoot0610_357만번/Shooting.onnx (onnx, 15002 bytes, 9 tensors)

action_model._discrete_distribution.branches.0.bias f4 [6]
000000 0e 40 2a 3d e5 b6 5c 3e 12 8a 14 3e 32 3a 98 3c
       0.041564994 0.21554144 0.14505795 0.018582437
000010 15 dc 62 3d 7a 3d e6 bd
       0.055385668 -0.112421945

action_model._discrete_distribution.branches.0.weight f4 [6, 20]
000000 e6 dc cd bd 8f 9c 48 be b9 b7 32 be 45 02 fc 3e
       -0.10051899 -0.19590972 -0.17452897 0.49220482
000010 c2 60 c1 3e 20 c9 9d 3d 1d fb 2a 3f 20 1d 99 be
       0.37769133 0.07704377 0.6678942 -0.29905033
000020 2a e3 d0 bd ce f1 a8 3e 1e ad 59 3e d1 71 95 bd
       -0.10199578 0.32996982 0.21257445 -0.072970994
000030 d2 52 74 3d e8 92 d9 3e 6b d9 f2 3e 40 20 e7 3e
       0.059649296 0.42494893 0.47431502 0.45141792
000040 99 1e 87 3e 13 75 df be d9 3f 1c bd 81 03 21 3e
       0.26390532 -0.43644008 -0.038146827 0.15723993
000050 80 d7 fc 3d 05 b1 94 3d b0 ff 08 3e d5 6f cb 3c
       0.12345791 0.07260326 0.13378787 0.0248336
000060 bf 6e cd 39 1c 3f 31 be 3b ea a4 bd 4f a5 9b 3e
       0.0003918316 -0.1730923 -0.080524884 0.30399558
000070 9f 39 80 bc 7b f6 da 3d 46 73 9f be c6 c6 9c 3d
       -0.015652476 0.10691544 -0.31142634 0.076551005
000080 06 60 0e bc c6 63 c1 bd 9f f6 07 be da 6e 3f be
       -0.008689886 -0.094428584 -0.13277672 -0.1869463
000090 82 7b 5a 3d 0f b3 1b 3e 02 92 b9 3c 93 20 14 3e
       0.053340442 0.15205024 0.02265263 0.14465551
0000a0 45 96 6f 3d 3b 8a 2a 3e b6 0e 4f 3e 4e 94 f5 3c
       0.058492918 0.16654293 0.20220456 0.029977944
0000b0 13 2b 85 be 7d a5 05 be c4 c8 4f 3d 44 55 c9 3d
       -0.26009426 -0.1305141 0.050728574 0.09830716
0000c0 9f b3 37 3e 4b 02 91 3d 3f 16 a3 be d3 5c a6 3d
       0.17939614 0.070805155 -0.3185291 0.081231736
0000d0 6c ed 22 be 14 41 70 3d e8 01 65 be b2 82 79 3c
       -0.15910882 0.058655813 -0.22364008 0.015228914
0000e0 03 86 9b 3d 95 44 4c 3e 22 68 65 be 25 1f 11 3e
       0.0759392 0.19948037 -0.22403005 0.14172037
0000f0 a1 18 9f 3d e5 d4 a5 bd 33 a3 82 3e fd 04 7d 3c
       0.077683695 -0.08097247 0.25515136 0.015443084
000100 db 15 25 bd cc 4e 66 3b 8d 96 e9 bd 43 32 01 3d
       -0.040304046 0.0035142181 -0.114056684 0.031542074
000110 e1 fb 13 3c 9e 48 1c bd 44 10 bf bb 52 d5 a2 3d
       0.009032221 -0.03815519 -0.0058307964 0.07950844
000120 28 de 64 3d 97 32 5c bb f0 24 44 be 8f cc 3c be
       0.055875927 -0.003359949 -0.19154716 -0.18437408
000130 39 2c 91 bd 3f 57 a5 3d 64 bc 03 3d e2 6a 05 3d
       -0.07088513 0.080732815 0.032162085 0.032572635
000140 01 74 ba 3d 81 00 76 3e 5d fc d2 3d fb 26 3e 3d
       0.09104157 0.2402363 0.10302041 0.046423893
000150 a4 1f 27 3e 5d 3b f2 3d 39 bd 4e be 84 07 79 3e
       0.16320664 0.11827729 -0.2018937 0.24319273
000160 9d b2 23 3e 75 ce 5e bd fa c2 0d be da f6 1c 3e
       0.15986104 -0.05439611 -0.13843909 0.15328541
000170 56 2d a1 3e f2 82 88 bd a5 c0 dc bd d9 f9 96 bd
       0.314799 -0.06665601 -0.107789315 -0.073718734
000180 e4 c4 35 3d 00 a4 79 3e 95 93 30 be bc 8a 47 3d
       0.044377223 0.24378967 -0.17243798 0.04871629
000190 14 3c 4c 3e 1e 62 f8 3c 26 18 84 be f4 59 6e be
       0.19944793 0.030320223 -0.25799674 -0.23276502
0001a0 14 10 eb 3c 10 b8 97 3e 10 49 a4 3d 21 b8 38 bd
       0.02869419 0.29632616 0.08021748 -0.045097474
0001b0 8e 54 1d 3e 2a d3 a6 be f1 36 06 3f 18 09 33 3e
       0.15364286 -0.3258298 0.52427584 0.17483938
0001c0 cb ac b0 bd 1e c0 fe bd 8b 56 de bd d5 87 9f 3e
       -0.08626708 -0.12438987 -0.108563505 0.3115832
0001d0 e7 b6 64 3d 23 75 42 3e d9 21 97 3e 33 d8 84 be
       0.05583849 0.18989997 0.2951801 -0.25946197

action_model._discrete_distribution.branches.1.bias f4 [4]
000000 21 0d 61 3b 36 43 57 3b 25 95 4c 3d 31 8b 92 3c
       0.00343401 0.0032846457 0.049946923 0.017888637

action_model._discrete_distribution.branches.1.weight f4 [4, 20]
000000 24 86 d0 bd 29 04 c2 bc 91 82 06 bd 10 5f ca 3e
       -0.10181835 -0.023683624 -0.03283936 0.39525652
000010 43 d2 5c bd f0 b5 3f be ee 14 a8 3e 55 4a c0 bd
       -0.05391146 -0.18721747 0.32828468 -0.09389178
000020 f0 7f 53 3d 74 25 f6 3d f8 f6 12 be 32 90 bb bd
       0.051635683 0.12018862 -0.14352024 -0.091583624
000030 65 f8 40 3d 4e be 6c 3e c3 63 6d bd da f7 77 3e
       0.047111887 0.2311947 -0.05795647 0.24215642
000040 40 b6 4a 3d c2 70 b9 be b5 69 a7 bc d1 3c b2 3c
       0.049490213 -0.3621884 -0.020436147 0.021757515
000050 9a 70 55 bf 54 a9 05 3f 5b 2b 84 3e f4 e2 19 bf
       -0.8337494 0.522115 0.25814328 -0.6011193
000060 1d 83 12 bf 10 2c 9a 3e 31 e3 18 be 63 04 7a 3e
       -0.57231313 0.30111742 -0.14930417 0.24415736
000070 d2 44 13 3f d6 ac d4 3d 4d 6e ba 3e 11 4a d9 3e
       0.57526886 0.10384528 0.36412278 0.4243932
000080 17 5a 6e 3e 4c be 25 bf 14 ef 00 bf 62 e2 ba be
       0.23276554 -0.64743495 -0.50364804 -0.3650084
000090 99 f3 3e bf 0e 95 d3 3e f5 95 01 be 7e 46 0f bf
       -0.7459045 0.41324657 -0.1265486 -0.5596694
0000a0 3a c1 4a 3f 23 57 59 bf 82 23 8a 3d ab a1 ba be
       0.7920109 -0.84898585 0.06745054 -0.36451468
0000b0 dd 17 ba 3e 01 ba 31 3e fc ac 5c bf fc 93 8b be
       0.3634633 0.17356111 -0.86201453 -0.2726134
0000c0 ed af 65 bf 2b fc 8f bd d7 94 29 be 7e 7c 3b bf
       -0.89721566 -0.07030519 -0.16560684 -0.73236835
0000d0 2e fa 74 3d 7a c5 ae 3d 33 50 e4 3e 23 2a f6 be
       0.059808902 0.085337594 0.44592437 -0.48079023
0000e0 3d 3d c8 3e ba 2d 41 3e c6 49 47 bd b7 bf b0 3e
       0.3910922 0.188651 -0.04865434 0.34521267
0000f0 d9 3e 84 3d 24 a1 3b 3d 99 e9 c1 bd e0 ae 9f 3e
       0.064573 0.045807973 -0.09468383 0.31188107
000100 82 ac e3 3d a4 61 a6 bc 01 2e d9 3e 9e 80 ab 3d
       0.11116888 -0.02031023 0.4241791 0.08374141
000110 c3 8f c9 3d a2 33 b4 bc ea 31 69 3c a2 94 3e 3e
       0.098418735 -0.021997277 0.014233092 0.18611386
000120 5d df e7 bd 79 ab e8 3d 49 22 76 3c a1 b5 9a 3e
       -0.113219 0.11360831 0.015022823 0.30216697
000130 b0 f6 10 3e 57 9e 17 be 7d 83 23 3e bb 3d d8 3d
       0.14156604 -0.14806496 0.15968128 0.10558649

action_model._discrete_distribution.branches.2.bias f4 [3]
000000 8a c4 59 3d 94 d2 dc 3c 28 27 86 3d
       0.05316595 0.02695588 0.06550437

action_model._discrete_distribution.branches.2.weight f4 [3, 20]
000000 eb dc 23 3e 62 78 fd bc 39 29 23 bc 64 fc 88 3d
       0.16002242 -0.030941192 -0.009958559 0.06688765
000010 b7 24 63 3e cb f2 8b 3d d7 a3 df 3d 28 aa 90 3d
       0.22181974 0.068334185 0.10919922 0.07063705
000020 0b f5 bf bd 72 b1 28 bc 9e 8f 11 3c 83 09 87 bd
       -0.0937291 -0.0102962125 0.008884339 -0.06593611
000030 ad 1d 88 be 76 b7 71 3c cb 6f b1 3d 8f 49 0f 3e
       -0.2658514 0.014753213 0.08663901 0.13992904
000040 58 3a f6 3d da e9 d1 3d 79 7d bb 39 dc 91 1a 3e
       0.12022847 0.10249682 0.00035760904 0.15094703
000050 bd 96 0a 3d 03 a0 1a bd 08 f7 2a bd c5 d2 8b 3d
       0.03383516 -0.037750255 -0.041739494 0.068273105
000060 39 33 89 bd e5 1e b4 bd 1f b6 6b 3d a2 f0 c1 bd
       -0.06699223 -0.08794955 0.05754673 -0.09469725
000070 4e 18 4b 3d e7 01 8b 3c 1c 8a 89 3d 6a 2e 91 3d
       0.049583726 0.01696868 0.067157954 0.07088931
000080 e0 12 37 3e 36 ed 19 3d 3e 6e 22 bc ee f1 be 3d
       0.17878294 0.037579738 -0.009913979 0.09323488
000090 8c dc ad 3c 34 05 de bd a1 41 b0 3d 6f 7b 4a 3d
       0.021223329 -0.10840836 0.08606268 0.04943412
0000a0 a7 48 a8 3c c6 d3 25 3e 81 21 d2 3d c7 8e a1 3d
       0.020542456 0.16194066 0.102602966 0.07888561
0000b0 0f a9 36 3d 83 83 46 3d ce dc 5a 3d ee 23 d4 3c
       0.04459482 0.048465263 0.053433232 0.025896039
0000c0 be 6c 2a 3e 73 af cb 3d 51 f7 0e 3d f3 8d 11 3e
       0.16643044 0.09945574 0.034903828 0.14214306
0000d0 f4 ad a2 3d e7 41 50 3e 2e a2 20 3d 19 4c e9 bc
       0.07943335 0.2033764 0.039217167 -0.028478669
0000e0 44 66 2a 3d 05 3b 8e 3d 5d ca 80 bd 69 66 92 bd
       0.041601434 0.06944851 -0.06288598 -0.071484394

discrete_action_output_shape f4 [1, 3]
000000 00 00 c0 40 00 00 80 40 00 00 40 40
       6.0 4.0 3.0

network_body._body_endoder.seq_layers.0.bias f4 [20]
000000 cb c8 42 3e 90 4f 13 3e 2e d1 94 3e 55 47 af bd
       0.19021909 0.1438582 0.2906584 -0.085585274
000010 0a 44 cd 3d d3 9b aa bd 68 da 3f 3d 6f a8 01 3e
       0.10022743 -0.08330502 0.046839148 0.12661909
000020 8d 8d 4d 3e 2e 97 aa bc ec 1a 8f bd 7c 25 03 3e
       0.20073529 -0.020824041 -0.06987557 0.12807268
000030 38 b2 fb bc 24 26 d5 3c d3 05 05 3d e9 70 10 bd
       -0.03072463 0.026019163 0.032476258 -0.03526393
000040 ef 96 e2 3c ce f6 89 3e 8c 5d 62 be ef f9 ed 3d
       0.027659861 0.2694611 -0.22105998 0.11619937

network_body._body_endoder.seq_layers.0.weight f4 [20, 128]
000000 74 d5 00 bf e7 63 9a 3d bb 24 95 3e 04 8c 14 3e
       -0.50325704 0.07538586 0.29129586 0.14506537
000010 60 99 27 3d e7 c7 f6 bd 3c 97 14 bf d4 21 18 3e
       0.040917754 -0.12049847 -0.58043265 0.14856654
000020 82 3d a9 3e d2 90 5f 3d bd fa 48 3e 1f 64 29 3d
       0.3305474 0.05458147 0.19626899 0.04135525
000030 5e a0 28 bf ff e0 8a be a8 80 43 3e 44 e8 f5 3d
       -0.658697 -0.27124783 0.19092047 0.12007192
000040 86 0d 20 3e 51 e7 d8 bb 90 0e 1d bf c0 06 41 be
       0.15630159 -0.006619372 -0.61350346 -0.18850231
000050 bf 65 a9 3e fb 98 57 3f 4b dd b3 3e 7b 94 14 bd
       0.3308544 0.84217805 0.3512977 -0.036274415
000060 f3 83 1d bf 61 18 ec bd ed e9 7f 3e a5 0d 83 3f
       -0.61529464 -0.115280874 0.2499158 1.0238539
000070 6c 79 8e 3c cc f2 8f be 5c 8b 03 bf 46 74 bd 3d
       0.017391883 -0.28114927 -0.5138452 0.09250693
000080 d6 32 75 3e f7 e9 84 3f 8a 4c 0d 3d 2c c4 a6 be
       0.23945174 1.03839 0.03449682 -0.32571542
000090 10 92 9a be d7 12 7e bd c0 f3 ba 3e e1 5a 84 3f
       -0.30189562 -0.062029686 0.36514091 1.0340234
0000a0 06 24 d0 3d 39 80 47 be f0 36 53 bf 22 8d 0e 3e
       0.10163121 -0.19482507 -0.825057 0.13921025
0000b0 0d f2 a7 3e a8 55 39 3f 41 11 a7 3d ee 0d b9 bd
       0.32801858 0.72396326 0.08157588 -0.0903586
0000c0 5e 42 6c bf 2e 5c ab 3c 68 41 d6 3e 61 9d 4b 3f
       -0.9228877 0.020917978 0.41846776 0.79537016
0000d0 32 95 f3 bd 9c 84 80 bd dc 74 5d bf d3 65 98 3d
       -0.11893691 -0.06275293 -0.8650644 0.074412964
0000e0 74 5e d0 3e 6a 61 e0 3e 58 58 4e be b5 1f f5 bd
       0.40697062 0.4382432 -0.20150888 -0.11968938
0000f0 c2 5c 39 bf 86 01 06 3e d5 b7 c9 3e 1f de cf 3e
       -0.7240716 0.13086519 0.39398065 0.40599152
000100 b6 83 3b 3d a8 3f 81 3d ff c7 4e bf db 0c 0b bd
       0.045779906 0.063109696 -0.8077392 -0.033947807
000110 00 ab ed 3e 25 49 bd 3e f5 fd d4 3d 7c 85 2b be
       0.46419525 0.36969867 0.10400001 -0.16750139
000120 59 2f 2d bf 71 57 37 3e d2 a9 cc 3e cb ed f9 3e
       -0.6765037 0.1790445 0.39973313 0.48814234
000130 9a b3 f6 3d de fc 6a 3d 7f f6 3e bf 3a 07 4d ba
       0.12045975 0.05737006 -0.74594873 -0.0007821206
000140 72 9c d7 3e 6c 6b db 3e 20 ad 76 3c 4e fc 93 bd
       0.42111546 0.42855394 0.015055925 -0.07225858
000150 d0 2d 1d bf a0 72 06 3e 8a 6b 8c 3e f2 96 82 3e
       -0.6139803 0.13129663 0.27425796 0.25505787
000160 71 a1 eb 3d 40 74 57 ba 7d 0e 09 bf 92 4b ea 3d
       0.11505402 -0.0008218922 -0.5353773 0.11440195
000170 57 1e 82 3e 06 10 1f 3f 29 72 10 3e 5f 27 18 3d
       0.25413772 0.62133825 0.14106049 0.037146922
000180 0c 6f 6a bf 4a f0 75 3d f9 f4 64 3e fc a3 fa 3e
       -0.91575694 0.06004361 0.22359075 0.48953235
000190 d8 a1 25 be c4 a3 80 3d 6d 58 83 bf 16 cc a2 bd
       -0.1617502 0.06281236 -1.026136 -0.079490826
0001a0 f7 46 35 3e 70 c4 9f 3e 21 26 4a be 6f 99 d9 3d
       0.17702852 0.31204557 -0.19741108 0.10624968
0001b0 c2 26 4a bf b0 63 ce 3d 50 e7 89 3d 15 ff 18 3f
       -0.7896539 0.10077608 0.067335725 0.59764224
0001c0 b4 fe 04 bd a2 02 cc bc df b6 68 bf 3e 50 99 3d
       -0.032469466 -0.0249036 -0.9090404 0.07486008
0001d0 f6 f9 cc bd 9a 3b 43 3f 77 27 5b bc c9 82 58 3a
       -0.10008614 0.7626282 -0.013376108 0.00082592346
0001e0 e4 f5 91 bf 34 8c c6 3c f4 19 a2 bd 33 e3 aa bc
       -1.1403165 0.024236776 -0.079151064 -0.02086029
0001f0 e5 6c 2b bd 8a 7a 26 3d 96 4f 4b bb 97 4c b4 be
       -0.041851897 0.040644206 -0.0031022779 -0.35214683
000200 c5 d4 bb bb f3 01 36 be 6d 9c b9 3d 15 45 fd be
       -0.005732151 -0.17774181 0.09063039 -0.49466768
000210 48 40 00 be 98 2b b5 3d f5 7b b0 3e 44 ba 70 bd
       -0.12524521 0.088462055 0.34469572 -0.058771387
000220 09 2c 1d 3e ef bf 31 bf 8c 79 8c be f3 a1 97 3e
       0.1534883 -0.6943349 -0.27436483 0.29615745
000230 88 d7 ae 3e f2 b7 84 3e 27 59 8a bd 38 86 05 bf
       0.34148812 0.2592159 -0.06755286 -0.52157927
000240 14 86 99 be e7 29 10 3e c8 13 de 3e e2 03 3c 3e
       -0.29985106 0.14078484 0.43374467 0.18360856
000250 8d 7e c4 3c 8d 12 36 bf 2d f6 ac be f9 54 ca 3d
       0.023986125 -0.71122056 -0.33781567 0.098794885
000260 50 1e 56 3f af c4 a9 3d 9e 15 f6 bc 69 65 27 bf
       0.83640003 0.082894675 -0.030039605 -0.65389115
000270 38 60 27 bd 93 d5 c9 3e 74 5d 27 3f ba 16 5d bd
       -0.040863246 0.39420757 0.65376973 -0.053976752
000280 70 b1 9a 3d 9a f5 3a bf 9a a6 ca bb a4 81 6f 3e
       0.07553375 -0.7303101 -0.0061844112 0.23389298
000290 0a 49 49 3f 0b f3 43 be 76 6e 60 be 3d 12 03 bf
       0.78627074 -0.19135682 -0.21917138 -0.51199704
0002a0 00 e2 07 3b 92 b0 95 3e 4a 99 24 3f 47 be 80 be
       0.0020734072 0.29236275 0.642964 -0.2514517
0002b0 30 bd 3f be bf f0 44 bf 51 47 cb bd 31 6f 4f 3e
       -0.18724513 -0.7692985 -0.09925712 0.2025726
0002c0 bd a8 4e 3f e4 16 0d be c0 c0 d0 be 22 84 66 bf
       0.80726224 -0.13778263 -0.40772057 -0.9004537
0002d0 6d f0 47 3d e3 da bb 3e 3c e7 4a 3f e7 d0 af bd
       0.048813272 0.36690435 0.79259086 -0.08584767
0002e0 d3 b7 54 be e0 39 04 bf 47 3c fd 3d 9c e0 73 3e
       -0.20773248 -0.5165081 0.123650126 0.2381615
0002f0 47 8a 2e 3f ed ea b0 bd a0 8a 3d be 62 b3 f3 be
       0.68179744 -0.086385585 -0.18509912 -0.47597796
000300 00 5c e7 bd ac bb 25 3e e3 44 0d 3f 06 ba ef 3c
       -0.112968445 0.16184872 0.5518324 0.029263508
000310 f4 71 d8 bd 2e b8 0a bf e6 e4 6c bc cf 67 9a 3e
       -0.1056861 -0.54187286 -0.0144588705 0.30157325
000320 6d b6 27 3f 06 5e 69 be 61 d0 6f 3d 5d e8 e3 be
       0.65512735 -0.22789773 0.058548335 -0.44513217
000330 8a 24 7a bd 84 d7 9c 3d 74 bf 5f 3f 35 bf cb be
       -0.061070003 0.07658294 0.8740151 -0.39794317
000340 5a b7 a9 3d 6c d7 50 bf 13 59 cc bd df da 16 3e
       0.08286925 -0.8157871 -0.09977927 0.1473193
000350 97 77 15 3f 3a 96 20 be 91 0d 1e be b5 1d 04 bf
       0.58385605 -0.15682307 -0.15434863 -0.5160783
000360 72 2a 6c be 49 a3 1a 3d d4 ce 05 3f 2d d1 21 3d
       -0.23063067 0.037753377 0.5226872 0.039506126
000370 f7 11 a6 3d df f6 25 bf 84 94 ee bd 9b 7e 70 3e
       0.08108895 -0.6482982 -0.11649421 0.23485796
000380 52 fd 2a 3f 17 15 54 be bd fc 9a 3c 1a 9f 2c bf
       0.66792786 -0.2071117 0.018919343 -0.6743027
000390 9d fc dc bd 71 71 e2 3d 64 56 0c 3f aa 67 e9 ba
       -0.1079037 0.110567935 0.5481932 -0.0017807384
0003a0 26 e3 b5 3d 84 53 19 bf e6 49 49 be b5 ee 36 3e
       0.08881216 -0.5989306 -0.19657096 0.17864497
0003b0 15 ec cc 3e 72 98 00 be 7e b7 79 3e e4 f4 44 bf
       0.40023866 -0.12558153 0.24386403 -0.76936173
0003c0 65 ed 57 be 8f dc d5 bd c8 02 0d 3f f1 7e 4c be
       -0.21086653 -0.10442459 0.5508237 -0.199703
0003d0 3b c3 8d 3e 82 6e 85 bf 55 31 cf 3d 09 ff 91 bc
       0.27688012 -1.0424349 0.10116831 -0.017821806
0003e0 b3 56 43 3f dc e9 d1 bc 8a 88 c3 3e 62 31 3a 3c
       0.7630417 -0.025624208 0.3819011 0.011364313
0003f0 66 bd 90 ba ef c7 5b bc dd e9 f3 3d c3 00 ac bd
       -0.0011042773 -0.013414367 0.1190984 -0.08398583
