Assets/Models/Shooting.onnx (onnx, 14822 bytes, 9 tensors)

action_model._discrete_distribution.branches.0.bias f4 [2]
0.041618742 -0.04161874
00000000: 6a78 2a3d 6978 2abd

action_model._discrete_distribution.branches.0.weight f4 [2, 20]
0.015898531 0.022972262 -0.0014074154 -0.04884721 0.0005713759 -0.013083599 -0.019186728 0.033662587
-0.010845831 0.026113413 0.02734749 0.024166118 -0.080142684 -0.014888288 0.01345278 0.0010083633
0.0021548797 -0.01739437 0.03265241 -0.00091513275 -0.059939563 -0.07968813 -0.027840223 0.031158956
0.012196274 0.016767478 -0.010398752 -0.030635247 0.03775335 0.02369762 0.013401625 0.040709186
0.038875196 -0.036072843 0.010586389 0.046896264 -0.05211955 0.014121684 6.480242e-05 -0.01821701
00000000: a33d 823c 5330 bc3c 0679 b8ba 0314 48bd
00000010: 63c8 153a 975c 56bc 7c2d 9dbc c8e1 093d
00000020: b6b2 31bc cceb d53c d807 e03c 06f8 c53c
00000030: d921 a4bd 02ee 73bc 0d69 5c3c 0f2b 843a
00000040: e238 0d3b a37e 8ebc 89be 053d 85e5 6fba
00000050: 3083 75bd 8833 a3bd 2e11 e4bc 1141 ff3c
00000060: e1d2 473c f35b 893c 875f 2abc c5f6 fabc
00000070: 42a3 1a3d 8321 c23c 7d92 5b3c adbe 263d
00000080: 993b 1f3d 1ec1 13bd 8972 2d3c 4c16 403d
00000090: 4f7b 55bd a35e 673c 89e6 8738 d73b 95bc

action_model._discrete_distribution.branches.1.bias f4 [3]
-0.022420133 0.011995771 0.011983788
00000000: 6daa b7bc e989 443c a657 443c

action_model._discrete_distribution.branches.1.weight f4 [3, 20]
-0.0057732617 -0.012273452 0.011479041 -0.018696124 0.022318006 -0.025510516 0.013753397 0.022537261
-0.010416259 0.051244978 0.03849855 -0.010987936 0.024372717 -0.001842182 0.028033417 0.056172017
0.021014564 -0.015673732 -0.01684883 0.05047819 -0.0023827902 -0.06476584 0.023520395 -0.001999462
0.0053862114 0.029360134 0.0048703714 -0.00036977822 0.004206714 -0.05304617 0.01884176 -0.04090244
-0.023469163 -0.022310024 0.03169279 -0.03656313 -0.020398041 0.0620439 0.006231178 -0.0010593352
0.0064320113 -0.007360611 0.07493309 -0.018501163 -0.03655386 0.007764147 0.06408141 0.013740468
-0.009834484 0.024622131 0.0019390059 0.005419772 0.02596275 0.0088745775 -0.0109995585 -0.017196154
0.007964179 -0.0045489324 0.056264233 0.0034233055
00000000: a12d bdbb 9716 49bc 9612 3c3c 9d28 99bc
00000010: 40d4 b63c 6efb d0bc ee55 613c 10a0 b83c
00000020: f5a8 2abc 41e6 513d a8b0 1d3d be06 34bc
00000030: 4ba9 c73c 5f75 f1ba 56a6 e53c a114 663d
00000040: bc26 ac3c 3366 80bc 8f06 8abc 38c2 4e3d
00000050: 9628 1cbb f4a3 84bd d8ad c03c 6809 03bb
00000060: d17e b03b aa84 f03c a397 9f3b cbde c1b9
00000070: 7ad8 893b f146 59bd 095a 9a3c 5189 27bd
00000080: 6742 c0bc 83c3 b6bc 4dd0 013d 38c3 15bd
00000090: cb19 a7bc bf21 7e3d e92e cc3b 64d9 8aba
000000a0: 9fc3 d23b 4831 f1bb 8576 993d c08f 97bc
000000b0: 80b9 15bd 636a fe3b 1d3d 833d b31f 613c
000000c0: d120 21bc 5ab4 c93c 3e26 fe3a 5898 b13b
000000d0: d5af d43c ad66 113c 7e37 34bc f3de 8cbc
000000e0: 307c 023c 360f 95bb 5375 663d 8959 603b

action_model._discrete_distribution.branches.2.bias f4 [3]
-0.010943064 -0.004480077 0.016418852
00000000: 894a 33bc 9ccd 92bb d480 863c

action_model._discrete_distribution.branches.2.weight f4 [3, 20]
0.018938921 0.006675497 -0.007397461 -0.002916017 -0.012517165 -0.028813975 -0.10476408 0.042458512
0.00065516593 0.023183916 0.057828438 0.035986114 -0.030558988 -0.009253303 0.0014614931 0.01645653
-0.0102025 0.06038054 0.010063869 0.0027584028 -0.031026982 0.034945335 0.021723818 -0.057920154
-0.044109367 -0.00057020737 0.03839977 -0.009088843 -2.5152453e-05 0.056702293 -0.02019171 0.022173837
0.020841774 0.027255097 0.034482315 0.0066800816 -0.004764543 -0.01761502 0.01568194 0.058681414
0.015585967 -0.0052710967 -0.019294783 0.087816454 -0.007484728 0.009133057 0.07902261 -0.037892915
0.006437895 -0.038244717 -0.0005382419 -0.0015702384 -0.012672837 0.019360023 -0.0038276606 0.017496487
0.057269417 -0.007335362 -0.017713826 -0.06470611
00000000: cc25 9b3c 21be da3b 6766 f2bb a61a 3fbb
00000010: cc14 4dbc 490b ecbc 8d8e d6bd fae8 2d3d
00000020: 71bf 2b3a 32ec bd3c 83dd 6c3d 2d66 133d
00000030: d856 fabc 2a9b 17bc 928f bf3a d8cf 863c
00000040: 6328 27bc 9651 773d ede2 243c 52c6 343b
00000050: 4c2c febc d722 0f3d 26f6 b13c af3d 6dbd
00000060: 06ac 34bd f879 15ba 1449 1d3d 5fe9 14bc
00000070: 7bfe d2b7 aa40 683d 1669 a5bc e8a5 b53c
00000080: 5ebc aa3c 1546 df3c 543d 0d3d 96e4 da3b
00000090: e21f 9cbb 604d 90bc 6977 803c ec5b 703d
000000a0: 495c 7f3c 2ab9 acbb 1810 9ebc 1dd9 b33d
000000b0: 7342 f5bb d1a2 153c 9bd6 a13d 9a35 1bbd
000000c0: faf4 d23b 7ea6 1cbd cd18 0dba 75d0 cdba
000000d0: bba1 4fbc e998 9e3c 7dd9 7abb cb54 8f3c
000000e0: 5693 6a3d 7a5d f0bb 961c 91bc a384 84bd

discrete_action_output_shape f4 [1, 3]
2.0 3.0 3.0
00000000: 0000 0040 0000 4040 0000 4040

network_body._body_endoder.seq_layers.0.bias f4 [20]
0.023095498 0.033569735 0.011581416 -0.0060575074 -0.030920304 -0.0056882356 0.03817721 0.0021891259
0.00632514 -0.021403933 -0.017186908 -0.019642951 -0.0040088794 0.0069378284 -0.02700953 -0.030604566
0.029480664 0.013490271 0.01296089 -0.020021219
00000000: c532 bd3c 6b80 093d fbbf 3d3c 0e7e c6bb
00000010: 944c fdbc 6164 babb b55f 1c3d 7077 0f3b
00000020: 1f43 cf3b 4d57 afbc 8fcb 8cbc 41ea a0bc
00000030: eb5c 83bb b956 e33b 1743 ddbc 6db6 fabc
00000040: 6f81 f13c 4c06 5d3c ea59 543c 8a03 a4bc

network_body._body_endoder.seq_layers.0.weight f4 [20, 131]
0.020048644 0.06059803 -0.047900308 -0.053784203 0.072290026 0.028179314 0.012638704 0.08241413
0.006702752 -0.036294635 0.14594702 0.16511828 -0.034039244 -0.014508754 -0.12078731 -0.15893407
0.04303168 -0.016153594 0.045423537 -0.11126093 -0.024894122 0.14997035 0.13476788 -0.13141906
0.0126644075 -0.042931523 -0.048144076 0.11165836 0.19563402 -0.07632758 -0.17364705 -0.09259302
-0.073159985 -0.0010265344 0.06261852 -0.10403392 0.044353124 0.03725122 0.054316375 -0.011418781
0.1402169 -0.06193948 -0.055865616 0.05515259 -0.055266187 0.06696209 0.19044127 0.04269333
0.0005465679 0.07646297 0.03930427 0.07918883 -0.057365898 0.12344624 -0.056525264 -0.01600374
-0.062151335 -0.04623013 0.10449171 0.13529709 0.06473766 0.048840005 -0.0995702 -0.09332899
0.13194771 -0.02807467 0.012731003 -0.025186878 0.0494916 -0.03999352 0.032341447 -0.12439344
-0.068839274 0.062495068 -0.12984505 0.15591036 -0.030345842 -0.0764968 -0.052119695 -0.04536214
-0.1166571 0.02980076 0.19795468 -0.04917183 0.053066146 0.042073105 -0.06522163 0.001540456
-0.078678496 0.12392379 -0.045473106 0.12508814 0.05506228 0.06716724 0.05154887 0.17904603
-0.032415897 -0.05070986 -0.10838501 -0.14610945 -0.017481728 0.078792885 0.08049599 -0.08093858
-0.13154349 0.10146511 0.043078627 0.03114869 0.038429074 -0.06038468 -0.01516404 0.0045106295
0.03805649 -0.01774314 -0.0053867856 0.09658609 -0.17805596 -0.0312927 0.05945705 -0.0133848125
-0.0447602 -0.14959809 -0.08333507 0.049442716 -0.073167995 -0.04404286 -0.08355042 -0.0056741782
0.027270127 0.113920234 0.07524169 0.07986156 -0.00081774784 0.17459299 -0.11858006 -0.13971353
0.12822457 -0.0593093 0.11974631 0.06375566 -0.08568981 0.075492986 0.078051545 -0.13750833
-0.1183789 -0.020979878 0.018437697 0.13846181 0.006046856 -0.07440099 -0.031930212 0.013087233
-0.061302263 0.14818323 0.051352788 -0.09928809 0.0012183633 0.07205697 -0.042930864 0.19150074
0.089632675 -0.056306034 0.07515252 0.021994345 -0.06357158 -0.035059255 -0.034817252 -0.09273774
0.13476183 0.010477015 0.041641984 0.016351627 -0.011687373 0.035741255 -0.053607702 -0.09894014
0.12701295 0.010679227 -0.17140432 0.008033998 0.21266991 0.08879325 0.060599137 0.017567888
-0.07890087 -0.10221096 -0.15082659 -0.19200753 0.09525493 -0.01584867 -0.046132065 -0.047782283
-0.10290696 0.048918083 0.10913386 0.19115795 0.061751213 -0.028134754 -0.17943954 -0.062434584
0.115172006 -0.081910506 0.02701904 0.17113243 0.20057876 -0.017877875 -0.036473777 -0.025759185
-0.07843385 0.058653604 0.0078622345 0.04255979 -0.08332995 -0.06759673 0.10408165 0.02787329
-0.017785704 0.057161584 -0.04241154 0.074420996 0.082877144 0.07641463 -0.119835414 0.11731131
0.11532083 0.06553181 -0.06809305 -0.003765538 0.022754991 0.10033354 -0.10123136 -0.15611689
-0.086892165 -0.103412375 0.021210784 0.009198915 0.06402906 -0.05072556 -0.06460867 0.09072862
0.0499888 -0.026967997 -0.08634292 0.15305285 0.031261813 -0.047916934 -0.016903346 0.105902106
0.09527061 -0.12585716 0.0014148591 -0.055058613 -0.089916214 -0.017643364 0.044374563 0.011955041
00000000: 0e3d a43c a435 783d 1d33 44bd d34c 5cbd
00000010: cb0c 943d 4ed8 e63c 9112 4f3c bdc8 a83d
00000020: c2a2 db3b afa9 14bd 2373 153e c414 293e
00000030: bc6c 0bbd 20b6 6dbc 565f f7bd 9dbf 22be
00000040: fd41 303d 8b54 84bc 080e 3a3d c5dc e3bd
00000050: c2ee cbbc d491 193e 9700 0a3e b892 06be
00000060: 607e 4f3c f7d8 2fbd b932 45bd 23ad e43d
00000070: 4954 483e a251 9cbd 88d0 31be 69a1 bdbd
00000080: e7d4 95bd c78c 86ba 233e 803d bc0f d5bd
00000090: 9fab 353d bc94 183d d97a 5e3d d715 3bbc
000000a0: 0595 0f3e 41b4 7dbd 58d3 64bd afe7 613d
000000b0: cc5e 62bd 6c23 893d 0903 433e 34df 2e3d
000000c0: 8d47 0f3a 9e98 9c3d 84fd 203d c12d a23d
000000d0: 81f8 6abd 62d1 fc3d 0987 67bd 461a 83bc
000000e0: 6692 7ebd ce5b 3dbd c0ff d53d 528b 0a3e
000000f0: 2e95 843d 750c 483d 76eb cbbd 4523 bfbd
00000100: 4d1d 073e dafc e5bc b295 503c b654 cebc
00000110: b4b7 4a3d 3fd0 23bd 7778 043d fdc1 febd
00000120: 9bfb 8cbd d4fa 7f3d 1af6 04be f7a6 1f3e
00000130: d897 f8bc 5baa 9cbd 767b 55bd a7cd 39bd
00000140: ebe9 eebd b920 f43c a2b4 4a3e 6768 49bd
00000150: e35b 593d d954 2c3d eb92 85bd 20e9 c93a
00000160: 3122 a1bd c2cb fd3d 0242 3abd 1b17 003e
00000170: fc88 613d fa8e 893d e824 533d d857 373e
00000180: 88c6 04bd 24b5 4fbd f6f8 ddbd b79d 15be
00000190: d735 8fbc 2a5e a13d 15db a43d 20c3 a5bd
000001a0: 56b3 06be f1cc cf3d 3773 303d 8a2b ff3c
000001b0: ce67 1d3d ed55 77bd 9872 78bc e7cd 933b
000001c0: 1fe1 1b3d 105a 91bc a283 b0bb eece c53d
000001d0: 4d54 36be c62c 00bd 3c89 733d f94b 5bbc
000001e0: 7956 37bd 3e30 19be 94ab aabd 7284 4a3d
000001f0: 1ad9 95bd 4966 34bd 7c1c abbd 75ee b9bb
00000200: 9a65 df3c 034f e93d 5118 9a3d 758e a33d
00000210: 215e 56ba 81c8 323e 1ada f2bd 1011 0fbe
00000220: 4d4d 033e 4fee 72bd 8e3d f53d 5492 823d
00000230: 247e afbd 119c 9a3d 7dd9 9f3d fcce 0cbe
00000240: a370 f2bd fedd abbc a70a 973c efc8 0d3e
00000250: b424 c63b 8c5f 98bd 41c9 02bd d56b 563c
00000260: 1518 7bbd 58bd 173e 4d57 523d 8e57 cbbd
00000270: 7db1 9f3a 9b92 933d 46d8 2fbd c518 443e
00000280: 5691 b73d 28a1 66bd 90e9 993d 7c2d b43c
00000290: d131 82bd 4b9a 0fbd 899c 0ebd 49ed bdbd
000002a0: 01ff 093e c9a7 2b3c c990 2a3d d9f3 853c
000002b0: 657c 3fbc 6c65 123d c093 5bbd 21a1 cabd
000002c0: af0f 023e edf7 2e3c 9d84 2fbe 08a1 033c
000002d0: 24c6 593e 3cd9 b53d cd36 783d 88ea 8f3c
000002e0: c896 a1bd fb53 d1bd 4972 1abe 9f9d 44be
000002f0: 0415 c33d 12d5 81bc faf4 3cbd 5bb7 43bd
00000300: e2c0 d2bd 545e 483d 9381 df3d e9be 433e
00000310: d7ee 7c3d db7a e6bc 00bf 37be 68bb 7fbd
00000320: 4ddf eb3d b2c0 a7bd 0957 dd3c 573d 2f3e
00000330: 8564 4d3e 9f74 92bc 8765 15bd ed04 d3bc
00000340: eda1 a0bd c33e 703d 9ad0 003c 2d53 2e3d
00000350: e5a8 aabd 2870 8abd c328 d53d 8756 e43c
00000360: 53b3 91bc 4422 6a3d b9b7 2dbd 096a 983d
00000370: 7ebb a93d 467f 9c3d 456c f5bd e940 f03d
00000380: 542d ec3d 8b35 863d 5e74 8bbd 3fc7 76bb
00000390: ad68 ba3c ac7b cd3d 6352 cfbd 1bdd 1fbe
000003a0: 85f4 b1bd dec9 d3bd 3dc2 ad3c 0cb7 163c
000003b0: ab21 833d 9bc5 4fbd 8d51 84bd edcf b93d
000003c0: 0ec1 4c3d fdeb dcbc 8fd4 b0bd e3b9 1c3e
000003d0: 630c 003d 8c44 44bd e378 8abc 34e3 d83d
000003e0: 3d1d c33d b3e0 00be cb72 b93a 2485 61bd
000003f0: fe25 b8bd d188 90bc 1ac2 353d 14df 433c
