config/ppo/results/RayShoot0610_멍청함/Shooting/Shooting-999998.onnx (onnx, 14918 bytes, 9 tensors)

action_model._discrete_distribution.branches.0.bias f4 [6]
000000 46 7a e9 bd e5 e7 ab 3d 40 97 c3 bc 5c 91 ec 3d
       -0.11400275 0.0839384 -0.023875833 0.115511626
000010 a8 1b 18 3d c9 72 0f be
       0.03713575 -0.14008631

action_model._discrete_distribution.branches.0.weight f4 [6, 20]
000000 a8 d1 02 bd 78 a3 95 3d 9f 1a 9f 3e 79 50 d6 be
       -0.031938225 0.0730657 0.31074998 -0.4185827
000010 d8 c2 af 3b 5a b0 3b 3e 0a 15 e0 3e 48 bb b1 3e
       0.0053638034 0.18328992 0.43766052 0.34713197
000020 fd 2a 8a bc a5 b1 bf bd 6b 52 b3 3e cc 3a a7 3e
       -0.016866202 -0.09360055 0.35023817 0.32662046
000030 f2 ca de 3d 0d 0c ec 3e 4c 85 2b 3e 19 13 af be
       0.108785525 0.46102944 0.16750067 -0.34194258
000040 37 31 86 3c 95 26 5f be 82 f6 93 bc 32 d5 89 be
       0.01638089 -0.21792062 -0.01806188 -0.26920468
000050 b5 79 2b 3d c3 1d 61 3d ea 57 37 be 81 c1 56 3e
       0.041864116 0.054960024 -0.1790463 0.20972253
000060 ec 03 f4 3d 55 80 32 bd 0f 9d ac bd cb 68 a5 bd
       0.119148105 -0.04357942 -0.08428394 -0.08076628
000070 4c 13 d8 3d 22 81 30 3d 5c 64 57 be 81 2a cf bd
       0.105505556 0.0430919 -0.21034378 -0.10115529
000080 63 d9 eb 3d 11 43 69 be 3c 88 15 3b ce a2 f4 3d
       0.115160726 -0.2277949 0.0022816798 0.11945115
000090 9a dc 36 3e 92 de 44 3e a4 24 4f bc b8 64 3d 3e
       0.1785759 0.19225529 -0.012643013 0.18495452
0000a0 51 7b 9c 3d fe aa 12 bd ec 49 18 be 88 d5 9b 3d
       0.07640708 -0.035807602 -0.14871949 0.07609087
0000b0 3c 58 9f 3d c3 ea 29 be 99 ac 4e 3c bb 7b ea bd
       0.07780501 -0.1659346 0.012614393 -0.11449381
0000c0 9a 6b b3 bd 16 73 03 3e a8 b8 ce 3c b4 b6 8b bd
       -0.08760758 0.1283687 0.025234535 -0.06821957
0000d0 72 7e af bd f1 b5 1a be 6d 88 01 3d c8 e7 b6 bc
       -0.085690394 -0.15108468 0.031624246 -0.022327319
0000e0 13 72 c5 bd 55 78 fc 3c 76 a5 ad 3d d8 cd 94 3b
       -0.096408986 0.030819098 0.08478825 0.00454114
0000f0 83 de c0 3d 7c 17 7b bb 80 52 83 be b9 64 49 3e
       0.09417441 -0.0038313558 -0.2564888 0.19667329
000100 6f cc cf bd 23 bf 6b be 69 cd 93 bd b4 9e 06 be
       -0.101464145 -0.23022132 -0.07216913 -0.13146478
000110 f1 50 0e bd 40 74 fc 3d 85 84 4b be 79 8c 4f bd
       -0.03474516 0.123268604 -0.19874771 -0.050671075
000120 7b cf 3d be 30 41 f5 bd 4f d6 da bd b0 10 9d 3d
       -0.18536179 -0.11975324 -0.10685407 0.076691985
000130 f8 ee 2d be 69 9d d2 3d 46 c9 dc 3c 13 1e 96 3d
       -0.1698569 0.1028393 0.026951443 0.07329955
000140 a7 33 5d 3d be f6 db 3d 97 12 2e be 09 02 52 3e
       0.054004338 0.10740422 -0.16999279 0.20508589
000150 69 80 09 bd de 4f 08 be 17 f0 16 be e6 39 61 bd
       -0.033569727 -0.13311717 -0.14740025 -0.054986857
000160 c7 8d 54 3c 7a fb 4a 3d 51 c7 a3 bd 39 85 18 ba
       0.0129732555 0.049556233 -0.07997001 -0.00058181916
000170 fb 6b 3c bd e0 70 a5 be 19 5f 7a 3c 80 a7 5c 3c
       -0.046001416 -0.3231268 0.015281462 0.0134676695
000180 f1 31 c8 3c 72 de d4 3d 11 eb f2 3d b0 59 f0 3d
       0.024437876 0.103939906 0.118612416 0.117358565
000190 54 5a cd be 69 39 bc bd f4 b4 07 3e 3a 2d 95 bd
       -0.40107977 -0.091906376 0.13252622 -0.07284017
0001a0 97 82 8f be 54 26 f1 3d df 21 ee bd 94 b1 99 3c
       -0.2802932 0.11774889 -0.11627554 0.018761434
0001b0 77 47 d3 3d a4 d3 d0 be 9d 54 e0 bd 7c bf 4c be
       0.10316365 -0.4078647 -0.10953639 -0.1999492
0001c0 f3 ed 3e bc 6a c5 d3 3d 22 c3 59 be a6 1c ce 3d
       -0.011653411 0.10340388 -0.21265844 0.10064058
0001d0 e1 50 d1 bd 53 a8 17 bd a6 cf 8d bd 61 b4 61 be
       -0.102205046 -0.03702576 -0.069243714 -0.22041465

action_model._discrete_distribution.branches.1.bias f4 [3]
000000 e7 13 6f 3d 4b ae 56 bd 69 e0 49 bd
       0.05836859 -0.052412312 -0.04928628

action_model._discrete_distribution.branches.1.weight f4 [3, 20]
000000 90 80 1a be 8f 9d e3 bd 77 fa c7 3d 7a 84 9b be
       -0.15088105 -0.11114036 0.09764569 -0.3037451
000010 70 ff 09 be 0c e8 25 bd ba 33 e5 3e c8 2c dc 3e
       -0.13476348 -0.0405045 0.44766027 0.43002915
000020 d6 7a f0 bd 47 f6 1e 3d 74 cd c6 3e 4e 5c a5 3e
       -0.11742179 0.038809087 0.38828623 0.32296985
000030 86 84 8f 3d 8a c4 a0 3e 10 ca ba 3d ec bf 89 be
       0.07007699 0.31399947 0.091205716 -0.26904237
000040 6a 8b 4f be 98 81 03 bf 22 25 d7 3d 0e 22 cf bd
       -0.20268026 -0.5136962 0.105051294 -0.10113917
000050 18 9f af bd c6 ab db 3e 6b 4c 74 be ae 2a b1 bd
       -0.085752666 0.4290449 -0.23857276 -0.08650719
000060 fa 91 90 3d 72 27 27 be 04 d9 c9 be 78 8d e4 bd
       0.07059093 -0.16323641 -0.39423382 -0.111597955
000070 33 39 f1 be 79 0c e7 bc 8e 62 ae be e1 41 29 3e
       -0.47113952 -0.02820419 -0.34059566 0.16529037
000080 5d c4 65 3e b2 35 e5 be 01 95 26 3e 5e ba 2c bf
       0.22438188 -0.4476753 0.16267778 -0.67471874
000090 22 ca 33 bc f6 fd 12 3f 47 65 c4 bc fc fe 15 3e
       -0.010973485 0.57418764 -0.023974074 0.1464805
0000a0 0c 6f 05 3e 64 41 a8 be 93 40 1e 3e 67 0f d7 3e
       0.13030642 -0.3286239 0.1545432 0.4200394
0000b0 74 c4 18 3d 16 83 4a 3e cb 93 05 bd d0 13 c2 be
       0.037296727 0.19776568 -0.03261165 -0.3790574
0000c0 08 6f e4 3e de 1f 01 bc 1c af 9f bd 9a 7e 01 bf
       0.4461596 -0.007881133 -0.07797071 -0.50583804
0000d0 af ad 88 be 30 77 4d 3d 13 70 97 be a5 b5 36 3f
       -0.2669501 0.050162494 -0.29577693 0.7137092
0000e0 73 08 6e 3e b1 9f df bd eb b4 6e 3c 9e 6e 5a bd
       0.2324541 -0.109191306 0.014569501 -0.05332815

action_model._discrete_distribution.branches.2.bias f4 [3]
000000 e0 bd 17 bc 09 42 c5 3c 90 8d b1 3c
       -0.009261578 0.02407934 0.021673948

action_model._discrete_distribution.branches.2.weight f4 [3, 20]
000000 0b 83 3c 3d 16 49 40 3d ff 4b 9b 3c 5c 83 be bd
       0.04602341 0.0469447 0.018957136 -0.093023986
000010 44 9b c4 bc e5 d0 e1 3c f8 88 9d 3d f2 16 52 3d
       -0.023999818 0.027565429 0.0769214 0.051291414
000020 dd e0 36 bd 38 38 8c bd 7a 15 e4 bb e6 c9 1a 3b
       -0.04464804 -0.068466604 -0.006960568 0.0023618876
000030 09 1b 77 3c bc f2 51 3d 94 4a cd 3c 9e 1e 8d 3c
       0.015082129 0.05125688 0.025059976 0.017226513
000040 43 14 f1 bd 5b 59 e1 3c a1 31 f3 3d b6 52 41 bc
       -0.11771443 0.027508428 0.118747 -0.011799505
000050 38 ce 9e bb cb 80 02 3d 0f ee 9c 3d ce 59 65 3d
       -0.0048463605 0.031861108 0.076625936 0.055993848
000060 e0 e3 a6 3d 43 a0 f8 3d fe 1c e6 bd a2 95 6e bc
       0.081489325 0.121399425 -0.112359986 -0.014562042
000070 3b 8c fd 3d d1 3d 19 3d 82 ce 2a 3d c2 cb 7a 3c
       0.123802625 0.03741247 0.041700847 0.015307369
000080 3e 61 ab 3d 78 68 5c 3c f5 15 d2 3b a3 0a 6e 3d
       0.08368157 0.013452642 0.006411309 0.058115613
000090 cf 0f 0b 3e 46 ac db 3c 0d ba 8c 3c 0e dd 53 3d
       0.13580249 0.026815545 0.01717856 0.051724486
0000a0 73 7a 78 bc 23 ac 23 3d 9d 99 83 bc f8 14 6f 3d
       -0.015165913 0.039959084 -0.01606446 0.058369607
0000b0 98 c5 3f 3b d9 28 98 bd 84 42 05 3e 8d a8 bf 3d
       0.0029262062 -0.07429666 0.13013655 0.093583204
0000c0 ee b4 43 3d 65 1a 1f 3c f2 86 62 3d 51 e6 32 3d
       0.04777997 0.009710883 0.055304475 0.043676678
0000d0 2f d8 8d bd 4d 12 8c bd 98 a8 75 3d f2 e5 8a 3d
       -0.069259994 -0.06839428 0.059975237 0.0678214
0000e0 8a ae c2 bb 5f 19 9e 3c 14 a0 c8 bd 1a b2 9f 3c
       -0.005941217 0.019299207 -0.097961575 0.019494105

discrete_action_output_shape f4 [1, 3]
000000 00 00 c0 40 00 00 40 40 00 00 40 40
       6.0 3.0 3.0

network_body._body_endoder.seq_layers.0.bias f4 [20]
000000 9e d7 be 3d 28 9d 8c 3d b4 93 b6 3d 36 bb 8d 3e
       0.093184695 0.06865913 0.08914891 0.27681893
000010 a3 73 85 3d 98 45 dc 3d 09 18 1d 3e 37 b6 6a 3d
       0.065161966 0.107554615 0.153412 0.05730268
000020 ba 68 54 3e f3 7b 06 bb 11 7d 00 3a f4 e3 96 3d
       0.20743075 -0.0020520657 0.0004901449 0.07367697
000030 fb a4 3f 3d 8c c8 1e 3d ae 42 aa 3d 60 c6 64 3e
       0.046788197 0.038765475 0.083134994 0.22341299
000040 e1 3b 03 3e b5 d2 45 3e 9f 2d fc bc 37 15 e8 3d
       0.1281581 0.1931866 -0.030783473 0.113321714

network_body._body_endoder.seq_layers.0.weight f4 [20, 128]
000000 08 da a6 be 71 f8 3b 3b f1 a6 c5 bd 09 df 13 3e
       -0.3258822 0.0028682018 -0.09650982 0.1444055
000010 46 73 16 be f1 b3 31 be a6 2e 8b be 16 e1 bf bd
       -0.14692411 -0.17353798 -0.27184027 -0.093691036
000020 72 d0 b3 3d b7 12 4c 3d d3 40 aa bd 85 67 33 be
       0.08779992 0.049822535 -0.083131455 -0.17519958
000030 7e d9 31 be 50 1b 87 be 83 65 ed bb 91 af c8 3d
       -0.17368123 -0.26388025 -0.007244767 0.09799112
000040 a3 d9 06 be 06 bb 13 bd a2 02 c4 be f3 2b 85 bd
       -0.1316896 -0.03606703 -0.3828326 -0.06502523
000050 cf bb 6a bd 89 18 b7 3d 33 31 64 be 29 ec 98 bd
       -0.057308014 0.089402266 -0.22284393 -0.07466919
000060 12 c4 e1 bd 24 3a b2 be 49 4d 54 3d 64 66 6b 3d
       -0.110237256 -0.34809983 0.051831517 0.057470694
000070 29 50 b2 be 8e a3 cf 3d 92 e1 41 be e4 66 86 be
       -0.34826782 0.101386175 -0.18933704 -0.26250374
000080 76 21 7b 3d cd 67 88 3e fd 70 f8 bd 25 dd 49 3d
       0.061311208 0.26641694 -0.12130926 0.049283165
000090 23 a4 82 bd bd 2c 98 bd 18 76 b8 3d 6b de dd 3d
       -0.06378963 -0.07430408 0.090068996 0.108334385
0000a0 6c 9c d1 be d5 3c 35 3d 0e fe 68 be bd f5 2a be
       -0.40939653 0.044247467 -0.22753164 -0.16695304
0000b0 8a a0 75 3e f5 58 1d 3d 9c 56 77 be f3 0e d9 3c
       0.23987022 0.038414914 -0.24154133 0.026496386
0000c0 f2 a4 17 be af 97 42 be 42 88 ac 3d a3 3c 62 bd
       -0.14809015 -0.19003175 0.084244266 -0.05523361
0000d0 92 b7 1b 3c 30 f6 11 3e 3d 70 cf bd 2c f5 53 be
       0.009504216 0.1425407 -0.1012883 -0.20698994
0000e0 8f 8c 87 ba 98 33 9e 3e 8a 95 c4 bd fc c0 de 3d
       -0.0010341572 0.30898738 -0.09598835 0.108766526
0000f0 e0 ec 16 bd c7 77 15 be be 04 2c 3e 8b 43 eb 3d
       -0.036846995 -0.14596473 0.16798684 0.11487492
000100 94 cc 7b 3d 70 4c 5a 3e 52 f0 07 3c 1a 12 8a be
       0.061474398 0.21318221 0.008297043 -0.26966935
000110 c0 d1 d2 3d 34 00 aa be 4e 1f b6 3d 23 d8 e4 3d
       0.10293913 -0.3320328 0.0889269 0.11174037
000120 00 05 14 3e 30 e1 b6 bd 04 04 9b 3d 72 3c 15 be
       0.14455032 -0.0892967 0.07569125 -0.1457384
000130 5c e4 89 3d 9b 0a 37 3e 5b ef 04 3c e9 c9 1e be
       0.06733009 0.1787514 0.008113707 -0.1550671
000140 0f 3c dd bd 1f ac 15 be 17 e6 a1 3d 5b e6 fb 3d
       -0.10802471 -0.1461644 0.07905214 0.12299796
000150 a1 b6 6c bd c0 73 16 be 1f 66 8f 3e dd 61 09 be
       -0.057791356 -0.14692593 0.280076 -0.13416238
000160 0b 62 a0 bc 57 b9 96 3d 1a a9 e7 bc a8 4c 72 3b
       -0.019578 0.073595695 -0.028278876 0.003697196
000170 64 07 70 3d b7 df 91 be e7 b6 ae 3e 67 48 63 3d
       0.0586008 -0.28490993 0.34123918 0.05548897
000180 56 ed 01 be 7e 31 0d bc a6 40 0d 3e 5c c2 84 be
       -0.12688193 -0.008617757 0.13794193 -0.25929534
000190 98 07 b0 3d 24 f8 24 bb df 49 dc 3d ec ee 32 bd
       0.085951984 -0.0025172317 0.10756277 -0.043684885
0001a0 84 80 67 3e 78 56 4e bd ba 7d 0f 3e 8f 58 26 bd
       0.22607619 -0.05037543 0.14012805 -0.0406118
0001b0 cc 2b 0b 3e 7d ee 93 3d aa 07 5c 3e d7 e5 f6 bd
       0.13590926 0.072232224 0.21487299 -0.12055557
0001c0 b0 d1 98 3c 9a 6b 2d 3c 4f 09 88 3d fa 5c 57 3d
       0.018654674 0.010584736 0.066424005 0.052578904
0001d0 76 82 84 3e 32 0c 32 3d d4 25 43 bd ab 41 59 bc
       0.25880784 0.04346866 -0.047643498 -0.013260285
0001e0 6b 8f 55 3b 1e da e0 3d 0d 57 4b 3e 4e ff ea bd
       0.0032586704 0.109791026 0.19857426 -0.11474477
0001f0 55 82 bf bd ab 28 ad 3d a0 7a cf bd f4 ae 80 be
       -0.09351031 0.084550224 -0.10130811 -0.2513348
000200 1b 39 c1 3d a1 60 8e 3e 90 e4 0b 3e 86 0b dd be
       0.0943472 0.27808097 0.13661408 -0.43172854
000210 ac 04 85 3e c7 7e c5 3d 0f 3a 22 3f 4c 28 ad bc
       0.25980127 0.096433215 0.6336984 -0.02113738
000220 a4 e9 2d 3e ec d6 f5 be 5d 28 98 3d 5b 23 17 3e
       0.16983658 -0.48015535 0.07429574 0.14759581
000230 16 b8 4e 3f a4 4f 11 be 27 cc b2 3d cf 05 02 bf
       0.8074964 -0.14190537 0.08730345 -0.50790113
000240 67 fc 09 3e c4 3b 85 3d b5 e1 03 3f eb 97 1c be
       0.1347519 0.0650554 0.51516277 -0.15292327
000250 d2 7b 1f 3e 1b 88 2e bf 48 bb ef bb fd 14 b7 bb
       0.15574577 -0.6817643 -0.007316027 -0.005587219
000260 b1 ce 04 3f 9d 5d c6 ba 83 c3 78 3e 3c df 2f bf
       0.51877886 -0.00151341 0.24293332 -0.68700004
000270 6b 3b e8 3d fb 3f d2 bb 2f cf 5f 3f 76 bb 2c bd
       0.11339458 -0.0064163185 0.8742551 -0.042170964
000280 69 6b 6a 3e c6 5b 27 bf 5e 6e ae bd 11 68 8a 3d
       0.22892536 -0.6537441 -0.085171446 0.0675813
000290 5e f8 fe 3e bc ff 13 be 90 6e 16 3d 9e fb 9f be
       0.49798864 -0.14453024 0.036726534 -0.31246656
0002a0 4c 39 e6 3c 97 90 95 3d e6 6c 88 3e 0f 4e e7 3d
       0.028103493 0.07302969 0.26645583 0.11294185
0002b0 4a a7 f3 3d 09 45 f2 be da 64 92 bc 4a af 40 bc
       0.11897142 -0.47318295 -0.017870355 -0.011760542
0002c0 c1 8b f3 3d 55 6a 1c 3e 95 b0 80 3d a1 c3 09 bf
       0.1189189 0.15274937 0.0628368 -0.5381413
0002d0 4a 3b 31 3d d3 c9 d4 3c af fa 8c 3e 4b 78 76 bd
       0.043269433 0.025975144 0.27535006 -0.060173314
0002e0 bc 56 18 3e f3 fd b8 be e0 09 e1 bd 4a e2 1e 3e
       0.14876837 -0.36131248 -0.10988212 0.1551601
0002f0 58 3f d7 3e 7a c4 c6 3b 4d f9 54 3c af 03 6d be
       0.42040515 0.0060659023 0.012998891 -0.23145936
000300 e5 a3 98 3d 5b 1e 1c 3e 24 a9 1c 3e 05 97 08 3d
       0.074531354 0.15245955 0.15298897 0.03334715
000310 b3 36 2a 3d 0a ce 81 be 7b 7d 50 3d 7e a7 00 3e
       0.04155607 -0.25352508 0.050900918 0.12563893
000320 3c 4d 3b 3c 67 d5 26 be a1 f8 37 3d da 4e cb be
       0.011431988 -0.16292344 0.044914845 -0.39708596
000330 02 62 ea bd 72 e3 ae 3d cf c9 91 3e fa 2d bb 3d
       -0.11444475 0.085394755 0.2847428 0.09139629
000340 fe 4c 1b 3e 7b 21 cd be e2 ad 38 bc d6 94 c7 3d
       0.15166089 -0.40064606 -0.011271926 0.09745185
000350 f9 af 79 3e cd 73 b5 bc 78 ac 0b 3e 39 16 dd be
       0.24383534 -0.022149945 0.1364001 -0.43181017
000360 f6 8b 20 bc 95 08 ef 3d 5f 8f b2 3e 3d a6 2b be
       -0.009798994 0.11671559 0.34875008 -0.16762634
000370 ae 13 60 bd c5 86 ae be 67 30 f2 bc b4 e9 0e 3e
       -0.054706268 -0.34087196 -0.029564096 0.13956338
000380 cb af b5 3e 2b ae 92 3c bb 64 d4 3c e4 cb 9f be
       0.35485682 0.017905315 0.025926938 -0.31210244
000390 95 01 3a bd 87 c8 a7 3d 30 7f ac 3e d3 ae 9b bc
       -0.045411665 0.081925444 0.33690786 -0.019004261
0003a0 8c 4e 80 3d c2 cd d1 be 49 fe b9 bd 2b 47 3d 3e
       0.062649816 -0.40977293 -0.09081704 0.1848418
0003b0 5d 38 94 3e 29 8e ae bd 89 c2 0c 3d 85 b7 b1 be
       0.28949252 -0.08523209 0.03436521 -0.34710327
0003c0 96 52 35 bb 5c fc 16 3d 47 99 38 3e d8 2f 9a 3d
       -0.0027667633 0.036861762 0.1802722 0.07528657
0003d0 2f 86 dc 3c cf 99 e8 be e7 8d 36 3e 27 9f 40 3e
       0.026919452 -0.45429847 0.17827569 0.18810712
0003e0 e4 6b d6 3e ef 13 4c bd 05 ef 4a bd 1a cb 4c bc
       0.4187919 -0.049823698 -0.049544353 -0.012499595
0003f0 31 7a 29 bd 9b 34 1e bc d6 6b 41 be 6c 91 27 bd
       -0.041376296 -0.009656097 -0.18888792 -0.04091017
