config/ppo/results/RayShoot0610_멍청함/Shooting/Shooting-499997.onnx (onnx, 14918 bytes, 9 tensors)

action_model._discrete_distribution.branches.0.bias f4 [6]
00000000: 090b dbbc 717b 5d3d 492c 783d c661 723d
00000010: de98 febc e139 b7bd
-0.02673866 0.0540728 0.06058911 0.059175275 -0.031078752 -0.089465864

action_model._discrete_distribution.branches.0.weight f4 [6, 20]
00000000: eaf9 3839 b2e9 4e3d 01ef 783e 0b75 a2be
00000010: 37b2 8d3d 6659 163e 8f37 c73e 5354 983e
00000020: bade 1f3c 9b24 81bd e2b5 873e 6e67 8b3e
00000030: 3627 ca3d ff1c b63e f8c2 3f3e 12b6 43be
00000040: 19ed d53c 5432 17be 97de 93bc a93b 2abe
00000050: 0a97 ac3d c163 c23b 8766 b4bd dc5e 2b3e
00000060: 31e9 883d a644 09be c174 06bd a119 7ebd
00000070: 2bb1 8f3d 1cd4 c23d 836c 1dbe 0ce4 b2bd
00000080: 5e03 643c bcf2 c8bd 09b4 4c3c 8dce 9b3d
00000090: 0857 ca3d 0bcd fc3d e2e8 40bd 27fa cb3d
000000a0: 5875 d23d 2a87 c33d 5f16 60be b90c 0d3e
000000b0: 2b8b 613d db24 dfba 9fb7 a8bc 5bef f8bd
000000c0: cac8 b1bd dcf3 183e 3fd0 f2bb 9aea b83b
000000d0: 48a3 643c 8d5e 37be 738a 0d3d 8200 313c
000000e0: 6190 d4bd 22fe 1f3e fbb1 bd3d 7e9a d23d
000000f0: c0ae cbbd 0cd9 50bd 87b2 18be 55ce 073e
00000100: ff02 fdbc 8ab8 21be bb78 d4bd 49ae b2bd
00000110: 53a1 73bd 5427 80bd eef3 f6bd 9774 c0bd
00000120: 5fee 5ebd 2818 24be dd73 a2bd a4d0 313d
00000130: 0956 d1bc f89c b73c b9c6 ae3d 9b80 7b3d
00000140: 2d09 6c3d 42fa e43c 3b7b 43be d6b6 073e
00000150: 86b9 7bbd 17e5 2bbe 0f09 c9bd c831 7fbd
00000160: f297 b13c 3568 d83c d60a 07be 9b30 a0bd
00000170: b5bf 16bd 1bc7 aabe f196 b1bd 0f13 e1bc
00000180: 0559 9ebc db6e 193d 5ff9 823d 335f 4a3d
00000190: 9b74 a8be 28ef cbbb 72f3 2b3e 60c6 27bd
000001a0: 3f80 dbbd e0ce 263e 7569 1ebd 455a 5dbd
000001b0: e053 ed3d 92b4 b0be fd9f 87bd 4707 05be
000001c0: dfe8 efbc 6328 083e c36e e1bd b2a1 9c3d
000001d0: 195c 613c 06fd 723d d169 82bd c872 edbd
0.00017640708 0.050515838 0.24309923 -0.31729922 0.069187574 0.1468254 0.38909575 0.29751834
0.009757692 -0.0630581 0.26505953 0.27227348 0.0987076 0.35568997 0.18726718 -0.19112423
0.026114034 -0.14765292 -0.018050475 -0.16624321 0.08427246 0.0059323017 -0.08808618 0.16735405
0.06685103 -0.13405094 -0.03282619 -0.06203616 0.07016214 0.09513113 -0.15373425 -0.08734903
0.013916818 -0.09811923 0.012494096 0.07607756 0.09879881 0.12343796 -0.047097094 0.09959822
0.10276288 0.09547265 -0.21883534 0.13774385 0.05506436 -0.0017024534 -0.02059537 -0.121550284
-0.086808756 0.14936775 -0.007410079 0.005643201 0.013954945 -0.17907162 0.034555864 0.010803344
-0.103791006 0.15624288 0.09262463 0.10283373 -0.0994544 -0.050988242 -0.14911853 0.13262303
-0.030885218 -0.15793052 -0.1037459 -0.087246485 -0.059480023 -0.06257501 -0.12058245 -0.09397238
-0.054426547 -0.1602484 -0.079322554 0.043411866 -0.02555372 0.022413716 0.08533997 0.061401945
0.05762594 0.027951363 -0.19089977 0.1325334 -0.061456226 -0.1678661 -0.09816181 -0.062303334
0.021678898 0.026416877 -0.13187727 -0.07821771 -0.03680392 -0.3335503 -0.08671368 -0.027474908
-0.019329557 0.037459236 0.0639522 0.049407195 -0.32901463 -0.006223578 0.16792086 -0.04096067
-0.107178204 0.16289854 -0.03867479 -0.054041166 0.115882635 -0.34512764 -0.06622312 -0.12991057
-0.029285846 0.13296656 -0.11007454 0.076480284 0.013754868 0.059323333 -0.06367839 -0.115941584

action_model._discrete_distribution.branches.1.bias f4 [3]
00000000: 609f ab3d ad65 fe3b 2fba babd
0.08380008 0.0077635855 -0.09117543

action_model._discrete_distribution.branches.1.weight f4 [3, 20]
00000000: 74e5 0ebe fd08 1cbd 9cd6 d43d bbe1 93be
00000010: f632 9abd 7b4c 453c ca9d af3e 61b3 d63e
00000020: 774a d3bd 7872 373d b9fc b73e 3385 af3e
00000030: 7eb8 a13d 23a0 ab3e c1d4 e03d 4fd6 92be
00000040: 7522 fdbd c96c d9be 3e83 e53c 8cbf a0bd
00000050: b16b 61bd a545 b23e ece3 b3be 17a5 1abd
00000060: ddc4 b93d 8c2b 96be ea85 a6be 25ff 23be
00000070: ff85 dabe 2d86 18bd 7abf cabe 0bbc cd3d
00000080: 6d90 ed3d 2f8f 0abf a90f bd3d ea43 0cbf
00000090: 11ce 53bc 9490 083f 3d40 643d d357 353e
000000a0: d481 a23d 4ec0 9ebe d41b 273e 46ee b83e
000000b0: 60f0 30bd e67b 503e c63b 1fbc 58f4 a7be
000000c0: a533 ce3e bdf3 7dbc 2b6e 56bd b81d edbe
000000d0: 1c45 2dbe d6c7 813d 2e80 7ebe 5717 223f
000000e0: 642d 363e a6e2 09be fecf 143a 14c6 cebd
-0.13954717 -0.03809451 0.10392496 -0.28883156 -0.07529251 0.01204216 0.3430007 0.4193373
-0.103169374 0.0447869 0.35935 0.3428131 0.07896517 0.33520612 0.109780796 -0.2867913
-0.12360088 -0.4246581 0.028016683 -0.07849035 -0.055034343 0.3481876 -0.35134828 -0.0377551
0.09070752 -0.293301 -0.32524043 -0.16015299 -0.42680356 -0.037237335 -0.3959921 0.10045632
0.11599813 -0.5412473 0.092315026 -0.5479113 -0.012927548 0.5334561 0.055725325 0.17709284
0.07934919 -0.31006092 0.1631921 0.36119288 -0.04319799 0.20359764 -0.009718841 -0.32803607
0.40273777 -0.015500006 -0.052351158 -0.46311736 -0.16920894 0.06336944 -0.24853584 0.63316864
0.17790753 -0.13465366 0.0005676745 -0.10096374

action_model._discrete_distribution.branches.2.bias f4 [3]
00000000: 1cc8 c2ba cf13 8cb7 aaac af3c
-0.0014860663 -1.6698525e-05 0.021444637

action_model._discrete_distribution.branches.2.weight f4 [3, 20]
00000000: f9bc 973c 3b81 583c 3f51 1a3d 08b3 efbc
00000010: b8fd 85bd 7926 17bb 9de7 703d 548b c93b
00000020: af1c f93a 81f1 82bd 33f0 81bc ef52 41bd
00000030: d8f7 eebc 9b86 ee3c fd1d 9bbb aa22 a6bc
00000040: 8bf0 0ebe 9d0e 4bbc 7c21 453d 3339 acbd
00000050: b4b7 e439 f66e d13c 717e 5bbc a29f 0ebc
00000060: 8421 5a3d 8d6f b23c f7e7 c6bd 50bb 8dbc
00000070: 3546 7f3d 398d 873d 17c4 2a3c 0721 113c
00000080: 001b 653b a8de c3bc 537e 74bc d197 de3c
00000090: 1868 583c f63f 533b 893c 04bd 44c8 5f3d
000000a0: d68a 16bd 848f a13c 686a e23c 20d0 1a3d
000000b0: 95bd 1c3d 0d79 273d 5784 713d e398 a63d
000000c0: 709e 653d 3856 39bd 05f3 143d 2d98 423d
000000d0: faf8 563c 4f66 2dbd b7f2 513d 7866 813d
000000e0: d085 033e d8a2 1d3d ef02 3bbc eed3 4a3d
0.018522726 0.013214405 0.03767514 -0.029260173 -0.06542534 -0.0023063703 0.058814634 0.0061506424
0.0019005741 -0.063937195 -0.015861606 -0.047198232 -0.029170915 0.02911692 -0.0047337995 -0.020280201
-0.13958947 -0.012393621 0.048127636 -0.084093474 0.00043624418 0.025565606 -0.013396845 -0.008705052
0.05325462 0.021781707 -0.097122125 -0.017301232 0.062322814 0.06618733 0.010422728 0.008857972
0.003495872 -0.023909882 -0.014922696 0.027172001 0.013208412 0.0032234169 -0.032284293 0.054634348
-0.036753498 0.019721754 0.02763863 0.03779614 0.038266737 0.040886927 0.0589641 0.081346296
0.0560593 -0.04524824 0.036364574 0.047508407 0.013120884 -0.042333897 0.05125686 0.063183725
0.12844014 0.038485378 -0.011414274 0.04951852

discrete_action_output_shape f4 [1, 3]
00000000: 0000 c040 0000 4040 0000 4040
6.0 3.0 3.0

network_body._body_endoder.seq_layers.0.bias f4 [20]
00000000: 1427 3c3d 6dfb 093e 0530 b03d 815b 3e3e
00000010: 2753 143c c220 f93d 0bf5 0a3e 1e74 e83d
00000020: 6c37 233e e7db f63c 6c74 6b3d 4b66 113e
00000030: f2f4 9e3d 3c9b f13d 135b 243e 5dc8 133e
00000040: 5dd3 cd3c 0edf 4f3e d121 dbbc 314c d43d
0.045935705 0.13474818 0.08602909 0.18589593 0.009053028 0.12164451 0.13570039 0.113502726
0.1593911 0.030134154 0.057484075 0.14199178 0.07761563 0.11797187 0.16050367 0.14431901
0.0251252 0.20299932 -0.026749523 0.10366095

network_body._body_endoder.seq_layers.0.weight f4 [20, 128]
00000000: 9d91 86be d21e 293e ee68 7dbb 4888 313d
00000010: decc f83d 3fed 8fbd e7d3 87be 6e2c b33d
00000020: 0ca0 393e 9cd2 4abd c834 c53d 1bf6 babd
00000030: 8845 75be 4fbc 3fbe 67e4 583d ee71 b23c
00000040: 8524 8bbc 75b9 433d 4fae cebe e01f 243d
00000050: 3086 cfbb df84 693d e13f b3bd fcfc e9bc
00000060: b430 2dbd d15c 84be 0dcd eb3d ecd1 cb3a
00000070: e7d9 62be bc42 dd3d b9db d3bd 7e2d d9bd
00000080: 023b ff3d d71f 083e 4ba0 9d39 3513 1b3d
00000090: 0173 973c 59ff 883d 1ef7 d83d c2c6 083d
000000a0: 42a2 91be a82f 1b3c c269 2bbe 9fdc 04bc
000000b0: e66b 853e 1760 5d3d 518e f6bd a5a5 1bbc
000000c0: c78d bbbd e200 f6bd bbff d23d 1a1a afbd
000000d0: 9889 ca3d 47cf d93d 8354 c3bd 6353 bbbd
000000e0: f438 9e3c 7b73 623e 0293 3bbd ceaa 8f3d
000000f0: a5c0 bbbd ee93 9a3c d9fc 303e 4d16 9f3d
00000100: 81ed 5f3c 5ced 2e3e 0417 893d ae0b 22be
00000110: d390 9d3d e2fd 93be 7c8a af3c dc9b 873d
00000120: f914 f53d 5e9c fcbb 1505 4b3d 98d5 bdbc
00000130: 56d3 8d3c 7b04 f43d 4715 533c eca7 babd
00000140: 2495 15be 162b 85bd c28a 8bbc 8421 a63d
00000150: 528f 8ebd 05a8 bbbd 7a7a 7e3e d769 02be
00000160: 2e0b f5bd 34a7 0a3d 7ec4 8ebd 3f32 963d
00000170: 71f4 5e3d c9c8 72be 7f69 303e b9f6 1d3d
00000180: 254c 64be a36c 113e 9726 153e 9809 80be
00000190: f6f6 a7bc b0ce d4ba df68 86bb 9650 243d
000001a0: b019 563e 83e8 d7bc 693f 263d 3ae2 2abd
000001b0: 1ad0 d53d 584c c63d 5641 3c3e 9e1a edbd
000001c0: 247b 2ebd d86a 7c3c e66c 183d ae81 b33d
000001d0: a0e8 5f3e 64a7 18bd 279c f23c 93e7 1c3c
000001e0: 4aab 9d3c e4bc 383e de69 173e df67 57be
000001f0: 5c7d ffbc 5783 5b3e 9a9f e1bd 12cd 40be
00000200: 4bbe 4f3d d0cf 2b3e 8a9f 273e 9296 c3be
00000210: c164 ee3d 641f 213e e094 da3e e5de fcbc
00000220: 6760 433e 1012 0cbf 21e7 a3bd 9262 463e
00000230: a983 0a3f 3fa7 b5bd 8caf 1a3e 53e3 16bf
00000240: a265 3b3c 9e21 dd3d 7a42 a73e a283 abbd
00000250: 5270 573e 8d5e 37bf d165 fdbd ad07 e93c
00000260: ca32 b33e 9f09 38bc b616 953e 8a0b 17bf
00000270: 8a8b f23c 3208 ec3c cf6a 1e3f d1fe ccbc
00000280: 3e3a 783e 9113 06bf 35e4 a2bd b68d cd3d
00000290: 9dd8 dd3e 27f3 46be a2c8 843d 8ac5 88be
000002a0: ac1e b43b 3fb9 d23d 7827 693e 28ea 8e3d
000002b0: c192 233e 9503 ffbe 4d0d 0dbd e6e2 0ebb
000002c0: 853e 0b3e 225a 163e a0ba cc3d 6df2 fbbe
000002d0: 2a64 51bd 7c71 92bb 2c56 4b3e c708 e1bd
000002e0: 677a 383e 069c b2be 8da9 48be 0b16 023e
000002f0: 46c6 923e 20b1 293c 4825 9d3d 6a6e bcbe
00000300: 700c a83d f37e 193e 9638 793d d0aa 323d
00000310: a6ed 203e b9ae 9abe b844 4e3d 041d 043e
00000320: 62ad cbbd b279 f5bd 7978 2e3e 20f4 acbe
00000330: c0f8 09be 2c79 b03d 6b56 c03d 77a4 c83d
00000340: cbe3 7f3e 2784 b0be 5e30 02bd cf09 dd3d
00000350: 41e2 b33d be42 573d 3fbc 6e3e f47c b7be
00000360: 8ac3 6ebd 1449 d83d 5974 973e b1d6 acbd
00000370: 30b2 a7bb 8286 58be c57f 03bd a3f0 0b3e
00000380: 0ad7 6e3e a96a 133d 8d9c 803d 22e9 6dbe
00000390: 4c47 4b3c b957 f93d bad8 643e a7eb 3c3d
000003a0: 5656 023e 1b8c adbe 4190 99bc 5574 773e
000003b0: ce45 763e 53b0 fdbd fe63 a03d 2cb2 87be
000003c0: 65ac 993d 6c74 c33d b1bc 273e 9a22 6d3d
000003d0: c7cb a53d 5175 87be 7083 823e 9091 7f3e
000003e0: d2f1 d23e 7a60 e5bd 917d 4bbc dd3f 7b3b
000003f0: 9c34 973c a839 813d b316 12be a422 adbd
-0.2628297 0.16515663 -0.003866728 0.04334286 0.1214845 -0.07027673 -0.26528856 0.08748709
0.1812746 -0.04951726 0.09629208 -0.09128972 -0.23952305 -0.18724178 0.052952196 0.021782842
-0.016985187 0.047784287 -0.40367362 0.04006946 -0.006333135 0.05701148 -0.08752418 -0.028563015
-0.042282775 -0.25852063 0.1151372 0.0015550232 -0.22153436 0.10803744 -0.10344643 -0.1060438
0.12462427 0.13293396 0.000300648 0.037860114 0.018487455 0.06689329 0.10594009 0.033392675
-0.28444105 0.009471811 -0.16739562 -0.008109241 0.26058882 0.054046717 -0.120388635 -0.009499942
-0.09157901 -0.12011887 0.10302683 -0.085499 0.09889525 0.10635238 -0.09537604 -0.09146764
0.019314267 0.22114365 -0.045794494 0.07015 -0.091676034 0.018869366 0.17283954 0.077679254
0.013667465 0.17082733 0.06693843 -0.15824768 0.07693639 -0.28904635 0.02142834 0.06621525
0.11966891 -0.00770907 0.049565393 -0.023173138 0.017312687 0.11914917 0.012883491 -0.0911406
-0.14607674 -0.065023586 -0.017033938 0.08111861 -0.0696093 -0.091629066 0.24851409 -0.12735687
-0.11965023 0.033850864 -0.06971072 0.073338024 0.054432336 -0.23709406 0.17227744 0.03856537
-0.22294672 0.14201598 0.14565502 -0.2500732 -0.020503502 -0.0016235914 -0.004101857 0.040115915
0.20908237 -0.026355987 0.040587816 -0.041719653 0.10440083 0.0968253 0.18384299 -0.115773425
-0.042597905 0.015406333 0.03721323 0.08764969 0.21866083 -0.03726901 0.029615475 0.009576696
0.019246716 0.18040806 0.14786479 -0.21035717 -0.031187706 0.21436821 -0.1101677 -0.18828228
0.050718587 0.16778493 0.16369453 -0.38200814 0.11640311 0.15734631 0.42691708 -0.030868003
0.19079743 -0.5471506 -0.08003069 0.19373539 0.5410715 -0.0886979 0.15106028 -0.5894062
0.011437805 0.107974276 0.32667905 -0.08374716 0.2103894 -0.7162865 -0.123729356 0.028446043
0.34999686 -0.011232763 0.2911889 -0.5900198 0.029607553 0.028812502 0.61881727 -0.02502385
0.24240968 -0.52373606 -0.07953683 0.10036795 0.43329325 -0.19428693 0.0648358 -0.2671321
0.0054968204 0.10289239 0.22768962 0.069782555 0.15973951 -0.4980742 -0.034436513 -0.0021802722
0.13598068 0.1468282 0.099965334 -0.49208394 -0.051120915 -0.004469095 0.1985709 -0.10988002
0.18015443 -0.3488466 -0.19595928 0.12703721 0.28666896 0.010357171 0.076731265 -0.3680299
0.08205497 0.14989834 0.06084498 0.04361993 0.15715656 -0.30211428 0.050358504 0.12901694
-0.099451795 -0.11986102 0.17038144 -0.33780003 -0.13473797 0.08616862 0.09391483 0.09796994
0.2498924 -0.34475824 -0.031784408 0.107928865 0.08783389 0.052553885 0.23313998 -0.3583752
-0.05829195 0.105608135 0.29580954 -0.08439387 -0.005117677 -0.2114506 -0.032104272 0.13666014
0.23324218 0.03599039 0.0627986 -0.23233464 0.012407135 0.12174935 0.223483 0.046123173
0.12728247 -0.33895954 -0.018745543 0.24165471 0.24050066 -0.12387147 0.07831572 -0.26503122
0.07503585 0.0954369 0.16380574 0.057894327 0.08095508 -0.26456693 0.25490904 0.24957871
0.4120012 -0.11200042 -0.012420074 0.0038337626 0.018457703 0.06309825 -0.14266472 -0.08453873
