config/ppo/results/RayShoot0610_멍청함/Shooting/Shooting-1499999.onnx (onnx, 14918 bytes, 9 tensors)

action_model._discrete_distribution.branches.0.bias f4 [6]
-0.08694985 0.08913209 -0.007708338 0.010377861 0.06796375 -0.20371874
00000000: c312 b2bd e38a b63d 3a96 fcbb e707 2a3c
00000010: 9430 8b3d a59b 50be

action_model._discrete_distribution.branches.0.weight f4 [6, 20]
-0.0054658335 -0.0069976593 0.33206657 -0.334884 -0.07970489 0.18770532 0.5090243 0.36403897
0.059620712 -0.03217081 0.3810994 0.32715875 0.030913893 0.46081793 0.13229218 -0.27655554
-0.032471873 -0.2603385 0.08498233 -0.34082013 -0.069389366 0.03321494 -0.09603602 0.18046369
0.15893853 0.07353794 -0.09498104 -0.061815694 0.12813675 -0.048194498 -0.23307069 -0.09261672
0.12857111 -0.22596683 0.040576655 0.115075454 0.23116641 0.16942362 0.049555495 0.13852164
0.17680019 0.093881994 -0.1754131 0.1412496 0.16560028 -0.23428659 0.011719431 -0.05174016
-0.11049575 0.15870827 0.11322314 0.0016385746 -0.033497598 -0.08038515 0.12560423 0.054891758
-0.080662966 0.1497681 0.10929595 0.131245 0.092834935 -0.05107243 -0.3000531 0.10689207
-0.22919223 -0.23214892 -0.19373877 -0.20602167 -0.1861383 0.13288325 -0.30363345 -0.11856266
-0.16401896 -0.18268904 -0.21266362 0.022956604 -0.23280361 0.032160405 0.11127881 -0.007977023
0.0006776686 0.031656533 -0.23142692 0.23006567 -0.12873828 -0.20419219 -0.09341472 -0.13476191
0.032360867 0.076318555 -0.096416436 -0.053855963 -0.1441824 -0.35867468 -0.123259865 0.0787173
-0.04263605 0.040297426 0.11764231 0.08433806 -0.43082315 -0.06459242 0.042373393 -0.1328747
-0.32377243 0.037745718 -0.20866334 -0.0037174886 -0.027016819 -0.34281367 -0.18146184 -0.19893043
-0.006523703 0.0645736 -0.24066086 0.10460339 -0.2186125 -0.06888826 0.12786368 -0.23381627
00000000: bc1a b3bb 9f4c e5bb a104 aa3e ea75 abbe
00000010: 513c a3bd d335 403e 6b4f 023f 5163 ba3e
00000020: d934 743d 8ac5 03bd 761f c33e 5a81 a73e
00000030: 223f fd3c 54f0 eb3e 9a77 073e b098 8dbe
00000040: 3a01 05bd 164b 85be 370b ae3d fa7f aebe
00000050: 031c 8ebd 640c 083d 88ae c4bd 79cb 383e
00000060: c8c0 223e 0f9b 963d 6b85 c2bd 7432 7dbd
00000070: 4836 033e 9867 45bd 15aa 6ebe d6ad bdbd
00000080: 25a8 033e d963 67be b533 263d aeac eb3d
00000090: e3b6 6c3e 637d 2d3e b4fa 4a3d 9ed8 0d3e
000000a0: 1c0b 353e 3445 c03d 7e9f 33be bca3 103e
000000b0: 1f93 293e d3e8 6fbe db02 403c 7ded 53bd
000000c0: 994b e2bd 6c84 223e 89e1 e73d 71c5 d63a
000000d0: c734 09bd f8a0 a4bd 659e 003e 2ed6 603d
000000e0: a032 a5bd cf5c 193e 8ed6 df3d 1765 063e
000000f0: 3e20 be3d 5331 51bd 8fa0 99be 3bea da3d
00000100: 5eb1 6abe 72b8 6dbe 7563 46be 58f7 52be
00000110: 0a9b 3ebe 8c12 083e d875 9bbe fbd0 f2bd
00000120: 96f4 27be d612 3bbe 7ec4 59be 7d0f bc3c
00000130: 1264 6ebe a1ba 033d 25e6 e33d 0fb2 02bc
00000140: 92a5 313a 48aa 013d 2efb 6cbe 5696 6b3e
00000150: f8d3 03be c217 51be 3750 bfbd 07ff 09be
00000160: d48c 043d e74c 9c3d fb75 c5bd 1298 5cbd
00000170: 8da4 13be 35a4 b7be ab6f fcbd 8936 a13d
00000180: 24a3 2ebd ea0e 253d 74ee f03d 6fb9 ac3d
00000190: da94 dcbe 0849 84bd b98f 2d3d 4e10 08be
000001a0: 80c5 a5be 419b 1a3d d8ab 55be 1ca1 73bb
000001b0: 6052 ddbc 4685 afbe 22d1 39be 6bb4 4bbe
000001c0: cac4 d5bb 2a3f 843d cd6f 76be 4d3a d63d
000001d0: f5db 5fbe 4a15 8dbd b2ee 023e 886d 6fbe

action_model._discrete_distribution.branches.1.bias f4 [3]
0.04602147 -0.008914934 -0.06580725
00000000: 0281 3c3d f10f 12bc f4c5 86bd

action_model._discrete_distribution.branches.1.weight f4 [3, 20]
-0.13924395 -0.11241622 0.14630955 -0.37479398 -0.1291515 -0.058300167 0.52078897 0.46174031
-0.15513924 0.023537975 0.3602172 0.3359895 0.1333467 0.32351416 0.103453465 -0.31261167
-0.18461478 -0.59575593 0.079153 -0.11393745 -0.023628732 0.4580902 -0.25337914 -0.10200564
0.06838701 -0.1378126 -0.45219308 -0.10348521 -0.54209757 0.049183253 -0.34962314 0.17346787
0.15603234 -0.4786258 0.18047868 -0.72493213 0.0105493255 0.6444055 0.07372521 0.19475153
0.07711079 -0.34334767 0.11164213 0.4780526 0.06547567 0.17253956 -0.050587453 -0.39070535
0.5082641 -0.07657393 -0.034055203 -0.5134812 -0.28487796 0.07828931 -0.30685568 0.7895199
0.22248742 -0.10800662 -0.024085514 -0.072460204
00000000: f795 0ebe 7a3a e6bd 2cd2 153e ffe4 bfbe
00000010: 4a40 04be 28cc 6ebd 6d52 053f 3a69 ec3e
00000020: d2dc 1ebe b6d2 c03c 646e b83e d106 ac3e
00000030: 0a8c 083e a6a3 a53e 69df d33d a30e a0be
00000040: a80b 3dbe 7683 18bf f81a a23d 0a58 e9bd
00000050: 0b91 c1bc cc8a ea3e e9ba 81be 55e8 d0bd
00000060: 7d0e 8c3d bf1e 0dbe da85 e7be 0ef0 d3bd
00000070: e8c6 0abf 6174 493d ce01 b3be 90a1 313e
00000080: f1c6 1f3e 710e f5be 67cf 383e 2795 39bf
00000090: 14d7 2c3c c2f7 243f 3efd 963d f26c 473e
000000a0: 43ec 9d3d 44cb afbe a1a4 e43d 4fc3 f43e
000000b0: 1c18 863d 36ae 303e ca34 4fbd 880a c8be
000000c0: 991d 023f cbd2 9cbd 787d 0bbd 8173 03bf
000000d0: 86db 91be 2556 a03d 301c 9dbe fa1d 4a3f
000000e0: bed3 633e 9332 ddbd fc4e c5bc 0466 94bd

action_model._discrete_distribution.branches.2.bias f4 [3]
-0.046791665 0.018041935 0.067823105
00000000: 9ea8 3fbd aecc 933c d7e6 8a3d

action_model._discrete_distribution.branches.2.weight f4 [3, 20]
0.12902525 0.012347432 -0.00038555032 0.02611037 0.013949352 0.047133468 0.059790563 0.050953127
-0.03336605 0.026751995 -0.03337313 0.004505647 0.017748632 0.04014732 -0.0032794713 0.0033990352
-0.110316284 0.025563193 -0.0038899388 0.02034344 -0.0683891 0.14554268 0.06606974 -0.039011437
0.057585504 0.050318956 -0.09097508 0.03948655 0.021990445 -0.02808089 0.08248848 0.07909727
0.11262156 0.02818181 0.08184008 0.010675791 0.023183336 0.04905036 0.07350324 0.0069875186
-0.02435374 -0.0491334 0.050126202 0.04300585 -0.0005549569 0.018344503 0.17208277 0.11154245
0.1407816 -0.013882186 0.100868136 0.0206824 -0.0545325 -0.01038704 0.039789435 0.12618577
0.11506388 -0.008537677 0.020887159 0.046304
00000000: 321f 043e e24c 4a3c b023 cab9 6ae5 d53c
00000010: d38b 643c 060f 413d f3e6 743d 3ab4 503d
00000020: d7aa 08bd 0027 db3c 43b2 08bd 1ba4 933b
00000030: 9465 913c 8471 243d 66ec 56bb 59c2 5e3b
00000040: 81ed e1bd e769 d13c 58ee 7ebb 49a7 a63c
00000050: 960f 8cbd 2409 153e 924f 873d 75ca 1fbd
00000060: c7de 6b3d 401b 4e3d 2551 babd a6bc 213d
00000070: 4e25 b43c e509 e6bc b8ef a83d c0fd a13d
00000080: 22a6 e63d 8add e63c c69b a73d 83e9 2e3c
00000090: fbea bd3c 08e9 483d de88 963d 8ef7 e43b
000000a0: 7f81 c7bc 1b40 49bd 2251 4d3d e726 303d
000000b0: 877a 11ba 3647 963c 7736 303e 5e70 e43d
000000c0: 0d29 103e 1c72 63bc f493 ce3d 236e a93c
000000d0: 795d 5fbd 672e 2abc 3ffa 223d d836 013e
000000e0: 9da6 eb3d 9de1 0bbc 8c1b ab3c 43a9 3d3d

discrete_action_output_shape f4 [1, 3]
6.0 3.0 3.0
00000000: 0000 c040 0000 4040 0000 4040

network_body._body_endoder.seq_layers.0.bias f4 [20]
0.12253843 0.1107664 0.058525257 0.2201782 0.14159195 0.11222229 0.1965734 0.08273096
0.16964659 -0.040596742 0.035102706 0.12356865 0.07297659 0.069552585 0.16207941 0.17325462
0.09564254 0.20857464 -0.025898578 0.11851134
00000000: 6ef5 fa3d 7fd9 e23d 2eb8 6f3d 6576 613e
00000010: 7bfd 103e cdd4 e53d 8a4a 493e d96e a93d
00000020: d6b7 2d3e c548 26bd dbc7 0f3d 8f11 fd3d
00000030: c074 953d 9671 8e3d 25f8 253e a969 313e
00000040: 3ce0 c33d 9794 553e 4129 d4bc 13b6 f23d

network_body._body_endoder.seq_layers.0.weight f4 [20, 128]
-0.40571254 0.0045807515 -0.12003532 0.1580751 -0.124559164 -0.19204581 -0.268314 -0.12918139
0.11246108 0.13358915 -0.022590052 -0.16573314 -0.13606584 -0.26638773 0.027798766 0.03530632
-0.06168443 0.01827286 -0.37900063 -0.14418541 -0.023923103 0.06080023 -0.20295492 -0.011837889
-0.08459921 -0.4369276 0.07392674 0.06593635 -0.36515507 0.17792074 -0.13937584 -0.26235017
0.09579995 0.23290034 -0.10525534 0.13164283 -0.041974273 -0.12801659 0.14569998 0.0049995934
-0.46166703 0.093601875 -0.21363997 -0.18970987 0.28733835 0.030409427 -0.35579714 0.058554403
-0.11769322 -0.22693451 0.128147 -0.010419288 -0.10752916 0.14997984 -0.07166536 -0.2543859
0.024860157 0.32944077 -0.13867263 0.15292703 -0.056934495 -0.1618169 0.16601151 0.10130938
0.043301564 0.2639552 -0.0005561879 -0.33705008 0.09423452 -0.42217425 0.055957973 0.17042841
0.13485235 -0.19437139 0.044039108 -0.2851207 0.0048338934 0.2442826 -0.057276156 -0.21121158
-0.12981752 -0.285932 -0.05891538 0.16460182 -0.12418387 -0.23657037 0.25385752 -0.15099216
-0.10948805 0.1291494 -0.018097853 -0.103543885 0.03906674 -0.29574603 0.31792825 0.123411335
-0.1036419 -0.14348693 0.10560122 -0.3420357 0.056028746 0.082389906 0.19123884 -0.15689395
0.17405649 -0.14546798 0.06473748 0.024529904 0.18033929 0.005741312 0.16330713 -0.27127314
0.0010945894 0.10273535 0.033007104 0.031079762 0.23227912 -0.09424198 -0.018015185 0.09030559
0.045645606 0.016263476 0.16930676 -0.10139492 -0.14044167 0.2367456 -0.1678313 -0.33116493
0.03311858 0.36199665 0.15510179 -0.4355766 0.31819427 0.10304608 0.71429664 0.031528745
0.16963781 -0.55785525 0.13091323 0.16130473 0.81830984 -0.016082352 0.10876808 -0.44097963
0.14503871 0.0860034 0.46726185 -0.041210033 0.18150923 -0.7089685 -0.011349498 -0.011700811
0.47026053 0.08501666 0.2549782 -0.730752 0.17497654 -0.04246591 0.8087854 -0.025719477
0.23780578 -0.67455906 -0.09149299 0.034154564 0.61200666 -0.1556493 -0.032483485 -0.22782174
0.035869308 0.06085265 0.41080278 0.04261917 0.06482425 -0.44044226 0.013814655 -0.000978653
0.2620953 0.15865219 0.03305642 -0.57385427 0.06685397 0.07813132 0.32371712 -0.118238404
0.10908573 -0.3870896 -0.08110362 0.18018943 0.5116492 -0.14344361 -0.039818086 -0.25848222
0.053964183 0.15533821 0.19997112 -0.1009394 -0.023271924 -0.22438817 0.06529491 0.12598602
0.09804856 -0.26165476 0.022798162 -0.40407956 -0.08491356 0.090207145 0.51681024 -0.013361949
0.1315051 -0.35170993 0.0137810195 0.09354822 0.3576686 -0.09172882 0.11908646 -0.35816675
-0.05202486 0.07740602 0.42699748 -0.18612827 -0.09202054 -0.20553711 -0.07764668 0.10113039
0.4405969 -0.00023725202 0.017749298 -0.23683636 -0.03181698 0.047895227 0.40403503 -0.05423565
0.043050174 -0.36403033 -0.061945703 0.15834297 0.3904662 -0.13512008 0.019887667 -0.33965936
-0.076520085 -0.052042596 0.26214427 -0.0124843335 0.0023848715 -0.42132315 0.056876756 0.09258845
0.49037352 -0.15732288 -0.05888305 0.0061730132 -0.024375787 0.013219166 -0.24323294 -0.10213813
00000000: 8eb9 cfbe 211a 963b 14d5 f5bd 70de 213e
00000010: e018 ffbd a8a7 44be 7460 89be 2048 04be
00000020: ff51 e63d 98cb 083e c60e b9bc f3b5 29be
00000030: d854 0bbe f963 88be 3dba e33c 5c9d 103d
00000040: d0a8 7cbd f7b0 953c 5f0c c2be 57a5 13be
00000050: 62fa c3bc a909 793d 6ad3 4fbe b5f3 41bc
00000060: 5a42 adbd f9b4 dfbe e766 973d a309 873d
00000070: 9bf5 babe db30 363e 8ab8 0ebe c352 86be
00000080: c432 c43d 6d7d 6e3e 1d90 d7bd 61cd 063e
00000090: 37ed 2bbd c816 03be 6032 153e a1d3 a33b
000000a0: 9f5f ecbe 57b2 bf3d 70c4 5abe 4e43 42be
000000b0: 031e 933e 311d f93c 0b2b b6be bed6 6f3d
000000c0: 2509 f1bd 8561 68be f838 033e a9b5 2abc
000000d0: 4038 dcbd 5194 193e 4ac5 92bd de3e 82be
000000e0: 87a7 cb3c 76ac a83e 3300 0ebe e798 1c3e
000000f0: 2534 69bd 54b3 25be ecfe 293e 4b7b cf3d
00000100: fb5c 313d 2325 873e 23cd 11ba d491 acbe
00000110: 07fe c03d 3927 d8be 3034 653d c984 2e3e
00000120: bc16 0a3e 4b09 47be 5a62 343d 57fb 91be
00000130: a365 9e3b 3825 7a3e 679a 6abd d947 58be
00000140: e2ee 04be ae65 92be 4151 71bd 618d 283e
00000150: 1d54 febd 813f 72be 9df9 813e b09d 1abe
00000160: 453b e0bd be3f 043e f341 94bc d10e d4bd
00000170: 7204 203d 066c 97be 7ec7 a23e 15bf fc3d
00000180: 3442 d4bd 3dee 12be 7445 d83d 4e1f afbe
00000190: 667e 653d 0abc a83d 1dd4 433e cfa8 20be
000001a0: dd3b 323e 8ff5 14be 1595 843d f0f2 c83c
000001b0: ddaa 383e 9e21 bc3b fc39 273e 50e4 8abe
000001c0: 5378 8f3a e966 d23d 7532 073d fc9a fe3c
000001d0: 94da 6d3e f001 c1bd 9594 93bc 23f2 b83d
000001e0: e3f6 3a3d fb3a 853c c05e 2d3e 24a8 cfbd
000001f0: f1cf 0fbe 706d 723e f8db 2bbe 738e a9be
00000200: 59a7 073d a057 b93e 01d3 1e3e e503 dfbe
00000210: 5cea a23e d309 d33d 25dc 363f 4924 013d
00000220: 89b5 2d3e 9acf 0ebf 1e0e 063e 112d 253e
00000230: c17c 513f 23bf 83bc cdc1 de3d 15c8 e1be
00000240: 0785 143e 8d22 b03d f23c ef3e dacb 28bd
00000250: 8edd 393e f67e 35bf 3ff3 39bc c2b4 3fbc
00000260: fdc5 f03e 371d ae3d 818c 823e 9012 3bbf
00000270: 0d2d 333e bcf0 2dbd 8f0c 4f3f a7b1 d2bc
00000280: 5c83 733e e7af 2cbf ad60 bbbd a8e5 0b3d
00000290: 78ac 1c3f 8862 1fbe 670d 05bd 1a4a 69be
000002a0: b2eb 123d a140 793d be54 d23e 7091 2e3d
000002b0: 94c2 843d a681 e1be dd56 623c 2546 80ba
000002c0: 5b31 863e b875 223e 2b66 073d 1de8 12bf
000002d0: bcea 883d 5003 a03d 40be a53e fa26 f2bd
000002e0: 5768 df3d 9c30 c6be a819 a6bd 9483 383e
000002f0: 71fb 023f e2e2 12be 4a18 23bd c857 84be
00000300: 8c09 5d3d fb10 1f3e 3bc5 4c3e 51b9 cebd
00000310: c3a4 bebc 03c6 65be 56b9 853d 7b02 013e
00000320: afcd c83d 9df7 85be 36c3 ba3c 84e3 cebe
00000330: 29e7 adbd 86be b83d ad4d 043f 13ec 5abc
00000340: 46a9 063e 5313 b4be c9c9 613c 3696 bf3d
00000350: 5720 b73e 52dc bbbd 9ae3 f33d a261 b7be
00000360: 0518 55bd 0c87 9e3d 6a9f da3e 6998 3ebe
00000370: 4475 bcbd 5278 52be 3905 9fbd 731d cf3d
00000380: eb95 e13e dbc6 78b9 fa66 913c 3b85 72be
00000390: 8652 02bd c92d 443d aedd ce3e 3326 5ebd
000003a0: 6155 303d 2f62 babe c7ba 7dbd a924 223e
000003b0: 30eb c73e eb5c 0abe 76eb a23c d5e7 adbe
000003c0: 90b6 9cbd 9e2a 55bd c637 863e 178b 4cbc
000003d0: 814b 1c3b abb7 d7be 9af7 683d 039f bd3d
000003e0: 3d12 fb3e 4019 21be 5a2f 71bd fd46 ca3b
000003f0: bbaf c7bc 3395 583c 0e12 79be cc2d d1bd
