config/ppo/results/RayShoot0610_멍청함/Shooting/Shooting-499997.pt (torch, 80583 bytes, 34 tensors)

discrete_act_size_vector f4 [1, 3]
6.0 3.0 3.0
00000000: 0000 c040 0000 4040 0000 4040

network_body._body_endoder.seq_layers.0.weight f4 [20, 128]
-0.2628297 0.16515663 -0.003866728 0.04334286 0.1214845 -0.07027673 -0.26528856 0.08748709
0.1812746 -0.04951726 0.09629208 -0.09128972 -0.23952305 -0.18724178 0.052952196 0.021782842
-0.016985187 0.047784287 -0.40367362 0.04006946 -0.006333135 0.05701148 -0.08752418 -0.028563015
-0.042282775 -0.25852063 0.1151372 0.0015550232 -0.22153436 0.10803744 -0.10344643 -0.1060438
0.12462427 0.13293396 0.000300648 0.037860114 0.018487455 0.06689329 0.10594009 0.033392675
-0.28444105 0.009471811 -0.16739562 -0.008109241 0.26058882 0.054046717 -0.120388635 -0.009499942
-0.09157901 -0.12011887 0.10302683 -0.085499 0.09889525 0.10635238 -0.09537604 -0.09146764
0.019314267 0.22114365 -0.045794494 0.07015 -0.091676034 0.018869366 0.17283954 0.077679254
0.013667465 0.17082733 0.06693843 -0.15824768 0.07693639 -0.28904635 0.02142834 0.06621525
0.11966891 -0.00770907 0.049565393 -0.023173138 0.017312687 0.11914917 0.012883491 -0.0911406
-0.14607674 -0.065023586 -0.017033938 0.08111861 -0.0696093 -0.091629066 0.24851409 -0.12735687
-0.11965023 0.033850864 -0.06971072 0.073338024 0.054432336 -0.23709406 0.17227744 0.03856537
-0.22294672 0.14201598 0.14565502 -0.2500732 -0.020503502 -0.0016235914 -0.004101857 0.040115915
0.20908237 -0.026355987 0.040587816 -0.041719653 0.10440083 0.0968253 0.18384299 -0.115773425
-0.042597905 0.015406333 0.03721323 0.08764969 0.21866083 -0.03726901 0.029615475 0.009576696
0.019246716 0.18040806 0.14786479 -0.21035717 -0.031187706 0.21436821 -0.1101677 -0.18828228
0.050718587 0.16778493 0.16369453 -0.38200814 0.11640311 0.15734631 0.42691708 -0.030868003
0.19079743 -0.5471506 -0.08003069 0.19373539 0.5410715 -0.0886979 0.15106028 -0.5894062
0.011437805 0.107974276 0.32667905 -0.08374716 0.2103894 -0.7162865 -0.123729356 0.028446043
0.34999686 -0.011232763 0.2911889 -0.5900198 0.029607553 0.028812502 0.61881727 -0.02502385
0.24240968 -0.52373606 -0.07953683 0.10036795 0.43329325 -0.19428693 0.0648358 -0.2671321
0.0054968204 0.10289239 0.22768962 0.069782555 0.15973951 -0.4980742 -0.034436513 -0.0021802722
0.13598068 0.1468282 0.099965334 -0.49208394 -0.051120915 -0.004469095 0.1985709 -0.10988002
0.18015443 -0.3488466 -0.19595928 0.12703721 0.28666896 0.010357171 0.076731265 -0.3680299
0.08205497 0.14989834 0.06084498 0.04361993 0.15715656 -0.30211428 0.050358504 0.12901694
-0.099451795 -0.11986102 0.17038144 -0.33780003 -0.13473797 0.08616862 0.09391483 0.09796994
0.2498924 -0.34475824 -0.031784408 0.107928865 0.08783389 0.052553885 0.23313998 -0.3583752
-0.05829195 0.105608135 0.29580954 -0.08439387 -0.005117677 -0.2114506 -0.032104272 0.13666014
0.23324218 0.03599039 0.0627986 -0.23233464 0.012407135 0.12174935 0.223483 0.046123173
0.12728247 -0.33895954 -0.018745543 0.24165471 0.24050066 -0.12387147 0.07831572 -0.26503122
0.07503585 0.0954369 0.16380574 0.057894327 0.08095508 -0.26456693 0.25490904 0.24957871
0.4120012 -0.11200042 -0.012420074 0.0038337626 0.018457703 0.06309825 -0.14266472 -0.08453873
00000000: 9d91 86be d21e 293e ee68 7dbb 4888 313d
00000010: decc f83d 3fed 8fbd e7d3 87be 6e2c b33d
00000020: 0ca0 393e 9cd2 4abd c834 c53d 1bf6 babd
00000030: 8845 75be 4fbc 3fbe 67e4 583d ee71 b23c
00000040: 8524 8bbc 75b9 433d 4fae cebe e01f 243d
00000050: 3086 cfbb df84 693d e13f b3bd fcfc e9bc
00000060: b430 2dbd d15c 84be 0dcd eb3d ecd1 cb3a
00000070: e7d9 62be bc42 dd3d b9db d3bd 7e2d d9bd
00000080: 023b ff3d d71f 083e 4ba0 9d39 3513 1b3d
00000090: 0173 973c 59ff 883d 1ef7 d83d c2c6 083d
000000a0: 42a2 91be a82f 1b3c c269 2bbe 9fdc 04bc
000000b0: e66b 853e 1760 5d3d 518e f6bd a5a5 1bbc
000000c0: c78d bbbd e200 f6bd bbff d23d 1a1a afbd
000000d0: 9889 ca3d 47cf d93d 8354 c3bd 6353 bbbd
000000e0: f438 9e3c 7b73 623e 0293 3bbd ceaa 8f3d
000000f0: a5c0 bbbd ee93 9a3c d9fc 303e 4d16 9f3d
00000100: 81ed 5f3c 5ced 2e3e 0417 893d ae0b 22be
00000110: d390 9d3d e2fd 93be 7c8a af3c dc9b 873d
00000120: f914 f53d 5e9c fcbb 1505 4b3d 98d5 bdbc
00000130: 56d3 8d3c 7b04 f43d 4715 533c eca7 babd
00000140: 2495 15be 162b 85bd c28a 8bbc 8421 a63d
00000150: 528f 8ebd 05a8 bbbd 7a7a 7e3e d769 02be
00000160: 2e0b f5bd 34a7 0a3d 7ec4 8ebd 3f32 963d
00000170: 71f4 5e3d c9c8 72be 7f69 303e b9f6 1d3d
00000180: 254c 64be a36c 113e 9726 153e 9809 80be
00000190: f6f6 a7bc b0ce d4ba df68 86bb 9650 243d
000001a0: b019 563e 83e8 d7bc 693f 263d 3ae2 2abd
000001b0: 1ad0 d53d 584c c63d 5641 3c3e 9e1a edbd
000001c0: 247b 2ebd d86a 7c3c e66c 183d ae81 b33d
000001d0: a0e8 5f3e 64a7 18bd 279c f23c 93e7 1c3c
000001e0: 4aab 9d3c e4bc 383e de69 173e df67 57be
000001f0: 5c7d ffbc 5783 5b3e 9a9f e1bd 12cd 40be
00000200: 4bbe 4f3d d0cf 2b3e 8a9f 273e 9296 c3be
00000210: c164 ee3d 641f 213e e094 da3e e5de fcbc
00000220: 6760 433e 1012 0cbf 21e7 a3bd 9262 463e
00000230: a983 0a3f 3fa7 b5bd 8caf 1a3e 53e3 16bf
00000240: a265 3b3c 9e21 dd3d 7a42 a73e a283 abbd
00000250: 5270 573e 8d5e 37bf d165 fdbd ad07 e93c
00000260: ca32 b33e 9f09 38bc b616 953e 8a0b 17bf
00000270: 8a8b f23c 3208 ec3c cf6a 1e3f d1fe ccbc
00000280: 3e3a 783e 9113 06bf 35e4 a2bd b68d cd3d
00000290: 9dd8 dd3e 27f3 46be a2c8 843d 8ac5 88be
000002a0: ac1e b43b 3fb9 d23d 7827 693e 28ea 8e3d
000002b0: c192 233e 9503 ffbe 4d0d 0dbd e6e2 0ebb
000002c0: 853e 0b3e 225a 163e a0ba cc3d 6df2 fbbe
000002d0: 2a64 51bd 7c71 92bb 2c56 4b3e c708 e1bd
000002e0: 677a 383e 069c b2be 8da9 48be 0b16 023e
000002f0: 46c6 923e 20b1 293c 4825 9d3d 6a6e bcbe
00000300: 700c a83d f37e 193e 9638 793d d0aa 323d
00000310: a6ed 203e b9ae 9abe b844 4e3d 041d 043e
00000320: 62ad cbbd b279 f5bd 7978 2e3e 20f4 acbe
00000330: c0f8 09be 2c79 b03d 6b56 c03d 77a4 c83d
00000340: cbe3 7f3e 2784 b0be 5e30 02bd cf09 dd3d
00000350: 41e2 b33d be42 573d 3fbc 6e3e f47c b7be
00000360: 8ac3 6ebd 1449 d83d 5974 973e b1d6 acbd
00000370: 30b2 a7bb 8286 58be c57f 03bd a3f0 0b3e
00000380: 0ad7 6e3e a96a 133d 8d9c 803d 22e9 6dbe
00000390: 4c47 4b3c b957 f93d bad8 643e a7eb 3c3d
000003a0: 5656 023e 1b8c adbe 4190 99bc 5574 773e
000003b0: ce45 763e 53b0 fdbd fe63 a03d 2cb2 87be
000003c0: 65ac 993d 6c74 c33d b1bc 273e 9a22 6d3d
000003d0: c7cb a53d 5175 87be 7083 823e 9091 7f3e
000003e0: d2f1 d23e 7a60 e5bd 917d 4bbc dd3f 7b3b
000003f0: 9c34 973c a839 813d b316 12be a422 adbd

network_body._body_endoder.seq_layers.0.bias f4 [20]
0.045935705 0.13474818 0.08602909 0.18589593 0.009053028 0.12164451 0.13570039 0.113502726
0.1593911 0.030134154 0.057484075 0.14199178 0.07761563 0.11797187 0.16050367 0.14431901
0.0251252 0.20299932 -0.026749523 0.10366095
00000000: 1427 3c3d 6dfb 093e 0530 b03d 815b 3e3e
00000010: 2753 143c c220 f93d 0bf5 0a3e 1e74 e83d
00000020: 6c37 233e e7db f63c 6c74 6b3d 4b66 113e
00000030: f2f4 9e3d 3c9b f13d 135b 243e 5dc8 133e
00000040: 5dd3 cd3c 0edf 4f3e d121 dbbc 314c d43d

action_model._discrete_distribution.branches.0.weight f4 [6, 20]
0.00017640708 0.050515838 0.24309923 -0.31729922 0.069187574 0.1468254 0.38909575 0.29751834
0.009757692 -0.0630581 0.26505953 0.27227348 0.0987076 0.35568997 0.18726718 -0.19112423
0.026114034 -0.14765292 -0.018050475 -0.16624321 0.08427246 0.0059323017 -0.08808618 0.16735405
0.06685103 -0.13405094 -0.03282619 -0.06203616 0.07016214 0.09513113 -0.15373425 -0.08734903
0.013916818 -0.09811923 0.012494096 0.07607756 0.09879881 0.12343796 -0.047097094 0.09959822
0.10276288 0.09547265 -0.21883534 0.13774385 0.05506436 -0.0017024534 -0.02059537 -0.121550284
-0.086808756 0.14936775 -0.007410079 0.005643201 0.013954945 -0.17907162 0.034555864 0.010803344
-0.103791006 0.15624288 0.09262463 0.10283373 -0.0994544 -0.050988242 -0.14911853 0.13262303
-0.030885218 -0.15793052 -0.1037459 -0.087246485 -0.059480023 -0.06257501 -0.12058245 -0.09397238
-0.054426547 -0.1602484 -0.079322554 0.043411866 -0.02555372 0.022413716 0.08533997 0.061401945
0.05762594 0.027951363 -0.19089977 0.1325334 -0.061456226 -0.1678661 -0.09816181 -0.062303334
0.021678898 0.026416877 -0.13187727 -0.07821771 -0.03680392 -0.3335503 -0.08671368 -0.027474908
-0.019329557 0.037459236 0.0639522 0.049407195 -0.32901463 -0.006223578 0.16792086 -0.04096067
-0.107178204 0.16289854 -0.03867479 -0.054041166 0.115882635 -0.34512764 -0.06622312 -0.12991057
-0.029285846 0.13296656 -0.11007454 0.076480284 0.013754868 0.059323333 -0.06367839 -0.115941584
00000000: eaf9 3839 b2e9 4e3d 01ef 783e 0b75 a2be
00000010: 37b2 8d3d 6659 163e 8f37 c73e 5354 983e
00000020: bade 1f3c 9b24 81bd e2b5 873e 6e67 8b3e
00000030: 3627 ca3d ff1c b63e f8c2 3f3e 12b6 43be
00000040: 19ed d53c 5432 17be 97de 93bc a93b 2abe
00000050: 0a97 ac3d c163 c23b 8766 b4bd dc5e 2b3e
00000060: 31e9 883d a644 09be c174 06bd a119 7ebd
00000070: 2bb1 8f3d 1cd4 c23d 836c 1dbe 0ce4 b2bd
00000080: 5e03 643c bcf2 c8bd 09b4 4c3c 8dce 9b3d
00000090: 0857 ca3d 0bcd fc3d e2e8 40bd 27fa cb3d
000000a0: 5875 d23d 2a87 c33d 5f16 60be b90c 0d3e
000000b0: 2b8b 613d db24 dfba 9fb7 a8bc 5bef f8bd
000000c0: cac8 b1bd dcf3 183e 3fd0 f2bb 9aea b83b
000000d0: 48a3 643c 8d5e 37be 738a 0d3d 8200 313c
000000e0: 6190 d4bd 22fe 1f3e fbb1 bd3d 7e9a d23d
000000f0: c0ae cbbd 0cd9 50bd 87b2 18be 55ce 073e
00000100: ff02 fdbc 8ab8 21be bb78 d4bd 49ae b2bd
00000110: 53a1 73bd 5427 80bd eef3 f6bd 9774 c0bd
00000120: 5fee 5ebd 2818 24be dd73 a2bd a4d0 313d
00000130: 0956 d1bc f89c b73c b9c6 ae3d 9b80 7b3d
00000140: 2d09 6c3d 42fa e43c 3b7b 43be d6b6 073e
00000150: 86b9 7bbd 17e5 2bbe 0f09 c9bd c831 7fbd
00000160: f297 b13c 3568 d83c d60a 07be 9b30 a0bd
00000170: b5bf 16bd 1bc7 aabe f196 b1bd 0f13 e1bc
00000180: 0559 9ebc db6e 193d 5ff9 823d 335f 4a3d
00000190: 9b74 a8be 28ef cbbb 72f3 2b3e 60c6 27bd
000001a0: 3f80 dbbd e0ce 263e 7569 1ebd 455a 5dbd
000001b0: e053 ed3d 92b4 b0be fd9f 87bd 4707 05be
000001c0: dfe8 efbc 6328 083e c36e e1bd b2a1 9c3d
000001d0: 195c 613c 06fd 723d d169 82bd c872 edbd

action_model._discrete_distribution.branches.0.bias f4 [6]
-0.02673866 0.0540728 0.06058911 0.059175275 -0.031078752 -0.089465864
00000000: 090b dbbc 717b 5d3d 492c 783d c661 723d
00000010: de98 febc e139 b7bd

action_model._discrete_distribution.branches.1.weight f4 [3, 20]
-0.13954717 -0.03809451 0.10392496 -0.28883156 -0.07529251 0.01204216 0.3430007 0.4193373
-0.103169374 0.0447869 0.35935 0.3428131 0.07896517 0.33520612 0.109780796 -0.2867913
-0.12360088 -0.4246581 0.028016683 -0.07849035 -0.055034343 0.3481876 -0.35134828 -0.0377551
0.09070752 -0.293301 -0.32524043 -0.16015299 -0.42680356 -0.037237335 -0.3959921 0.10045632
0.11599813 -0.5412473 0.092315026 -0.5479113 -0.012927548 0.5334561 0.055725325 0.17709284
0.07934919 -0.31006092 0.1631921 0.36119288 -0.04319799 0.20359764 -0.009718841 -0.32803607
0.40273777 -0.015500006 -0.052351158 -0.46311736 -0.16920894 0.06336944 -0.24853584 0.63316864
0.17790753 -0.13465366 0.0005676745 -0.10096374
00000000: 74e5 0ebe fd08 1cbd 9cd6 d43d bbe1 93be
00000010: f632 9abd 7b4c 453c ca9d af3e 61b3 d63e
00000020: 774a d3bd 7872 373d b9fc b73e 3385 af3e
00000030: 7eb8 a13d 23a0 ab3e c1d4 e03d 4fd6 92be
00000040: 7522 fdbd c96c d9be 3e83 e53c 8cbf a0bd
00000050: b16b 61bd a545 b23e ece3 b3be 17a5 1abd
00000060: ddc4 b93d 8c2b 96be ea85 a6be 25ff 23be
00000070: ff85 dabe 2d86 18bd 7abf cabe 0bbc cd3d
00000080: 6d90 ed3d 2f8f 0abf a90f bd3d ea43 0cbf
00000090: 11ce 53bc 9490 083f 3d40 643d d357 353e
000000a0: d481 a23d 4ec0 9ebe d41b 273e 46ee b83e
000000b0: 60f0 30bd e67b 503e c63b 1fbc 58f4 a7be
000000c0: a533 ce3e bdf3 7dbc 2b6e 56bd b81d edbe
000000d0: 1c45 2dbe d6c7 813d 2e80 7ebe 5717 223f
000000e0: 642d 363e a6e2 09be fecf 143a 14c6 cebd

action_model._discrete_distribution.branches.1.bias f4 [3]
0.08380008 0.0077635855 -0.09117543
00000000: 609f ab3d ad65 fe3b 2fba babd

action_model._discrete_distribution.branches.2.weight f4 [3, 20]
0.018522726 0.013214405 0.03767514 -0.029260173 -0.06542534 -0.0023063703 0.058814634 0.0061506424
0.0019005741 -0.063937195 -0.015861606 -0.047198232 -0.029170915 0.02911692 -0.0047337995 -0.020280201
-0.13958947 -0.012393621 0.048127636 -0.084093474 0.00043624418 0.025565606 -0.013396845 -0.008705052
0.05325462 0.021781707 -0.097122125 -0.017301232 0.062322814 0.06618733 0.010422728 0.008857972
0.003495872 -0.023909882 -0.014922696 0.027172001 0.013208412 0.0032234169 -0.032284293 0.054634348
-0.036753498 0.019721754 0.02763863 0.03779614 0.038266737 0.040886927 0.0589641 0.081346296
0.0560593 -0.04524824 0.036364574 0.047508407 0.013120884 -0.042333897 0.05125686 0.063183725
0.12844014 0.038485378 -0.011414274 0.04951852
00000000: f9bc 973c 3b81 583c 3f51 1a3d 08b3 efbc
00000010: b8fd 85bd 7926 17bb 9de7 703d 548b c93b
00000020: af1c f93a 81f1 82bd 33f0 81bc ef52 41bd
00000030: d8f7 eebc 9b86 ee3c fd1d 9bbb aa22 a6bc
00000040: 8bf0 0ebe 9d0e 4bbc 7c21 453d 3339 acbd
00000050: b4b7 e439 f66e d13c 717e 5bbc a29f 0ebc
00000060: 8421 5a3d 8d6f b23c f7e7 c6bd 50bb 8dbc
00000070: 3546 7f3d 398d 873d 17c4 2a3c 0721 113c
00000080: 001b 653b a8de c3bc 537e 74bc d197 de3c
00000090: 1868 583c f63f 533b 893c 04bd 44c8 5f3d
000000a0: d68a 16bd 848f a13c 686a e23c 20d0 1a3d
000000b0: 95bd 1c3d 0d79 273d 5784 713d e398 a63d
000000c0: 709e 653d 3856 39bd 05f3 143d 2d98 423d
000000d0: faf8 563c 4f66 2dbd b7f2 513d 7866 813d
000000e0: d085 033e d8a2 1d3d ef02 3bbc eed3 4a3d

action_model._discrete_distribution.branches.2.bias f4 [3]
-0.0014860663 -1.6698525e-05 0.021444637
00000000: 1cc8 c2ba cf13 8cb7 aaac af3c

exp_avg f4 [20, 128]
2.5911126e-05 4.3411907e-05 9.678586e-05 -9.017195e-06 4.319939e-05 0.00010612782 2.522207e-05 5.9448485e-05
0.00011221898 1.180857e-05 2.3862218e-05 8.4058265e-05 3.7724443e-05 5.81394e-05 9.648192e-05 2.3354272e-05
2.7921918e-05 8.076759e-05 4.4171415e-05 6.2778396e-05 9.722684e-05 1.7471913e-05 1.3108989e-05 5.5352604e-05
2.4804134e-05 6.120664e-05 8.2128485e-05 1.7472905e-05 2.465854e-05 4.4422715e-05 2.4803925e-05 7.499683e-05
8.22282e-05 -4.124132e-23 5.8897866e-05 4.5719746e-05 1.0663565e-07 5.231653e-05 0.00010289723 2.1282669e-05
3.0918156e-05 3.940619e-05 8.69893e-08 5.9813472e-05 0.000102760365 2.8635994e-24 3.1651136e-05 3.963135e-05
8.697772e-08 5.8061407e-05 8.6577944e-05 2.8635994e-24 3.723701e-05 4.271088e-05 -5.343908e-07 5.6734025e-05
8.32791e-05 -1.4038715e-23 5.1372033e-05 3.7816055e-05 -5.3573467e-07 8.112396e-05 0.00011052481 -1.4038715e-23
4.988778e-05 4.0369985e-05 -9.786815e-08 8.076005e-05 8.605668e-05 5.1539976e-38 4.880362e-05 4.476231e-05
-9.65004e-08 7.823762e-05 8.4698986e-05 5.15394e-38 4.8122198e-05 4.26177e-05 -9.679637e-08 9.437912e-05
0.00012385327 5.15394e-38 4.843387e-05 5.3680877e-05 1.7491893e-06 9.3572104e-05 0.00012357449 5.030251e-38
4.3733962e-05 5.3211905e-05 1.7355298e-06 7.37243e-05 0.000120822886 -1.1980284e-34 3.9644536e-05 5.00051e-05
1.7355298e-06 7.323797e-05 0.000117166914 -1.1980284e-34 3.9741128e-05 8.470844e-05 7.0869836e-15 6.589963e-05
0.000114472336 5.030251e-38 -1.725734e-05 4.546705e-05 7.0869836e-15 7.593825e-05 0.00012334406 5.030251e-38
-1.2285608e-05 5.0936706e-05 -6.889788e-24 7.693071e-05 0.00011122706 1.0265739e-37 -5.7072616e-06 4.037853e-05
2.0697088e-17 5.497698e-05 9.46396e-05 -0.00077016687 0.0007353554 -1.9169392e-14 1.4619767e-05 2.5911126e-05
0.00025962727 -0.00027488146 0.00043162826 8.12353e-06 9.5735144e-05 0.00057996804 0.00024975545 -0.00033547718
0.0003130556 0.00033013712 9.67097e-06 0.00062057143 0.00061750534 -0.0003305293 0.00044042262 -2.6554239e-05
1.0708109e-05 0.0005601674 0.00039445356 -0.00032343762 0.00029409863 -2.5602317e-08 -3.1061275e-06 0.0005123818
0.00025205116 -0.00029814854 0.00021076348 -1.2477712e-08 0.00010608849 0.00059142103 0.00025205026 -0.00053682306
0.0001948664 -3.7932396e-23 4.46432e-06 0.00059782754 2.323029e-06 -0.00039013763 0.00031538095 0.00023479306
-0.00018534786 0.0005564817 -5.3755666e-05 -0.00042651405 0.0001742895 7.9898404e-24 -0.00019148052 0.00046417446
-5.375653e-05 -0.00042303637 0.00021795719 7.9898404e-24 -0.00021487307 0.00057936023 2.862181e-05 -0.00046632433
0.00045709798 -6.7277094e-23 -0.00023649172 0.0005805784 2.861709e-05 0.00021414305 0.00074023 -6.7277094e-23
-0.00035183708 0.00045845658 4.516653e-06 0.0002508677 0.0007602519 -3.64207e-40 -0.00031346286 0.00047930918
4.5225484e-06 0.00025521603 0.00075321615 -3.59046e-40 -0.00031112414 0.00041721092 4.5228367e-06 0.00022769379
0.0006327912 -3.59046e-40 -0.00034592528 0.00028758522 3.4298e-05 0.00024193287 0.000629083 1.67021e-40
-0.00033197668 0.0001675711 3.4292665e-05 -0.00034874093 0.0003800918 1.2958791e-31 -0.00030314978 0.00017448966
3.4292665e-05 -0.0003197263 0.0004122558 1.2958791e-31 -0.0003015152 -5.870228e-06 4.9444206e-15 -0.00025005173
0.0004796915 1.67028e-40 -5.9901868e-05 0.0001622675 4.9444206e-15 -0.0002819287 0.00044965552 1.67028e-40
-0.00010599363 0.00013282319 -7.619945e-24 -0.00027728136 0.00048650312 -1.0862842e-36 -0.00025314125 0.00019056599
-3.862599e-15 -0.00027714737 0.0005992116 0.01669859 -0.013321368 -1.6751684e-14 -0.00086792186 0.00025962727
00000000: b85b d937 2e15 3638 83f9 ca38 8f48 17b7
00000010: fe30 3538 f190 de38 fc93 d337 5358 7938
00000020: 1b57 eb38 6c1d 4637 b92b c837 7048 b038
00000030: 503a 1e38 b5da 7338 5656 ca38 ebe8 c337
00000040: dd39 ea37 c561 a938 b244 3938 e5a7 8338
00000050: 43e6 cb38 a690 9237 aeee 5b37 682a 6838
00000060: 7912 d037 115c 8038 653c ac38 c792 9237
00000070: d0d9 ce37 8752 3a38 0612 d037 9e47 9d38
00000080: ee71 ac38 486e 479a 1a09 7738 34c3 3f38
00000090: 92ff e433 726e 5b38 88ca d738 2f88 b237
000000a0: 1eae 0138 1348 2538 e0ce ba33 3ae0 7a38
000000b0: 0d81 d738 6e8f 5d18 26c1 0438 d739 2638
000000c0: 82c8 ba33 f686 7338 2e91 b538 6e8f 5d18
000000d0: ef2e 1c38 7524 3338 0e73 0fb5 b2f5 6d38
000000e0: 20a6 ae38 2dc6 8799 4d78 5738 ae9c 1e38
000000f0: 68cf 0fb5 1821 aa38 8ec9 e738 2dc6 8799
00000100: 993e 5138 f152 2938 962b d2b3 b95d a938
00000110: 5479 b438 1f4e 8c01 7db2 4c38 2abf 3b38
00000120: a83b cfb3 8113 a438 6ca0 b138 b84d 8c01
00000130: d1d6 4938 68c0 3238 5ede cfb3 67ed c538
00000140: 9cde 0139 b84d 8c01 7925 4b38 6727 6138
00000150: b0c5 ea35 243c c438 c693 0139 bcef 8801
00000160: fc6e 3738 d92f 5f38 5af0 e835 6f9c 9a38
00000170: 4b62 fd38 cb3e 1f87 ff47 2638 91bc 5138
00000180: 5af0 e835 5697 9938 82b7 f538 cb3e 1f87
00000190: b6af 2638 7fa5 b138 e355 ff27 9833 8a38
000001a0: de10 f038 bcef 8801 dbc3 90b7 e0b3 3e38
000001b0: e355 ff27 0a41 9f38 eb55 0139 bcef 8801
000001c0: 491e 4eb7 dfa4 5538 9444 0599 dc55 a138
000001d0: 9342 e938 e1ba 0b02 0181 bfb6 1e5c 2938
000001e0: 9ee5 be23 1597 6638 4079 c638 06e5 49ba
000001f0: dec4 403a 9ca9 aca8 6c47 7537 b85b d937
00000200: 951e 8839 f71d 90b9 2a4c e239 4c4a 0837
00000210: 6ac5 c838 ff08 183a 9cf1 8239 fce2 afb9
00000220: 9d21 a439 4116 ad39 8040 2237 d8ad 223a
00000230: 15e0 213a e44a adb9 86e8 e639 cbc0 deb7
00000240: faa6 3337 33d8 123a a9ce ce39 1093 a9b9
00000250: 4031 9a39 17ec dbb2 dd72 50b6 5c51 063a
00000260: bc25 8439 d250 9cb9 6400 5d39 8f5d 56b2
00000270: d37b de38 9809 1b3a 9d25 8439 96b9 0cba
00000280: 0d55 4c39 086e 379a 38cc 9536 87b7 1c3a
00000290: 56e5 1b36 638b ccb9 b759 a539 c832 7639
000002a0: f059 42b9 dbe0 113a b577 61b8 bf9d dfb9
000002b0: 7bc1 3639 c68b 1a19 29c8 48b9 715c f339
000002c0: a278 61b8 fbca ddb9 708b 6439 c68b 1a19
000002d0: 8d4f 61b9 35e0 173a de18 f037 fe7c f4b9
000002e0: a7a6 ef39 81aa a29a c3fa 77b9 f531 183a
000002f0: bc0e f037 968b 6039 ff0b 423a 81aa a29a
00000300: c676 b8b9 005d f039 c18d 9736 e586 8339
00000310: a44b 473a 43f7 0380 4658 a4b9 ca4b fb39
00000320: 65c0 9736 84ce 8539 7b73 453a e0e8 0380
00000330: 601e a3b9 1abd da39 dfc2 9736 16c1 6e39
00000340: e6e1 253a e0e8 0380 4e5d b5b9 09c7 9639
00000350: 32db 0f38 5caf 7d39 0ce9 243a 96d1 0100
00000360: 280d aeb9 06b6 2f39 78d5 0f38 37d7 b6b9
00000370: 0f47 c739 f836 280c 13f0 9eb9 36f7 3639
00000380: 78d5 0f38 f0a0 a7b9 0924 d839 f836 280c
00000390: af14 9eb9 e0f8 c4b6 3b24 b227 6019 83b9
000003a0: 1a7f fb39 9bd1 0100 243f 7bb8 5a26 2a39
000003b0: 3b24 b227 d4cf 93b9 bebf eb39 9bd1 0100
000003c0: e648 deb8 7446 0b39 2464 1399 1360 91b9
000003d0: 5811 ff39 5ad2 b883 0bb8 84b9 abd2 4739
000003e0: 302a 8ba7 174e 91b9 6914 1d3a 7bcb 883c
000003f0: de41 5abc c1e2 96a8 4085 63ba 951e 8839

exp_avg_sq f4 [20, 128]
6.4207245e-07 6.128378e-07 1.3654402e-06 6.0981466e-07 7.2020833e-07 2.0456246e-06 3.4848455e-07 5.008162e-07
1.5129056e-06 6.2499583e-07 7.556418e-07 2.1043884e-06 3.7539374e-07 5.066161e-07 1.4075798e-06 5.227197e-07
7.2413553e-07 2.139796e-06 3.6323067e-07 4.813815e-07 1.1260212e-06 3.172748e-07 7.1165374e-07 2.285697e-06
1.2816265e-07 4.9529626e-07 1.2096544e-06 1.1419901e-06 7.33898e-07 2.0497655e-06 4.6393442e-08 4.8832163e-07
1.2302557e-06 8.801238e-07 7.1150373e-07 1.8890079e-06 6.0368137e-09 4.280891e-07 1.2388095e-06 1.3395417e-07
1.5654939e-06 2.0389243e-06 5.0682026e-08 4.717668e-07 1.2443782e-06 1.3578455e-07 5.5830634e-07 1.9927347e-06
6.455312e-08 4.8842156e-07 1.1542264e-06 1.2521205e-07 5.679898e-07 1.9697306e-06 5.1536958e-08 4.7473418e-07
1.1471928e-06 1.1344854e-07 5.363467e-07 1.152272e-06 5.760993e-08 4.6371525e-07 1.1352613e-06 1.13387145e-07
5.02991e-07 1.0115056e-06 5.5030135e-08 4.4219468e-07 1.125822e-06 2.2474838e-07 5.056054e-07 9.456432e-07
5.355285e-08 4.773795e-07 1.1570852e-06 1.4335737e-07 4.4875244e-07 9.1479393e-07 6.484125e-08 3.883032e-07
1.1230736e-06 1.5456262e-08 4.3526532e-07 9.127242e-07 7.589655e-08 3.92317e-07 1.1638966e-06 1.6601641e-08
3.8984055e-07 8.94636e-07 1.1510661e-07 3.8049572e-07 1.1628624e-06 1.3474052e-08 3.707909e-07 9.190822e-07
8.048349e-08 3.662415e-07 1.0515602e-06 5.4559237e-08 4.2258222e-07 8.806527e-07 2.7266939e-08 3.076514e-07
9.91333e-07 4.395639e-08 4.199297e-07 8.5154335e-07 2.4169154e-08 2.8181424e-07 9.3934995e-07 1.3622118e-09
4.0037384e-07 8.349517e-07 2.8642281e-08 3.8666667e-07 9.890447e-07 2.3199533e-09 3.7702267e-07 8.287527e-07
4.7316504e-08 3.5106547e-07 9.716322e-07 0.0005017583 0.0025217002 3.7149263e-08 2.3600446e-06 6.4207245e-07
5.396737e-06 1.5124991e-05 2.6432497e-05 3.5091532e-06 1.5484513e-05 2.8477754e-05 6.5767404e-06 1.3977274e-05
2.4295741e-05 2.526338e-06 1.6261152e-05 2.8957238e-05 7.1287077e-06 1.39239255e-05 2.4389483e-05 1.5240958e-06
1.6715352e-05 3.0586187e-05 6.669961e-06 1.2491542e-05 2.2809543e-05 1.4799633e-06 1.6958547e-05 3.104318e-05
3.224179e-06 1.2281785e-05 2.2582582e-05 2.195122e-06 1.713004e-05 3.062554e-05 2.63247e-06 1.1598477e-05
2.1385606e-05 1.0744028e-06 1.814342e-05 2.9820372e-05 1.4704874e-06 1.1065297e-05 2.018436e-05 7.0813246e-07
1.809928e-05 2.9726301e-05 2.0305342e-06 1.0891303e-05 1.9304438e-05 3.2441093e-07 1.652603e-05 2.786498e-05
1.5649333e-06 1.0774824e-05 1.7356193e-05 1.8277404e-07 1.4961116e-05 2.6994561e-05 1.2261105e-06 1.0541325e-05
1.6725082e-05 1.4013779e-07 1.3829621e-05 2.572577e-05 1.353941e-06 1.0282583e-05 1.5979951e-05 2.9482992e-08
1.2663088e-05 2.4228564e-05 7.5403267e-07 9.981185e-06 1.528141e-05 2.1618396e-07 1.1829137e-05 2.2788898e-05
8.441957e-07 1.117256e-05 1.5447351e-05 1.9346423e-07 1.1551328e-05 2.1886986e-05 7.0473203e-07 9.770621e-06
1.44486785e-05 1.0539558e-08 1.0985082e-05 2.0632466e-05 7.033177e-07 8.731434e-06 1.355092e-05 1.1532267e-08
9.807901e-06 1.9604688e-05 6.8227814e-07 7.914055e-06 1.3070661e-05 2.0376687e-07 9.091367e-06 1.9265633e-05
6.112565e-07 7.553415e-06 1.2538576e-05 6.9066436e-07 8.481012e-06 1.809137e-05 8.3508644e-07 7.5478742e-06
1.2382774e-05 4.981249e-07 8.978676e-06 1.7142082e-05 6.294241e-07 7.0366805e-06 1.164322e-05 1.18895285e-08
8.337117e-06 1.6244878e-05 6.241467e-07 7.0171086e-06 1.1543239e-05 3.302826e-08 8.213673e-06 1.561371e-05
1.0753059e-06 6.2891954e-06 1.0566896e-05 0.016110381 0.033878013 4.3211838e-07 2.433341e-05 5.396737e-06
00000000: e25a 2c35 e581 2435 2b44 b735 25b2 2335
00000010: 5754 4135 9047 0936 5a17 bb34 d46f 0635
00000020: 0a0f cb35 63c5 2735 4fd7 4a35 1e39 0d36
00000030: b989 c934 65fe 0735 13ec bc35 0651 0c35
00000040: 3762 4235 6a99 0f36 0b02 c334 4938 0135
00000050: cb21 9735 eb55 aa34 7908 3f35 fa63 1936
00000060: 159d 0934 80f4 0435 695b a235 7b46 9935
00000070: 1601 4535 b48e 0936 2142 4733 3515 0335
00000080: 441f a535 a641 6c35 2afe 3e35 d189 fd35
00000090: 606c cf31 1ed4 e534 2c45 a635 0bd5 0f34
000000a0: f61d d235 74d4 0836 7aad 5933 2347 fd34
000000b0: 8204 a735 2ccc 1134 85de 1535 ecba 0536
000000c0: 74a0 8a33 131c 0335 ebea 9a35 0772 0634
000000d0: f677 1835 b72f 0436 7c59 5d33 f8de fe34
000000e0: 3ff9 9935 ffa0 f333 77f9 0f35 c4a7 9a35
000000f0: ca6e 7733 8af4 f834 485f 9835 3e7f f333
00000100: 4705 0735 11c3 8735 465a 6c33 c666 ed34
00000110: f31a 9735 5d52 7134 f0b8 0735 1bd8 7d35
00000120: fb01 6633 4525 0035 254d 9b35 c6ed 1934
00000130: 11ec f034 2990 7535 db3e 8b33 fc77 d034
00000140: 84bc 9635 aec4 8432 69ae e934 ee01 7535
00000150: 92fc a233 a39f d234 2f37 9c35 659b 8e32
00000160: 474b d134 eb26 7035 8730 f733 ef46 cc34
00000170: a613 9c35 827b 6732 1d11 c734 d9b6 7635
00000180: 44d6 ac33 d99f c434 5523 8d35 8454 6a33
00000190: 42df e234 fe65 6c35 a238 ea32 492b a534
000001a0: f10d 8535 90ca 3c33 b372 e134 9d95 6435
000001b0: 889c cf32 414c 9734 a327 7c35 9138 bb30
000001c0: f6f2 d634 7221 6035 0b09 f632 1097 cf34
000001d0: 51bf 8435 0d6d 1f31 9a69 ca34 7477 5e35
000001e0: 0c39 4b33 127a bc34 0769 8235 6e88 033a
000001f0: 1c43 253b 0c8e 1f33 4261 1e36 e25a 2c35
00000200: 9e15 b536 57c1 7d37 5bbb dd37 cb7e 6b36
00000210: bde4 8137 83e3 ee37 c5ad dc36 ef7f 6a37
00000220: b5ce cb37 288a 2936 8f68 8837 32e9 f237
00000230: 2233 ef36 ce9a 6937 0498 cc37 888f cc35
00000240: f237 8c37 ab49 0038 87ce df36 c492 5137
00000250: 1f57 bf37 27a3 c635 3442 8e37 5c34 0238
00000260: f95e 5836 dd0d 4e37 ba6f bd37 e94f 1336
00000270: 7bb2 8f37 ec73 0038 7da9 3036 1497 4237
00000280: 3d65 b337 3334 9035 b332 9837 c326 fa37
00000290: 905d c535 17a5 3937 9551 a937 7e16 3e35
000002a0: e8d3 9737 bf5c f937 5044 0836 cab9 3637
000002b0: f7ef a137 b32a ae34 61a1 8a37 97bf e937
000002c0: b30a d235 84c5 3437 2498 9137 8c40 4434
000002d0: 8101 7b37 6172 e237 d690 a435 a5da 3037
000002e0: d74c 8c37 c878 1634 c505 6837 accd d737
000002f0: 0fb9 b535 5c83 2c37 af0c 8637 c941 fd32
00000300: 8c73 5437 723e cb37 bb68 4a35 dd74 2737
00000310: 9430 8037 3220 6834 c275 4637 c92a bf37
00000320: b09c 6235 c871 3b37 ef94 8137 0bbb 4f34
00000330: 93cc 4137 f299 b737 d12c 3d35 7fec 2337
00000340: 9a68 7237 7711 3532 914c 3837 e213 ad37
00000350: a0cb 3c35 397d 1237 c258 6337 721f 4632
00000360: 9d8c 2437 bf74 a437 cc25 3735 9bc6 0437
00000370: 104a 5b37 03cb 5a34 2087 1837 a29c a137
00000380: 3a15 2435 5773 fd36 c65c 5237 1866 3935
00000390: ab49 0e37 ecc2 9737 b42a 6035 bf43 fd36
000003a0: 9cbf 4f37 e2b6 0535 1fa3 1637 57cc 8f37
000003b0: b2f5 2835 a01c ec36 4057 4337 b342 4c32
000003c0: a5df 0b37 9c45 8837 098b 2735 8174 eb36
000003d0: d6a9 4137 f5da 0d33 75cd 0937 30fa 8237
000003e0: 3b53 9035 c707 d336 7948 3137 ebf9 833c
000003f0: acc3 0a3d e6fd e734 9a1f cc37 9e15 b536

exp_avg f4 [20]
6.8138506e-05 0.0021279824 -0.0017924901 -0.0010219454 0.00046141815 -0.001022554 -0.002470871 -0.0016608463
-0.0015188857 7.9933896e-05 -0.0013175954 0.000293237 0.0002544416 -0.0011161456 -0.00010207922 -0.0025374251
-0.00021704604 0.0024842685 0.00029336114 0.0007656388
00000000: 95e5 8e38 9f75 0b3b fdf1 eaba ccf2 85ba
00000010: 7fea f139 3807 86ba 56ee 21bb c1b0 d9ba
00000020: 5915 c7ba 2fa2 a738 2ab3 acba 9bbd 9939
00000030: 9366 8539 a24b 92ba 5d13 d6b8 ee4a 26bb
00000040: da96 63b9 1ccf 223b 44ce 9939 26b5 483a

exp_avg_sq f4 [20]
4.036988e-06 6.078929e-05 4.8274047e-05 7.608021e-05 8.497139e-06 4.0988692e-05 9.070226e-05 8.15858e-05
7.2328374e-05 1.1402119e-05 7.932561e-05 9.5708005e-05 7.82168e-06 0.00011396441 2.4410225e-05 0.00016125338
1.4951868e-05 0.00014450365 7.1548793e-06 2.9449853e-05
00000000: 7675 8736 01f8 7e38 dd79 4a38 408d 9f38
00000010: ef8e 0e37 46eb 2b38 6837 be38 0b19 ab38
00000020: 00af 9738 ba4b 3f37 9d5b a638 d8b6 c838
00000030: dc39 0337 2d00 ef38 8fc4 cc37 2016 2939
00000040: c9d9 7a37 e785 1739 f213 f036 140b f737

exp_avg f4 [6, 20]
-0.0001927157 -0.0019205362 -0.001942824 -0.0032673024 -0.0019955125 -0.00014996812 -0.0015165738 -0.0006380792
-0.0010229998 -0.00084663695 -0.00032751757 -0.00030755057 -0.00036589458 -0.0013427832 -0.002247486 -0.0009017621
-0.0048326342 -0.002184869 -0.003584696 0.00022226242 -0.0028776573 -0.0028046533 0.00086670235 -0.0019748094
0.0009366006 -0.0013298567 0.0012071239 6.810167e-05 -0.0012166786 -0.0046407506 0.0006537905 -0.0011144048
-0.0006939825 0.0011458825 -0.0010226661 -0.0006480338 0.002375329 -0.0035179495 -0.00016090463 -0.0038512284
0.0049177976 0.006076228 0.0011470749 0.008357553 0.0025535345 0.002375779 0.0019067272 0.001999394
0.0032319839 0.0077809924 0.00045287627 0.0037217848 0.0023347256 0.001711831 0.004210254 0.0027757278
0.0038068334 0.0067149247 0.0017037112 0.005050599 0.00046119816 -0.004320033 -0.001595718 -0.008114392
-0.0023283435 -0.0020567444 -0.003186861 -0.0017403879 -0.0020900657 0.00052999635 -0.0012418196 -0.0036092652
-0.001636617 -0.0032609792 -0.0020043186 -0.003357706 -0.004730632 -0.005129677 -0.0028187402 -0.0031901305
-0.0019688827 0.0015140235 0.00023985181 0.002271953 -0.00022715172 0.00023855067 0.00030140762 -0.00014851842
-0.00011105107 -0.0025650414 4.586428e-05 0.000698249 -0.000114638955 0.00017632353 0.00011146934 0.00075144775
0.0004375367 0.0023446872 0.003188129 0.0013204961 -0.0003425507 0.0014550305 0.0012866051 0.0027295388
0.0010613649 0.0009228032 0.0012902247 0.00046000516 0.001209497 -0.00026247744 0.0004172679 0.0006111966
0.00047649286 0.0015719765 0.0009523685 0.0013813787 0.0029471687 0.0017729057 0.0016739785 0.0004468568
00000000: ba13 4ab9 80ba fbba 5ba6 feba 3d20 56bb
00000010: 25c7 02bb c340 1db9 c6c7 c6ba c544 27ba
00000020: 2d16 86ba d8f0 5dba aab6 abb9 bd3e a1b9
00000030: 8ad5 bfb9 5400 b0ba 8f4a 13bb 3b64 6cba
00000040: 135b 9ebb 0530 0fbb 38ed 6abb 1d0f 6939
00000050: 1497 3cbb 46ce 37bb 6933 633a ce6b 01bb
00000060: 3486 753a 964e aeba 5b38 9e3a ced1 8e38
00000070: f678 9fba 7011 98bb 2363 2b3a 3811 92ba
00000080: 61ec 35ba 7031 963a fb0a 86ba d0e0 29ba
00000090: 68ab 1b3b 668d 66bb 82b8 28b9 e464 7cbb
000000a0: 7a25 a13b 181b c73b 7259 963a 1eee 083c
000000b0: 3359 273b f5b2 1b3b 26eb f93a 4408 033b
000000c0: b1cf 533b b2f7 fe3b 0670 ed39 30e9 733b
000000d0: 3202 193b 845f e03a 2cf6 893b fce8 353b
000000e0: 117c 793b df08 dc3b 104f df3a 7f7f a53b
000000f0: f8cc f139 108f 8dbb 6927 d1ba 3af2 04bc
00000100: 1f97 18bb 72ca 06bb a8da 50bb ba1d e4ba
00000110: 7cf9 08bb 74ef 0a3a 8dc4 a2ba 6c89 6cbb
00000120: c183 d6ba 27b6 55bb e35a 03bb f50c 5cbb
00000130: 6b03 9bbb d916 a8bb 9dba 38bb 8211 51bb
00000140: 5f08 01bb 3372 c63a bb80 7b39 0ce5 143b
00000150: 932f 6eb9 7523 7a39 3f06 9e39 9cbb 1bb9
00000160: 17e4 e8b8 411a 28bb 655e 4038 b20a 373a
00000170: 526a f0b8 7de3 3839 a5c4 e938 cefc 443a
00000180: 2f65 e539 53a9 193b eeef 503b 7f14 ad3a
00000190: 6098 b3b9 b9b6 be3a 4ea3 a83a 10e2 323b
000001a0: 7f1d 8b3a 46e8 713a c21c a93a d92c f139
000001b0: fc87 9e3a 209d 89b9 c0c4 da39 b638 203a
000001c0: cad1 f939 c70a ce3a 5ea8 793a 610f b53a
000001d0: 4925 413b d860 e83a 6669 db3a 1b48 ea39

exp_avg_sq f4 [6, 20]
0.00020142083 0.0009074149 0.00031941338 0.0008691216 0.00018948774 0.00071451947 0.001270253 0.00078073854
0.00034155016 0.000683947 0.0009840754 0.0016823288 0.0002443294 0.00086854264 0.0007941161 0.00033851273
0.00031913468 0.0010008619 0.0021227426 0.00053206104 0.0012974611 0.0029957837 0.00015632111 0.0047722007
0.00073107437 0.000591105 0.0010204191 0.00040230172 0.0013451996 0.0037855422 0.0007483599 0.0019761224
0.00024361846 0.0005295846 0.0015625639 0.0017143429 0.0006999047 0.004814516 0.0027046746 0.0034023114
0.0015985331 0.0040657907 0.00015609615 0.005537662 0.0008124896 0.0006447778 0.0005049119 0.00039615599
0.0014506773 0.0049780966 0.000438814 0.002443344 0.00042315724 0.00031578605 0.0020433033 0.0019053007
0.00038369972 0.006358024 0.0036954214 0.004057898 4.6137735e-05 0.0005672499 9.234146e-05 0.001340408
6.488995e-05 0.00011732016 0.00014425903 4.0611158e-05 0.00025745685 0.00011492394 5.7409485e-05 0.00025628114
3.1697116e-05 0.000106790874 0.00017881427 0.00045449435 0.00027631415 0.0011010661 0.0018301994 0.00044583867
0.0002412241 0.0010593421 4.7157297e-05 0.0014439224 0.00015267023 0.0001715593 0.00022372646 0.00018714415
0.00037689737 0.00081073237 0.00023310159 0.0006887637 9.4372896e-05 0.0001296609 0.00062199053 0.00056412746
0.00017917671 0.0017263194 0.0018636163 0.0010997141 6.9627836e-06 0.00025894557 0.00021421364 0.0006071913
6.0683105e-05 0.0003717897 0.000309856 0.0001704569 0.00016731404 3.4489218e-05 0.00021827748 0.0003559277
3.088504e-05 0.00033741907 0.00013024922 0.00027413561 0.00021984345 0.00044475144 0.0010036946 0.00013817404
00000000: 7e34 5339 95df 6d3a f076 a739 c3d5 633a
00000010: 3ab1 4639 974e 3b3a 9e7e a63a 7aaa 4c3a
00000020: 1612 b339 e84a 333a 17fc 803a 9681 dc3a
00000030: 5619 8039 e9ae 633a 3b2c 503a 697a b139
00000040: 8851 a739 5a2f 833a b61d 0b3b 037a 0b3a
00000050: 920f aa3a e954 443b 21ea 2339 1f60 9c3b
00000060: 92a5 3f3a 63f4 1a3a 95bf 853a 06ec d239
00000070: 6951 b03a dc16 783b 952d 443a d581 013b
00000080: d573 7f39 d2d3 0a3a f2ce cc3a cdb3 e03a
00000090: cf79 373a 16c3 9d3b e940 313b 50f9 5e3b
000000a0: df85 d13a 533a 853b bead 2339 4775 b53b
000000b0: 41fd 543a 4e06 293a 105c 043a 28b3 cf39
000000c0: a724 be3a 4d1f a33b 9e10 e639 8320 203b
000000d0: 34db dd39 1690 a539 f1e8 053b 48bb f93a
000000e0: 4e2b c939 f956 d03b e22e 723b 1ef8 843b
000000f0: 0484 4138 7fb3 143a 72a7 c138 a1b0 af3a
00000100: 8715 8838 c809 f638 3d44 1739 e655 2a38
00000110: 46fb 8639 5203 f138 f7ca 7038 795d 8639
00000120: 85f2 0438 eaf4 df38 1780 3b39 3349 ee39
00000130: 42de 9039 a651 903a 4de3 ef3a 74bf e939
00000140: 1af1 7c39 9fd9 8a3a c3ca 4538 ff41 bd3a
00000150: 1a16 2039 99e4 3339 1d98 6a39 203c 4439
00000160: 4f9a c539 5487 543a bb6c 7439 268e 343a
00000170: 10ea c538 95f5 0739 140d 233a f4e1 133a
00000180: 62e1 3b39 ab45 e23a 9644 f43a 4824 903a
00000190: dba1 e936 16c3 8739 899e 6039 eb2b 1f3a
000001a0: fd85 7e38 c5ec c239 2b74 a239 adbc 3239
000001b0: 0571 2f39 84a8 1038 6ae1 6439 cf9b ba39
000001c0: 8f8a 0138 9fe7 b039 8293 0839 dcb9 8f39
000001d0: c785 6639 872d e939 678e 833a d0e2 1039

exp_avg f4 [6]
-0.0015243344 -0.0006135294 0.0028066717 -0.0018290409 0.00023988407 0.0009203492
00000000: 2dcc c7ba 43d5 20ba 23f0 373b 6ebc efba
00000010: 6489 7b39 9743 713a

exp_avg_sq f4 [6]
0.00022325931 0.0004123814 0.00051653857 0.00015606497 0.00018637939 0.00011178997
00000000: b71a 6a39 e534 d839 5168 073a 5fa5 2339
00000010: d66e 4339 c870 ea38

exp_avg f4 [3, 20]
-0.0026395572 -0.0016213618 -0.000483807 0.003416964 -0.0017934995 -0.00070717634 0.0013620527 -0.001474367
0.0015019774 -0.003375516 8.935077e-05 -0.002212633 -0.0020462947 -0.00033535602 -0.0026558847 0.0016503471
0.0013955925 -0.00074026035 0.003620274 -0.0008773903 0.0032979543 0.003168491 0.0015947402 -0.0016570776
0.0031101855 0.0016228467 0.0013829471 0.0033723377 -0.0010149609 0.0042465185 0.001256121 0.003324471
0.0032549633 0.0024442663 0.004646998 -0.0011320986 0.0013620986 0.0024918749 0.004580845 -0.00030654547
-0.00065690494 -0.0015477259 -0.0011116883 -0.0017602541 -0.0013165734 -0.00091563736 -0.0027455047 -0.0018982362
-0.00048657416 -0.0008689656 -0.001345507 -0.0011117832 -0.0012087051 -0.0021095453 -0.0019914564 -0.0005180412
-0.002759571 -0.0017524747 -0.008204148 0.0011845109
00000000: 6cfc 2cbb e083 d4ba 7aa7 fdb9 25ef 5f3b
00000010: db13 ebba cd61 39ba e886 b23a 8c3f c1ba
00000020: 00de c43a c337 5dbb d461 bb38 d201 11bb
00000030: 211b 06bb b9d2 afb9 5a0e 2ebb 7650 d83a
00000040: 50ec b63a 080e 42ba 1e42 6d3b ab00 66ba
00000050: 7e22 583b 75a6 4f3b 9a06 d13a 4c32 d9ba
00000060: 41d4 4b3b b3b5 d43a 0144 b53a 7002 5d3b
00000070: 7008 85ba 6126 8b3b 6da4 a43a 5edf 593b
00000080: 3951 553b fc2f 203b d845 983b ed62 94ba
00000090: 7288 b23a b94e 233b ea1a 963b d6b7 a0b9
000000a0: 2534 2cba 10dd caba 12b6 91ba 54b8 e6ba
000000b0: df90 acba 6207 70ba eded 33bb 3dce f8ba
000000c0: e11a ffb9 4bcb 63ba b95b b0ba 41b9 91ba
000000d0: 6a6d 9eba 4c40 0abb 1883 02bb 28cd 07ba
000000e0: ebd9 34bb 4bb3 e5ba b16a 06bc 9741 9b3a

exp_avg_sq f4 [3, 20]
0.00023065259 0.00069921586 0.00037063137 0.0005336709 0.00026186692 0.00048150745 0.0003432384 0.00048079918
0.00024368332 0.00067153736 0.00036582738 0.00093176775 0.0002519953 0.00061027915 0.0007807776 0.00022293195
0.00032525463 0.0006083197 0.0009671633 0.00029677738 0.000644029 0.0013390693 0.00014037472 0.002073033
0.00038458017 0.0002708993 0.00018433834 0.00038267634 0.00037902303 0.0019843357 0.00020014554 0.0011635842
0.0002594521 0.00027130338 0.0008517562 0.0005632985 0.00026245983 0.00170237 0.0010218351 0.0014955953
0.00052850303 0.0007990654 0.00024024493 0.0021435558 0.00016107854 0.00035820506 0.00024863018 0.00013828938
0.00056055275 0.0016986871 0.00025546984 0.0005451966 4.943773e-05 0.00035483495 0.00026904483 0.0006925081
0.0002955567 0.0013337466 0.0008729843 0.0013583394
00000000: 55db 7139 954b 373a 4d51 c239 0ce6 0b3a
00000010: 2f4b 8939 d672 fc39 aef4 b339 c613 fc39
00000020: 3e85 7f39 1c0a 303a 85cc bf39 e041 743a
00000030: 3d1e 8439 24fb 1f3a 19ad 4c3a d7c2 6939
00000040: f086 aa39 a577 1f3a 3b89 7d3a c998 9b39
00000050: 0ed4 283a b683 af3a 8d31 1339 b9db 073b
00000060: 7aa1 c939 7d07 8e39 f24a 4139 f3a1 c839
00000070: 9cb7 c639 a10b 023b 29de 5139 6883 983a
00000080: 1207 8839 b93d 8e39 6448 5f3a 53aa 133a
00000090: c39a 8939 0f22 df3a 19ef 853a da07 c43a
000000a0: 3d8b 0a3a 5f78 513a 42ea 7b39 e67a 0c3b
000000b0: 31e7 2839 78cd bb39 945a 8239 c601 1139
000000c0: 0ff2 123a 7ba6 de3a 95f0 8539 86eb 0e3a
000000d0: 5c5b 4f38 2409 ba39 960e 8d39 6f89 353a
000000e0: f3f4 9a39 1cd1 ae3a fcd8 643a 4f0a b23a

exp_avg f4 [3]
-1.1423464e-05 0.0026744725 -0.0026630478
00000000: 67a7 3fb7 3446 2f3b 8786 2ebb

exp_avg_sq f4 [3]
0.0001579809 0.00017117868 0.00014103805
00000000: ada7 2539 6d7e 3339 9de3 1339

exp_avg f4 [3, 20]
-0.0022205317 0.0027218903 0.0072774417 -0.0024076537 -0.002980958 0.016400121 0.032962617 0.02056926
0.0070911595 -0.0027516705 0.027664425 0.025541281 0.0048820754 0.022274142 0.0025735334 0.0012139715
-0.0017964767 -0.005544745 0.02916783 -0.0032795332 0.004207937 0.002655251 0.0055290046 0.0030652
0.002076049 0.016076824 0.0392931 0.02171559 0.009641489 0.0035454493 0.03081769 0.027187174
0.0051794513 0.023751825 0.0005860873 0.0030658727 0.002987868 -0.0045811865 0.03774384 -0.00268391
-0.0019882754 -0.0053796275 -0.012808078 -0.0006590058 0.0009054704 -0.03248271 -0.07226706 -0.042292025
-0.016735874 -0.00079512317 -0.058491703 -0.052738283 -0.010063534 -0.046032973 -0.0031612262 -0.004281192
-0.0011898259 0.01012563 -0.066923596 0.0059627416
00000000: 5786 11bb be61 323b 9b77 ee3b bac9 1dbb
00000010: 2d5c 43bb 8c59 863c cf03 073d dd80 a83c
00000020: f55c e83b 5f55 34bb 81a0 e23c f33b d13c
00000030: d1f9 9f3b 4378 b63c baa8 283b 201e 9f3a
00000040: c177 ebba b1b0 b5bb 5ff1 ee3c 70ed 56bb
00000050: bce2 893b b803 2e3b a72c b53b 86e1 483b
00000060: 530e 083b 8bb3 833c cdf1 203d e5e4 b13c
00000070: 56f7 1d3c c55a 683b 6175 fc3c a3b7 de3c
00000080: 63b8 a93b 3093 c23c a7a3 193a cfec 483b
00000090: 1bd0 433b c71d 96bb 4999 1a3d 8ae4 2fbb
000000a0: ba4d 02bb 9647 b0bb f9d8 51bc 21c1 2cba
000000b0: 175d 6d3a 970c 05bd c100 94bd 673a 2dbd
000000c0: ac19 89bc d06f 50ba ff94 6fbd 1904 58bd
000000d0: 85e1 24bc 128d 3cbd 932c 4fbb 3e49 8cbb
000000e0: eff3 9bba f8e5 253c 3d0f 89bd 1a63 c33b

exp_avg_sq f4 [3, 20]
0.00020663011 0.0018483762 0.0005202918 0.0020074032 0.00029025538 0.0010349874 0.0016673341 0.00093866215
0.00061094586 0.0007143445 0.0011764094 0.0020624704 0.00023924383 0.0012255431 0.0011324742 0.0008406195
0.00040642655 0.0026745999 0.0042539425 0.0011095196 0.0014818406 0.0046447697 0.0009263715 0.005651543
0.0010664918 0.0018468996 0.0023962685 0.0021055427 0.0015618781 0.004837521 0.0022422255 0.005224955
0.00087537605 0.0021962703 0.0034292974 0.0019404695 0.00063247845 0.0063551627 0.0054476783 0.0042121247
0.001409907 0.0053995345 0.001092907 0.006275083 0.001186055 0.0021257298 0.0025981504 0.0023482176
0.0017535174 0.0046213544 0.0024097462 0.00582266 0.00093254616 0.0024863645 0.0038548405 0.0021853594
0.0007578231 0.007495972 0.006084466 0.0045574214
00000000: d9aa 5839 3745 f23a 3164 083a a38e 033b
00000010: 6b2d 9839 6aa8 873a 738a da3a 8d10 763a
00000020: e227 203a d942 3b3a c031 9a3a 832a 073b
00000030: 87dd 7a39 67a2 a03a 876f 943a 055d 5c3a
00000040: a615 d539 5748 2f3b a864 8b3b 4d6d 913a
00000050: 523a c23a 2733 983b bdd7 723a 9430 b93b
00000060: 87c9 8b3a ab13 f23a b70a 1d3b 25fd 093b
00000070: efb7 cc3a 1184 9e3b 4df2 123b 1936 ab3b
00000080: 7e79 653a 4def 0f3b 10be 603b 5a57 fe3a
00000090: e9cc 253a f83e d03b 7082 b23b dd05 8a3b
000000a0: a1cc b83a 94ee b03b e03f 8f3a 369f cd3b
000000b0: 6775 9b3a d44f 0b3b bb45 2a3b 8ee4 193b
000000c0: 48d6 e53a bb6e 973b d5ec 1d3b 03cc be3b
000000d0: 1d76 743a 46f2 223b 7ea1 7c3b 3f38 0f3b
000000e0: a6a8 463a c5a0 f53b 3360 c73b 6c56 953b

exp_avg f4 [3]
0.005698005 0.00883212 -0.01453013
00000000: 55b6 ba3b 99b4 103c c80f 6ebc

exp_avg_sq f4 [3]
0.00038523617 0.00067812885 0.0007451186
00000000: 86f9 c939 75c4 313a 1054 433a

exp_avg f4 [20, 128]
0.0029596617 0.0017704639 0.0017499767 0.002664142 0.0016381796 0.0006428207 -0.0006273148 0.0015551901
0.0027555807 0.0014056477 0.0006644457 0.000701577 -0.0033949567 0.0017602689 0.00076181814 0.0011128383
0.0004460394 7.959112e-05 -0.0011073812 0.001781657 0.0024177413 0.0017578404 0.0027492538 0.0021460648
-0.00040292623 0.0017348408 0.0025379779 0.0017580066 0.0032699949 0.0028852422 -0.00040292152 0.00075913005
0.0023500926 1.5941094e-22 0.0029767351 0.0033131158 -2.8563449e-05 -0.00023815177 0.0012906526 0.0015452834
0.0010320734 0.0025958465 0.00018102967 7.484784e-05 0.0014784819 3.895867e-22 0.0013407966 0.0019342855
0.00018100496 -8.3327664e-05 0.0015287087 3.895867e-22 0.0013183943 0.0016858174 -0.00040656622 0.00012870281
0.0014299178 3.5566763e-23 -8.245226e-05 0.0010245724 -0.00040651276 0.0007959914 0.00091525714 3.5566763e-23
-2.2708376e-05 0.0009476323 8.049256e-06 0.00037691178 0.00039192085 -2.1327382e-36 3.1369525e-06 0.0009028082
7.991489e-06 0.0003706308 0.00038360246 -2.1327382e-36 6.310994e-05 0.0004925564 8.015185e-06 0.00035992727
0.0005617944 -2.1327382e-36 7.583856e-05 0.0002242937 -0.0007692453 0.0003697265 0.0008209637 -2.1248562e-36
8.00247e-05 0.00070154335 -0.00076910487 0.00011858776 0.00026043924 2.8615753e-32 4.514141e-05 0.0005546734
-0.00076910487 -0.00046038168 0.00015089834 2.8615753e-32 0.0003696094 0.0005272208 -3.6320133e-13 -0.0012298975
-0.0002048024 -2.1248562e-36 0.00046636275 0.00030111257 -3.6320133e-13 -0.0012634649 -5.8262438e-05 -2.1248562e-36
0.000351985 6.0754704e-05 2.5504822e-24 -0.0009455432 0.00022610974 -1.04181394e-35 0.0003639664 -5.7483207e-06
2.0945449e-16 -0.00015021635 0.00052242534 0.006752299 -0.019581288 3.837208e-14 -0.0015360264 0.0029596617
0.01657112 -0.0022964783 0.005544732 0.017611532 -0.0018402417 0.006918945 -0.00042127425 -0.0020139862
0.00016519819 -0.0010376192 -0.0014031999 0.014833749 0.0040425234 -0.0019683018 0.00024816155 -0.0026480793
0.00050836476 0.013182087 0.001551801 -0.0019435744 -0.0016747948 -0.0016263091 0.017972616 0.017135642
0.0007921919 -0.0019436429 -0.002038824 -0.001626485 0.01594961 0.016390944 0.0007921696 -0.0011514205
-0.0019343214 9.440904e-23 0.016370282 0.015520047 -0.0003909469 9.7849115e-05 -0.0007939419 -0.0016950755
0.01861488 0.016344095 -0.00061903644 -0.00024113919 -0.0010326571 -4.3373733e-22 0.016620293 0.016754325
-0.0006190092 -5.480257e-05 -0.0011614433 -4.3373733e-22 0.017400352 0.017321296 0.00067550887 -0.00022608513
-0.0020865393 1.8014783e-23 0.00026347052 0.0018493898 0.0006753892 -0.00095810625 -0.0010793289 1.8014783e-23
-4.544411e-05 0.0017193656 9.274992e-05 -0.0003570448 -0.00035103594 3.828425e-36 -7.313816e-05 0.001432669
9.287431e-05 -0.00033573256 -0.00033492394 3.828295e-36 -0.0001370102 0.0014618883 9.284793e-05 -0.0003232432
-0.000533996 3.828295e-36 -0.00015518059 0.0015598538 0.00088946574 -0.00034260008 -0.0008163452 1.1160997e-35
-0.00015612842 0.00087035535 0.00088926626 -0.00023509067 -0.0002743603 -2.472151e-32 -0.00012670671 0.0020672535
0.00088926626 0.00040001367 -0.00012900929 -2.472151e-32 -0.00048463297 0.0020387324 4.086258e-13 0.0012929767
0.00030034216 1.1160835e-35 -0.0005778274 0.0021964298 4.086258e-13 0.0013334296 0.00015078034 1.1160835e-35
-0.0004522857 0.0023350047 6.097475e-25 0.0009826462 -0.00020592572 2.0349014e-35 -0.00048267646 0.0019565395
9.966808e-14 6.351872e-05 -0.0003768582 0.42852926 0.45729437 -4.8109916e-14 -0.013198909 0.01657112
00000000: e2f6 413b e90e e83a 795f e53a e398 2e3b
00000010: 30b8 d63a f882 283a 6272 24ba 85d7 cb3a
00000020: f996 343b b63d b83a 322e 2e3a 09ea 373a
00000030: ec7d 5ebb d3b8 e63a c0b4 473a a8dc 913a
00000040: 65da e939 28ea a638 8c25 91ba 7d86 e93a
00000050: f872 1e3b 5667 e63a d32c 343b fea4 0c3b
00000060: d83f d3b9 9963 e33a 3454 263b ea6c e63a
00000070: 694d 563b 5516 3d3b 363f d3b9 5b00 473a
00000080: 0304 1a3b 4cb7 401b 5415 433b dc20 593b
00000090: 8a9b efb7 61b8 79b9 1d2b a93a 1b8b ca3a
000000a0: a346 873a 141f 2a3b c8d2 3d39 a1f7 9c38
000000b0: 9fc9 c13a 9f7d eb1b abbd af3a da87 fd3a
000000c0: 26cc 3d39 33c0 aeb8 f45e c83a 9f7d eb1b
000000d0: f9cd ac3a a5f6 dc3a 6528 d5b9 66f4 0639
000000e0: 146c bb3a 85fd 2b1a 38ea acb8 f24a 863a
000000f0: 3821 d5b9 14aa 503a deed 6f3a 85fd 2b1a
00000100: de7d beb7 876a 783a 4b0b 0737 3e9c c539
00000110: ba7a cd39 ed6e 3584 6f84 5236 6faa 6c3a
00000120: 2f13 0637 3951 c239 401e c939 ed6e 3584
00000130: e459 8438 e71e 013a f578 0637 9fb4 bc39
00000140: 6245 133a ed6e 3584 840b 9f38 6230 6b39
00000150: 2ea7 49ba dad7 c139 f135 573a 45c3 3484
00000160: efd2 a738 c7e7 373a c19d 49ba 52b2 f838
00000170: 908b 8839 dc94 140b 3856 3d38 8067 113a
00000180: c19d 49ba 625f f1b9 773a 1e39 dc94 140b
00000190: 22c8 c139 3035 0a3a d476 ccaa 8334 a1ba
000001a0: 3ac0 56b9 45c3 3484 2682 f439 a5de 9d39
000001b0: d476 ccaa d99a a5ba d15e 74b8 45c3 3484
000001c0: a18a b839 ded2 7e38 8155 4518 54de 77ba
000001d0: df17 6d39 bf91 5d85 bed2 be39 b3e1 c0b6
000001e0: 0e7c 7125 6583 1db9 5ff3 083a 6442 dd3b
000001f0: f068 a0bc ffcf 2c29 7e54 c9ba e2f6 413b
00000200: 28c0 873c 8380 16bb 95b0 b53b 0f46 903c
00000210: 4434 f1ba 51b8 e23b 79de dcb9 15fd 03bb
00000220: 0d39 2d39 b900 88ba 93eb b7ba 4109 733c
00000230: 2577 843b a0fe 00bb ae1b 8239 668b 2dbb
00000240: c843 053a aef9 573c cd65 cb3a 89bf feba
00000250: ca84 dbba e129 d5ba 4f3b 933c 0c60 8c3c
00000260: 19ab 4f3a d5c1 feba ca9d 05bb c82f d5ba
00000270: c2a8 823c 4d46 863c 9aa9 4f3a 43eb 96ba
00000280: 0e89 fdba 5e44 e41a f81a 863c cc47 7e3c
00000290: 01f8 ccb9 5834 cd38 8a20 50ba 4c2d deba
000002a0: 3c7e 983c 0de4 853c d546 22ba 4fda 7cb9
000002b0: 395a 87ba cd16 039c 4827 883c 5e40 893c
000002c0: 0145 22ba d0db 65b8 923b 98ba cd16 039c
000002d0: 2f8b 8e3c 64e5 8d3c a214 313a 4411 6db9
000002e0: 52be 08bb 713a ae19 6a22 8a39 3967 f23a
000002f0: 9a0c 313a 6c29 7bba 4578 8dba 713a ae19
00000300: 3e9b 3eb8 565c e13a bc82 c238 be31 bbb9
00000310: 3f0b b8b9 dbd7 a204 c061 99b8 65c8 bb3a
00000320: 84c5 c238 4305 b0b9 bb98 afb9 71d6 a204
00000330: 65aa 0fb9 d59c bf3a 5ab7 c238 f878 a9b9
00000340: ddfb 0bba 71d6 a204 f9b7 22b9 0274 cc3a
00000350: 092b 693a 019f b3b9 0000 56ba 3f5e 6d05
00000360: 67b6 23b9 8f28 643a a61d 693a ac82 76b9
00000370: 04d8 8fb9 865c 008b 93dc 04b9 c27a 073b
00000380: a61d 693a edb8 d139 ab46 07b9 865c 008b
00000390: 5616 feb9 419c 053b 2f09 e62a 1979 a93a
000003a0: 3e77 9d39 5e5d 6d05 5779 17ba faf1 0f3b
000003b0: 2f09 e62a 79c6 ae3a ca1a 1e39 5e5d 6d05
000003c0: c220 edb9 e106 193b 2db5 3c17 23cc 803a
000003d0: c4ed 57b9 4963 d805 bd0f fdb9 4939 003b
000003e0: bd6e e029 5a35 8538 0d95 c5b9 3068 db3e
000003f0: 7d22 ea3e f5aa 58a9 3d40 58bc 28c0 873c
