config/ppo/results/RayShoot0610_멍청함/Shooting/Shooting-1499999.pt (torch, 80583 bytes, 34 tensors)

discrete_act_size_vector f4 [1, 3]
00000000: 0000 c040 0000 4040 0000 4040
6.0 3.0 3.0

network_body._body_endoder.seq_layers.0.weight f4 [20, 128]
00000000: 8eb9 cfbe 211a 963b 14d5 f5bd 70de 213e
00000010: e018 ffbd a8a7 44be 7460 89be 2048 04be
00000020: ff51 e63d 98cb 083e c60e b9bc f3b5 29be
00000030: d854 0bbe f963 88be 3dba e33c 5c9d 103d
00000040: d0a8 7cbd f7b0 953c 5f0c c2be 57a5 13be
00000050: 62fa c3bc a909 793d 6ad3 4fbe b5f3 41bc
00000060: 5a42 adbd f9b4 dfbe e766 973d a309 873d
00000070: 9bf5 babe db30 363e 8ab8 0ebe c352 86be
00000080: c432 c43d 6d7d 6e3e 1d90 d7bd 61cd 063e
00000090: 37ed 2bbd c816 03be 6032 153e a1d3 a33b
000000a0: 9f5f ecbe 57b2 bf3d 70c4 5abe 4e43 42be
000000b0: 031e 933e 311d f93c 0b2b b6be bed6 6f3d
000000c0: 2509 f1bd 8561 68be f838 033e a9b5 2abc
000000d0: 4038 dcbd 5194 193e 4ac5 92bd de3e 82be
000000e0: 87a7 cb3c 76ac a83e 3300 0ebe e798 1c3e
000000f0: 2534 69bd 54b3 25be ecfe 293e 4b7b cf3d
00000100: fb5c 313d 2325 873e 23cd 11ba d491 acbe
00000110: 07fe c03d 3927 d8be 3034 653d c984 2e3e
00000120: bc16 0a3e 4b09 47be 5a62 343d 57fb 91be
00000130: a365 9e3b 3825 7a3e 679a 6abd d947 58be
00000140: e2ee 04be ae65 92be 4151 71bd 618d 283e
00000150: 1d54 febd 813f 72be 9df9 813e b09d 1abe
00000160: 453b e0bd be3f 043e f341 94bc d10e d4bd
00000170: 7204 203d 066c 97be 7ec7 a23e 15bf fc3d
00000180: 3442 d4bd 3dee 12be 7445 d83d 4e1f afbe
00000190: 667e 653d 0abc a83d 1dd4 433e cfa8 20be
000001a0: dd3b 323e 8ff5 14be 1595 843d f0f2 c83c
000001b0: ddaa 383e 9e21 bc3b fc39 273e 50e4 8abe
000001c0: 5378 8f3a e966 d23d 7532 073d fc9a fe3c
000001d0: 94da 6d3e f001 c1bd 9594 93bc 23f2 b83d
000001e0: e3f6 3a3d fb3a 853c c05e 2d3e 24a8 cfbd
000001f0: f1cf 0fbe 706d 723e f8db 2bbe 738e a9be
00000200: 59a7 073d a057 b93e 01d3 1e3e e503 dfbe
00000210: 5cea a23e d309 d33d 25dc 363f 4924 013d
00000220: 89b5 2d3e 9acf 0ebf 1e0e 063e 112d 253e
00000230: c17c 513f 23bf 83bc cdc1 de3d 15c8 e1be
00000240: 0785 143e 8d22 b03d f23c ef3e dacb 28bd
00000250: 8edd 393e f67e 35bf 3ff3 39bc c2b4 3fbc
00000260: fdc5 f03e 371d ae3d 818c 823e 9012 3bbf
00000270: 0d2d 333e bcf0 2dbd 8f0c 4f3f a7b1 d2bc
00000280: 5c83 733e e7af 2cbf ad60 bbbd a8e5 0b3d
00000290: 78ac 1c3f 8862 1fbe 670d 05bd 1a4a 69be
000002a0: b2eb 123d a140 793d be54 d23e 7091 2e3d
000002b0: 94c2 843d a681 e1be dd56 623c 2546 80ba
000002c0: 5b31 863e b875 223e 2b66 073d 1de8 12bf
000002d0: bcea 883d 5003 a03d 40be a53e fa26 f2bd
000002e0: 5768 df3d 9c30 c6be a819 a6bd 9483 383e
000002f0: 71fb 023f e2e2 12be 4a18 23bd c857 84be
00000300: 8c09 5d3d fb10 1f3e 3bc5 4c3e 51b9 cebd
00000310: c3a4 bebc 03c6 65be 56b9 853d 7b02 013e
00000320: afcd c83d 9df7 85be 36c3 ba3c 84e3 cebe
00000330: 29e7 adbd 86be b83d ad4d 043f 13ec 5abc
00000340: 46a9 063e 5313 b4be c9c9 613c 3696 bf3d
00000350: 5720 b73e 52dc bbbd 9ae3 f33d a261 b7be
00000360: 0518 55bd 0c87 9e3d 6a9f da3e 6998 3ebe
00000370: 4475 bcbd 5278 52be 3905 9fbd 731d cf3d
00000380: eb95 e13e dbc6 78b9 fa66 913c 3b85 72be
00000390: 8652 02bd c92d 443d aedd ce3e 3326 5ebd
000003a0: 6155 303d 2f62 babe c7ba 7dbd a924 223e
000003b0: 30eb c73e eb5c 0abe 76eb a23c d5e7 adbe
000003c0: 90b6 9cbd 9e2a 55bd c637 863e 178b 4cbc
000003d0: 814b 1c3b abb7 d7be 9af7 683d 039f bd3d
000003e0: 3d12 fb3e 4019 21be 5a2f 71bd fd46 ca3b
000003f0: bbaf c7bc 3395 583c 0e12 79be cc2d d1bd
-0.40571254 0.0045807515 -0.12003532 0.1580751 -0.124559164 -0.19204581 -0.268314 -0.12918139
0.11246108 0.13358915 -0.022590052 -0.16573314 -0.13606584 -0.26638773 0.027798766 0.03530632
-0.06168443 0.01827286 -0.37900063 -0.14418541 -0.023923103 0.06080023 -0.20295492 -0.011837889
-0.08459921 -0.4369276 0.07392674 0.06593635 -0.36515507 0.17792074 -0.13937584 -0.26235017
0.09579995 0.23290034 -0.10525534 0.13164283 -0.041974273 -0.12801659 0.14569998 0.0049995934
-0.46166703 0.093601875 -0.21363997 -0.18970987 0.28733835 0.030409427 -0.35579714 0.058554403
-0.11769322 -0.22693451 0.128147 -0.010419288 -0.10752916 0.14997984 -0.07166536 -0.2543859
0.024860157 0.32944077 -0.13867263 0.15292703 -0.056934495 -0.1618169 0.16601151 0.10130938
0.043301564 0.2639552 -0.0005561879 -0.33705008 0.09423452 -0.42217425 0.055957973 0.17042841
0.13485235 -0.19437139 0.044039108 -0.2851207 0.0048338934 0.2442826 -0.057276156 -0.21121158
-0.12981752 -0.285932 -0.05891538 0.16460182 -0.12418387 -0.23657037 0.25385752 -0.15099216
-0.10948805 0.1291494 -0.018097853 -0.103543885 0.03906674 -0.29574603 0.31792825 0.123411335
-0.1036419 -0.14348693 0.10560122 -0.3420357 0.056028746 0.082389906 0.19123884 -0.15689395
0.17405649 -0.14546798 0.06473748 0.024529904 0.18033929 0.005741312 0.16330713 -0.27127314
0.0010945894 0.10273535 0.033007104 0.031079762 0.23227912 -0.09424198 -0.018015185 0.09030559
0.045645606 0.016263476 0.16930676 -0.10139492 -0.14044167 0.2367456 -0.1678313 -0.33116493
0.03311858 0.36199665 0.15510179 -0.4355766 0.31819427 0.10304608 0.71429664 0.031528745
0.16963781 -0.55785525 0.13091323 0.16130473 0.81830984 -0.016082352 0.10876808 -0.44097963
0.14503871 0.0860034 0.46726185 -0.041210033 0.18150923 -0.7089685 -0.011349498 -0.011700811
0.47026053 0.08501666 0.2549782 -0.730752 0.17497654 -0.04246591 0.8087854 -0.025719477
0.23780578 -0.67455906 -0.09149299 0.034154564 0.61200666 -0.1556493 -0.032483485 -0.22782174
0.035869308 0.06085265 0.41080278 0.04261917 0.06482425 -0.44044226 0.013814655 -0.000978653
0.2620953 0.15865219 0.03305642 -0.57385427 0.06685397 0.07813132 0.32371712 -0.118238404
0.10908573 -0.3870896 -0.08110362 0.18018943 0.5116492 -0.14344361 -0.039818086 -0.25848222
0.053964183 0.15533821 0.19997112 -0.1009394 -0.023271924 -0.22438817 0.06529491 0.12598602
0.09804856 -0.26165476 0.022798162 -0.40407956 -0.08491356 0.090207145 0.51681024 -0.013361949
0.1315051 -0.35170993 0.0137810195 0.09354822 0.3576686 -0.09172882 0.11908646 -0.35816675
-0.05202486 0.07740602 0.42699748 -0.18612827 -0.09202054 -0.20553711 -0.07764668 0.10113039
0.4405969 -0.00023725202 0.017749298 -0.23683636 -0.03181698 0.047895227 0.40403503 -0.05423565
0.043050174 -0.36403033 -0.061945703 0.15834297 0.3904662 -0.13512008 0.019887667 -0.33965936
-0.076520085 -0.052042596 0.26214427 -0.0124843335 0.0023848715 -0.42132315 0.056876756 0.09258845
0.49037352 -0.15732288 -0.05888305 0.0061730132 -0.024375787 0.013219166 -0.24323294 -0.10213813

network_body._body_endoder.seq_layers.0.bias f4 [20]
00000000: 6ef5 fa3d 7fd9 e23d 2eb8 6f3d 6576 613e
00000010: 7bfd 103e cdd4 e53d 8a4a 493e d96e a93d
00000020: d6b7 2d3e c548 26bd dbc7 0f3d 8f11 fd3d
00000030: c074 953d 9671 8e3d 25f8 253e a969 313e
00000040: 3ce0 c33d 9794 553e 4129 d4bc 13b6 f23d
0.12253843 0.1107664 0.058525257 0.2201782 0.14159195 0.11222229 0.1965734 0.08273096
0.16964659 -0.040596742 0.035102706 0.12356865 0.07297659 0.069552585 0.16207941 0.17325462
0.09564254 0.20857464 -0.025898578 0.11851134

action_model._discrete_distribution.branches.0.weight f4 [6, 20]
00000000: bc1a b3bb 9f4c e5bb a104 aa3e ea75 abbe
00000010: 513c a3bd d335 403e 6b4f 023f 5163 ba3e
00000020: d934 743d 8ac5 03bd 761f c33e 5a81 a73e
00000030: 223f fd3c 54f0 eb3e 9a77 073e b098 8dbe
00000040: 3a01 05bd 164b 85be 370b ae3d fa7f aebe
00000050: 031c 8ebd 640c 083d 88ae c4bd 79cb 383e
00000060: c8c0 223e 0f9b 963d 6b85 c2bd 7432 7dbd
00000070: 4836 033e 9867 45bd 15aa 6ebe d6ad bdbd
00000080: 25a8 033e d963 67be b533 263d aeac eb3d
00000090: e3b6 6c3e 637d 2d3e b4fa 4a3d 9ed8 0d3e
000000a0: 1c0b 353e 3445 c03d 7e9f 33be bca3 103e
000000b0: 1f93 293e d3e8 6fbe db02 403c 7ded 53bd
000000c0: 994b e2bd 6c84 223e 89e1 e73d 71c5 d63a
000000d0: c734 09bd f8a0 a4bd 659e 003e 2ed6 603d
000000e0: a032 a5bd cf5c 193e 8ed6 df3d 1765 063e
000000f0: 3e20 be3d 5331 51bd 8fa0 99be 3bea da3d
00000100: 5eb1 6abe 72b8 6dbe 7563 46be 58f7 52be
00000110: 0a9b 3ebe 8c12 083e d875 9bbe fbd0 f2bd
00000120: 96f4 27be d612 3bbe 7ec4 59be 7d0f bc3c
00000130: 1264 6ebe a1ba 033d 25e6 e33d 0fb2 02bc
00000140: 92a5 313a 48aa 013d 2efb 6cbe 5696 6b3e
00000150: f8d3 03be c217 51be 3750 bfbd 07ff 09be
00000160: d48c 043d e74c 9c3d fb75 c5bd 1298 5cbd
00000170: 8da4 13be 35a4 b7be ab6f fcbd 8936 a13d
00000180: 24a3 2ebd ea0e 253d 74ee f03d 6fb9 ac3d
00000190: da94 dcbe 0849 84bd b98f 2d3d 4e10 08be
000001a0: 80c5 a5be 419b 1a3d d8ab 55be 1ca1 73bb
000001b0: 6052 ddbc 4685 afbe 22d1 39be 6bb4 4bbe
000001c0: cac4 d5bb 2a3f 843d cd6f 76be 4d3a d63d
000001d0: f5db 5fbe 4a15 8dbd b2ee 023e 886d 6fbe
-0.0054658335 -0.0069976593 0.33206657 -0.334884 -0.07970489 0.18770532 0.5090243 0.36403897
0.059620712 -0.03217081 0.3810994 0.32715875 0.030913893 0.46081793 0.13229218 -0.27655554
-0.032471873 -0.2603385 0.08498233 -0.34082013 -0.069389366 0.03321494 -0.09603602 0.18046369
0.15893853 0.07353794 -0.09498104 -0.061815694 0.12813675 -0.048194498 -0.23307069 -0.09261672
0.12857111 -0.22596683 0.040576655 0.115075454 0.23116641 0.16942362 0.049555495 0.13852164
0.17680019 0.093881994 -0.1754131 0.1412496 0.16560028 -0.23428659 0.011719431 -0.05174016
-0.11049575 0.15870827 0.11322314 0.0016385746 -0.033497598 -0.08038515 0.12560423 0.054891758
-0.080662966 0.1497681 0.10929595 0.131245 0.092834935 -0.05107243 -0.3000531 0.10689207
-0.22919223 -0.23214892 -0.19373877 -0.20602167 -0.1861383 0.13288325 -0.30363345 -0.11856266
-0.16401896 -0.18268904 -0.21266362 0.022956604 -0.23280361 0.032160405 0.11127881 -0.007977023
0.0006776686 0.031656533 -0.23142692 0.23006567 -0.12873828 -0.20419219 -0.09341472 -0.13476191
0.032360867 0.076318555 -0.096416436 -0.053855963 -0.1441824 -0.35867468 -0.123259865 0.0787173
-0.04263605 0.040297426 0.11764231 0.08433806 -0.43082315 -0.06459242 0.042373393 -0.1328747
-0.32377243 0.037745718 -0.20866334 -0.0037174886 -0.027016819 -0.34281367 -0.18146184 -0.19893043
-0.006523703 0.0645736 -0.24066086 0.10460339 -0.2186125 -0.06888826 0.12786368 -0.23381627

action_model._discrete_distribution.branches.0.bias f4 [6]
00000000: c312 b2bd e38a b63d 3a96 fcbb e707 2a3c
00000010: 9430 8b3d a59b 50be
-0.08694985 0.08913209 -0.007708338 0.010377861 0.06796375 -0.20371874

action_model._discrete_distribution.branches.1.weight f4 [3, 20]
00000000: f795 0ebe 7a3a e6bd 2cd2 153e ffe4 bfbe
00000010: 4a40 04be 28cc 6ebd 6d52 053f 3a69 ec3e
00000020: d2dc 1ebe b6d2 c03c 646e b83e d106 ac3e
00000030: 0a8c 083e a6a3 a53e 69df d33d a30e a0be
00000040: a80b 3dbe 7683 18bf f81a a23d 0a58 e9bd
00000050: 0b91 c1bc cc8a ea3e e9ba 81be 55e8 d0bd
00000060: 7d0e 8c3d bf1e 0dbe da85 e7be 0ef0 d3bd
00000070: e8c6 0abf 6174 493d ce01 b3be 90a1 313e
00000080: f1c6 1f3e 710e f5be 67cf 383e 2795 39bf
00000090: 14d7 2c3c c2f7 243f 3efd 963d f26c 473e
000000a0: 43ec 9d3d 44cb afbe a1a4 e43d 4fc3 f43e
000000b0: 1c18 863d 36ae 303e ca34 4fbd 880a c8be
000000c0: 991d 023f cbd2 9cbd 787d 0bbd 8173 03bf
000000d0: 86db 91be 2556 a03d 301c 9dbe fa1d 4a3f
000000e0: bed3 633e 9332 ddbd fc4e c5bc 0466 94bd
-0.13924395 -0.11241622 0.14630955 -0.37479398 -0.1291515 -0.058300167 0.52078897 0.46174031
-0.15513924 0.023537975 0.3602172 0.3359895 0.1333467 0.32351416 0.103453465 -0.31261167
-0.18461478 -0.59575593 0.079153 -0.11393745 -0.023628732 0.4580902 -0.25337914 -0.10200564
0.06838701 -0.1378126 -0.45219308 -0.10348521 -0.54209757 0.049183253 -0.34962314 0.17346787
0.15603234 -0.4786258 0.18047868 -0.72493213 0.0105493255 0.6444055 0.07372521 0.19475153
0.07711079 -0.34334767 0.11164213 0.4780526 0.06547567 0.17253956 -0.050587453 -0.39070535
0.5082641 -0.07657393 -0.034055203 -0.5134812 -0.28487796 0.07828931 -0.30685568 0.7895199
0.22248742 -0.10800662 -0.024085514 -0.072460204

action_model._discrete_distribution.branches.1.bias f4 [3]
00000000: 0281 3c3d f10f 12bc f4c5 86bd
0.04602147 -0.008914934 -0.06580725

action_model._discrete_distribution.branches.2.weight f4 [3, 20]
00000000: 321f 043e e24c 4a3c b023 cab9 6ae5 d53c
00000010: d38b 643c 060f 413d f3e6 743d 3ab4 503d
00000020: d7aa 08bd 0027 db3c 43b2 08bd 1ba4 933b
00000030: 9465 913c 8471 243d 66ec 56bb 59c2 5e3b
00000040: 81ed e1bd e769 d13c 58ee 7ebb 49a7 a63c
00000050: 960f 8cbd 2409 153e 924f 873d 75ca 1fbd
00000060: c7de 6b3d 401b 4e3d 2551 babd a6bc 213d
00000070: 4e25 b43c e509 e6bc b8ef a83d c0fd a13d
00000080: 22a6 e63d 8add e63c c69b a73d 83e9 2e3c
00000090: fbea bd3c 08e9 483d de88 963d 8ef7 e43b
000000a0: 7f81 c7bc 1b40 49bd 2251 4d3d e726 303d
000000b0: 877a 11ba 3647 963c 7736 303e 5e70 e43d
000000c0: 0d29 103e 1c72 63bc f493 ce3d 236e a93c
000000d0: 795d 5fbd 672e 2abc 3ffa 223d d836 013e
000000e0: 9da6 eb3d 9de1 0bbc 8c1b ab3c 43a9 3d3d
0.12902525 0.012347432 -0.00038555032 0.02611037 0.013949352 0.047133468 0.059790563 0.050953127
-0.03336605 0.026751995 -0.03337313 0.004505647 0.017748632 0.04014732 -0.0032794713 0.0033990352
-0.110316284 0.025563193 -0.0038899388 0.02034344 -0.0683891 0.14554268 0.06606974 -0.039011437
0.057585504 0.050318956 -0.09097508 0.03948655 0.021990445 -0.02808089 0.08248848 0.07909727
0.11262156 0.02818181 0.08184008 0.010675791 0.023183336 0.04905036 0.07350324 0.0069875186
-0.02435374 -0.0491334 0.050126202 0.04300585 -0.0005549569 0.018344503 0.17208277 0.11154245
0.1407816 -0.013882186 0.100868136 0.0206824 -0.0545325 -0.01038704 0.039789435 0.12618577
0.11506388 -0.008537677 0.020887159 0.046304

action_model._discrete_distribution.branches.2.bias f4 [3]
00000000: 9ea8 3fbd aecc 933c d7e6 8a3d
-0.046791665 0.018041935 0.067823105

exp_avg f4 [20, 128]
00000000: 8989 8cb9 373c 96b7 41a1 c439 3769 75b7
00000010: f041 f2b6 49f5 c139 a84f 88b9 7bdc eeb7
00000020: 64e1 be39 8c6b 6eb7 8c8d 1ab7 999e ca39
00000030: 293f 84b8 7252 fdb7 2fbd 8e39 933d 023a
00000040: a2c0 8eb7 c57b be39 c692 8db8 cf59 0fb8
00000050: 8e6d 8839 463b 003a f4c6 1238 39ae d739
00000060: 7568 77b8 0358 58b8 45fc 7939 c593 5e36
00000070: a473 0338 473e 013a e450 dfb7 bb5b 60b7
00000080: 1f69 8839 6a9f 482f bbc2 6a38 dbce f439
00000090: 2f50 dfb7 d2e0 96b7 bf95 063a 51c7 f639
000000a0: 019b 3238 a07a ed39 ac68 2e38 8f0a 25b8
000000b0: 71b3 fc39 4fc7 f639 b82b 3438 105e eb39
000000c0: 5068 2e38 f6a7 98b7 2090 013a a232 2738
000000d0: d8d3 24b9 f919 b039 5068 2e38 d19c 04b8
000000e0: 84e3 fa39 2d05 3cb9 36c2 6338 e7b4 ed39
000000f0: 2d90 3438 5d79 fd39 331b 003a a066 8ab9
00000100: 0d4e 7238 6c00 f739 ebaf 1438 1417 c637
00000110: 6530 013a a5ec dab7 fe40 7238 f4b8 e939
00000120: 85f5 43b8 de93 cd37 2a2f ff39 cfeb dab7
00000130: 8aa5 8738 dc62 e239 a7f5 43b8 1218 d637
00000140: b0da 1a39 ffc1 7837 9a06 123a 1dea 183a
00000150: a7f5 43b8 39a5 1ab9 b81c 4b38 ffc1 7837
00000160: cb34 123a 3d3f 1b3a 217a 4db8 a49e 18b9
00000170: e277 4538 5bf8 5237 797a 0f3a 3204 3b3a
00000180: 2b7a 6ab8 966e 14b9 7a0b 3738 77be cdb6
00000190: c1bc 103a cd37 463a 44aa 66b8 7ab4 0ab9
000001a0: 072b 5b38 01bb cdb6 0774 7a3a bdc1 733a
000001b0: 44aa 66b8 6a76 6e38 eaf1 fe38 78d7 6731
000001c0: 5e05 003a 40b9 483a 42aa 66b8 c1c9 0837
000001d0: dee4 b438 78d7 6731 41e5 f939 2ce3 3f3a
000001e0: 0b28 54b6 b472 0038 585d da38 2d4a 8e3c
000001f0: bb9b 8dba 3cb9 ceb8 7a88 dab9 8989 8cb9
00000200: 8f6c 89b9 8c0a 8cb9 53a6 b0ba 6b25 e2b7
00000210: ea58 a1b9 0889 baba ba31 07ba 5736 b138
00000220: 995e 95ba 313e c0b7 55a3 04ba cdf2 cbba
00000230: 1d1c 26ba 73c2 8db9 4524 9bba 5002 5839
00000240: 7a50 49b9 f67e cbba f518 31ba 5293 9038
00000250: 1a72 72ba 4650 3239 bb2d d2b9 9977 d4ba
00000260: a866 26ba 1fd4 4d38 0c7d 79ba 4755 ad37
00000270: 5abb 97b9 3517 c7ba 9fc1 2aba 53e0 9738
00000280: b362 6cba 1f8e 12b2 1dd8 61b9 ac90 bbba
00000290: 74c1 2aba c051 5638 2c63 a6ba 3c85 4cba
000002a0: 8bd4 a5b8 5690 a6ba 4e5d d3b8 b49f 9338
000002b0: dcf3 b3ba 3385 4cba 2f15 48b8 2774 a9ba
000002c0: a15e d3b8 60ba 8f38 d4aa b4ba b769 b9b2
000002d0: b9af 3bba 5f08 d0ba a15e d3b8 00fa 9737
000002e0: fdc4 b4ba 6727 ea37 df5c 40ba 3b5d d5ba
000002f0: 028c ecb8 75b6 2239 80d5 60ba fcf1 3eb6
00000300: 54e2 3aba bb63 ceba 8685 f4b9 62aa f1b9
00000310: b0ba 51ba a072 67b6 7a41 69ba 62e2 d9ba
00000320: 55d5 c3b9 8921 c2b9 73f3 4fba cc43 67b6
00000330: 2254 c5b8 1bbe a7ba f9d5 c3b9 d15f 2ab9
00000340: 125c 5aba 8c28 de37 0d76 5838 cd14 9eba
00000350: f9d5 c3b9 29cf 4239 7329 1fba 8c28 de37
00000360: eff5 1339 94d3 81ba b1ea dcb9 c1d5 8fb7
00000370: 0da1 0cba df49 0ab8 679f 1039 cf7f 7fba
00000380: 8417 f9b9 ecf1 393a d8bb 34b9 f7fb 7cb8
00000390: 0949 0f39 ba44 7aba 2267 f4b9 8d6a 2c3a
000003a0: bae8 6fb9 f5fa 7cb8 fd2f 1dba c703 aaba
000003b0: 2267 f4b9 44ad 7f39 62a9 eeb9 2846 6bb2
000003c0: 2597 44ba 88b5 b2ba 2267 f4b9 13a9 58b9
000003d0: d12d 17ba 2846 6bb2 16b8 43ba 8a89 abba
000003e0: 56cf 97b8 2a91 8db9 f68e 08ba dd09 46bb
000003f0: 5fb7 2fbd ce7b 9cb8 efa8 173b 8f6c 89b9
-0.00026805353 -1.7909433e-05 0.00037504177 -1.4627635e-05 -7.219838e-06 0.0003699458 -0.0002599929 -2.847448e-05
0.00036407553 -1.4210946e-05 -9.212072e-06 0.00038646607 -6.306015e-05 -3.0198342e-05 0.00027225303 0.0004968282
-1.701742e-05 0.0003633184 -6.7507426e-05 -3.4177498e-05 0.00026021566 0.0004891645 3.4994402e-05 0.00041137802
-5.8986672e-05 -5.158038e-05 0.00023840468 3.316659e-06 3.1340533e-05 0.00049302395 -2.662134e-05 -1.3372798e-05
0.00026018263 1.8246529e-10 5.5971304e-05 0.00046693426 -2.662101e-05 -1.7986084e-05 0.0005134008 0.0004706928
4.2582866e-05 0.00045295525 4.1582316e-05 -3.93489e-05 0.0004819888 0.00047069273 4.295606e-05 0.00044892775
4.158198e-05 -1.8198025e-05 0.0004942436 3.986306e-05 -0.00015719177 0.00033588687 4.158198e-05 -3.16173e-05
0.00047853228 -0.00017931005 5.430189e-05 0.00045338945 4.304962e-05 0.00048346343 0.00048868655 -0.00026397873
5.7769987e-05 0.00047111826 3.5449786e-05 2.3614186e-05 0.0004928171 -2.6097821e-05 5.7757825e-05 0.00044579024
-4.672028e-05 2.450676e-05 0.0004867253 -2.6097432e-05 6.468136e-05 0.00043179735 -4.6720404e-05 2.5521997e-05
0.00014768052 1.482712e-05 0.0005570442 0.00058332254 -4.6720404e-05 -0.00014748135 4.8425718e-05 1.482712e-05
0.0005577325 0.0005922204 -4.898955e-05 -0.00014554948 4.708011e-05 1.25748e-05 0.0005473267 0.0007134109
-5.5903725e-05 -0.00014155576 4.364129e-05 -6.131649e-06 0.00055212906 0.00075614156 -5.4994845e-05 -0.00013227938
5.225374e-05 -6.131246e-06 0.00095540326 0.00092985836 -5.4994845e-05 5.6853904e-05 0.00012156724 3.3737404e-09
0.0004883612 0.0007656999 -5.4994838e-05 8.153206e-06 8.625699e-05 3.3737404e-09 0.00047663788 0.0007319923
-3.161377e-06 3.0624404e-05 0.00010412437 0.017369354 -0.0010803858 -9.857348e-05 -0.00041681883 -0.00026805353
-0.0002621156 -0.0002671074 -0.0013477303 -2.6958724e-05 -0.0003077456 -0.0014231512 -0.0005157251 8.450139e-05
-0.001139599 -2.2917144e-05 -0.0005059739 -0.0015560031 -0.00063365867 -0.00027038492 -0.0011836371 0.00020600227
-0.00019198834 -0.0015525508 -0.0006755733 6.8938956e-05 -0.000924857 0.00017005307 -0.00040088393 -0.0016209959
-0.00063476944 4.9073362e-05 -0.00095172296 2.0662917e-05 -0.00028940552 -0.0015189411 -0.0006513837 7.242025e-05
-0.0009017393 -8.530633e-09 -0.0002153818 -0.0014310083 -0.0006513812 5.109771e-05 -0.001269435 -0.0007801836
-7.907402e-05 -0.001270781 -0.000100786434 7.039253e-05 -0.0013729292 -0.00078018307 -4.7703445e-05 -0.0012928293
-0.0001007889 6.8534864e-05 -0.0013783821 -2.1584908e-08 -0.00071596686 -0.0015871635 -0.0001007889 1.8117018e-05
-0.0013791617 2.7913322e-05 -0.00073380576 -0.0016278395 -0.000112794354 0.00015517494 -0.0008576736 -2.845306e-06
-0.00071290624 -0.0015746275 -0.0004663879 -0.00046094047 -0.0008000536 -3.4488403e-06 -0.00088980014 -0.0016623253
-0.00037352243 -0.0003702755 -0.00079327 -3.4461145e-06 -9.409363e-05 -0.0012797745 -0.0003735272 -0.00016248158
-0.00083297596 2.6483343e-05 5.1608356e-05 -0.0012060642 -0.0003735272 0.00018578455 -0.0006071545 2.6483343e-05
0.0001411063 -0.0009904974 -0.0004213653 -1.7146465e-05 -0.00053645746 -3.297056e-05 0.00013792292 -0.0009746523
-0.00047510501 0.0007093239 -0.00017236115 -6.0316142e-05 0.0001366475 -0.0009546984 -0.00046616147 0.00065771566
-0.00022879514 -6.0315204e-05 -0.00059962255 -0.0012971096 -0.00046616147 0.00024383242 -0.00045521097 -1.3694752e-08
-0.0007499329 -0.0013634423 -0.00046616147 -0.0002066235 -0.000576702 -1.3694752e-08 -0.00074660906 -0.0013087254
-7.2388604e-05 -0.0002700177 -0.0005209291 -0.0030218281 -0.042899486 -7.46172e-05 0.0023141464 -0.0002621156

exp_avg_sq f4 [20, 128]
00000000: 8067 1e36 b5d4 c334 fa6a 6236 68f3 4a36
00000010: d91d 3a35 1bb2 6036 0fda 0b36 8e20 7a35
00000020: 75da 7236 340d 4036 053a 9a35 9196 7336
00000030: 5944 0f36 b0a0 1735 19c1 5f36 7c1c 4b36
00000040: f767 c835 c388 8336 e739 2036 355b e134
00000050: a3a9 5736 1761 ec35 39f9 b335 c3e7 8d36
00000060: 045d 3136 7b1f 6134 f0a1 4536 a7ad 8235
00000070: 3e46 9d35 a776 8e36 2c3a f935 a4f3 f034
00000080: 1652 5f36 5e11 b534 1537 4435 ca08 8436
00000090: dbbf bc35 a737 2c34 696b 6736 88a5 0235
000000a0: 6700 2235 6fb3 6536 cc00 b735 edfd 5034
000000b0: 5033 4136 f109 e534 eb0c 2535 ae79 6236
000000c0: 3ecb 9435 44b4 a734 52d4 4736 b518 6134
000000d0: e4db 1935 44f1 5c36 cfb5 d334 2ef7 8235
000000e0: 9e53 7536 9786 6e34 d777 0435 8650 5736
000000f0: 1935 9f34 1561 2b35 e997 7a36 34f3 6834
00000100: 72ae 0835 cef5 4f36 54d0 8e34 5574 6f34
00000110: d71a 7b36 5588 ab33 6cd6 0935 753c 5636
00000120: 8dc4 bf34 38b0 9e34 9219 7b36 f066 8233
00000130: b54d bb35 4214 7636 a248 0c34 a964 1e35
00000140: c60c 3d36 1641 9b33 9178 f235 b48b 8236
00000150: 5460 0a34 1a9f 1935 abc6 3736 ba37 3f33
00000160: b560 f135 9a7f 7c36 022f e633 6955 3835
00000170: 977e 5b36 b3a8 6f32 ff94 f835 7093 7736
00000180: 0588 ec33 2b09 4135 eb0e 6236 600b 0832
00000190: 1251 0236 bea4 7736 893c fe33 e5ed 0636
000001a0: 3f33 8036 7f98 d232 cf54 0236 70be 7136
000001b0: f3c0 f333 898a ec35 9534 7836 be00 6032
000001c0: 0411 4835 d28c 3c36 2051 f433 3895 0536
000001d0: f014 7e36 c2c9 6833 7dfd 3635 ec7b 3636
000001e0: fba4 de33 5ed4 5035 8781 4f36 c9b3 0a3c
000001f0: a0f5 3c3b c825 2e36 6beb b936 8067 1e36
00000200: e983 0c37 ad43 9836 27d7 8337 c026 d336
00000210: ae0a b336 28a3 8837 1265 1a37 558f 8936
00000220: b31c 7637 62e1 b636 4aee c336 cdde 8c37
00000230: f74c 0f37 cdbe 1736 c5e3 6837 def1 6a36
00000240: 8bc1 c836 caf5 9d37 731d 0e37 19fb 0836
00000250: 63b8 6437 9f0b 2736 656c e036 9f1c 9b37
00000260: 844e ed36 3715 ff35 319a 6137 080d 6834
00000270: d971 1c37 6c29 a337 268a c436 2d31 e535
00000280: 26fd 5937 522c cc35 036f f536 3214 9b37
00000290: cb72 4036 38e6 e735 e7c0 5937 66f7 d734
000002a0: a1ba 0337 05a5 9637 f847 f735 0407 0f36
000002b0: a349 4f37 fc67 c234 8369 1b37 0fdf 9a37
000002c0: aad5 a935 45be df35 75b9 4e37 860b a033
000002d0: 0c6b fe36 be2d 9a37 e295 e335 5649 fe35
000002e0: 7cef 4f37 bf7b 3534 b567 db36 79dc 9137
000002f0: 4c22 0e36 466d ba35 c4ef 3f37 212e 0435
00000300: b29c ce36 6d29 8e37 f2e0 0936 a2f1 1b36
00000310: ab9b 4637 40f4 0433 ebfd cd36 fdea 8d37
00000320: a872 ee35 e331 6d36 4a2c 5c37 5ed2 0e33
00000330: b49f be36 cda4 8937 4f43 6735 f49e bb36
00000340: c05c 6537 17e7 7532 03e7 9036 e587 6737
00000350: f53d 6735 038a 8e36 414a 5837 4797 3f32
00000360: 6c7e 7136 4262 5437 f536 8935 6431 7936
00000370: 911a 4b37 370a 7932 e8a3 5836 d749 4637
00000380: eb5a cf34 6698 8736 2659 5137 af9c 0732
00000390: a2aa 7036 9b53 4137 8088 c634 d010 9436
000003a0: 1e01 4c37 395a 1e33 3ac6 6f36 c263 3a37
000003b0: bc96 ce34 acc6 6936 96e8 4337 af24 ef30
000003c0: 05e3 8036 a4eb 3237 7420 d234 e3de 6636
000003d0: 1d39 3b37 fed4 6733 da6c 6c36 3813 2e37
000003e0: 4167 9a34 5342 4336 3877 3437 2e2c 043d
000003f0: 418b 853c 9772 1037 c182 e237 e983 0c37
2.360408e-06 3.6476345e-07 3.3738893e-06 3.0242027e-06 6.9333834e-07 3.3482272e-06 2.083954e-06 9.317963e-07
3.6187969e-06 2.8617915e-06 1.149078e-06 3.6297463e-06 2.1348444e-06 5.6485715e-07 3.3341987e-06 3.0265937e-06
1.4931419e-06 3.9200254e-06 2.3875562e-06 4.1975878e-07 3.2136238e-06 1.7611627e-06 1.3409073e-06 4.229108e-06
2.6429198e-06 2.096621e-07 2.9449548e-06 9.736294e-07 1.1717855e-06 4.2457427e-06 1.8568876e-06 4.4880755e-07
3.327737e-06 3.3726513e-07 7.3095845e-07 3.9349297e-06 1.4062929e-06 1.6038994e-07 3.4484203e-06 4.8669654e-07
6.035029e-07 3.4228103e-06 1.3634794e-06 1.9463887e-07 2.878911e-06 4.2661807e-07 6.148609e-07 3.3747451e-06
1.108601e-06 3.1237334e-07 2.9776897e-06 2.0963746e-07 5.7316925e-07 3.292299e-06 3.9434096e-07 9.757694e-07
3.6556517e-06 2.2214441e-07 4.934822e-07 3.2084367e-06 2.9654692e-07 6.3843737e-07 3.7341326e-06 2.169516e-07
5.09178e-07 3.098848e-06 2.660114e-07 2.2300931e-07 3.7417537e-06 7.987607e-08 5.13485e-07 3.1923676e-06
3.5719532e-07 2.955801e-07 3.7416798e-06 6.072321e-08 1.3955201e-06 3.6668648e-06 1.306494e-07 5.9006067e-07
2.817063e-06 7.229589e-08 1.8065494e-06 3.8905655e-06 1.2887295e-07 5.7228465e-07 2.7384765e-06 4.4521336e-08
1.7984045e-06 3.76252e-06 1.071876e-07 6.866963e-07 3.2707228e-06 1.3949989e-08 1.8520803e-06 3.6891688e-06
1.1014348e-07 7.1911444e-07 3.3685308e-06 7.918828e-09 1.9418699e-06 3.690176e-06 1.1838808e-07 2.0106029e-06
3.820663e-06 2.4516565e-08 1.9420875e-06 3.6022648e-06 1.13506665e-07 1.7623689e-06 3.6985487e-06 1.3038685e-08
7.4530567e-07 2.8096151e-06 1.1376892e-07 1.99054e-06 3.7861137e-06 5.4200207e-08 6.816916e-07 2.7192245e-06
1.036769e-07 7.7795073e-07 3.0920799e-06 0.008465716 0.0028832927 2.5950012e-06 5.540836e-06 2.360408e-06
8.375363e-06 4.5378315e-06 1.5716605e-05 6.292801e-06 5.335859e-06 1.6288439e-05 9.202648e-06 4.099604e-06
1.4669425e-05 5.4502607e-06 5.8391934e-06 1.679305e-05 8.541384e-06 2.2611814e-06 1.3881309e-05 3.5009502e-06
5.982996e-06 1.8830313e-05 8.470716e-06 2.0411737e-06 1.363279e-05 2.4891704e-06 6.688339e-06 1.8490768e-05
7.072291e-06 1.9005155e-06 1.3446946e-05 2.1611424e-07 9.324832e-06 1.9450403e-05 5.857338e-06 1.7076142e-06
1.2993149e-05 1.5212083e-06 7.3144924e-06 1.8486844e-05 2.8677048e-06 1.7277844e-06 1.29791215e-05 4.0226877e-07
7.851661e-06 1.7958237e-05 1.842388e-06 2.1312744e-06 1.2355306e-05 3.6210974e-07 9.263286e-06 1.84621e-05
1.2653666e-06 1.667017e-06 1.2321737e-05 7.452677e-08 7.582252e-06 1.8379531e-05 1.695644e-06 1.8945818e-06
1.2393921e-05 1.6901957e-07 6.5387817e-06 1.7388013e-05 2.1179612e-06 1.3889883e-06 1.1440312e-05 4.924096e-07
6.15752e-06 1.694701e-05 2.0545526e-06 2.3237449e-06 1.1837964e-05 3.095579e-08 6.139036e-06 1.6917935e-05
1.7765751e-06 3.534479e-06 1.3123334e-05 3.325328e-08 5.681033e-06 1.6408414e-05 8.615215e-07 5.591539e-06
1.3671059e-05 1.4313421e-08 4.3184277e-06 1.3800313e-05 8.6144365e-07 4.2479965e-06 1.2891892e-05 1.115206e-08
3.5985386e-06 1.2659062e-05 1.022329e-06 3.713264e-06 1.2105928e-05 1.449603e-08 3.2281914e-06 1.1818912e-05
3.8622906e-07 4.041055e-06 1.2478127e-05 7.89366e-09 3.5862108e-06 1.1523162e-05 3.697969e-07 4.412701e-06
1.2159608e-05 3.68693e-08 3.5729158e-06 1.1109691e-05 3.8480164e-07 3.4835348e-06 1.1677059e-05 1.7399965e-09
3.841126e-06 1.0664491e-05 3.913916e-07 3.4402408e-06 1.1159366e-05 5.3977594e-08 3.52301e-06 1.0375683e-05
2.8759862e-07 2.909587e-06 1.0756594e-05 0.032268696 0.016301753 8.609749e-06 2.7002186e-05 8.375363e-06

exp_avg f4 [20]
00000000: c389 c939 f514 22bb 9035 85ba 5668 513a
00000010: 45be 70b9 0b28 83b9 0f13 5a3b 8aad 713a
00000020: a3b1 a039 f124 3937 c3cb 8539 2749 08ba
00000030: 5015 1aba 1afd 9db9 a8f9 f1b9 b123 333a
00000040: 17a1 1bb8 bc9a acb9 7b71 3bb9 d43b 7db9
0.00038440348 -0.002473173 -0.0010163058 0.00079882646 -0.00022959065 -0.000250161 0.003327552 0.000921928
0.00030649928 1.103546e-05 0.0002551955 -0.0005198889 -0.00058778096 -0.0003013395 -0.0004615311 0.00068336265
-3.7104906e-05 -0.00032921683 -0.00017875984 -0.00024150248

exp_avg_sq f4 [20]
00000000: 5f65 7f37 5b37 7d38 2add 0438 c466 8638
00000010: 0132 a737 e9f8 e337 4f8a e138 8371 7538
00000020: 9e07 8538 6ee6 e336 0aa4 5738 03b8 9738
00000030: 0a02 c137 460c a138 ec41 d237 ef5c 3e39
00000040: 06c6 0938 932b fb38 c48c 7f35 7403 a837
1.5222787e-05 6.0371454e-05 3.1677228e-05 6.4087595e-05 1.9931236e-05 2.7176417e-05 0.00010754598 5.8518268e-05
6.343353e-05 6.7919527e-06 5.1412768e-05 7.234516e-05 2.3008342e-05 7.679364e-05 2.5064648e-05 0.00018154432
3.284777e-05 0.00011976729 9.5199744e-07 2.0028769e-05

exp_avg f4 [6, 20]
00000000: 14c7 acba 3657 3bba f920 5b39 2773 52b8
00000010: 487b 80ba 27ca 0bba 401a 7a3a 5751 61b8
00000020: 4463 8839 5ac8 37ba 48a4 01b9 a43a 6cba
00000030: fe0e 34ba 2b2b 73ba 0d37 adb9 1d39 ce39
00000040: 730e 28b9 6e9a 4d38 c76f 8b3a e2b5 45b9
00000050: fc4b 23bb 4bbb 723c ea4e aeba 7ba0 efbb
00000060: a74f c13b 1775 043a fdb8 3bbb 8a98 b5b9
00000070: 8e30 babb a26c 3f3a d0b2 08bb 78b2 c03b
00000080: 88bf 823b b129 1fbb cffa ca3b d78f 09bc
00000090: 018a 2a3b facf ae3c 5e85 6d39 e8b0 a63b
000000a0: 6ec9 9dbb 828c a0bb ccac 5f39 37f7 e63a
000000b0: 016c ecbb f80d 47bb 77d4 333a 166d a039
000000c0: c72b 3a3b 0875 82bb 8584 fcb8 8bda cdba
000000d0: 132e 9dba 8faf 24ba 9791 1cbb b219 993b
000000e0: 2ed5 8abb 7c75 06bc 2c0a d2ba 6cf2 4bbb
000000f0: 7f62 e43b b411 233b 2d6f 6f39 9c6c 793b
00000100: 7d45 083b d801 f33a 97da 1fb9 d672 04b9
00000110: 1b8e d83a 8179 c73b 9ecf 553a 8d46 273a
00000120: 6e4a e838 a159 473b 4db0 353a 004c 113b
00000130: 8a26 aa39 1368 8f3b 88f0 763a 8c61 5f39
00000140: be1b a63a 85da 4cbc be43 b73a e8b7 b23a
00000150: 6d16 b2b9 c414 aa3a 086e f43a 6644 523a
00000160: 30f5 473a 7a20 2ebb e586 8b3a e204 77bb
00000170: ff59 00bb 24eb 013a 6660 9cbb f151 963a
00000180: 4844 923a 2b89 96bc 9569 d6ba eb4a 33bb
00000190: 9296 cb39 9a92 543a 6065 3cba 8d41 e139
000001a0: 3c6a 113a 99df b4b8 2373 00ba 58a0 18ba
000001b0: efae 2d39 f7d7 083a 3770 eb39 2b90 92b9
000001c0: 49dc 86b9 e9f5 e939 b8c8 1d3a 9878 11b8
000001d0: c55c ba39 ad6d 553a 0aa0 833a 06e0 403a
-0.0013181888 -0.00071464793 0.00020897751 -5.0175146e-05 -0.0009802366 -0.0005332552 0.0009540655 -5.3719934e-05
0.000260139 -0.00070107507 -0.00012363598 -0.00090114237 -0.0006868689 -0.0009276147 -0.00033038147 0.00039333935
-0.00016027111 4.9019633e-05 0.0010638171 -0.0001885514 -0.0024917116 0.014815162 -0.0013298665 -0.007312832
0.005899388 0.0005052848 -0.0028644197 -0.0003463666 -0.0056820577 0.00073022593 -0.0020858534 0.00588065
0.0039901175 -0.0024286325 0.0061944495 -0.0083961105 0.0026022198 0.021339405 0.00022651764 0.005087007
-0.004815272 -0.0048995623 0.00021331309 0.0017621283 -0.0072150235 -0.0030373316 0.0006859968 0.00030598853
0.002840744 -0.0039812364 -0.0001204098 -0.001570539 -0.0011991881 -0.0006282264 -0.002389049 0.0046722526
-0.004236839 -0.008206721 -0.001602476 -0.0031119836 0.0069697495 0.0024882378 0.00022834232 0.003805912
0.0020793371 0.0018539978 -0.00015244853 -0.0001263128 0.0016521843 0.0060874824 0.00081562425 0.00063810573
0.00011076486 0.0030418413 0.0006930873 0.0022170544 0.0003245364 0.0043764203 0.0009419997 0.00021303276
0.0012673063 -0.012503271 0.0013981981 0.0013635131 -0.00033967514 0.0012976159 0.0018648515 0.00080210564
0.00076277833 -0.002656965 0.001064506 -0.003769212 -0.0019584892 0.0004955998 -0.004772234 0.0011468512
0.0011159265 -0.018375954 -0.001635837 -0.0027357887 0.0003883136 0.00081090035 -0.0007186737 0.00042964183
0.0005547141 -8.624717e-05 -0.0004899969 -0.0005822233 0.00016563734 0.00052201696 0.000449063 -0.00027954704
-0.00025722597 0.0004462444 0.0006018984 -3.4683006e-05 0.00035545803 0.0008141648 0.0010042202 0.0007357601

exp_avg_sq f4 [6, 20]
00000000: cef1 a23a cffe 0e3a 7205 2839 d0dc d639
00000010: 4f7e 853a 6cb2 0d3a 4630 9939 235b 6d39
00000020: 8958 3839 0ed0 243b 91d3 2e39 a5c5 253a
00000030: b3bc d539 8152 f339 5920 243a 1616 9739
00000040: f1b7 8a39 2908 283a 7f5b e139 37c8 e538
00000050: 2745 5c3a cce1 923a 75a1 e938 4b1a a53a
00000060: 21c2 ea3a a7fc e939 096c fa39 7286 2b39
00000070: b1ce 003a b491 943a b352 1a39 7457 433a
00000080: 0032 f239 484a d039 e627 803a 350a 943a
00000090: 820c eb39 b544 1c3b a8c9 ac3a d92a 343a
000000a0: f9cc 0f3b 7d57 b83a cad9 1b39 024f bf3a
000000b0: d97f 073b c349 163a a749 2e3a 3691 9439
000000c0: 82b8 f339 3a86 7f3b ef1e 8039 cc36 863a
000000d0: 99d9 1f3a ae3e 1f3a 8c68 af3a aae6 903a
000000e0: c03b d239 efa6 393b 0553 eb3a 8fa8 4e3a
000000f0: 09cb 5c39 5afe fe38 b07d eb36 da1f 9038
00000100: b7f4 7339 aa00 e837 4b5f 8938 841d 5537
00000110: c280 c636 83b0 c739 e824 e136 3e93 6638
00000120: 0946 8938 59d7 f037 1a31 1339 500a 1038
00000130: 0085 9737 406f 8a39 b8d5 ae39 4a72 8638
00000140: 03d3 9839 586a a839 8e9d 6137 34a2 c939
00000150: 3eb0 4939 90e9 2638 26ca cf38 8db2 9537
00000160: bf0f de38 8ada 013a 4624 0c38 894d dc38
00000170: 5caf 3538 b7b4 8f38 4290 c138 83ba b039
00000180: 8fe9 4638 80a9 423a 9e94 093a 9c12 0e39
00000190: 325a 2e36 a103 b136 cbf6 3436 0ab4 af36
000001a0: a867 4536 f841 4236 30ee fb36 8907 0036
000001b0: 89b9 4836 0870 d536 912c fb35 e112 6536
000001c0: c4ec 2b36 9dbe 6136 d097 c136 7201 f136
000001d0: 9f5f 8c36 7ef7 c936 e453 ca39 4e34 9537
0.0012431683 0.00054548396 0.00016023757 0.0004098178 0.0010184738 0.000540531 0.000292184 0.00022636032
0.0001758059 0.0025148424 0.00016672748 0.0006323702 0.00040767118 0.00046410042 0.00062609237 0.0002881742
0.00026458458 0.00064099074 0.00042983514 0.00010956864 0.00084026385 0.0011206209 0.000111403795 0.0012596337
0.0017910638 0.00044629464 0.00047764208 0.00016357916 0.0004913612 0.0011334927 0.00014717392 0.0007451691
0.0004619509 0.00039728195 0.0009777516 0.0011294546 0.00044832012 0.0023844664 0.0013182657 0.000687284
0.0021942242 0.001406416 0.00014863085 0.001459569 0.0020675568 0.0005733037 0.00066485483 0.0002833695
0.0004648604 0.0038989917 0.0002443711 0.0010239719 0.0006097793 0.00060747087 0.0013382598 0.0011055071
0.00040098839 0.002832826 0.0017953819 0.00078833936 0.00021056471 0.000121590405 7.0181777e-06 6.872388e-05
0.00023265449 2.7656864e-05 6.550419e-05 1.27026615e-05 5.915849e-06 0.0003808775 6.709819e-06 5.4973403e-05
6.545714e-05 2.8710509e-05 0.00014037304 3.434188e-05 1.8062536e-05 0.000264043 0.000333471 6.410906e-05
0.00029148915 0.0003212269 1.3447729e-05 0.00038458558 0.00019234509 3.9795006e-05 9.908182e-05 1.7845328e-05
0.00010588718 0.00049535243 3.3412383e-05 0.000105048595 4.331708e-05 6.852432e-05 9.229827e-05 0.00033708298
4.7424397e-05 0.000742577 0.0005248281 0.00013549108 2.598052e-06 5.2754335e-06 2.6965743e-06 5.2363657e-06
2.9415623e-06 2.8946652e-06 7.5081116e-06 1.9077872e-06 2.9910318e-06 6.360937e-06 1.8713928e-06 3.4134648e-06
2.5618801e-06 3.3638564e-06 5.7695215e-06 7.182528e-06 4.183457e-06 6.0190787e-06 0.00038590946 1.778654e-05

exp_avg f4 [6]
00000000: 695a 803a f129 833b 9619 43ba e987 283b
00000010: bf03 9fbb 1d3b 00bb
0.0009792569 0.0040028025 -0.0007442472 0.0025715774 -0.0048527415 -0.0019566484

exp_avg_sq f4 [6]
00000000: 2294 fa38 90c0 8539 a67e 9f39 b9ff 9e38
00000010: 2ab9 1c39 a922 6938
0.00011948521 0.00025511207 0.00030421204 7.581659e-05 0.00014946298 5.558381e-05

exp_avg f4 [3, 20]
00000000: e4eb 47ba ba68 0abb 5d30 90ba ae0a 7aba
00000010: 7068 20bb ddb3 fbba c5c5 8639 cc3d c7ba
00000020: 4743 aeb9 8fd6 7cba 8ac6 f2b9 613a 20bb
00000030: b4e9 eaba edbf 0aba 55f0 16bb 9a52 18ba
00000040: e7ff 93ba 9d7a dfba 1fa4 813b 481a 0bb9
00000050: 6c14 e9b9 6fb5 493a 0332 993a b585 37bb
00000060: 65cf 85ba ee21 983a a4b8 1bbb cfaa 773a
00000070: 9524 70ba 270a b7ba 36c6 4bba aeaf 9a3a
00000080: 457f 4b3a 09e5 7bb9 8f29 9a39 d999 14bb
00000090: 2f9b 0dba f968 44ba 6437 95bb ba8c ecba
000000a0: 0f44 9e3a c608 b03a 4d91 8fb8 1cf5 753b
000000b0: 884a 633b 2354 473a d9d0 0a3b 81e1 163a
000000c0: 9a92 a33a 14ba 1a3b 0390 a23a a3da a53a
000000d0: 363e 853a c3c9 493a a6ac 033b 479a 3a3b
000000e0: adb9 da3a 2fd0 203b 99a1 1c3a acda fd3a
-0.0007626398 -0.002111955 -0.0011000742 -0.00095383346 -0.0024476312 -0.0019203384 0.00025705821 -0.0015200912
-0.00033237992 -0.0009645009 -0.0004630576 -0.002444886 -0.0017922432 -0.00052928814 -0.0023031433 -0.00058106484
-0.0011291475 -0.0017050091 0.0039563323 -0.00013265864 -0.0004445644 0.0007694577 0.0011687878 -0.002800328
-0.0010208903 0.0011606792 -0.0023761177 0.0009447755 -0.00091607246 -0.0013964818 -0.0007773371 0.0011801624
0.00077628 -0.00024022548 0.00029404133 -0.0022674708 -0.00054018473 -0.0007492449 -0.004553722 -0.0018047311
0.0012074726 0.0013430349 -6.845836e-05 0.003753013 0.0034681875 0.0007603785 0.0021181612 0.00057556486
0.0012479604 0.0023609446 0.0012402538 0.001265366 0.0010165635 0.00076976063 0.002009192 0.0028473304
0.0016687416 0.002453815 0.00059750077 0.0019367537

exp_avg_sq f4 [3, 20]
00000000: 7f6c 483a 9843 4739 d5ec 3439 a462 8639
00000010: 7e5e e539 a626 8639 e304 5f39 2010 4c39
00000020: 1cc4 6138 a9aa b13a c80d 5a39 0bc0 ae39
00000030: cbea 1639 3d24 a339 71c9 9839 20e4 ee38
00000040: e143 e038 b29b 8a39 fb91 d839 559c 8238
00000050: 513b 7f3a 4ed0 6239 7e86 af38 8087 be39
00000060: 0290 0b3a 7284 4e39 85fa 1e39 7600 1139
00000070: 4d43 a437 bed1 df3a bc04 bf38 88e8 ac39
00000080: 1e56 1f39 21b6 6e39 cc6a 9939 53d5 fc38
00000090: 8777 e638 99b0 cc39 a785 0b3a 55f1 f938
000000a0: 4700 983a d07a 1a39 da71 0a39 8c16 f739
000000b0: c701 eb39 f795 5239 26f9 5039 5219 ea38
000000c0: 80b0 8838 e046 e23a c404 5039 e744 5239
000000d0: c356 4a38 1100 8b39 7778 3339 b7df 4939
000000e0: 32aa a338 38d3 bb39 2468 bb39 2e6d d538
0.0007645562 0.000190033 0.00017254365 0.00025631965 0.00043748686 0.00025587267 0.00021268758 0.00019460963
5.382682e-05 0.0013554889 0.00020795234 0.0003333095 0.00014392582 0.00031116782 0.00029141785 0.00011391216
0.00010693796 0.00026437413 0.00041307494 6.228002e-05 0.0009736317 0.00021630639 8.3697014e-05 0.0003634058
0.0005323888 0.0001969503 0.0001516138 0.0001382845 1.9581663e-05 0.0017076058 9.1084716e-05 0.00032979646
0.00015195503 0.00022765297 0.00029262004 0.00012056031 0.00010989518 0.00039041488 0.0005322345 0.00011918197
0.0011596762 0.00014732336 0.00013203119 0.0004712831 0.00044824017 0.00020083027 0.00019929241 0.00011162706
6.517861e-05 0.0017263554 0.00019838201 0.00020052829 4.8241356e-05 0.00026512195 0.00017115647 0.00019252194
7.804147e-05 0.0003582479 0.0003574501 0.00010176968

exp_avg f4 [3]
00000000: 824b f63a 13ca 68ba 7be6 81ba
0.0018790814 -0.0008880209 -0.0009910607

exp_avg_sq f4 [3]
00000000: b2cd 0539 5748 1839 dcbf 1c39
0.00012760496 0.00014522798 0.00014948793

exp_avg f4 [3, 20]
00000000: 167c 1bbb 06ca d83c 34fa 163b 5fc3 9f3b
00000010: e137 643c 0283 da3b 59f3 16ba b33d f83b
00000020: caa1 683a 6a2b febb 55e5 92bb 1379 8f3c
00000030: 7449 8d3c d7af 24bb 86a3 6f3c 291d 8d3b
00000040: e0e6 b43a f358 bd3c f842 5eba 1ec3 8f3a
00000050: 23a2 8c3b 1e4d 1fbd 9b03 7fbb d90a 83bc
00000060: 7bff a2bc f562 adbb 5ac8 1cbc d0c1 6dbc
00000070: 7aa3 90bb 80c1 463c 5b36 f53a 49ce dbbc
00000080: 14f0 c0bc 61e7 8a3a cdf7 c3bc 8f47 5bbc
00000090: 8fdc 3a3b 635c 11bd 3f6c 26ba c028 12bb
000000a0: 37ad fbba 1e9a 4b3c a908 d03a f72b 363c
000000b0: 8971 c33b bca7 b4ba 4f2f 263c ba46 e33b
000000c0: b506 673b d262 8fbb d511 2b3b e6a6 183c
000000d0: 789a ce3b 0047 be3a 3a46 183c 31b1 143c
000000e0: 39bc 8abb e7ad 4a3c 5843 c23a 9156 943a
-0.0023725084 0.02646352 0.0023037316 0.004875585 0.013929338 0.0066684494 -0.00057583075 0.0075757145
0.0008874206 -0.00775664 -0.004482905 0.017513787 0.01724694 -0.0025129223 0.014626389 0.0043064547
0.0013801716 0.023113703 -0.0008478607 0.0010968184 0.004291789 -0.038891904 -0.003891206 -0.015996384
-0.019897213 -0.0052913376 -0.009569252 -0.0145115405 -0.004414019 0.012131095 0.0018708216 -0.026831763
-0.023551978 0.0010597521 -0.023921872 -0.01338376 0.002851281 -0.035488497 -0.00063485274 -0.002230212
-0.0019201402 0.012426881 0.0015871722 0.0111188805 0.005964462 -0.0013782899 0.010143115 0.0069359215
0.00352518 -0.004375794 0.0026103158 0.009317135 0.006305035 0.0014517009 0.009294087 0.009075449
-0.0042338637 0.012370563 0.0014821095 0.0011317303

exp_avg_sq f4 [3, 20]
00000000: bfbe 843b 7927 b53a 7f78 833a ccd1 d73a
00000010: 81c6 5c3b a9d1 e53a 6438 a73a 498b 9e3a
00000020: bfb8 563a 80ed a43b ef98 a73a a414 0f3b
00000030: a95a 6b3a af3a 213b 62a4 f43a 5650 a03a
00000040: 0bc4 2f3a 8956 1b3b 170d 2d3a de7d 063a
00000050: 1b78 493b 7dfb 253b 2479 fd3a 0cbc f93a
00000060: f4e5 b53b 8a33 4a3b 59ec 133b 5c6a 253b
00000070: 10b1 733a 526c 873b 068b 1d3b 5109 863b
00000080: 144b f63a 8ca2 863b d89a 813b ee82 c53a
00000090: 68fe dd3a 1d1a 853b d2ea 063b d55d 8a3a
000000a0: a67a 4e3b 8725 d03a bdda 043b fde4 ff3a
000000b0: ef64 923b 529e 443b f638 253b 725b 183b
000000c0: b7b4 b83a fdbe 833b 4edf 1c3b 1ebd 5e3b
000000d0: 100e b93a 1a8f 823b 050d 4e3b 49d8 053b
000000e0: 1cbc c63a 6474 273b 72ad ee3a cd0e 363a
0.004051059 0.0013820968 0.0010030417 0.0016465723 0.0033687653 0.0017533797 0.0012757895 0.0012095954
0.00081909815 0.005033195 0.0012786667 0.002183237 0.0008978048 0.0024601629 0.0018664713 0.0012230973
0.0006704933 0.0023702702 0.0006601377 0.000513045 0.0030741754 0.00253269 0.0019338471 0.0019053235
0.005551094 0.0030853474 0.0022571294 0.0025240397 0.0009296099 0.004132786 0.0024039163 0.004090466
0.0018790686 0.0041087326 0.0039552264 0.0015068927 0.0016936781 0.004061951 0.002058674 0.0010556529
0.003150621 0.0015880325 0.002027198 0.00195232 0.0044675986 0.0030001593 0.0025210953 0.0023247865
0.0014091943 0.0040205703 0.002393681 0.0033987234 0.0014118571 0.003984344 0.0031440866 0.0020423105
0.0015162262 0.0025551552 0.001820965 0.00069449545

exp_avg f4 [3]
00000000: ef9d d43b 9242 5bbc 39e7 e13b
0.0064885537 -0.013382571 0.006894019

exp_avg_sq f4 [3]
00000000: ecce b739 3152 123a ffe3 023a
0.0003505865 0.00055817055 0.00049930805

exp_avg f4 [20, 128]
00000000: 5d4c 10bc f227 a13b f190 2839 b2c2 6339
00000010: b375 a73b b37e 603a 16cd 7fbb c41e dc3a
00000020: e9b1 f1b9 8a13 08bb 2f47 103c 90c8 4b3b
00000030: 0fdd adba a5aa d63b 6f73 21ba 0981 a53b
00000040: bb8e 4d3b b161 e339 59ae 46ba 25bc 003b
00000050: e363 373a 90f7 5d3b a89e 1b3b 8bc8 323a
00000060: 3af9 c1ba 47a8 2f3b e2a5 b73a 85af 2fba
00000070: 3cb2 ea39 8c2b 563a 46f9 9aba 7888 033b
00000080: 5f73 043b 4919 32b1 856c 9cba 7c18 063a
00000090: 5dfa 9aba 4dc7 193b 9eff cd3b 9bd7 ab3b
000000a0: f812 0c39 dd7b 163a 9d5c 033a 65c2 2a3b
000000b0: 307e c93b 9bd7 ab3b 1ae3 563a c11d 813a
000000c0: cb5e 033a 5a20 263b af0d c43b 575a b2b6
000000d0: b2b1 8d3b 8c97 173b cb5e 033a 6af7 383b
000000e0: 7b26 b33b 5903 9cba bca8 c83b 1804 743b
000000f0: e598 1139 cf4f 0b3c b8a7 863b 4c8c e5ba
00000100: 4e27 d83b 9199 b43b 808c 97b9 c150 b73b
00000110: f85a a93b 4186 1bba 4136 a53b 441a ad3b
00000120: 2d01 9aba cff5 c33b 3164 b93b f885 1bba
00000130: 2bda 6f3b 91c4 9b3b d300 9aba dd01 fd3b
00000140: abff 2f3b df72 1bb7 eb72 ed3b 51c5 c13b
00000150: d300 9aba 5a55 c338 7919 83ba df72 1bb7
00000160: 2c79 ea3b 9ecc 883b 0f14 97ba d8d9 0938
00000170: 0daa 5cbb c342 52ba a610 ed3b a11f a93b
00000180: 7bbe 1aba 4ae1 41b9 28f6 27bb 6133 4bba
00000190: 554f ed3b 2b2e c03b 1d4b d3b9 a0a4 80ba
000001a0: a617 65bb 6b33 4bba 6d59 4e3c d085 0d3c
000001b0: 1d4b d3b9 d68e b43b 97d1 aeba 0e24 f4b4
000001c0: 601a 0e3c 8f5f eb3b 104b d3b9 2537 903b
000001d0: 67b4 a5ba 0e24 f4b4 3706 143c 12cc ec3b
000001e0: 6086 1239 5bf1 973b d023 57ba 64ac 5cc0
000001f0: 7bf1 ddc1 d56f 1cba 701d 453b 5d4c 10bc
00000200: 97f3 d93c 1b5e d3bb 8eec 2c3b ecf0 85bb
00000210: 4369 c2bb 0684 c33a a63f c23c 25f4 88bb
00000220: 52d8 203b 547a e139 75e3 52bc fb4e 95ba
00000230: 77e5 9d3c 214d 32bc 8061 353b eb0f 24bc
00000240: 42ed 7bbb 9b86 653b 3f99 943c d903 9dbb
00000250: c407 963a 8cf7 f9bb 658c c1ba 540c 4d3b
00000260: f46c 9d3c 979c c3bb df8a 8838 30e6 cbba
00000270: f061 c23a 99f0 4a3b 5bf0 433c 6f17 84bb
00000280: 4583 a8ba f5fb 1eb3 5e83 7a3b 32b7 293b
00000290: 95f0 433c d03b 97bb c60e 0dbc b6aa 1bbc
000002a0: c3d5 e439 9de5 f23a 9ab2 fd3a e5c8 a2bb
000002b0: f41c 18bc a8aa 1bbc 8f82 c2b9 f728 b63a
000002c0: cfb0 fd3a 72a4 47bb 473f 10bc 4ca2 ff39
000002d0: 3fe4 a7bb c29b c9b9 cfb0 fd3a ac0c 8fbb
000002e0: e709 04bc 5543 403b 68a2 0ebc 2ae2 47bb
000002f0: a227 463b b90e 4dbc ec84 89bb 02db 5d3b
00000300: 9e79 1cbc ce15 b3bb 0b1c 45ba d557 8fbb
00000310: 0063 2dbb 4246 9f3a 3e94 a6bb 9e2d 93bb
00000320: b42a dc3a 9fdd a1bb c569 70bb 8e48 9f3a
00000330: 1897 29bb 7871 61bb 392a dc3a 698f 0fbc
00000340: 8ef2 423a 6b58 7d39 ac37 07bc 3be2 a7bb
00000350: 392a dc3a c3ec 4c3b a98c d43b 6b58 7d39
00000360: 172d 1bbc d718 87bb 5fc7 c13a 0802 4e3b
00000370: 754d 233c f604 c23a 1e04 24bc 1908 c9bb
00000380: c8c2 6638 1070 7b3b 7dc3 1b3c d1d8 9d3a
00000390: 49d0 26bc 818b f2bb c149 d939 8303 ba3b
000003a0: 6b71 343c afd8 9d3a 7945 a5bc e5d1 4cbc
000003b0: c149 d939 22b0 7bbb ce0f 003c d1a1 8635
000003c0: 6019 6dbc 3cac 2abc ac49 d939 6273 d7bb
000003d0: 44a0 d63b d1a1 8635 ef27 7ebc afce 2cbc
000003e0: b857 bdb9 5823 b8bb 98db e43b d43a 8e40
000003f0: b09b 1742 76c9 5e3a f9c2 74bc 97f3 d93c
-0.008807269 0.004918092 0.00016075723 0.00021720937 0.0051104664 0.00085638015 -0.0039032153 0.0016793837
-0.00046099655 -0.00207636 0.008806034 0.0031094886 -0.0013264733 0.006551104 -0.00061588635 0.0050507826
0.0031365592 0.000433696 -0.00075790804 0.0019643393 0.000699578 0.0033869483 0.002374569 0.00068200444
-0.0014799007 0.0026803182 0.0014011229 -0.00067018747 0.00044764753 0.0008169941 -0.0011823557 0.0020070355
0.0020210368 -2.5916782e-09 -0.0011934197 0.0005115343 -0.0011823882 0.002346474 0.0062865755 0.005244208
0.00013358507 0.0005740503 0.0005011054 0.002605581 0.006149076 0.005244208 0.0008197293 0.0009850786
0.00050113787 0.0025348873 0.0059830765 -5.3153303e-06 0.0043241614 0.00231311 0.00050113787 0.0028223642
0.0054672337 -0.0011902853 0.0061236303 0.0037233885 0.00013885235 0.008502915 0.004109349 -0.0017513125
0.0065964824 0.0055114706 -0.00028905645 0.0055943434 0.005168315 -0.0005932786 0.005041868 0.005282672
-0.0011749618 0.0059802304 0.0056576957 -0.00059327437 0.0036598544 0.004753657 -0.0011749513 0.0077211694
0.002685527 -9.265465e-06 0.0072463653 0.0059134145 -0.0011749513 9.3142226e-05 -0.0010002098 -9.265465e-06
0.007155558 0.004174783 -0.0011526364 3.2866228e-05 -0.0033670694 -0.00080208125 0.0072346507 0.005161241
-0.00059030176 -0.00018489841 -0.0025628898 -0.00077514915 0.007242123 0.0058648787 -0.0004030102 -0.0009814687
-0.0034956723 -0.00077514973 0.012594563 0.00863786 -0.0004030102 0.0055101914 -0.0013337609 -4.5474775e-07
0.0086732805 0.0071830223 -0.00040300982 0.004401105 -0.0012642265 -4.5474775e-07 0.009034685 0.0072264755
0.00013973704 0.004636926 -0.00082069356 -3.448022 -27.74291 -0.0005967592 0.003007736 -0.008807269
0.02660541 -0.006450427 0.0026386115 -0.004087558 -0.0059329583 0.0014916665 0.02371199 -0.004179495
0.0024543 0.00043006486 -0.012871613 -0.0011391336 0.019274456 -0.010882647 0.0027676523 -0.010013561
-0.0038440977 0.0035022858 0.01813948 -0.0047917184 0.0011446406 -0.007628387 -0.0014766572 0.0031287866
0.019216992 -0.0059695947 6.510852e-05 -0.0015556272 0.0014830213 0.0030966161 0.011959161 -0.004031114
-0.0012856504 -3.7016395e-08 0.0038225274 0.0025896546 0.011959215 -0.0046152845 -0.008609479 -0.00950115
0.00043646814 0.0018531565 0.0019355596 -0.004967796 -0.009284247 -0.009501137 -0.00037099837 0.0013897707
0.0019355061 -0.0030463007 -0.008804149 0.0004875831 -0.0051236446 -0.00038453756 0.0019355061 -0.0043655243
-0.0080590015 0.0029337008 -0.008705713 -0.0030499795 0.0030236025 -0.012515717 -0.0041967537 0.0033852463
-0.00955048 -0.005465246 -0.00075191323 -0.004374484 -0.0026456714 0.0012151676 -0.00508359 -0.004491522
0.0016797394 -0.0049397494 -0.0036684137 0.001215236 -0.0025877412 -0.0034399908 0.0016797251 -0.008762219
0.0007436656 0.00024160898 -0.008253019 -0.0051234043 0.0016797251 0.003126905 0.0064864946 0.00024160898
-0.0094711995 -0.004122834 0.0014784149 0.0031434316 0.009967198 0.0014802504 -0.010010747 -0.0061349985
5.5017677e-05 0.0038366355 0.009507057 0.0012042766 -0.010181495 -0.007401884 0.00041444416 0.005676688
0.011013369 0.0012042726 -0.020174729 -0.012501215 0.00041444416 -0.0038404544 0.007816268 1.0030873e-06
-0.014471382 -0.01041704 0.00041444355 -0.006575034 0.006549867 1.0030873e-06 -0.015512451 -0.010547324
-0.00036114245 -0.0056194477 0.0069841854 4.444681 37.90204 0.0008498648 -0.014939063 0.02660541
