config/ppo/results/RayShoot0608_2/Shooting/Shooting-362448.pt (torch, 77207 bytes, 28 tensors)

discrete_act_size_vector f4 [1, 2]
0	0x40400000	3.0
1	0x40400000	3.0

network_body._body_endoder.seq_layers.0.weight f4 [20, 128]
0	0xbe83a837	-0.25714275
1	0x3e3e9093	0.18609838
2	0x3e965731	0.29363397
3	0x3e5838ae	0.21115372
4	0x3d71486a	0.05890695
5	0x3ebaf10a	0.36512023
6	0xbef28a31	-0.47371057
7	0x3dd7016a	0.104983166
8	0x3dab6679	0.083691545
9	0x3ed1334c	0.4085945
10	0x3e249468	0.16072237
11	0x3d0e7b86	0.03478577
12	0xbee840be	-0.45361894
13	0x3d14dcca	0.036343373
14	0x3e4acd5e	0.19804904
15	0x3eb1a6b8	0.3469751
16	0x3d641dc4	0.05569245
17	0x3e659916	0.22421679
18	0xbe939489	-0.2882426
19	0x3d498476	0.04919859
20	0x3d8295ef	0.06376254
21	0x3e7f6c00	0.24943542
22	0x3d3ac82d	0.04560106
23	0x3de4161d	0.1113703
24	0xbe4fcdb7	-0.20293318
25	0x3ddcd9c5	0.10783724
26	0x3d63d9de	0.055627696
27	0x3eee5a6e	0.46553367
28	0xbe078f89	-0.13238348
29	0x3e8ad056	0.27112073
30	0xbe25d020	-0.16192675
31	0x3e2955ff	0.16536711
32	0x3e0283f2	0.12745646
33	0x3eaa7904	0.33295453
34	0x3b3f1969	0.0029159433
35	0x3de6eff5	0.11276237
36	0xbddd72db	-0.108129226
37	0x3d8e09f5	0.06935493
38	0x3d184d7a	0.037183262
39	0x3e66ecf2	0.22551325
40	0x3ae37278	0.001735284
41	0x3de92b04	0.11385158
42	0xbda1481d	-0.07875083
43	0x3de5fcd3	0.11229863
44	0x3cf66ab0	0.03008017
45	0x3e86f417	0.263581
46	0xbd90951f	-0.070596926
47	0xbcf9c3df	-0.030488906
48	0x3b15e374	0.0022871168
49	0x3e3f3252	0.1867154
50	0xbd122f30	-0.035689533
51	0x3ec1baa9	0.37837723
52	0xbe504661	-0.20339347
53	0x3e2e38ee	0.17013904
54	0xbe8b4901	-0.27204135
55	0x3e186fac	0.1488635
56	0x3db27087	0.08712869
57	0x3e916c0c	0.28402746
58	0xbcc9bdc7	-0.024626626
59	0x3de8a77d	0.11360071
60	0xbe174e61	-0.14775993
61	0x3e3a3f47	0.18188201
62	0x3dd5fb65	0.1044834
63	0x3e7ea150	0.24866223
64	0xbde82d8d	-0.11336813
65	0x3e60eb72	0.21964815
66	0xbdcc34af	-0.09970986
67	0xbd3b9f80	-0.045806408
68	0x3d5e8ad0	0.0543316
69	0x3cb8e173	0.02256844
70	0xbd96998a	-0.07353504
71	0x3e8100b9	0.25195864
72	0xbdf88abb	-0.12135836
73	0x3d2c1446	0.04201152
74	0x3e151491	0.14558627
75	0x3e1da645	0.15395458
76	0xbe8636ea	-0.2621377
77	0x3e6bb1b8	0.23017013
78	0xbe5992ef	-0.21247457
79	0x3ddbf431	0.10739935
80	0x3e38ffed	0.18066378
81	0x3e94acd8	0.2903812
82	0x3d64a1a9	0.055818234
83	0x3e2bb8b2	0.16769674
84	0xbe69b7f1	-0.22824074
85	0xbbc88e1c	-0.0061204564
86	0x3e014827	0.1262518
87	0x3ea06bdc	0.3133229
88	0xbd03ca72	-0.03217549
89	0x3c238082	0.009979369
90	0xbe365045	-0.17804058
91	0xbdf77422	-0.120826975
92	0x3e016de7	0.1263958
93	0x3ea19b91	0.31564
94	0xbdb93689	-0.09043605
95	0x3e60334f	0.21894573
96	0xbe9aac84	-0.30209744
97	0xbcc6b60b	-0.024256727
98	0x3d1d1a26	0.038355015
99	0x3e24df7e	0.1610088
100	0xbd296323	-0.04135431
101	0x3de2c712	0.11073126
102	0xbdf78a67	-0.12086945
103	0x3daf1137	0.08548205
104	0x3e44d161	0.19220497
105	0x3e7ee500	0.24892044
106	0xbdf1f12d	-0.11813579
107	0x3e106530	0.141011
108	0xbe9c16ee	-0.30486244
109	0x3ba436eb	0.0050114295
110	0x3dc9a5b3	0.09846058
111	0x3e923c4d	0.2856163
112	0xbe82f9d6	-0.25581235
113	0x3d295dad	0.0413491
114	0xbdcc1688	-0.09965235
115	0x3e221f4c	0.15832251
116	0x3e1ea2ca	0.15491787
117	0x3e8b5c3c	0.27218807
118	0xbe3da646	-0.1852046
119	0x3dc24c19	0.09487171
120	0xbe99d5a2	-0.300458
121	0x3de6d7bd	0.112716176
122	0x3e0486e7	0.12942086
123	0xbd8e4774	-0.06947222
124	0x3d88d54b	0.066813074
125	0x3d922bdd	0.071372725
126	0x3e00d93b	0.12582867
127	0xbe858f56	-0.2608592
128	0xbf283c77	-0.6571726
129	0x3d42bd9c	0.047544107
130	0x3df93fbd	0.1217036
131	0x3e48f5c6	0.19625005
132	0x3a3ebb82	0.00072758656
133	0x3e233a8f	0.15940307
134	0xbebb2dde	-0.3655843
135	0x3e3f6956	0.18692526
136	0x3e3ecb0b	0.18632142
137	0x3e5dacb5	0.21647914
138	0xbdf4b423	-0.11948421
139	0x3e5400ab	0.2070338
140	0xbe15ea83	-0.1464024
141	0xbb08865f	-0.0020832045
142	0xbcf864ad	-0.030321443
143	0x3ea7bac1	0.3275967
144	0xbe1b93f4	-0.15193158
145	0x3e192fa4	0.1495958
146	0xbe52c8a6	-0.20584354
147	0x3ce5f6bd	0.028071756
148	0x3e11799d	0.14206548
149	0x3e1de195	0.15418084
150	0xbd65c576	-0.056096517
151	0x3e3369e4	0.17520863
152	0xbdd3f7b0	-0.10349977
153	0x3d6fcdd6	0.05854591
154	0xbc231e78	-0.009955995
155	0x3e430eb8	0.19048584
156	0xbcbefa59	-0.023312734
157	0x3e6ac6f1	0.22927453
158	0xbee1cdbc	-0.44102275
159	0x3df9689a	0.12178154
160	0x3d9ec0d1	0.077516206
161	0x3e35a36c	0.17738122
162	0xbe7effaa	-0.24902216
163	0x3e7a6869	0.24453892
164	0xbd36b5b0	-0.044606864
165	0xbe217296	-0.15766367
166	0x3d1a27f8	0.037635773
167	0x3e3c8b40	0.18412495
168	0xbe1b4903	-0.1516457
169	0x3e79d626	0.24398097
170	0xbdfc4558	-0.12317914
171	0x3cd027b8	0.025409564
172	0xbbd0dd1b	-0.006374014
173	0x3e1e3d8a	0.15453163
174	0xbdfb603b	-0.12274214
175	0x3e073e9f	0.13207482
176	0xbdcaf402	-0.09909822
177	0xbd86d942	-0.065844074
178	0xbceb8031	-0.02874765
179	0x3dd75bd7	0.10515564
180	0x3d65f43e	0.05614113
181	0x3e20b882	0.15695384
182	0xbec2a0f9	-0.38013437
183	0x3cec3220	0.028832495
184	0x3e34800e	0.17626974
185	0x3da87b8f	0.08226692
186	0x3dd54730	0.104139686
187	0x3e4a375e	0.19747683
188	0xbe56dfd5	-0.20983823
189	0x3ec2be79	0.38035944
190	0xbc0c5349	-0.008564779
191	0xbd8f1d60	-0.06988025
192	0x3db0be6f	0.08630072
193	0x3d415071	0.047195856
194	0xbe10cba8	-0.14140189
195	0xbc111f6a	-0.008857587
196	0xbe01aced	-0.12663622
197	0x3d9d92cb	0.07694014
198	0xbcb40dca	-0.021979231
199	0x3e44083e	0.19143769
200	0xbe48ae42	-0.19597724
201	0x3db49a5e	0.08818506
202	0x3d06f3af	0.03294724
203	0x3d7d72ef	0.061877187
204	0xbd709ed1	-0.05874521
205	0x3e8ff292	0.28114754
206	0xbdf249e0	-0.11830497
207	0x3c110c72	0.008853065
208	0x3dba95b0	0.09110582
209	0x3ec1e19b	0.37867436
210	0xbd179f38	-0.037017077
211	0x3e139678	0.14412868
212	0x3d8aa428	0.067695916
213	0xbdcf6ea6	-0.101285264
214	0xbd5fa478	-0.05460021
215	0x3dcb390e	0.09922992
216	0x3d25b81a	0.040458776
217	0x3e01d9b5	0.12680705
218	0xbdc4493f	-0.09584283
219	0x3e98343f	0.2972736
220	0xbd331dce	-0.043729596
221	0xbc870a70	-0.01648447
222	0x3d004a1c	0.031320676
223	0x3e3ba252	0.18323639
224	0xbd9ae634	-0.07563439
225	0xbd8c6c76	-0.06856625
226	0x3e2c491e	0.16824767
227	0x3e1028d0	0.14078069
228	0xbdb11a32	-0.086475745
229	0x3d3ae092	0.045624323
230	0xbd75da43	-0.060022604
231	0x3dc14765	0.094374456
232	0x3e07f83e	0.1327829
233	0x3e239f12	0.1597865
234	0x3d8f6fa4	0.07003716
235	0x3c7bb367	0.015362597
236	0x3db3e4cf	0.08783876
237	0xbcde8d4a	-0.027166981
238	0x3b453bcb	0.0030095454
239	0x3cd6e462	0.026231948
240	0xbe1300ec	-0.1435582
241	0x3cdf0895	0.027225772
242	0x3cb44dd2	0.022009764
243	0x3cf9edc7	0.030508889
244	0x3dfad1f7	0.12247079
245	0x3e1d596c	0.15366143
246	0xbe700201	-0.23438264
247	0x3d0ccc5a	0.034374572
248	0xbe5c8d16	-0.21538195
249	0x3df6e5bf	0.12055539
250	0x3e8bebf5	0.27328458
251	0xbd2c7146	-0.042100213
252	0x3b91c3d1	0.004448392
253	0xbd9d0d54	-0.07668558
254	0xbb02f5c1	-0.0019982907
255	0xbf28ace8	-0.65888834

network_body._body_endoder.seq_layers.0.bias f4 [20]
0	0x3dca8446	0.098885104
1	0x3dd7ab6a	0.105307415
2	0x3e31150c	0.17293185
3	0x3de739ca	0.11290319
4	0x3db5f318	0.08884257
5	0x3e6a4a0d	0.2287981
6	0x3e28d102	0.1648598
7	0x3da0f307	0.07858854
8	0x3dc783db	0.09741946
9	0x3e610f4a	0.21978489
10	0x3d235680	0.039877415
11	0x3c80c57c	0.015719168
12	0x3d912327	0.07086783
13	0x3de52a39	0.11189694
14	0x3d9807d5	0.07423369
15	0x3dc9822a	0.0983928
16	0x3d4a9f80	0.049468517
17	0x3e08de2c	0.13366002
18	0x3e05a833	0.13052444
19	0x3d5ccc58	0.053905815

action_model._discrete_distribution.branches.0.weight f4 [3, 20]
0	0x3bb2b311	0.0054534753
1	0xbdb3fe0d	-0.08788691
2	0x3d127c05	0.035762805
3	0xbe09d704	-0.13460928
4	0xbd85cdd6	-0.06533401
5	0x3e05d2f9	0.13068761
6	0x3e6104f3	0.21974544
7	0xbdef3cc7	-0.11681514
8	0xbd677e47	-0.05651691
9	0x3e22d1c3	0.1590033
10	0x3da99f6d	0.08282361
11	0xbd978252	-0.073979035
12	0x3c83f226	0.016106676
13	0x3eadb832	0.33929592
14	0xbe0d2375	-0.13783057
15	0x3e398e13	0.18120603
16	0x3e18667c	0.14882845
17	0xbdbcd81e	-0.092209086
18	0x3eb21676	0.3478276
19	0xbcb87b74	-0.022519805
20	0xbba743ce	-0.0051045185
21	0x3db332d9	0.08749933
22	0x3c810c68	0.015752986
23	0x3d9c8e5e	0.07644342
24	0xbd14cab6	-0.036326133
25	0xbda6fc0a	-0.081535414
26	0xbe47b9db	-0.19504492
27	0x3d71f770	0.059073865
28	0x3de90f1b	0.11379834
29	0xbda3eb0f	-0.08003818
30	0xbd4d338e	-0.050097995
31	0x3d3bf280	0.045885563
32	0xbe09fa2c	-0.13474339
33	0xbe44be9d	-0.19213338
34	0x3d72e256	0.059297882
35	0xbe174cd5	-0.14775403
36	0xbd83219e	-0.06402896
37	0x3dc417be	0.09574841
38	0xbe34d302	-0.17658618
39	0x3b8aa094	0.004230568
40	0x3c36a62c	0.011148017
41	0x3d7d2fae	0.06181305
42	0xbd66272e	-0.05618971
43	0x3dd6bc3b	0.10485121
44	0x3e184c99	0.1487297
45	0xbdb4c15e	-0.08825944
46	0xbdda708a	-0.106659964
47	0x3d8fd4c7	0.07023006
48	0xbd23c8fe	-0.039986603
49	0xbd706764	-0.05869235
50	0xbdcf10bd	-0.101106144
51	0x3d5ab82d	0.0533983
52	0x3dfcb7a9	0.12339718
53	0xbe498cef	-0.19682668
54	0x3de4ea08	0.111774504
55	0x3cd940b0	0.026520103
56	0xbddcfcd4	-0.10790411
57	0x3b05c65a	0.0020412416
58	0xbe1773b8	-0.14790237
59	0x3ccd161a	0.025034953

action_model._discrete_distribution.branches.0.bias f4 [3]
0	0x3c6e6676	0.014550796
1	0xbd5f8776	-0.054572545
2	0x3d313067	0.04325905

action_model._discrete_distribution.branches.1.weight f4 [3, 20]
0	0xbd8de00f	-0.069275014
1	0xbe25abbe	-0.16178796
2	0xbce51082	-0.027961973
3	0xbf034107	-0.512711
4	0xbe2aaca4	-0.1666742
5	0x3e788bee	0.24272129
6	0x3ea68600	0.3252411
7	0xbec04083	-0.3754922
8	0xbe441ce3	-0.19151644
9	0x3e132119	0.14368095
10	0x3dcbc720	0.099500895
11	0xbd27096f	-0.04078048
12	0xbd1e6134	-0.03866692
13	0x3f12532f	0.5715818
14	0xbeb6667b	-0.3562506
15	0x3e07bea1	0.13256313
16	0x3e40ad58	0.18816125
17	0xbeecf707	-0.46282217
18	0x3f192763	0.59825724
19	0xbdcf606c	-0.10125813
20	0xbe23ecb0	-0.16008258
21	0xbde92e67	-0.11385804
22	0xbe8cbae8	-0.27486348
23	0x3ea559d1	0.32295087
24	0x3e81a4b3	0.25320968
25	0xbf099d7f	-0.53755945
26	0xbeb30944	-0.34968007
27	0x3e6cc9dc	0.23123878
28	0xbd382fd4	-0.044967487
29	0xbee753e3	-0.45181188
30	0x3e95811c	0.29200065
31	0x3eafb2d8	0.34316134
32	0x3e3798a6	0.17929325
33	0xbe0dc2a0	-0.13843775
34	0x3ec91435	0.3927323
35	0x3e0b1955	0.13583882
36	0x3e9a7121	0.30164436
37	0x3ddfaa72	0.10921182
38	0xbe3d2ca0	-0.18474054
39	0x3edcb256	0.4310481
40	0x3e4af305	0.19819267
41	0x3e413b44	0.18870264
42	0x3e8ce24c	0.275164
43	0x3d7360ae	0.059418373
44	0xbdfe7640	-0.12424898
45	0x3e9f0ad2	0.31062943
46	0x3d3ee937	0.04660913
47	0x3dbf0e99	0.09328956
48	0x3e49b716	0.19698748
49	0x3eb7437d	0.35793677
50	0xbeefdd0e	-0.4684834
51	0xbea5cd64	-0.32383263
52	0xbdcd4275	-0.10022441
53	0xbefa0a04	-0.48835766
54	0xbe39f9f0	-0.1816175
55	0xbea535ae	-0.32267517
56	0xbf0b6867	-0.5445618
57	0x3ebdf3bc	0.37100017
58	0xbefaa9e7	-0.4895775
59	0xbed58fd6	-0.417113

action_model._discrete_distribution.branches.1.bias f4 [3]
0	0x39db7a1b	0.0004186191
1	0xbda9ae70	-0.082852244
2	0x3dd96266	0.10614471

exp_avg f4 [20, 128]
0	0x37b044c1	2.1012851e-05
1	0xb63663ff	-2.7178319e-06
2	0xba965e9b	-0.0011472286
3	0x37af5e73	2.0905607e-05
4	0xb63663ff	-2.7178319e-06
5	0xba9720f5	-0.0011530208
6	0xb5861709	-9.990482e-07
7	0xb61da988	-2.3493503e-06
8	0xba91d3f6	-0.0011125791
9	0x37b3f8d1	2.1454327e-05
10	0xb63663ff	-2.7178319e-06
11	0xba9af1f0	-0.001182137
12	0xb93f337f	-0.00018234363
13	0x25129656	1.2714417e-16
14	0xba8f2aa3	-0.0010922741
15	0x37b0a803	2.1059072e-05
16	0x260b2953	4.828132e-16
17	0xba98d704	-0.0011660759
18	0xb5886302	-1.0161605e-06
19	0xb93e2188	-0.00018132303
20	0xba66d684	-0.0008805769
21	0x37cc94bc	2.4387955e-05
22	0x3245818f	1.1496367e-08
23	0xba8424bb	-0.0010081747
24	0xb5886302	-1.0161605e-06
25	0xb93e2188	-0.00018132303
26	0xba56da53	-0.0008195985
27	0xb586a180	-1.0030781e-06
28	0x3245a463	1.1504286e-08
29	0xba6c414b	-0.0009012415
30	0x37c31912	2.3257486e-05
31	0xb93e2188	-0.00018132303
32	0xba469876	-0.0007575819
33	0xb586a180	-1.0030781e-06
34	0x3245a463	1.1504286e-08
35	0xba14bc99	-0.0005673855
36	0xb91e9263	-0.00015122588
37	0x31a74ad3	4.868846e-09
38	0xba1cdc30	-0.0005983738
39	0x2195f9fc	1.0162803e-18
40	0x35012037	4.8103124e-07
41	0xba17a8fb	-0.0005785373
42	0xb9f758c1	-0.00047177638
43	0x366fb926	3.5721546e-06
44	0xba072791	-0.0005155737
45	0x34fc1349	4.695269e-07
46	0xa449bbd9	-4.374404e-17
47	0xba1df2de	-0.0006025265
48	0x2f240241	1.4916514e-10
49	0xb9f75952	-0.0004717806
50	0xba2d1cd3	-0.00066037214
51	0x34fc1349	4.695269e-07
52	0x31c7bd72	5.8131997e-09
53	0xba013cc3	-0.00049300137
54	0x2f240241	1.4916514e-10
55	0xb9f75952	-0.0004717806
56	0xba342ba5	-0.00068729586
57	0xa1f764df	-1.6764071e-18
58	0x31c7b8c9	5.81267e-09
59	0xb9ed6846	-0.00045281852
60	0xa0ef8470	-4.0575815e-19
61	0xba0b4674	-0.00053129275
62	0xba3bac60	-0.000715917
63	0xa1f764df	-1.6764071e-18
64	0x31c7b8c9	5.81267e-09
65	0xb9ef89da	-0.0004568834
66	0x397b38a8	0.00023958331
67	0xb188697c	-3.970113e-09
68	0xb9a2619a	-0.00030971767
69	0x90e82ead	-9.157978e-29
70	0x3746a116	1.1839225e-05
71	0xb9e5d88a	-0.00043839618
72	0x39493688	0.00019189168
73	0x38443a49	4.6784324e-05
74	0xb9a82ba4	-0.00032075972
75	0x3746881f	1.1833413e-05
76	0x2804da20	7.37477e-15
77	0xb9dbbd87	-0.00041912144
78	0x80000a39	-3.667e-42
79	0x394b6355	0.00019396593
80	0xb9a9a21d	-0.00032354976
81	0x3746881f	1.1833413e-05
82	0xadea3f12	-2.6630729e-11
83	0xb9d96c3a	-0.000414701
84	0x80000007	-1e-44
85	0x39494da2	0.00019197774
86	0xb9aa0e73	-0.00032435692
87	0x9f7f12cd	-5.4013902e-20
88	0xadea3f12	-2.6630729e-11
89	0xb9da751e	-0.0004166746
90	0x80000007	-1e-44
91	0x3918768b	0.0001454001
92	0xb9b27ee1	-0.00034045338
93	0x9f7f12cd	-5.4013902e-20
94	0xadea3f12	-2.6630729e-11
95	0xb9dc1526	-0.00041977427
96	0x38625f5c	5.397141e-05
97	0x33b7456b	8.5342286e-08
98	0xb9f47664	-0.00046627515
99	0x10ae8ff1	6.8852676e-29
100	0x37992177	1.8254605e-05
101	0xb9bdd685	-0.0003620872
102	0x382fdfc6	4.1931657e-05
103	0x3749fe5a	1.2039754e-05
104	0xb9ff7355	-0.0004872332
105	0x37992185	1.825463e-05
106	0xa92c6dba	-3.8286845e-14
107	0xb9b3647e	-0.00034216413
108	0x8a96fbfb	-1.4539259e-32
109	0x382f423f	4.1784948e-05
110	0xba10546f	-0.00055057456
111	0x37992185	1.825463e-05
112	0xac1b6671	-2.2083691e-12
113	0xb9c9945a	-0.00038448238
114	0x8a96fbfb	-1.4539259e-32
115	0x34928dd5	2.7297816e-07
116	0xba1a815a	-0.00058939087
117	0xa03d60af	-1.6040913e-19
118	0xac1b2826	-2.2049112e-12
119	0xb9d9c254	-0.0004153425
120	0x8a96fbfb	-1.4539259e-32
121	0x34928dd5	2.7297816e-07
122	0xba1a33ad	-0.0005882334
123	0x3cef6609	0.029223459
124	0xbb1976a0	-0.0023416653
125	0xb77fb3f9	-1.5241088e-05
126	0xb935360d	-0.0001728164
127	0x37b044c1	2.1012851e-05
128	0x37bea57e	2.2726828e-05
129	0x33d7b699	1.0044932e-07
130	0xbaa26b16	-0.0012391533
131	0x37bb4b23	2.2327125e-05
132	0x33d7b699	1.0044932e-07
133	0xbaa284f4	-0.0012399242
134	0xb5be2471	-1.4166709e-06
135	0xb6ba878d	-5.559012e-06
136	0xbaa19823	-0.0012328665
137	0x37c487bb	2.3428225e-05
138	0x33d7b699	1.0044932e-07
139	0xbaa69cd2	-0.0012711531
140	0xb8ee6857	-0.00011368159
141	0x26a1c7e1	1.1225796e-15
142	0xbaa1234a	-0.0012293842
143	0x37f2e036	2.8953054e-05
144	0xa9844a86	-5.874905e-14
145	0xbaa2eaae	-0.0012429559
146	0xb5a535d8	-1.2309129e-06
147	0xb8e99cc4	-0.00011139506
148	0xba903b18	-0.001100394
149	0x37e31af9	2.7073069e-05
150	0xb43678a3	-1.6993958e-07
151	0xba6386c5	-0.0008679445
152	0xb5a535d8	-1.2309129e-06
153	0xb8e99cc4	-0.00011139506
154	0xba8b088c	-0.0010607406
155	0xb5a740a8	-1.2461287e-06
156	0xb4362722	-1.6964307e-07
157	0xba45d1f4	-0.0007546239
158	0x38536e8d	5.040928e-05
159	0xb8e99cc4	-0.00011139506
160	0xba881220	-0.0010381378
161	0xb5a740a8	-1.2461287e-06
162	0xb4362722	-1.6964307e-07
163	0xba10efb4	-0.00055288826
164	0xb90f4b94	-0.00013665698
165	0x3588296b	1.0144844e-06
166	0xba7b2cdf	-0.00095815765
167	0x221ff495	2.1677999e-18
168	0x34f1367d	4.4929394e-07
169	0xba10a401	-0.00055176025
170	0xba5d2224	-0.00084355683
171	0x35c66786	1.4782279e-06
172	0xba5081da	-0.00079539197
173	0x3526250a	6.189372e-07
174	0x2827c638	9.313344e-15
175	0xba1dea28	-0.00060239667
176	0x2e2314a7	3.7080252e-11
177	0xba5d5fe9	-0.00084447727
178	0xba859644	-0.0010191877
179	0x35262506	6.1893695e-07
180	0xb3b0bf90	-8.230484e-08
181	0xba0a63ad	-0.0005279135
182	0x2e2314a7	3.7080252e-11
183	0xba5d5fe9	-0.00084447727
184	0xba873153	-0.0010314382
185	0xa33ac6be	-1.01251655e-17
186	0xb3b0b5b9	-8.228694e-08
187	0xb9fbae70	-0.00048004417
188	0x20b583d5	3.0749832e-19
189	0xba68f3fd	-0.0008886455
190	0xba9110e8	-0.001106766
191	0xa33ac6be	-1.01251655e-17
192	0xb3b0b5b9	-8.228694e-08
193	0xba00cfc6	-0.0004913773
194	0x396ac807	0.00022390495
195	0xb57792a2	-9.222805e-07
196	0xb9d12465	-0.00039890702
197	0x12c5ad8f	1.2475233e-27
198	0xb98954b0	-0.00026193773
199	0xba342ad0	-0.00068728346
200	0x3948a43a	0.00019134665
201	0x38250264	3.9341292e-05
202	0xb9d18827	-0.00039965028
203	0xb98949a5	-0.00026185546
204	0x283d2778	1.0500166e-14
205	0xba165c69	-0.0005735816
206	0x800049bf	-2.6455e-41
207	0x3940f8dd	0.00018403256
208	0xb9d68309	-0.0004091489
209	0xb98949a5	-0.00026185546
210	0x304c80fe	7.4398077e-10
211	0xba14ddd9	-0.000567881
212	0x80000024	-5e-44
213	0x393ea0b8	0.00018179684
214	0xb9dc441a	-0.0004201241
215	0x2210221f	1.9533703e-18
216	0x304c80fe	7.4398077e-10
217	0xba1af983	-0.0005911814
218	0x80000024	-5e-44
219	0x391c5e10	0.0001491236
220	0xb9c91c19	-0.00038358642
221	0x2210221f	1.9533703e-18
222	0x304c80fe	7.4398077e-10
223	0xba1b9967	-0.00059356395
224	0xb8943e98	-7.068849e-05
225	0xb71fae56	-9.517729e-06
226	0xba029e13	-0.00049826613
227	0x92256188	-5.2185036e-28
228	0xb94f9c6d	-0.00019799331
229	0xba4180c8	-0.00073815556
230	0xb858d80c	-5.1699622e-05
231	0xb79f4a4b	-1.8988872e-05
232	0xba050c72	-0.0005075402
233	0xb94f9ca0	-0.00019799406
234	0xa8b52bd1	-2.0114039e-14
235	0xba3144ae	-0.0006762248
236	0x8a2d1abf	-8.3346774e-33
237	0xb86d0590	-5.6510384e-05
238	0xba0f601b	-0.0005469338
239	0xb94f9ca0	-0.00019799406
240	0x2e1d0a0e	3.5706597e-11
241	0xba34e085	-0.0006899911
242	0x8a2d1abf	-8.3346774e-33
243	0xb82c129b	-4.1025323e-05
244	0xba0b6ec0	-0.0005318932
245	0x235de6ee	1.2029335e-17
246	0x2e1d0bc5	3.570812e-11
247	0xba3d14ea	-0.0007212894
248	0x8a2d1abf	-8.3346774e-33
249	0xb82c129b	-4.1025323e-05
250	0xba000dca	-0.0004884867
251	0x3d257147	0.040391233
252	0xbb35aa38	-0.0027719866
253	0x36b66893	5.4361967e-06
254	0x3a342ed5	0.00068734336
255	0x37bea57e	2.2726828e-05

exp_avg_sq f4 [20, 128]
0	0x3535f5bb	6.778534e-07
1	0x33dd1fd6	1.02969054e-07
2	0x37557449	1.2722864e-05
3	0x34e8a19b	4.333095e-07
4	0x3355f928	4.9819533e-08
5	0x374f1b37	1.2344498e-05
6	0x34e55da0	4.2722695e-07
7	0x3410b1f2	1.3475781e-07
8	0x3765d104	1.3698129e-05
9	0x34da91bb	4.0711697e-07
10	0x3385f810	6.2384174e-08
11	0x374c44fc	1.2175409e-05
12	0x34ee2bee	4.4362918e-07
13	0x3374aa12	5.6965355e-08
14	0x376396fc	1.3565408e-05
15	0x34c97c24	3.7529492e-07
16	0x33a63d97	7.7411805e-08
17	0x37513ab4	1.2471039e-05
18	0x33d1f33a	9.7765636e-08
19	0x33953bd0	6.949233e-08
20	0x374fc86f	1.2384829e-05
21	0x34c71720	3.7083464e-07
22	0x33dc7102	1.0265104e-07
23	0x37457316	1.1768911e-05
24	0x34962e3f	2.7973326e-07
25	0x33be93b1	8.8744294e-08
26	0x37495451	1.2000165e-05
27	0x338693e5	6.266763e-08
28	0x339c3dd9	7.275566e-08
29	0x373f92ce	1.1418668e-05
30	0x34b83753	3.4312924e-07
31	0x33de1ba5	1.0342709e-07
32	0x375130fe	1.2468778e-05
33	0x338845b0	6.3456696e-08
34	0x337e4e4e	5.92102e-08
35	0x3724d031	9.823635e-06
36	0x348b6f87	2.5971914e-07
37	0x33c6f1d4	9.264082e-08
38	0x374efc4e	1.2337301e-05
39	0x337c8124	5.8790775e-08
40	0x339b5b25	7.234329e-08
41	0x37217261	9.622979e-06
42	0x3490d974	2.6980308e-07
43	0x33d59819	9.946252e-08
44	0x374a41a7	1.2055424e-05
45	0x3351a078	4.880755e-08
46	0x3381f634	6.051815e-08
47	0x371a4d1a	9.197067e-06
48	0x32ad717c	2.0191457e-08
49	0x34a226ff	3.0203225e-07
50	0x37401a8c	1.1450273e-05
51	0x3316beab	3.5098008e-08
52	0x338927e3	6.386815e-08
53	0x37183d29	9.074146e-06
54	0x35d1932e	1.5614548e-06
55	0x343b5d28	1.7449622e-07
56	0x372dd535	1.0361245e-05
57	0x330d8d24	3.2957487e-08
58	0x3372dd38	5.6546213e-08
59	0x371088de	8.614936e-06
60	0x336a6df6	5.458238e-08
61	0x341a72f6	1.438419e-07
62	0x37258a87	9.86702e-06
63	0x33166171	3.501322e-08
64	0x32fbc6bb	2.9310618e-08
65	0x36f4e0b2	7.2979246e-06
66	0x35c827e5	1.4912772e-06
67	0x332f52ed	4.0820783e-08
68	0x371970ed	9.145803e-06
69	0x3254e152	1.2391256e-08
70	0x333043fd	4.104003e-08
71	0x36f257e3	7.2223934e-06
72	0x358c8890	1.0470558e-06
73	0x350317c9	4.8835915e-07
74	0x371c7053	9.324477e-06
75	0x3259091e	1.2633135e-08
76	0x3328214c	3.914583e-08
77	0x36f56616	7.3134534e-06
78	0x329ff664	1.8622082e-08
79	0x358ebc83	1.0634689e-06
80	0x3710942a	8.617566e-06
81	0x325e410a	1.2936889e-08
82	0x332e4109	4.057168e-08
83	0x36ef2a98	7.1277136e-06
84	0x324bb68d	1.1857662e-08
85	0x35609568	8.366392e-07
86	0x3708ef0c	8.161889e-06
87	0x320f7222	8.349646e-09
88	0x32feb74f	2.965285e-08
89	0x36eb842d	7.018933e-06
90	0x3204d383	7.731503e-09
91	0x353d265a	7.0463796e-07
92	0x3708d9dc	8.156956e-06
93	0x31cd0099	5.966353e-09
94	0x32c8f798	2.3395657e-08
95	0x36e99fa5	6.962526e-06
96	0x352385ea	6.09171e-07
97	0x329a4594	1.79596e-08
98	0x36f60e08	7.3330048e-06
99	0x31b727eb	5.330539e-09
100	0x33376d14	4.2707214e-08
101	0x36e64325	6.862351e-06
102	0x320b2552	8.0993505e-09
103	0x352bec56	6.404638e-07
104	0x36f76723	7.3731803e-06
105	0x32348aab	1.0508908e-08
106	0x331cac4a	3.6478276e-08
107	0x36e4e265	6.8212853e-06
108	0x31c988c9	5.8654206e-09
109	0x330c4db2	3.2666954e-08
110	0x36e57f1b	6.839529e-06
111	0x3246b057	1.1565212e-08
112	0x339d48f0	7.3241495e-08
113	0x36e158e7	6.715872e-06
114	0x32492605	1.17083845e-08
115	0x33119062	3.389176e-08
116	0x36e79d15	6.902623e-06
117	0x3223170e	9.493091e-09
118	0x33438f4e	4.553231e-08
119	0x36d51674	6.3505086e-06
120	0x33825f2e	6.07091e-08
121	0x32c63bc4	2.3077412e-08
122	0x36ead3f0	6.998416e-06
123	0x3ba355f6	0.0049846126
124	0x3b1c73d4	0.002387275
125	0x35f4a5c1	1.8227657e-06
126	0x37eff0b0	2.8603099e-05
127	0x3535f5bb	6.778534e-07
128	0x361b4cc2	2.3141479e-06
129	0x341d0af7	1.4625753e-07
130	0x37821bd7	1.5510172e-05
131	0x35847aea	9.870539e-07
132	0x34dcbba0	4.1114708e-07
133	0x3781d2d8	1.547618e-05
134	0x358511bc	9.914434e-07
135	0x3467d620	2.159145e-07
136	0x37955a2a	1.780417e-05
137	0x35982d92	1.1338145e-06
138	0x34e4e5c4	4.2635486e-07
139	0x3781ed7f	1.5488591e-05
140	0x35d9994b	1.6212374e-06
141	0x33c5325e	9.182689e-08
142	0x379b2cba	1.8498267e-05
143	0x35c98eda	1.5017242e-06
144	0x34eee7e8	4.4499689e-07
145	0x378168e6	1.5426845e-05
146	0x35ff6d21	1.9030741e-06
147	0x33bb687e	8.726873e-08
148	0x37971e43	1.8014694e-05
149	0x35ec2968	1.7595421e-06
150	0x34fc3e5f	4.698404e-07
151	0x37754ee6	1.4621508e-05
152	0x361c77ee	2.331562e-06
153	0x33e830ff	1.0812254e-07
154	0x3794aad3	1.7722521e-05
155	0x355570bd	7.951274e-07
156	0x33e3205b	1.0576397e-07
157	0x3768cfe2	1.3876679e-05
158	0x35e42c86	1.7000282e-06
159	0x3436e981	1.7035019e-07
160	0x37977c3c	1.8058454e-05
161	0x35399411	6.9133336e-07
162	0x33d87d71	1.00811015e-07
163	0x37529020	1.2550532e-05
164	0x35b23bae	1.3279403e-06
165	0x3459299b	2.0224836e-07
166	0x3798a5e1	1.8197055e-05
167	0x3526665e	6.198878e-07
168	0x3413b55b	1.3756419e-07
169	0x374f98bc	1.2373723e-05
170	0x35b5a287	1.3532853e-06
171	0x33e22164	1.0530019e-07
172	0x37905e76	1.7210124e-05
173	0x3481aa68	2.415211e-07
174	0x33d79676	1.00390864e-07
175	0x3748cbdd	1.1968395e-05
176	0x35236d2a	6.0881086e-07
177	0x34af9c09	3.270982e-07
178	0x37838826	1.5679816e-05
179	0x347c335c	2.3488013e-07
180	0x33e0f6d2	1.0475709e-07
181	0x3741b06e	1.1544775e-05
182	0x35f16f13	1.7988226e-06
183	0x3498cfa3	2.8463282e-07
184	0x3776a40a	1.4700936e-05
185	0x34c6869f	3.6978324e-07
186	0x33c265ec	9.0523685e-08
187	0x37384bc2	1.0984893e-05
188	0x355453cd	7.90981e-07
189	0x3489a1d7	2.5635993e-07
190	0x376780a0	1.3798621e-05
191	0x34d0e4b9	3.8909437e-07
192	0x332d5c20	4.036349e-08
193	0x37271dae	9.960886e-06
194	0x3631ab70	2.6474845e-06
195	0x34401bad	1.7891462e-07
196	0x374d5f12	1.22410875e-05
197	0x346caf45	2.2042975e-07
198	0x33964560	6.9975385e-08
199	0x37297c45	1.0102119e-05
200	0x360dde2f	2.1139965e-06
201	0x3505dc7e	4.986722e-07
202	0x374fa28c	1.2376007e-05
203	0x342e4113	1.6228687e-07
204	0x3348b8dd	4.673426e-08
205	0x37212825	9.605695e-06
206	0x345553a3	1.9867598e-07
207	0x35eaba31	1.7488547e-06
208	0x374d172d	1.2224348e-05
209	0x3446f570	1.8529477e-07
210	0x333be22d	4.3745036e-08
211	0x371f36e3	9.489918e-06
212	0x34cb946c	3.7919688e-07
213	0x35851f1c	9.918326e-07
214	0x373baa1f	1.1185678e-05
215	0x346cd965	2.20583e-07
216	0x331ccc77	3.650754e-08
217	0x371d4efe	9.376321e-06
218	0x3491ee2e	2.7181653e-07
219	0x3551c442	7.814416e-07
220	0x373791c3	1.0941588e-05
221	0x3420dafa	1.4980824e-07
222	0x33116664	3.3853567e-08
223	0x371f8074	9.507046e-06
224	0x3595b33c	1.1153529e-06
225	0x332488a0	3.8308485e-08
226	0x37281c3e	1.0020156e-05
227	0x33bd890b	8.825926e-08
228	0x3434408a	1.6787286e-07
229	0x371decab	9.413033e-06
230	0x3498bd0d	2.844976e-07
231	0x35ab197a	1.2747907e-06
232	0x372d42e0	1.0327174e-05
233	0x3450571d	1.9403201e-07
234	0x3325038f	3.8420293e-08
235	0x371cb9a2	9.341546e-06
236	0x3428c09b	1.5716289e-07
237	0x34cec5b7	3.8514347e-07
238	0x371f40aa	9.492194e-06
239	0x34809e3b	2.3956986e-07
240	0x34052efc	1.2403683e-07
241	0x3719a829	9.1586635e-06
242	0x34210bfa	1.499865e-07
243	0x334b15a3	4.72843e-08
244	0x371ab33e	9.220848e-06
245	0x341a5c7f	1.4376018e-07
246	0x33d3ed25	9.8685895e-08
247	0x370b8f02	8.318342e-06
248	0x3408731c	1.2707864e-07
249	0x342f93f9	1.6351977e-07
250	0x371d79e5	9.38631e-06
251	0x3bff8bb2	0.0077986354
252	0x3b6132e5	0.003436261
253	0x36d3620e	6.299705e-06
254	0x3813ef89	3.5270616e-05
255	0x361b4cc2	2.3141479e-06

exp_avg f4 [20]
0	0xbadb3e19	-0.001672688
1	0xbaf72178	-0.0018854579
2	0xbb06ca81	-0.002056748
3	0xbae8c327	-0.0017758355
4	0x386f42dc	5.7044308e-05
5	0xbadca719	-0.0016834467
6	0x39bfb3bd	0.00036564274
7	0xbaaeb7f1	-0.0013329965
8	0xbad4fd5a	-0.0016249821
9	0xbb1000b1	-0.0021973068
10	0x3b6b9f82	0.0035953228
11	0x3af3ebac	0.0018609664
12	0x39a12573	0.00030736215
13	0x3b9cf4bb	0.0047899163
14	0x39b1f9e6	0.0003394626
15	0x3a1a694c	0.0005890324
16	0x3b903317	0.0044006216
17	0xbb6eda61	-0.0036446082
18	0x3b9a7e89	0.004714791
19	0x3b1fd000	0.0024385452

exp_avg_sq f4 [20]
0	0x382d9f5b	4.1394826e-05
1	0x3867e2ac	5.5285796e-05
2	0x38d57923	0.00010179195
3	0x391b3548	0.000148018
4	0x38a9a66e	8.089548e-05
5	0x39962eef	0.00028645198
6	0x394dfd9a	0.00019644797
7	0x38ac5d0d	8.218931e-05
8	0x384468f5	4.682779e-05
9	0x398a8322	0.00026419113
10	0x39477b92	0.00019024152
11	0x39112fff	0.00013846158
12	0x37f5d855	2.9307013e-05
13	0x39c57506	0.00037661957
14	0x39341c7a	0.00017176746
15	0x38b50bed	8.632974e-05
16	0x398ba95b	0.00026638326
17	0x3900c2dd	0.00012279623
18	0x39ba8e8a	0.00035582884
19	0x395c8148	0.00021028996

exp_avg f4 [3, 20]
0	0x3bb0ce24	0.0053956676
1	0x3b6cbc89	0.0036123118
2	0x3b8d4492	0.0043111527
3	0xb9064e77	-0.00012808466
4	0x3ac343c5	0.0014897516
5	0x3afc47ab	0.0019247433
6	0xb9a67ce7	-0.00031755047
7	0xbae1fa7d	-0.0017240789
8	0x3c05aaf2	0.008158432
9	0x3b5623cb	0.0032675143
10	0xb98c8789	-0.00026803862
11	0x3a9ebc13	0.0012110494
12	0x390ae99d	0.00013247733
13	0x3a8d9b60	0.0010803752
14	0xbb041da9	-0.002015928
15	0xbb79ea8a	-0.003813418
16	0xba329068	-0.00068116793
17	0x3bad5713	0.005289921
18	0x3a156dc5	0.0005700256
19	0x3aadae0d	0.0013250724
20	0x3bc656ea	0.0060528414
21	0x3b90020e	0.004394776
22	0x3b4a4dab	0.0030869048
23	0x3b3613c6	0.0027782782
24	0x3b98a056	0.0046577854
25	0x3af5ebdd	0.0018762309
26	0x3ac79d69	0.0015229407
27	0x3add2c9e	0.0016874259
28	0x3bfdb1d4	0.007742146
29	0x3b01aaa7	0.0019785555
30	0x3b861fd9	0.004093152
31	0x3b054d6f	0.0020340343
32	0xbb00d83b	-0.0019660133
33	0x3b768a2f	0.0037618985
34	0x38eeb03a	0.00011381549
35	0xb879e025	-5.9574977e-05
36	0x3b9d2366	0.0047954796
37	0x3b772ef1	0.0037717188
38	0x3b512e97	0.003191864
39	0x3b4dd68f	0.0031408404
40	0xbc3b7358	-0.011441074
41	0xbc031dac	-0.00800268
42	0xbbf24a0d	-0.0073940814
43	0xbb2d8a03	-0.0026479966
44	0xbbc9432d	-0.006142041
45	0xbb78dd07	-0.003797354
46	0xba9dc8b5	-0.0012037965
47	0x381eb2a6	3.7836515e-05
48	0xbc822fb4	-0.015891887
49	0xbbabcc9b	-0.0052428967
50	0xbb7a7e54	-0.003822227
51	0xbb548d7e	-0.0032432969
52	0x3af05ef5	0.0018338846
53	0xbb9e92b1	-0.0048392643
54	0x3af95625	0.0019022865
55	0x3b7ddcc1	0.0038736316
56	0xbb86b437	-0.0041108388
57	0xbc1464c3	-0.009057227
58	0xbb765e6b	-0.0037592899
59	0xbb9241b2	-0.004463398

exp_avg_sq f4 [3, 20]
0	0x3bdd1574	0.006746942
1	0x3b54144a	0.0032360726
2	0x3b7a6f47	0.00382133
3	0x3b8b9a94	0.0042603705
4	0x3ba63870	0.005072646
5	0x3bb85ae2	0.0056260685
6	0x3b339d03	0.0027406819
7	0x3b53446d	0.003223683
8	0x3c018ef9	0.0079076225
9	0x3bb0f361	0.005400107
10	0x3b469322	0.00303001
11	0x3a9b0b2a	0.0011828889
12	0x3aec0612	0.001800718
13	0x3b11f7a2	0.0022272845
14	0x3b0216fb	0.0019850123
15	0x3b07f5ff	0.002074599
16	0x3b81b8ec	0.003958812
17	0x3bba2135	0.005680228
18	0x3b04c794	0.002026056
19	0x3afcd1e6	0.0019288629
20	0x3b6e991a	0.0036407174
21	0x3af644db	0.0018788831
22	0x3b16d64c	0.0023015914
23	0x3b436f02	0.0029820804
24	0x3b3edcae	0.0029123235
25	0x3b57e76e	0.003294434
26	0x3ae1e079	0.0017233036
27	0x3b16c7f6	0.002300737
28	0x3ba710a4	0.0050984193
29	0x3b4d5c84	0.0031335661
30	0x3b2c3317	0.002627557
31	0x3a6481d3	0.0008716855
32	0x3a8bbed7	0.0010661733
33	0x3ae24c7d	0.0017265227
34	0x3ac5ed00	0.0015100539
35	0x3a8b7ccf	0.0010642054
36	0x3b4bb7a0	0.003108479
37	0x3b65408d	0.0034981102
38	0x3ac33ed4	0.0014896044
39	0x3acdb527	0.0015694246
40	0x3bbf6542	0.0058409283
41	0x3b3871ed	0.0028144077
42	0x3b44a5f2	0.0030006138
43	0x3b82ae52	0.0039880658
44	0x3b969bc9	0.0045962078
45	0x3b8843f8	0.004158493
46	0x3ae6d5b7	0.0017611299
47	0x3b4905a1	0.003067352
48	0x3bdcbc47	0.0067363116
49	0x3b85b49d	0.0040803687
50	0x3b23a3df	0.00249695
51	0x3a91837a	0.0011101805
52	0x3b0e3c5f	0.0021703464
53	0x3a9a2b5f	0.0011762193
54	0x3b03a8c6	0.002008961
55	0x3b053be6	0.0020329892
56	0x3b50a38a	0.0031835758
57	0x3ba9aa42	0.005177767
58	0x3a90cc6a	0.0011047248
59	0x3aedf955	0.0018155972

exp_avg f4 [3]
0	0xb8add1dc	-8.288372e-05
1	0x3acef2d4	0.0015788921
2	0xbac415bf	-0.0014960094

exp_avg_sq f4 [3]
0	0x3a534081	0.0008058623
1	0x3a170a76	0.00057617517
2	0x3a2afe02	0.00065228355

exp_avg f4 [3, 20]
0	0x3c56b292	0.013104098
1	0x3c0d854d	0.008637738
2	0x3c0a0ca9	0.00842587
3	0x3b9a1fc2	0.004703493
4	0x3c11057e	0.008851407
5	0x3bec90d5	0.0072194138
6	0x3b4f8546	0.003166513
7	0x3b57c563	0.0032924048
8	0x3c8461e4	0.01615996
9	0x3bd53afb	0.006507275
10	0x3bc743b3	0.0060810684
11	0x3b3da52a	0.0028937557
12	0xb929b5cb	-0.00016184819
13	0x3bc0e2de	0.0058864197
14	0x3a97328f	0.0011535453
15	0x3ab38139	0.0013695128
16	0x3be46fc4	0.0069713313
17	0x3c025571	0.007954941
18	0x3bb29643	0.0054500415
19	0x3b8b45f8	0.0042502843
20	0x3bb5fc87	0.0055537852
21	0x3b97761e	0.004622235
22	0x3b7e2cc9	0.0038784018
23	0x3b2c8850	0.0026326366
24	0x3b11e8f5	0.0022264097
25	0x3b7280fa	0.0037003146
26	0x3afdc99d	0.0019362454
27	0x3b08d8fc	0.0020881286
28	0x3be1c236	0.006889607
29	0x3b77460d	0.0037730963
30	0x3afc539c	0.0019250992
31	0x3a8bd55f	0.0010668448
32	0x398fd6ed	0.00027435218
33	0x3ade8edb	0.001697983
34	0x3a46b398	0.0007579862
35	0xb93db7c7	-0.00018092907
36	0x3b14f88e	0.0022731158
37	0x3baad1dd	0.005213006
38	0x3a9e2b22	0.0012067298
39	0x3aa4b7ca	0.001256698
40	0xbc98d4e1	-0.018656196
41	0xbc593c12	-0.013258951
42	0xbc499395	-0.012303253
43	0xbbf05f4e	-0.00733558
44	0xbc357a5e	-0.011076538
45	0xbc32e4a0	-0.010918766
46	0xbba73156	-0.005102317
47	0xbbb04c34	-0.005380178
48	0xbcbcceae	-0.023047771
49	0xbc286b51	-0.0102794925
50	0xbc032a30	-0.008005664
51	0xbb81c495	-0.003960202
52	0xb8eb3dc4	-0.00011217178
53	0xbbf881bc	-0.007583825
54	0xbafa8787	-0.0019113877
55	0xba9bc164	-0.0011883196
56	0xbc1773c6	-0.009243911
57	0xbc57b99d	-0.013166812
58	0xbbda1cbf	-0.006656259
59	0xbbb46f42	-0.005506427

exp_avg_sq f4 [3, 20]
0	0x3aac3933	0.0013139605
1	0x3a1354c3	0.00056202355
2	0x3a35e99c	0.00069394126
3	0x3a1ac822	0.0005904456
4	0x3a6a5605	0.00089392095
5	0x3a747f12	0.0009326796
6	0x39e7ad9b	0.000441891
7	0x39f1b101	0.0004609898
8	0x3aed95b6	0.0018126282
9	0x3a5fb926	0.0008534364
10	0x39e621fd	0.00043894342
11	0x393ca639	0.00017991
12	0x3885b15e	6.3749714e-05
13	0x39bd2759	0.00036078205
14	0x393edebe	0.0001820279
15	0x394a0e2f	0.00019269505
16	0x3a30d551	0.0006745654
17	0x3a5d176b	0.00084339705
18	0x39b84acf	0.00035150952
19	0x398add3d	0.00026486246
20	0x3b2bdeb8	0.002622528
21	0x3aa49a2e	0.0012558156
22	0x3a9b90e3	0.0011868741
23	0x3ae439ab	0.0017412206
24	0x3af7e539	0.0018912918
25	0x3af72d6e	0.0018858144
26	0x3a5a861d	0.00083360245
27	0x3ab29a3b	0.0013626287
28	0x3b2612ca	0.002534079
29	0x3af4cdec	0.0018677092
30	0x3a532b43	0.0008055458
31	0x39d0024a	0.00039674557
32	0x3a34b8ad	0.0006893974
33	0x39fc25dd	0.00048093396
34	0x3a39aa7c	0.0007082594
35	0x3a30c59c	0.0006743313
36	0x3a998a8f	0.0011714267
37	0x3b1a262c	0.0023521287
38	0x39e8804c	0.00044346077
39	0x3a1490da	0.00056673365
40	0x3b448725	0.002998778
41	0x3abb2c39	0.0014280147
42	0x3ac61a12	0.0015113971
43	0x3ae76a54	0.001765559
44	0x3b03c9dd	0.0020109334
45	0x3b13126f	0.0022441407
46	0x3a869861	0.0010268801
47	0x3ab38725	0.0013696892
48	0x3b5e5052	0.0033922386
49	0x3b0d9ba0	0.0021607652
50	0x3a5e07e6	0.0008469805
51	0x39cfcbdf	0.00039634013
52	0x3a2b7b91	0.0006541545
53	0x3a24435e	0.0006266142
54	0x3a35cc6f	0.0006935065
55	0x3a285eb0	0.0006422801
56	0x3aa51f81	0.001259789
57	0x3b222b80	0.0024745166
58	0x3a173ef8	0.0005769576
59	0x3a1bc035	0.0005941422

exp_avg f4 [3]
0	0x3b771be0	0.0037705824
1	0x3ace03b4	0.0015717656
2	0xbbaf0edf	-0.005342349

exp_avg_sq f4 [3]
0	0x392b7a8f	0.00016353487
1	0x39931fc1	0.00028061683
2	0x39b01821	0.00033587313

exp_avg f4 [20, 128]
0	0xbad6ddc0	-0.0016392991
1	0xb9565763	-0.00020441184
2	0xbae442c9	-0.0017414923
3	0xbbf86072	-0.0075798566
4	0xb9565763	-0.00020441184
5	0xbaa570db	-0.0012622135
6	0x3b539a9e	0.0032288204
7	0xb82ef265	-4.171058e-05
8	0xbb4bfaec	-0.0031124903
9	0xbc28b18f	-0.0102962395
10	0xb9565763	-0.00020441184
11	0xbad9fe63	-0.0016631599
12	0xbba9bcd2	-0.00517998
13	0x29a9ba81	7.537461e-14
14	0x3a304110	0.0006723562
15	0x3b1de99c	0.002409554
16	0xab338cd9	-6.378904e-13
17	0xbafe3d93	-0.0019397013
18	0x3a2dd688	0.0006631394
19	0xbae8fb5a	-0.0017775104
20	0xbb5449d5	-0.003239264
21	0xbbebebfd	-0.007199763
22	0xb7052194	-7.935236e-06
23	0x3b6b4798	0.0035900827
24	0x3a2dd688	0.0006631394
25	0xbae8fb5a	-0.0017775104
26	0xbbae1dc4	-0.005313607
27	0x3b520b40	0.0032050163
28	0xb7052a18	-7.9372185e-06
29	0x3afad2d9	0.0019136324
30	0xbad26a2d	-0.0016053371
31	0xbae8fb5a	-0.0017775104
32	0xbb8be73c	-0.0042695086
33	0x3b520b40	0.0032050163
34	0xb7052a18	-7.9372185e-06
35	0x3963580c	0.00021681207
36	0xbb09a552	-0.002100308
37	0x385ab8ad	5.2147243e-05
38	0xbb875724	-0.004130261
39	0x25adacdd	3.0127853e-16
40	0x3954fa6e	0.00020311188
41	0x3b0a4064	0.0021095509
42	0xbb8caa07	-0.00429273
43	0x39405941	0.00018343797
44	0xbb7011e6	-0.0036631762
45	0x395d4d0c	0.00021104905
46	0xa8b96be2	-2.0585913e-14
47	0x39cbb374	0.0003885288
48	0x39468543	0.00018932395
49	0xbb914490	-0.004433222
50	0xbb9ae949	-0.004727517
51	0x395d4d0c	0.00021104905
52	0xb6dd2d29	-6.5915706e-06
53	0x3b51af1e	0.0031995247
54	0x39468543	0.00018932395
55	0xbb914490	-0.004433222
56	0xbb0ffe1d	-0.0021971532
57	0xa4d38751	-9.17359e-17
58	0xb6dd32d7	-6.592232e-06
59	0x3b5019b0	0.0031753592
60	0x24b2d84e	7.756163e-17
61	0xbb9a32ba	-0.004705754
62	0xbad46bab	-0.0016206404
63	0xa4d38751	-9.17359e-17
64	0xb6dd32d7	-6.592232e-06
65	0x3b62e0d3	0.003461887
66	0x3ae6963a	0.0017592378
67	0xbab505f6	-0.0013810981
68	0x3ae0dfa6	0.0017156496
69	0x143a54a7	9.407295e-27
70	0x3ae86b90	0.0017732251
71	0x3baea1cc	0.0053293463
72	0x3ae91636	0.0017783109
73	0xbaa964df	-0.0012923739
74	0x3ae23d0d	0.0017260626
75	0x3ae948c4	0.0017798175
76	0x2bae7724	1.2396512e-12
77	0x3b90617c	0.0044061523
78	0x000330a9	2.92962e-40
79	0x37b7f1f7	2.1927974e-05
80	0x3ad43654	0.0016190507
81	0x3ae948c4	0.0017798175
82	0xb1a5cf44	-4.8256954e-09
83	0x3b90ba40	0.004416734
84	0x80000305	-1.083e-42
85	0xb802b7f5	-3.116574e-05
86	0x3b184296	0.0023233048
87	0xa49f2990	-6.902567e-17
88	0xb1a5cf44	-4.8256954e-09
89	0x3b97877f	0.0046243067
90	0x80000305	-1.083e-42
91	0xba08fa53	-0.00052252895
92	0x3ac11c0e	0.0014733092
93	0xa49f2990	-6.902567e-17
94	0xb1a5cf44	-4.8256954e-09
95	0x3b91983e	0.0044431975
96	0x3a12de57	0.0005602589
97	0xb9a743f6	-0.00031903357
98	0x3a73810a	0.00092889427
99	0x141d4817	7.9406916e-27
100	0x3aae65e0	0.0013305508
101	0x3baca9cd	0.0052692653
102	0x3a6fc9aa	0.0009147177
103	0xb9b9d6ae	-0.00035445899
104	0x3a782da2	0.0009467249
105	0x3aae6609	0.0013305555
106	0xa97665f4	-5.4711403e-14
107	0x3b919d35	0.0044437894
108	0x0e84b8ae	3.2718352e-30
109	0x3a5a0fcb	0.00083183934
110	0x3ae1958a	0.0017210704
111	0x3aae6609	0.0013305555
112	0xb17702c4	-3.5944803e-09
113	0x3b9c5aa0	0.0047715455
114	0x0e84b8ae	3.2718352e-30
115	0x3ac0f943	0.0014722723
116	0x3b07d564	0.0020726556
117	0xa57679fe	-2.1378431e-16
118	0xb1770320	-3.5945007e-09
119	0x3b157f48	0.0022811461
120	0x0e84b8ae	3.2718352e-30
121	0x3ac0f943	0.0014722723
122	0x3ad43665	0.0016190527
123	0x3e811336	0.2520997
124	0x3e6795e6	0.22615775
125	0xbb0061af	-0.0019589474
126	0xbc8d6ac9	-0.017262833
127	0xbad6ddc0	-0.0016392991
128	0x3a673028	0.00088191265
129	0xb9174bda	-0.00014428739
130	0xba919ee9	-0.0011109981
131	0xbb68bc12	-0.003551249
132	0xb9174bda	-0.00014428739
133	0xba435ff1	-0.0007452956
134	0x3b90b989	0.0044166488
135	0xb8044a76	-3.15406e-05
136	0xbb0f6490	-0.0021880008
137	0xbbb268de	-0.00544463
138	0xb9174bda	-0.00014428739
139	0xba87cbcb	-0.0010360418
140	0xbadfa613	-0.0017063044
141	0x29802c5d	5.692038e-14
142	0x3a10fc24	0.0005530736
143	0x3b6e271d	0.0036339231
144	0xab03e014	-4.685152e-13
145	0xba9b5919	-0.0011852115
146	0x3b218bc7	0.0024649964
147	0xba9ca692	-0.0011951497
148	0xbb18f729	-0.0023340678
149	0xbb7a3a7c	-0.0038181832
150	0xb6b557ba	-5.404433e-06
151	0x3b402002	0.0029315953
152	0x3b218bc7	0.0024649964
153	0xba9ca692	-0.0011951497
154	0xbb7d0b7e	-0.0038611586
155	0x3b84b33f	0.004049688
156	0xb6b56317	-5.405756e-06
157	0x3acecd8b	0.0015777809
158	0xba67b578	-0.00088389916
159	0xba9ca692	-0.0011951497
160	0xbb1d150e	-0.0023968848
161	0x3b84b33f	0.004049688
162	0xb6b56317	-5.405756e-06
163	0x39bdf3c8	0.0003623052
164	0xbaa07bb8	-0.0012243902
165	0x38233292	3.8909326e-05
166	0xbb1febf8	-0.0024402123
167	0x2588489f	2.364145e-16
168	0x395ad30c	0.00020868721
169	0x3b48353d	0.003054931
170	0xbb2f16f9	-0.0026716574
171	0x39026da6	0.00012438613
172	0xbb0d174f	-0.0021528786
173	0x39607e23	0.00021409294
174	0xa8855ead	-1.4807025e-14
175	0x3addde2a	0.0016927172
176	0x39cc9419	0.00039020253
177	0xbb466603	-0.0030273206
178	0xbb41a52e	-0.0029547918
179	0x39607e23	0.00021409294
180	0xb68cb5a8	-4.1934727e-06
181	0x3b767861	0.0037608373
182	0x39cc9419	0.00039020253
183	0xbb466603	-0.0030273206
184	0xba8659d8	-0.0010250164
185	0xa4970a50	-6.550328e-17
186	0xb68cb8e6	-4.19385e-06
187	0x3b75f0b9	0.0037527515
188	0x247d5867	5.493551e-17
189	0xbb52f41d	-0.003218896
190	0xb9786af6	-0.00023690969
191	0xa4970a50	-6.550328e-17
192	0xb68cb8e6	-4.19385e-06
193	0x3b6c2101	0.0036030414
194	0x3a9c0707	0.001190395
195	0xba8513e9	-0.0010153028
196	0x3b0497e1	0.0020232128
197	0x14339c50	9.068018e-27
198	0x3acd3c51	0.0015658234
199	0x3ba65ccd	0.0050769807
200	0x3a9dcbd6	0.0012038897
201	0xba7aa069	-0.0009560646
202	0x3b047675	0.0020212207
203	0x3acdc90a	0.0015700173
204	0x2b9e7804	1.1259886e-12
205	0x3b93e793	0.00451369
206	0x00026ada	2.22002e-40
207	0xb81824c6	-3.6273872e-05
208	0x3afae04f	0.0019140335
209	0x3acdc90a	0.0015700173
210	0xb0e2cce6	-1.65019e-09
211	0x3b95df34	0.004573727
212	0x80000260	-8.52e-43
213	0xb8985686	-7.264041e-05
214	0x3b1c3e94	0.002384101
215	0xa46214a1	-4.902341e-17
216	0xb0e2cce6	-1.65019e-09
217	0x3b9c62b6	0.0047725094
218	0x80000260	-8.52e-43
219	0xb9d4e902	-0.00040609395
220	0x3aec4ea5	0.0018028809
221	0xa46214a1	-4.902341e-17
222	0xb0e2cce6	-1.65019e-09
223	0x3b9980c0	0.0046845376
224	0x39d3db5a	0.00040408486
225	0xb942506b	-0.0001853124
226	0x3aafa26d	0.0013399847
227	0x14226f01	8.2008015e-27
228	0x3aca0f46	0.0015415929
229	0x3bbe3541	0.005804688
230	0x3a2922d8	0.00064520305
231	0xb97cd4b3	-0.0002411183
232	0x3aa902bd	0.0012894493
233	0x3aca0f54	0.0015415945
234	0xa9280549	-3.7308078e-14
235	0x3ba8d4d8	0.005152326
236	0x0e3c88dc	2.3238684e-30
237	0x3a220318	0.00061802706
238	0x3af74465	0.0018864988
239	0x3aca0f54	0.0015415945
240	0xb0990662	-1.1134029e-09
241	0x3bb48ca8	0.0055099316
242	0x0e3c88dc	2.3238684e-30
243	0x3a8b4ffe	0.0010628698
244	0x3b080db0	0.0020760112
245	0xa52e28c3	-1.5105905e-16
246	0xb09906ea	-1.113418e-09
247	0x3b734304	0.0037118802
248	0x0e3c88dc	2.3238684e-30
249	0x3a8b4ffe	0.0010628698
250	0x3ad5c430	0.0016309079
251	0x3e606a87	0.21915637
252	0x3e08a528	0.13344252
253	0xbab6865b	-0.0013925539
254	0xbc4d9808	-0.012548454
255	0x3a673028	0.00088191265

exp_avg_sq f4 [20, 128]
0	0x3b1306b6	0.002243442
1	0x364e67bb	3.0756771e-06
2	0x3a9d91b4	0.0012021572
3	0x3abadc70	0.0014256369
4	0x383054f1	4.2040778e-05
5	0x3aacc222	0.0013180415
6	0x3adf8583	0.0017053339
7	0x36fd078a	7.540865e-06
8	0x3aa8676a	0.0012848203
9	0x3a92a9bd	0.0011189502
10	0x38322ba3	4.2479147e-05
11	0x3ab81653	0.0014044739
12	0x3a9ac4d9	0.0011807933
13	0x35cb4924	1.5145965e-06
14	0x3abc4229	0.0014362979
15	0x3a834d63	0.001001757
16	0x383261e4	4.2529675e-05
17	0x3ab4d747	0.0013797068
18	0x3a2b403e	0.0006532705
19	0x36801956	3.8176468e-06
20	0x3abcc400	0.0014401674
21	0x3a30129a	0.0006716639
22	0x383c5192	4.489866e-05
23	0x3aba8bd0	0.0014232341
24	0x3a1b0372	0.0005913294
25	0x3683be78	3.9262777e-06
26	0x3abcf86d	0.0014417298
27	0x39f15128	0.00046027568
28	0x37072e3f	8.057395e-06
29	0x3ab27e2d	0.0013617926
30	0x39879547	0.00025860427
31	0x36d2c5ca	6.2815134e-06
32	0x3ac6c672	0.0015165342
33	0x39e2ef2c	0.00043284276
34	0x36fa3bba	7.4575337e-06
35	0x3a9bf809	0.0011899482
36	0x392440fc	0.00015664467
37	0x371f1404	9.481799e-06
38	0x3abf638b	0.001460181
39	0x38e1b75a	0.00010762988
40	0x36f1990b	7.2001762e-06
41	0x3aacfab3	0.0013197273
42	0x390f2e68	0.0001365483
43	0x36226590	2.4198998e-06
44	0x3ab8bbe2	0.0014094079
45	0x388c35bc	6.685729e-05
46	0x36c52fb0	5.876609e-06
47	0x3aa89167	0.0012860716
48	0x38767477	5.8759437e-05
49	0x37160b62	8.943347e-06
50	0x3abf3fc7	0.0014591151
51	0x38252608	3.9374485e-05
52	0x36100768	2.1461983e-06
53	0x3aa2cc8c	0.0012420579
54	0x38ea5096	0.00011173
55	0x3710006c	8.583167e-06
56	0x3ab67dcc	0.0013922988
57	0x3851a951	4.998717e-05
58	0x360c9e9e	2.0953953e-06
59	0x3a9cbedf	0.001195874
60	0x38c3d700	9.3383715e-05
61	0x37045941	7.888594e-06
62	0x3aac8dd6	0.0013164829
63	0x3871c899	5.76457e-05
64	0x35c300b1	1.4528833e-06
65	0x3a8a9c5a	0.0010575161
66	0x38c9e872	9.627723e-05
67	0x37279164	9.987827e-06
68	0x3aa33d59	0.0012454196
69	0x3837cd6a	4.3821907e-05
70	0x363b0d0a	2.7872761e-06
71	0x3a853a67	0.00101645
72	0x38d02550	9.925163e-05
73	0x36ea344f	6.979833e-06
74	0x3aa0ac4c	0.001225838
75	0x382bfde0	4.1006017e-05
76	0x35b81552	1.3715273e-06
77	0x3a7ce836	0.0009647639
78	0x3840411d	4.583701e-05
79	0x37d1bd53	2.5002902e-05
80	0x3a9b0a5f	0.0011828652
81	0x38295675	4.037326e-05
82	0x35cb114a	1.512971e-06
83	0x3a75b2fc	0.0009372679
84	0x3861b5f2	5.381363e-05
85	0x37a0d41a	1.9172254e-05
86	0x3a958aae	0.0011409128
87	0x383f20f6	4.5568646e-05
88	0x3603132f	1.9531687e-06
89	0x3a6b0c32	0.0008966356
90	0x380cf344	3.360516e-05
91	0x379f4a8e	1.8988994e-05
92	0x3a94469c	0.0011312547
93	0x3821f5b8	3.8614235e-05
94	0x35e2ae1b	1.6888984e-06
95	0x3a6a042e	0.00089270144
96	0x37d65e50	2.5554706e-05
97	0x365cf5ba	3.2925586e-06
98	0x3a807826	0.0009801432
99	0x3802d5e3	3.1193613e-05
100	0x368c86da	4.188024e-06
101	0x3a648d71	0.0008718586
102	0x381ded58	3.765276e-05
103	0x383c023a	4.4824767e-05
104	0x3a846e7d	0.0010103729
105	0x38247c71	3.9216542e-05
106	0x351114fc	5.4047246e-07
107	0x3a60bb60	0.0008572843
108	0x37f2fd43	2.8966582e-05
109	0x384075b9	4.5886005e-05
110	0x3a838b22	0.0010035972
111	0x383bdfc5	4.4792676e-05
112	0x35d43c77	1.5812828e-06
113	0x3a607aa4	0.0008563197
114	0x37e95c6c	2.7818802e-05
115	0x36a051d5	4.777898e-06
116	0x3a7ea1e2	0.00097134535
117	0x38671218	5.5091543e-05
118	0x35d915fe	1.617416e-06
119	0x3a5ca873	0.0008417435
120	0x37d6e0eb	2.5615524e-05
121	0x371a30a9	9.190445e-06
122	0x3a7f1497	0.0009730546
123	0x3eb2c052	0.34912354
124	0x3e8ff799	0.2811859
125	0x39b3edeb	0.00034318803
126	0x3b424b81	0.0029647055
127	0x3b1306b6	0.002243442
128	0x3ab18ef7	0.0013546635
129	0x35efa8c8	1.785601e-06
130	0x3a32e95b	0.0006824934
131	0x3a6d7536	0.00090582983
132	0x37d2716f	2.5086772e-05
133	0x3a42325d	0.00074080174
134	0x3a8d13ea	0.0010763381
135	0x36b1f896	5.3039503e-06
136	0x3a3eb699	0.0007275134
137	0x3a3f1c05	0.0007290247
138	0x37d4892d	2.5336247e-05
139	0x3a4e7dc7	0.00078770187
140	0x3a559a1b	0.00081482687
141	0x356ed208	8.8967545e-07
142	0x3a52fec3	0.0008048827
143	0x3a3d9553	0.0007232029
144	0x37d50636	2.539447e-05
145	0x3a4acdfc	0.00077363825
146	0x3a0c0232	0.00053409033
147	0x3602d511	1.949553e-06
148	0x3a5440ea	0.0008096831
149	0x3a065135	0.0005123795
150	0x37e03634	2.6728121e-05
151	0x3a50c34c	0.0007963672
152	0x3a02e785	0.00049936055
153	0x3606ef97	2.0107016e-06
154	0x3a54839e	0.00081067707
155	0x39d847ed	0.0004125232
156	0x3691213d	4.325206e-06
157	0x3a4855cf	0.0007642181
158	0x3932bcdb	0.00017045757
159	0x36651b34	3.4139493e-06
160	0x3a65a515	0.0008760256
161	0x39d1b38c	0.0003999736
162	0x3684a3ef	3.952991e-06
163	0x3a309553	0.0006736118
164	0x38e6778b	0.00010989521
165	0x36ea605f	6.9849625e-06
166	0x3a5bdbda	0.00083869474
167	0x38b855a7	8.789758e-05
168	0x368d4632	4.2102993e-06
169	0x3a57f756	0.0008238455
170	0x38cfb27a	9.903773e-05
171	0x35afa33c	1.3086024e-06
172	0x3a53ef8c	0.00080847065
173	0x3881e9c4	6.1947416e-05
174	0x364edfe2	3.082671e-06
175	0x3a52dced	0.0008043785
176	0x386a6147	5.5880544e-05
177	0x3693f90a	4.4099334e-06
178	0x3a5aa01d	0.0008339899
179	0x380e7193	3.3961212e-05
180	0x35a6ad8c	1.2418473e-06
181	0x3a4e21c7	0.00078633096
182	0x38b6872a	8.7036125e-05
183	0x368e3ef5	4.239259e-06
184	0x3a5171c3	0.0007989669
185	0x382d58d2	4.1329135e-05
186	0x3597a1c1	1.1297453e-06
187	0x3a473579	0.00075992156
188	0x3860cda1	5.359727e-05
189	0x3681ef05	3.872325e-06
190	0x3a47c1a1	0.00076201005
191	0x383eb4a0	4.546775e-05
192	0x354b69f5	7.577758e-07
193	0x3a286b7e	0.0006424709
194	0x385c6051	5.254179e-05
195	0x36f05b82	7.1632103e-06
196	0x3a3daef2	0.0007235847
197	0x3800eb6f	3.0736843e-05
198	0x35f0e6d7	1.7948577e-06
199	0x3a214ed5	0.00061534095
200	0x3865ae10	5.4759963e-05
201	0x36770a8d	3.681201e-06
202	0x3a39d80b	0.0007089383
203	0x37f8bee8	2.9652801e-05
204	0x354e5711	7.686768e-07
205	0x3a1965dc	0.0005851665
206	0x37df4b86	2.661884e-05
207	0x3747e560	1.191473e-05
208	0x3a336868	0.0006843866
209	0x37dcc627	2.6318316e-05
210	0x3531bf65	6.6216154e-07
211	0x3a15a0da	0.00057078677
212	0x38091b25	3.2688626e-05
213	0x3719348b	9.131744e-06
214	0x3a2d4fe9	0.0006611334
215	0x37f3c4bb	2.9059467e-05
216	0x3540896f	7.1725566e-07
217	0x3a1050e2	0.00055052165
218	0x37afd75e	2.0961914e-05
219	0x371b1f1f	9.245966e-06
220	0x3a2c25f6	0.0006566936
221	0x37ce7b1f	2.4614446e-05
222	0x351a5131	5.748762e-07
223	0x3a0f4e73	0.0005466707
224	0x37806e89	1.5310261e-05
225	0x35ee3a8e	1.7749423e-06
226	0x3a17510f	0.00057722715
227	0x37a23660	1.9337225e-05
228	0x368b6177	4.153869e-06
229	0x3a0d7f7d	0.00053977204
230	0x37b28d5f	2.1285085e-05
231	0x37de1532	2.6474332e-05
232	0x3a1c0bdf	0.00059526967
233	0x37dce121	2.6330878e-05
234	0x34a10508	2.9992248e-07
235	0x3a0b9286	0.0005324263
236	0x377c755d	1.5047696e-05
237	0x37e2614d	2.6986609e-05
238	0x3a1b64ed	0.000592782
239	0x37f016cd	2.8620847e-05
240	0x357281e9	9.034107e-07
241	0x3a0d3198	0.0005386113
242	0x37737d5b	1.4513115e-05
243	0x36244b44	2.4481715e-06
244	0x3a167b0f	0.0005740383
245	0x380c3f36	3.343747e-05
246	0x354c71dc	7.616161e-07
247	0x3a09c883	0.0005256014
248	0x375f5fdf	1.33141575e-05
249	0x36ab80db	5.111198e-06
250	0x3a176b7a	0.0005776208
251	0x3e61cbba	0.22050372
252	0x3e3433cb	0.17597882
253	0x393eb473	0.00018187035
254	0x3ade31fa	0.001695215
255	0x3ab18ef7	0.0013546635

exp_avg f4 [20]
0	0xbbb0c291	-0.005394288
1	0xbb2fef7e	-0.002684563
2	0xbbbf0074	-0.0058289114
3	0xbb808c1a	-0.0039229514
4	0x3b50e662	0.00318756
5	0xbb837907	-0.0040122303
6	0xbb6ac75d	-0.0035824396
7	0xbb21cc78	-0.0024688523
8	0xbb3ac6c1	-0.0028499814
9	0xbb9f4dfe	-0.0048615923
10	0xbbb0a7a6	-0.005391079
11	0xbb7c8edd	-0.0038537302
12	0xbb29ca87	-0.002590807
13	0xbb7074fc	-0.0036690822
14	0x3b44ca66	0.0030027865
15	0x394d093c	0.00019553764
16	0xbbb09266	-0.005388546
17	0x3c68cb24	0.014208589
18	0xbb400d51	-0.0029304812
19	0xbc0ec60f	-0.008714213

exp_avg_sq f4 [20]
0	0x3baa733f	0.0052017267
1	0x3b4bf8fc	0.0031123748
2	0x3d07800c	0.0330811
3	0x3bcfba93	0.00633938
4	0x3bc8478f	0.006112046
5	0x3bd98b29	0.0066389036
6	0x3bc1c442	0.0059132883
7	0x3b80139c	0.0039085876
8	0x3c7153e0	0.01472947
9	0x3c01b365	0.007916306
10	0x3cb71421	0.022348465
11	0x3bac8971	0.0052654077
12	0x3b1d2e42	0.002398387
13	0x3c8a8482	0.016908888
14	0x3b195d87	0.0023401694
15	0x3c8d66c8	0.017260924
16	0x3c9df0a2	0.019279782
17	0x3c12b935	0.00895529
18	0x3cec11a1	0.028817
19	0x3ca3f3c4	0.020013697

exp_avg f4 [1, 20]
0	0x3e221e6c	0.15831918
1	0x3d323bd7	0.0435141
2	0x3cffe335	0.03123627
3	0x3ce38ab7	0.027776105
4	0xbce7c474	-0.028291918
5	0x3d136080	0.0359807
6	0x3d04d251	0.032427136
7	0x3da9fbd2	0.08299984
8	0x3d0f9fbf	0.035064455
9	0x3d5fd5c0	0.054647207
10	0x3d1b8a40	0.037973642
11	0x3d714fd5	0.058914024
12	0xbe1cc179	-0.15308179
13	0x3cdce368	0.026963905
14	0xbcb80e1e	-0.02246767
15	0x3cf6ea3f	0.030140994
16	0x3cf08431	0.029359909
17	0xbbe588f5	-0.007004852
18	0x3d0f192b	0.03493611
19	0x3b546f7b	0.003241508

exp_avg_sq f4 [1, 20]
0	0x3ef4baa5	0.47798648
1	0x3f452363	0.7700712
2	0x3e0184bf	0.12648295
3	0x3f4cc4c2	0.7998773
4	0x3bb3aac1	0.005483002
5	0x3f5580b6	0.8339952
6	0x3f492351	0.78569514
7	0x3f1c19c7	0.60976833
8	0x3e26bb4c	0.16282386
9	0x3f2c36a9	0.67270905
10	0x3e21c44f	0.15797542
11	0x3f36957a	0.71321833
12	0x3f61dcfc	0.8822782
13	0x3de5aab2	0.11214198
14	0x3b1a911d	0.002358503
15	0x3e0f442e	0.13990852
16	0x3de2a567	0.11066704
17	0x3ad83a21	0.0016496816
18	0x3e0bfd1a	0.1367077
19	0x3f0ea072	0.5571357
