config/ppo/results/RayShoot0607_5만번/Shooting.onnx (onnx, 13687 bytes, 7 tensors)

action_model._discrete_distribution.branches.0.bias f4 [3]
0	0x3cfac768	0.030612662
1	0xbc9a5570	-0.018839568
2	0xbc3d87da	-0.011568034

action_model._discrete_distribution.branches.0.weight f4 [3, 20]
0	0xbca6663a	-0.020312417
1	0xbcaf2f8d	-0.021384979
2	0x3cdc4053	0.02688614
3	0xbcf018e0	-0.029308736
4	0x3d4a3860	0.04937017
5	0xbc6f9621	-0.014623196
6	0x3c5fca49	0.013659068
7	0x3d6ecf3e	0.05830311
8	0x39b548ea	0.00034577335
9	0x3d9efbeb	0.07762893
10	0xbb8335be	-0.0040042093
11	0xbd3e9a73	-0.046534013
12	0xbc3df6ac	-0.011594456
13	0x3cddba5b	0.0270664
14	0xbd49d619	-0.049276445
15	0xbd0991ce	-0.033586316
16	0x3d886d87	0.06661516
17	0xbc90db64	-0.017682739
18	0x3d5eabb6	0.054362975
19	0xbc428bac	-0.011874121
20	0xbd9c38f0	-0.076280475
21	0x3dd5d59c	0.104411334
22	0x3de7f3bb	0.11325785
23	0x3c27e5fa	0.010247702
24	0xbdd957de	-0.106124625
25	0x3c3c1c25	0.01148132
26	0xbb4b1a17	-0.0030990893
27	0x3cb072c4	0.0215391
28	0xbd89f75e	-0.06736635
29	0x3a6c2d6a	0.0009009453
30	0xbdc2c339	-0.09509892
31	0x3e034348	0.12818635
32	0xbd6fd482	-0.058552273
33	0xbdd573b4	-0.10422459
34	0x3d1c27e7	0.03812399
35	0x3def344f	0.11679899
36	0xbd90d06a	-0.07071002
37	0x3c80d62c	0.015727125
38	0x3ce7a3cb	0.028276345
39	0xbd505801	-0.050865177
40	0x3d94ff31	0.072752364
41	0xbe0f5790	-0.13998246
42	0xbe102e72	-0.14080217
43	0xbb2b41c6	-0.0026131733
44	0x3bb2bccf	0.0054546366
45	0xbbedfd08	-0.0072628297
46	0xbd1525a3	-0.036412846
47	0xbd030919	-0.031991098
48	0x3dae415b	0.08508559
49	0xbd223f99	-0.039611433
50	0x3c7e0402	0.015503885
51	0xbcfb0ccc	-0.03064575
52	0x3db953ab	0.090491615
53	0x3d790772	0.060798116
54	0xbd34ac21	-0.044109467
55	0xbd479da4	-0.048734322
56	0x3cb166fc	0.021655552
57	0x3d0ef8c7	0.03490522
58	0x3ccde30c	0.025132678
59	0x3d7d56fd	0.061850537

action_model._discrete_distribution.branches.1.bias f4 [3]
0	0x3c477cfd	0.012175796
1	0x3c8a5d43	0.016890174
2	0xbce95cc2	-0.028486613

action_model._discrete_distribution.branches.1.weight f4 [3, 20]
0	0x3c8e9370	0.017404288
1	0xbe103b3f	-0.140851
2	0x3d904597	0.07044523
3	0xbe2c9b7d	-0.16856189
4	0x3e173897	0.14767681
5	0xbc9e0cd4	-0.019293226
6	0x3dada42d	0.0847858
7	0x3df42ad5	0.11922232
8	0xbe45e6fb	-0.19326393
9	0x3de688b0	0.1125654
10	0x3b06ebe2	0.0020587374
11	0xbd118b74	-0.035533383
12	0xbd825f64	-0.063658506
13	0x3c291525	0.010319983
14	0x3d9a637f	0.075385086
15	0x3d3528cd	0.044228364
16	0x3e948053	0.29004154
17	0xbe9d81ba	-0.30763036
18	0xbdaecbbb	-0.08534952
19	0xbe03f342	-0.12885764
20	0x3e68282d	0.22671576
21	0x3ea7f8b2	0.32806927
22	0x3cd7e0f1	0.026352378
23	0x3e866ff3	0.26257285
24	0xbe079f5a	-0.13244382
25	0x3e52ee45	0.20598705
26	0xbdf36230	-0.11883962
27	0x3dd025c2	0.10163452
28	0xbe29d2a5	-0.16584261
29	0xbe2fa24b	-0.17151754
30	0x3cd2f6fe	0.02575254
31	0xbdbd9ba7	-0.09258204
32	0xbe1fbfd9	-0.15600528
33	0xbe93c743	-0.28862962
34	0xbc2dbf33	-0.0106046675
35	0xbc45c2b1	-0.012070344
36	0xbe2c2733	-0.16811828
37	0x3e4411bc	0.1914739
38	0xbd3a0f56	-0.04542478
39	0xbe39befc	-0.18139261
40	0xbe6b0686	-0.22951707
41	0xbe3f2829	-0.18667664
42	0xbe0d2cfb	-0.1378669
43	0xbdccd4db	-0.100015365
44	0xbc848329	-0.016175823
45	0xbe56c3c6	-0.20973119
46	0x3d91bda2	0.07116248
47	0xbe97ea35	-0.29670873
48	0x3e88fdba	0.26756078
49	0xbb08d227	-0.0020877214
50	0x3ae3f1b5	0.001739076
51	0x3e282544	0.16420466
52	0x3e354068	0.1770035
53	0x3e50a9a9	0.2037722
54	0xbe2200c2	-0.15820602
55	0xbcbcca31	-0.023045631
56	0xbe3fe787	-0.18740664
57	0x3dd18f2f	0.10232388
58	0x3e0414ad	0.12898512
59	0x3e80c092	0.2514692

discrete_action_output_shape f4 [1, 2]
0	0x40400000	3.0
1	0x40400000	3.0

network_body._body_endoder.seq_layers.0.bias f4 [20]
0	0x3d7240da	0.05914388
1	0x3e02704a	0.12738147
2	0x3dc366d1	0.09541095
3	0x3dc189fe	0.09450148
4	0x3d82c5f5	0.063854136
5	0x3dac7ee3	0.08422639
6	0x3db0af34	0.08627167
7	0x3db02546	0.08600859
8	0x3d4343dd	0.04767214
9	0x3d899c49	0.06719262
10	0x3d1dbf99	0.0385128
11	0x3d7675f1	0.06017107
12	0x3d4d2cc4	0.05009152
13	0x3d69739c	0.05699502
14	0x3d89c7b6	0.06727545
15	0x3d74de39	0.05978224
16	0x3d788c5d	0.060680736
17	0x3db0c52f	0.0863136
18	0x3d485e1e	0.048917882
19	0x3d2a5b63	0.04159106

network_body._body_endoder.seq_layers.0.weight f4 [20, 130]
0	0xbe229e3d	-0.15880676
1	0x3dbba0d7	0.09161537
2	0x3dc4d402	0.0961075
3	0xbe6852f5	-0.22687896
4	0x3e4b2677	0.19838892
5	0x3e4007b7	0.18752943
6	0x3dbd9c26	0.092582986
7	0x3e439bdf	0.19102429
8	0x3c98c92c	0.018650614
9	0xbe3fc019	-0.18725623
10	0x3e1fa06b	0.15588538
11	0x3d387ceb	0.045041006
12	0x3ea45713	0.32097682
13	0x3e00edbb	0.12590687
14	0x3d4c6779	0.049903367
15	0xbeceb661	-0.4037352
16	0x3e535d08	0.20640957
17	0x3dbc37f5	0.091903605
18	0x3ee150b9	0.440069
19	0x3e392869	0.18081822
20	0xbdd59e90	-0.10430634
21	0xbef4bec8	-0.47801805
22	0x3e97d958	0.29658008
23	0xbcd9ee8f	-0.026603011
24	0x3eef0992	0.4668699
25	0x3d8ce02e	0.068786964
26	0x3dde249e	0.10846828
27	0xbec94dc3	-0.3931714
28	0xbc9f3ea9	-0.019439058
29	0x3e5102a3	0.20411162
30	0x3eb6ead1	0.35726026
31	0x3dee6ee6	0.11642246
32	0xbd7e93f7	-0.06215283
33	0xbec01ddf	-0.3752279
34	0x3d4059d3	0.046960663
35	0x3cacb5b3	0.021082735
36	0x3dcaa454	0.09894624
37	0xbd1ba497	-0.037998762
38	0x3baebffa	0.005332944
39	0xbee415f3	-0.44547996
40	0x3e067047	0.13128768
41	0x3ca2c520	0.019869387
42	0x3e16e78e	0.14736769
43	0xbdfb14a4	-0.12259796
44	0x3dfdbb7e	0.12389277
45	0xbe4595a5	-0.19295366
46	0x3dd5f75e	0.10447572
47	0x3de62ce5	0.11239032
48	0x3e994dd4	0.2994219
49	0x3dc0d162	0.094149366
50	0x3d839901	0.064256676
51	0xbeaa4fdc	-0.33264053
52	0x3da6fcfa	0.0815372
53	0xbd12b196	-0.03581389
54	0x3da8310a	0.082124785
55	0xbd81cf20	-0.06338334
56	0x3e1e88f2	0.15481928
57	0xbe6505b7	-0.22365461
58	0x3d8d3516	0.06894891
59	0x3ca6f80b	0.020381948
60	0x3eaec491	0.34134343
61	0x3d92ebcf	0.07173883
62	0x3d848b93	0.06471934
63	0xbe9a7e38	-0.30174422
64	0x3d8e940e	0.06961833
65	0xbd5ec6de	-0.054388873
66	0x3e501bc6	0.20323095
67	0x3e051403	0.12995915
68	0x3daa0fd3	0.083037995
69	0xbe29aa2e	-0.16568825
70	0xbcc0de11	-0.02354339
71	0x3d61c8bb	0.055123072
72	0x3e527232	0.20551375
73	0x3d569e7a	0.05239723
74	0x3dc0344a	0.09384973
75	0x3c807864	0.015682407
76	0x3bf3708c	0.007429188
77	0x3bd4c9ca	0.0064937817
78	0xbddc137d	-0.107459046
79	0x3bfbf65c	0.0076892804
80	0x3e2b78ac	0.16745251
81	0xbdfdedbc	-0.1239886
82	0x3e2222ab	0.15833537
83	0x3d878b70	0.066183925
84	0xbda8a846	-0.082352206
85	0x3e0f97a4	0.1402269
86	0x3be40985	0.0069591426
87	0xbd9631da	-0.07333727
88	0x3e3e6f19	0.18597068
89	0x3dc17653	0.09446397
90	0x3d7c2f07	0.061568286
91	0x3dec6b72	0.11543931
92	0x3d05afde	0.032638423
93	0xbd541020	-0.05177319
94	0xbcd2fc9d	-0.025755221
95	0xbde2a1b5	-0.110659994
96	0x3cb8b0e6	0.02254529
97	0x3e330381	0.17481805
98	0x3d801c65	0.06255416
99	0x3d6a7527	0.05724063
100	0x3d82ac07	0.06380468
101	0x3cd9598c	0.026531957
102	0x3e88e3a7	0.26736185
103	0x3dbe0716	0.09278695
104	0x3e7c4e85	0.24639328
105	0x3d143b10	0.03618914
106	0xbde78366	-0.11304359
107	0xbe4127be	-0.18862817
108	0x3dddc097	0.10827749
109	0x3dd9eb01	0.106405266
110	0x3d57c95f	0.052682277
111	0x3e206134	0.1566208
112	0x3d449975	0.04799791
113	0xbd2654b0	-0.040608108
114	0x3d1ba5fa	0.038000084
115	0xbd7aa6a8	-0.061194092
116	0x3e0c7cac	0.13719434
117	0xbcb363f4	-0.021898247
118	0xbe4e944b	-0.20173757
119	0xbddcc345	-0.10779432
120	0x3dc9ac6e	0.098473415
121	0x3e321d8b	0.17394082
122	0x3da4b752	0.08042778
123	0xbdae7243	-0.085178874
124	0xbcf1b369	-0.029504495
125	0x3d41c849	0.047310147
126	0xbd99694e	-0.074907884
127	0x3da85756	0.08219783
128	0x3e0a0ffb	0.13482659
129	0xbbeabd86	-0.0071637062
130	0xbf022c3b	-0.5084874
131	0x3c0fa0ec	0.008766394
132	0x3c0634cd	0.0081913
133	0xbf083bc5	-0.532162
134	0xbdea15bc	-0.11429927
135	0x3d6d4588	0.05792764
136	0xbd6de378	-0.05807826
137	0xbe4ba7bc	-0.19888204
138	0xbddca008	-0.10772711
139	0xbec999e7	-0.3937523
140	0x3df36ba0	0.11885762
141	0x3c6578f7	0.014005891
142	0x3eb8b3ca	0.36074668
143	0xbe904125	-0.281747
144	0xbc3d99a7	-0.011572278
145	0xbe9ed691	-0.31023076
146	0xbddafb96	-0.106925175
147	0xbd1d91df	-0.03846919
148	0x3f193130	0.5984068
149	0xbe512922	-0.20425847
150	0xbe57e57e	-0.21083638
151	0xbeb57361	-0.3543959
152	0xbd4537a0	-0.04814875
153	0xbdb1c5cb	-0.08680304
154	0x3ef18ce0	0.47177792
155	0xbe226380	-0.15858269
156	0xbbda4627	-0.006661195
157	0xbe2ea0f2	-0.17053583
158	0xbd6d99fb	-0.058008175
159	0x3c6b3e59	0.014358127
160	0x3efe8f46	0.49718684
161	0xbe3c461f	-0.18386124
162	0xbdd3c577	-0.10340398
163	0xbd3d03dd	-0.046146262
164	0xbddf6a11	-0.109089024
165	0xbcae0446	-0.021242272
166	0x3ed480db	0.4150456
167	0xbd1e12d1	-0.038592163
168	0xbd88f9fb	-0.06688305
169	0xbec9876d	-0.39361134
170	0xbc6a8aa5	-0.014315282
171	0x3c3a9a4e	0.011389328
172	0x3ec34dee	0.38145393
173	0xbe1db60a	-0.15401474
174	0x3decceac	0.11562857
175	0xbddddbaf	-0.10832917
176	0xbe3b58ae	-0.18295547
177	0xbdcfec3f	-0.10152482
178	0x3ea4baa7	0.32173654
179	0xbe846609	-0.25859097
180	0xbc7668d7	-0.015039644
181	0xbea7dd3d	-0.3278598
182	0x3d9f343c	0.07773635
183	0xbc6585a2	-0.014008911
184	0x3e78b3d4	0.24287349
185	0xbdeccb07	-0.11562162
186	0x3d2738b9	0.04082558
187	0xbde9ce5e	-0.114163145
188	0xbe17e0dd	-0.14831872
189	0x3cdb9da1	0.026808562
190	0x3dc80df8	0.09768289
191	0x3dc3af68	0.095549405
192	0xbd14ad4e	-0.03629809
193	0xbd0027f2	-0.031288095
194	0x3df30b91	0.118674405
195	0x3dfedde1	0.12444664
196	0x3e0c0d8e	0.13677046
197	0xbcc8fa51	-0.024533423
198	0x3ddc6a0c	0.10762414
199	0xbd94e9e5	-0.07271174
200	0x3a23f8ee	0.000625505
201	0xbd5267a1	-0.05136836
202	0x3e621464	0.22078091
203	0xbb8d06fc	-0.004303811
204	0x3db8bd43	0.09020474
205	0xbda5644a	-0.08075769
206	0xbddc8d1a	-0.107691005
207	0x3dd472c4	0.10373452
208	0x3e581b54	0.21104175
209	0xbde70fea	-0.11282332
210	0x3e5796e5	0.21053655
211	0xbcaf005e	-0.02136248
212	0x3c715123	0.014728817
213	0x3db90d06	0.09035687
214	0xbdac9da6	-0.084285066
215	0xbde50b29	-0.11183769
216	0x3e883bbe	0.2660808
217	0xbca22d6b	-0.019797048
218	0x3ce16479	0.02751373
219	0x3dea3e14	0.11437622
220	0x3e0fd664	0.14046627
221	0x3e2b8db0	0.16753268
222	0x3da8fbef	0.082511775
223	0x3e1b36a4	0.15157562
224	0x3dc5d2fd	0.096593834
225	0x3c778876	0.015108218
226	0x3e0b478c	0.13601512
227	0x3e1bc1be	0.15210626
228	0x3dbc5bbc	0.091971844
229	0x3daebf9b	0.085326396
230	0x3c07eaa6	0.008295691
231	0xbe46be55	-0.19408543
232	0x3e12ba25	0.14328821
233	0x3d76496d	0.060128618
234	0x3e9fad76	0.31187028
235	0x3d2c4694	0.042059496
236	0xbde7340f	-0.11289226
237	0xbddc06b9	-0.1074347
238	0x3e8c8693	0.27446422
239	0xbdc54f2f	-0.09634244
240	0x3e182bab	0.14860408
241	0x3e31874f	0.17336772
242	0x3bef7901	0.007308126
243	0x3d948029	0.07251007
244	0x3e175c1e	0.14781234
245	0x3cac152d	0.021006191
246	0x3e2583be	0.16163537
247	0xbe8c5142	-0.27405745
248	0xbd34f1b0	-0.044175804
249	0x3d42f8a1	0.047600392
250	0x3d51d1e4	0.051225558
251	0x3dc01059	0.09378118
252	0x3e229491	0.15876986
253	0x3cdc18bc	0.026867263
254	0x3e0e2fe8	0.13885462
255	0x3c000946	0.007814711
