config/ppo/results/RayShoot0610/Shooting.onnx (onnx, 14756 bytes, 8 tensors)

action_model._continuous_distribution.mu.weight f4 [1, 20]
00000000: 1d52 fa3c 1bff c33e 1a3e 713e 8c4c afbd
00000010: cfab 76be 3382 b6bb 32d6 75be 2525 ba3d
00000020: 8577 0f3d 2dd3 dcbd a7ef a33d c221 ee3d
00000030: 62d1 c8bd 6021 e23d 3396 963e 24fe 10be
00000040: 91b8 d43d 5ef8 fabd 88bb e33a a8f7 243e
0.030556733 0.38280568 0.23558846 -0.08559522 -0.24088977 -0.00556972 -0.2400749 0.09089116
0.035026092 -0.10782466 0.080046944 0.116275325 -0.098055616 0.11041522 0.29411468 -0.14159447
0.10386766 -0.122544035 0.0017374614 0.16110098

action_model._discrete_distribution.branches.0.bias f4 [4]
00000000: 482d 82bd 6e89 063d 6403 0dbc 2fe3 373d
-0.06356293 0.032845907 -0.008606765 0.044894394

action_model._discrete_distribution.branches.0.weight f4 [4, 20]
00000000: cb2f a83c d927 dcbd 9621 1fbd c602 103d
00000010: f449 0a3d db90 71bd 3d4f 86bc 147a 15bd
00000020: 4e2b a6bc 6f89 c93c 9b49 0ebd bcf7 fabc
00000030: 4e76 dcbd 9ff4 59bb 6cf9 72bd 7df3 57bc
00000040: 13be 2ebc 247d b2bd e4a3 733c a139 3dbd
00000050: 40a6 61bd 6fe8 51bc 4388 a0b9 9b6d 083d
00000060: fff7 423d 2375 8f3d 3850 063d dd87 9c3d
00000070: 1763 cd3b b450 7ebd 997b 8d3d 381c 153c
00000080: 9cb4 943d a816 99bd 7e71 6fbd 5480 00bd
00000090: a45d fcbc 4bc8 893d b953 8d3c 3eeb eebc
000000a0: 02cb 0ebc e49b 943d b997 433d 3e00 b1bc
000000b0: 72d4 63bd 20b0 33bc eb0d 1bbc 00b2 8b3d
000000c0: e72c 57bd 6cc5 81bc fda3 b13c b1a0 3c3d
000000d0: 94df 2f3c af5b 7a3d 611d a43d 2180 acbc
000000e0: 905a d53c dbd1 243c dbfc 07bc 48c8 ac3d
000000f0: 32dd c3bc 72a3 873c 7c45 cabb bd83 f3bb
00000100: 8eb7 10bd a724 af3b 122b 9b3c 20b4 37bd
00000110: 681b 283d 469d 143c dc7e dc3b f4b4 dcbb
00000120: 9d07 713d dff4 053d aa47 e0bb ac28 c13c
00000130: e6ac 813c cf94 103d dbb7 613d 4191 2a3d
0.020530602 -0.10749788 -0.03885039 0.035158895 0.033761933 -0.058976036 -0.016395206 -0.036493376
-0.020284321 0.024601666 -0.034738164 -0.030635707 -0.10764752 -0.0033257378 -0.0593199 -0.013180611
-0.010665434 -0.08715275 0.014870618 -0.046197537 -0.05509019 -0.012811764 -0.000306191 0.033307653
0.04759979 0.07004764 0.032791346 0.07643101 0.006267916 -0.062088683 0.0690834 0.009100966
0.07261011 -0.074750245 -0.058457844 -0.031372383 -0.03080637 0.06727656 0.017251836 -0.029164907
-0.008715393 0.07256296 0.047752116 -0.02160656 -0.055622526 -0.010967284 -0.0094637675 0.0682106
-0.052533057 -0.015841208 0.021684641 0.046051685 0.0107344575 0.061122593 0.08013416 -0.02105719
0.02604416 0.010059799 -0.008300032 0.08436638 -0.023909185 0.016557429 -0.006172834 -0.007431476
-0.0353313 0.0053449455 0.018941436 -0.044849515 0.04104176 0.0090707 0.00672899 -0.0067354385
0.05884515 0.03270423 -0.0068444805 0.023578964 0.015829515 0.035298165 0.05510698 0.04164243

action_model._discrete_distribution.branches.1.bias f4 [3]
00000000: 8136 653d 9534 b2bd 59a5 1d3d
0.055960182 -0.087014355 0.038487766

action_model._discrete_distribution.branches.1.weight f4 [3, 20]
00000000: 068f 8dbc 842d 01bc 0d13 53bb 6a8a c8bc
00000010: 2a90 083d 9d01 183c b9d9 573d de09 753c
00000020: 72ac cb3b 5cf8 2ebc a0ae 00bc c896 0dbc
00000030: 8678 df3c d452 38bc 4d10 7d3c 1b69 513c
00000040: d66c ae3c 0aea 023d dd3b c6bc 116a 51bd
00000050: be93 b9bc 4c15 60bd d8e9 153d cf1f bc3c
00000060: 87ce 19bd 8867 a7bc e5db 18bd c937 723d
00000070: e980 ea3c 2f8d e33c 33fa ed3a 7c9a 253d
00000080: 2a16 35bd 573c d4bc bde9 adbd c6c3 2e3b
00000090: 5076 b2bc 6cb2 a5bd 5996 1fbc cb7d ae3c
000000a0: bddd 363d e815 fc3d 7f57 01bd de0f 75bd
000000b0: f06a 2fbd 86e5 533b cb51 a73c 343b 0d3d
000000c0: 58cc 6ebc 999e fabc a619 31bd 3f91 11bd
000000d0: dad4 a23c 0f57 d53c 5c2e 973d 962e babc
000000e0: ea58 933c c65b 36bc ed5f 703d c74b a7bc
-0.017280113 -0.007884387 -0.00322074 -0.024480063 0.03334061 0.009277728 0.05269787 0.014955966
0.0062156254 -0.010679331 -0.007854134 -0.008641906 0.02727915 -0.0112502165 0.015445781 0.012781407
0.021292131 0.03196148 -0.024198467 -0.051126543 -0.022653457 -0.05470781 0.036599964 0.022964386
-0.037550475 -0.02043511 -0.037319083 0.059135232 0.028625922 0.027777283 0.001815623 0.04043053
-0.04421059 -0.025907679 -0.08491848 0.0026666983 -0.021784931 -0.08090672 -0.0097404355 0.021300217
0.04464506 0.12308866 -0.031577583 -0.059829585 -0.042826593 0.0032332852 0.020424744 0.03448029
-0.0145750865 -0.030593203 -0.04323735 -0.035538908 0.019876886 0.02604249 0.07381889 -0.022727292
0.017986733 -0.011130279 0.058685232 -0.020421876

discrete_action_output_shape f4 [1, 2]
00000000: 0000 8040 0000 4040
4.0 3.0

network_body._body_endoder.seq_layers.0.bias f4 [20]
00000000: 88fc 9dbd a61d 243e c0e9 923d 2b6c 67bb
00000010: 80db 0c3e faf2 833c e991 6e3e e96f 243d
00000020: 4855 9bbd 4119 3bbc 7fbf ea3c f7d8 603d
00000030: a694 e53d b07b 873b 0f8d 193e e31c f73d
00000040: 62b4 9eb9 d119 053e 4ed9 babd 381c ac3c
-0.07714182 0.16026935 0.071734905 -0.0035312276 0.13755608 0.016107071 0.23297848 0.04014579
-0.075846255 -0.011419595 0.028655766 0.054894414 0.11209993 0.0041346177 0.14995216 0.120660566
-0.00030270504 0.1299813 -0.09123479 0.02100955

network_body._body_endoder.seq_layers.0.weight f4 [20, 128]
00000000: 51b9 803e 1e7f e6bd 8c33 7a3c 66e7 6d3e
00000010: fde9 333e 6f1d 1bbe 11f5 a63d 35db 5abd
00000020: e66f 22be c48b 4b3e 4bf3 f63d 977c e2bd
00000030: 883c 0b3c ab85 cf3b 8a80 c03c e9d9 493e
00000040: cee7 cf3d 4bad c3bd ce6a fa3d 0ceb 443e
00000050: b908 e6bd 1775 103e 9c8c a33c 064f 363d
00000060: ea4c 92bd 65c1 debd e892 cebd 72b6 cbbc
00000070: f7f7 b5bd 9328 bcbd e5c2 d7bd 658d 61be
00000080: 0638 08be 795c ca3e cd78 5f3e 8d22 bebd
00000090: a5f1 99bd bac8 12bd 6077 38bd dc74 a8bc
000000a0: 086e 193d f32a 6ebd 5e97 89bd 591e 6f3e
000000b0: 59cb 7a3d 93da 523e 57bd f13c 0359 a0bd
000000c0: 4eff dc3d 31f1 1e3e 917c 16bd 1fa5 46bd
000000d0: 153d 6abb b1e8 63bc 1116 093d ef2d ef3b
000000e0: da0f 203e d42f e2bb 1e86 23be a253 44bc
000000f0: a8c3 a9bd 6609 29be af97 f4bc c9e7 d73d
00000100: 2544 5fbd 6831 95bc 503d 7c3d bdcf 5a3d
00000110: c201 363e 10e3 3fbd 44a2 853d 7083 35be
00000120: 87dd 7dbd e583 3dbe ee60 e2bd 69c9 af3d
00000130: 220e a8bd b3ec af3d 0910 26be 519f b93d
00000140: 1426 7fbd 69cb 023e d187 96bd b1b6 1fbe
00000150: 479d 85bd 9c50 7b3c 2800 c4bc 084e c83d
00000160: 1448 713e 766c 893d 2e2a 6fbe 5a7b 4fbe
00000170: 542f 5ebe 40a7 38bd a50b 83bd 7ab5 9ebd
00000180: 565c 42bd 71c5 563d b3cd c13d 6f1d aa3e
00000190: d531 d53d d995 16be 530c 23be 2c0a abbc
000001a0: b7b5 ed3c bdd7 0c3e d3a9 253d ee3d ebbd
000001b0: d985 50be 979b 6abd 3150 c13d 5415 0b3e
000001c0: 71be c83d b017 39be d86a 7ebd a6b8 96bc
000001d0: 9040 e5bd 3201 393e 791e f93d 9cc4 403d
000001e0: 2e88 1f3b f1b0 b13c 8b0c e13c b565 fdbd
000001f0: 6391 25be f5c4 2bbd 2358 833d 555c 00be
00000200: 9425 d9ba 5873 553d b04e 713e a72a 8e3e
00000210: 03d7 bd3c 466d 0a3e 4235 07be 3371 00bd
00000220: 7155 1a3e 973a ea3e 68e6 a2bd 44f5 1b3e
00000230: d563 b7be 657b 743d 44d7 28bd f46a c03e
00000240: 8162 5e3c 9402 4e3e 2772 b2be 8753 413d
00000250: 4d7f 143e c84e ef3e fa11 13be 27e9 ca3d
00000260: a25c 0bbf 8b73 f53d b8d2 af3e 19a9 923e
00000270: ec44 3bbd 3116 4d3d bd42 dbbe 329f 883d
00000280: 06cf 513e 9dc7 013f d909 033d ba35 323d
00000290: 2e99 9bbd 4cc0 27be f304 2c3e b900 4e3e
000002a0: a3d9 15bd c4ee 883e c1ee a6be 0e66 54bd
000002b0: 41f3 b63d dc8e a53e c3d3 a6bd 4f91 3e3e
000002c0: d56d b0be 6e69 56bd 304a 053e 1300 cc3e
000002d0: bd9d 143d eaf7 423e 9a2a 8fbe c734 863d
000002e0: 1284 663e 10ab d23e 87fb 7ebe fdfd 0e3d
000002f0: e4c2 a0be 1fe9 5bbd 112d 443e c014 c93e
00000300: 51c8 5cbd 82a9 6f3e 5214 5cbe cd48 70bd
00000310: 55ce 5e3e f002 f53d 432d 6bbd b80f 1b3e
00000320: 4776 f7be 3af9 d03d 15d3 6d3e a23e e43e
00000330: a693 2ebd 9307 c73d d1a6 87be bcdd d3bd
00000340: 5b4b ae3d 9f7c c23e 4ed4 25bb 173a 0c3d
00000350: d83d 83be dfe0 d1bc 2e5a 5f3e 2b14 a33e
00000360: ddae 6a3c df1f 633c 191c a7be 3a77 1cbb
00000370: c1cc 4b3e 6bb5 813e d993 98bd 9ea2 693c
00000380: 7d13 73be f9cd 7e3d 5118 043d cb4d 5c3e
00000390: d485 313c 238c 893d c762 adbe 68f2 eb3d
000003a0: 8105 94bc 79f4 9f3e 20c8 303e 49c5 383d
000003b0: f6a8 d7be 9398 633e 3a91 423e 5ecf 9c3e
000003c0: 4e55 96bd 9686 e23d 38ad 39be 5c32 ff3d
000003d0: f582 be3b 7569 9b3e 2a38 8ebd a156 ab3d
000003e0: 678f a0be e3d9 663d 59db f53d 89f5 27bc
000003f0: ac38 b0bc 8d10 863d 5998 893c 2b0a 86bd
0.25141385 -0.112547144 0.015271079 0.23232803 0.17569728 -0.15147947 0.081522115 -0.05343171
-0.15862998 0.19877535 0.12058123 -0.1105892 0.0084983185 0.006333073 0.023498792 0.19712032
0.10151635 -0.095545374 0.122274026 0.19230288 -0.112321325 0.14107166 0.019964509 0.044508956
-0.071435764 -0.10876731 -0.10086614 -0.02486727 -0.08885186 -0.091874264 -0.1053522 -0.22026594
-0.13302621 0.39523676 0.21823426 -0.09283934 -0.07516793 -0.03583596 -0.04503572 -0.020563535
0.03745845 -0.05814643 -0.06718324 0.2335142 0.061229084 0.20591192 0.02950923 -0.07829478
0.10790883 0.15521695 -0.03673989 -0.048497315 -0.0035741974 -0.013910458 0.03346831 0.007299177
0.15631047 -0.006902674 -0.1596913 -0.01198283 -0.082892716 -0.16507491 -0.029857485 0.105422564
-0.054508347 -0.018212035 0.06158191 0.05342077 0.17774108 -0.046847403 0.0652509 -0.1772592
-0.061978843 -0.18507345 -0.11053644 0.08583338 -0.082058206 0.08590069 -0.16217054 0.0906359
-0.062292174 0.12772907 -0.07350124 -0.15597035 -0.06524139 0.015339043 -0.023925856 0.09780508
0.23562652 0.067101404 -0.23355934 -0.20261899 -0.21697742 -0.045081377 -0.063987054 -0.07749458
-0.04745134 0.05243439 0.09463062 0.3322558 0.10409895 -0.147056 -0.1592267 -0.020878874
0.029017312 0.13754173 0.04044516 -0.114864215 -0.20363559 -0.05727729 0.094391234 0.13582355
0.09801949 -0.18075442 -0.062113613 -0.018398594 -0.11193955 0.18066862 0.12164015 0.0470625
0.0024342644 0.021690818 0.027471801 -0.12372915 -0.16168742 -0.04193588 0.06413295 -0.12535222
-0.0016566985 0.052111953 0.23565173 0.27766916 0.023173815 0.13518247 -0.1320391 -0.031357955
0.15071656 0.45747826 -0.07954103 0.1523028 -0.35818353 0.05968799 -0.04122092 0.375816
0.01357329 0.20118171 -0.34852716 0.0471988 0.14501686 0.46739793 -0.14362326 0.099077515
-0.5443822 0.11984929 0.34340453 0.28644636 -0.045720026 0.05006999 -0.42824355 0.06670989
0.2048913 0.5069521 0.031991813 0.04350827 -0.07597576 -0.16381949 0.16798763 0.20117463
-0.036584508 0.26744664 -0.3260403 -0.05185514 0.08933116 0.32335556 -0.08145859 0.18610118
-0.34458795 -0.05234664 0.13016582 0.39843807 0.036283243 0.19039884 -0.2796219 0.06553035
0.22511318 0.41146135 -0.24900638 0.03491019 -0.3139869 -0.05368912 0.19157816 0.39273643
-0.053901974 0.23404506 -0.21492127 -0.05866318 0.21758397 0.11963451 -0.05741621 0.15142715
-0.48332426 0.10203786 0.23225053 0.44579035 -0.042621277 0.097182415 -0.26494458 -0.10345027
0.08510467 0.37985703 -0.0025303545 0.034235086 -0.2563312 -0.025619922 0.21811745 0.31851324
0.014323917 0.013862579 -0.32638624 -0.0023874776 0.19902326 0.25333723 -0.07450075 0.014259962
-0.23737903 0.06220815 0.032249752 0.2151405 0.01083513 0.06716182 -0.33864424 0.11520845
-0.01806903 0.31241205 0.17263842 0.04511002 -0.42121094 0.22226171 0.19000712 0.3062696
-0.07340489 0.110608265 -0.18132484 0.12460777 0.005813951 0.30353895 -0.06944306 0.083661325
-0.31359407 0.056360137 0.12004728 -0.010251411 -0.021511398 0.065461256 0.016796278 -0.06544908
