config/ppo/results/RayShoot0610_92만번/Shooting.onnx (onnx, 15002 bytes, 9 tensors)

action_model._discrete_distribution.branches.0.bias f4 [6]
0	0xbd6d466c	-0.057928488
1	0x3d53df28	0.05172649
2	0xbd6c92f6	-0.05775734
3	0x3dca8f9a	0.09890671
4	0x3d8ba559	0.06818647
5	0x3c03d775	0.008046974

action_model._discrete_distribution.branches.0.weight f4 [6, 20]
0	0x3e290a80	0.16507912
1	0x3da5676e	0.08076368
2	0x3ef4808c	0.47754323
3	0xbeda5a0f	-0.42646834
4	0xbdeefb7e	-0.11669062
5	0xbe0420b1	-0.12903096
6	0xbec48dfa	-0.3838957
7	0xbd376fef	-0.044784483
8	0x3e059ecd	0.13048859
9	0xbe0ed404	-0.13948065
10	0x3c27c8fd	0.01024079
11	0xbe8df70a	-0.27727538
12	0x3e40fdf9	0.18846883
13	0x3d23f035	0.040024
14	0x3eb3de1a	0.35130388
15	0x3ea2ebb6	0.31820458
16	0xbd10a56c	-0.03531401
17	0x3e2e9c02	0.170517
18	0xbe8d221f	-0.27565095
19	0x3eb2205a	0.34790307
20	0xbcc878f4	-0.024471737
21	0xbd5183a7	-0.051150944
22	0xbe1d44fb	-0.15358345
23	0x3e26b62b	0.16280429
24	0x3e45c5af	0.19313692
25	0x3d0a9694	0.03383501
26	0x3dee3cf5	0.116327204
27	0x3c384718	0.011247419
28	0xbd742a9f	-0.05961096
29	0x3a60ff64	0.0008582978
30	0xbd000819	-0.031257723
31	0x3dc13832	0.094345465
32	0xbe1a1daa	-0.15050378
33	0x3c39b25d	0.011334029
34	0x3cbb0741	0.022830607
35	0xbd76f741	-0.060294393
36	0x3d1d6d22	0.038434155
37	0xbbeea7ea	-0.0072832005
38	0xbd2f9869	-0.04286996
39	0xbe264b76	-0.16239724
40	0xbd5890ac	-0.052872345
41	0x3d8876b8	0.06663269
42	0xbe162f1a	-0.14666405
43	0x3d7e4652	0.06207878
44	0x3cb4184e	0.021984246
45	0x3cb8a2e2	0.022538606
46	0x3dfa95e3	0.1223562
47	0xbbf655e9	-0.0075175655
48	0xbb189a1a	-0.002328521
49	0x3e0c9a2a	0.13730684
50	0xbcfba169	-0.030716615
51	0x3de4fbc6	0.111808345
52	0x3d623f77	0.055236306
53	0x3d64cb59	0.05585799
54	0xbddeaaf1	-0.10872448
55	0xbe2dd9fa	-0.16977683
56	0xbd56ea80	-0.05246973
57	0xbde74df1	-0.11294163
58	0x3e03a6af	0.12856553
59	0xbd1ec42a	-0.038761295
60	0xbd289c9b	-0.041164976
61	0xbd2b655f	-0.041844722
62	0x3d6e8bf2	0.05823893
63	0x3e0d7f4d	0.13818093
64	0xbc6c753f	-0.0144322505
65	0xbcf54371	-0.029939385
66	0x3dd7c36a	0.10535319
67	0x3af9c694	0.0019056373
68	0x3d9f6084	0.07782081
69	0x3d46bfa6	0.048522614
70	0xbd9c1ee7	-0.07623082
71	0x3db88b10	0.09010899
72	0xbe0bac42	-0.1363993
73	0x3dbe7174	0.09298983
74	0x3d529d6e	0.051419668
75	0xbd86c2a2	-0.06580092
76	0x3d4a38e1	0.04937065
77	0x3c7b5eb0	0.0153423995
78	0x3c41db90	0.011832133
79	0xbde8cb62	-0.11366917
80	0x3d290463	0.04126395
81	0x3ce1395f	0.027493177
82	0xbdada7bc	-0.084792584
83	0x3e06ef8a	0.13177314
84	0x3e11005e	0.14160296
85	0x3d5013d1	0.05080015
86	0x3e31b902	0.17355731
87	0xbd29e339	-0.041476462
88	0xbd54a06f	-0.051910814
89	0x3e2a49ef	0.16629766
90	0x3de230c0	0.110444546
91	0x3e3f361c	0.18672985
92	0x3c926fa9	0.01787551
93	0x3d298070	0.041382253
94	0xbe29bc67	-0.16575776
95	0xbe0f015b	-0.13965361
96	0xbd309530	-0.043111026
97	0xbb3e4d72	-0.002903786
98	0x3dfa41d9	0.12219591
99	0xbcbc6a61	-0.022999944
100	0xbdac90ff	-0.08426093
101	0xbd132409	-0.035923038
102	0xbdd0d375	-0.10196582
103	0x3d6fabd8	0.058513492
104	0xbdcbaa2b	-0.09944566
105	0x3d86a078	0.06573576
106	0xbd0e23d3	-0.034702133
107	0x3c0dd7a7	0.008657373
108	0xbd9c4000	-0.076293945
109	0xbe367e95	-0.17821725
110	0xbca720a5	-0.020401308
111	0x3d9781f7	0.07397836
112	0x3d0550b7	0.03254768
113	0xbe739613	-0.23787718
114	0xbd800475	-0.0625085
115	0x3d615346	0.055011056
116	0x3dd51d47	0.10405975
117	0x3d9b2f1e	0.07577346
118	0x3c9ca4a7	0.019121481
119	0xbdf3df0d	-0.11907778

action_model._discrete_distribution.branches.1.bias f4 [4]
0	0xbc938da7	-0.018011881
1	0xbdc3dc70	-0.095635295
2	0x3d308cbc	0.043102965
3	0x3d477c68	0.048702627

action_model._discrete_distribution.branches.1.weight f4 [4, 20]
0	0x3d6af3af	0.0573613
1	0x3dbe2ff9	0.09286494
2	0x3e8f4b5b	0.2798718
3	0xbeb3d6ee	-0.35124916
4	0x3dc4fc1f	0.09618401
5	0xbdd5c822	-0.10438563
6	0xbe045016	-0.12921175
7	0xbe0e63a1	-0.13905193
8	0x3db73ef8	0.08947557
9	0xbe0efba1	-0.13963176
10	0xbb23699c	-0.0024934774
11	0xbed17896	-0.40912312
12	0x3cdd0cd5	0.026983658
13	0x3afe767c	0.0019413973
14	0x3e633dd4	0.22191554
15	0x3e52d669	0.20589603
16	0x3cc292a3	0.023751562
17	0x3ddb5e96	0.107114
18	0xbe00756e	-0.12544796
19	0x3e61aaa4	0.2203775
20	0xbef995ad	-0.48747006
21	0xbee08d95	-0.4385802
22	0xbe6649a9	-0.22489037
23	0x3eb52fb1	0.35387948
24	0xbdbab218	-0.09116
25	0xbeac6deb	-0.3367761
26	0x3e95d14a	0.29261237
27	0x3e081362	0.13288644
28	0x3e716d1d	0.2357678
29	0x3e559c0e	0.20860311
30	0xbeebbda4	-0.46043122
31	0x3d759ea1	0.059965733
32	0xbece5482	-0.4029885
33	0x3e6474fb	0.2231025
34	0x3d072750	0.032996476
35	0xbf1315de	-0.5745524
36	0x3eb21448	0.34781098
37	0x3e07aa13	0.13248472
38	0x3a246db6	0.0006272452
39	0xbf2d1058	-0.67603064
40	0x3e76fc92	0.24119785
41	0x3eb14851	0.34625486
42	0xbf062e4c	-0.52414393
43	0x3e9462fb	0.28981766
44	0xbda0f96a	-0.07860072
45	0x3e5b684b	0.21426503
46	0x3e058b03	0.1304131
47	0x3ddca331	0.10773314
48	0xbec02693	-0.3752943
49	0x3e193829	0.1496283
50	0x3eb8760e	0.3602757
51	0x3ef4e7e1	0.4783316
52	0x3e53e005	0.20690925
53	0xbe61beb3	-0.22045402
54	0xbf10cb51	-0.56560236
55	0xbda3762a	-0.079815224
56	0xbec84dbc	-0.39121807
57	0xbf019743	-0.5062143
58	0x3e885d3b	0.2663363
59	0xbb8f8620	-0.0043800026
60	0x3daaeae1	0.08345581
61	0xbd138a31	-0.03602046
62	0x3e489311	0.19587351
63	0xbe828bc3	-0.25497255
64	0x3dcf0125	0.1010764
65	0x3da0022e	0.07812916
66	0xbe7b834c	-0.24561805
67	0xbda698e5	-0.08134631
68	0x3d1ddf53	0.038543057
69	0xbe3a9a88	-0.18223011
70	0x3c9b546e	0.018961158
71	0xbe7741e1	-0.24146225
72	0x3dc3b72f	0.09556424
73	0x3d182cdf	0.037152167
74	0x3e097717	0.13424335
75	0x3e52bbb5	0.20579417
76	0xbc10b0aa	-0.0088311825
77	0x3d4808e4	0.048836604
78	0xbd4dbcf4	-0.050229028
79	0x3e27b274	0.16376668

action_model._discrete_distribution.branches.2.bias f4 [3]
0	0x3e00b1a7	0.12567769
1	0xbd2caea3	-0.042158734
2	0xbce811c3	-0.028328782

action_model._discrete_distribution.branches.2.weight f4 [3, 20]
0	0xbbd2120f	-0.006410844
1	0x3e04b92c	0.12961262
2	0x3d5eea11	0.054422442
3	0xbd5a6d63	-0.053326976
4	0x3cdbc7c0	0.026828647
5	0x3c00b66d	0.007855994
6	0xbc7c59d5	-0.015402277
7	0x3cc2a746	0.023761403
8	0xbd70610c	-0.0586863
9	0x3e294546	0.16530332
10	0x3d5fbde3	0.05462445
11	0xbe216ccb	-0.15764157
12	0x3dfe18bc	0.124070615
13	0x3db06ffd	0.0861511
14	0x3d67be10	0.056577742
15	0x3d4a9ff4	0.04946895
16	0xbda19f07	-0.0789166
17	0xbdb49df9	-0.088191934
18	0x3e037530	0.12837672
19	0x3d53bb01	0.051692013
20	0x3ac0a61a	0.001469794
21	0x3d25212d	0.040314842
22	0x3d095f43	0.033538114
23	0x3d232341	0.039828543
24	0xbbbbbd65	-0.0057293647
25	0x3d65cae3	0.05610169
26	0x3df5ea6a	0.120076016
27	0xbd7859ab	-0.06063239
28	0x3dbcc124	0.09216526
29	0x3a29f761	0.00064837007
30	0xbd0bd356	-0.034137093
31	0x3d87ab04	0.066244155
32	0x3c38e1b9	0.011284285
33	0xbc562716	-0.013070842
34	0xbd1ec6f8	-0.03876397
35	0x3d62bfd5	0.055358727
36	0x3dd9346b	0.10605701
37	0x3de74216	0.11291902
38	0xbe037236	-0.12836537
39	0x3cb7286d	0.022358144
40	0xbd34c425	-0.04413237
41	0xbe40967b	-0.18807404
42	0x3d2c7ec3	0.042113077
43	0x3d16005c	0.036621436
44	0x3d3ba8d5	0.045815308
45	0x3cf1b2dc	0.029504232
46	0xbd035425	-0.03206267
47	0x3e2c794f	0.1684315
48	0xbba52cb4	-0.0050407294
49	0xbde9cadb	-0.11415645
50	0xbd01fc12	-0.031734534
51	0x3d5e27d9	0.05423722
52	0xbd25194e	-0.040307336
53	0xbd26d74d	-0.04073267
54	0x3ca26997	0.01982574
55	0xbcc599f8	-0.02412127
56	0x3cec9a90	0.028882295
57	0x3cb5e8d2	0.022205744
58	0x3d94d8e0	0.07267928
59	0x3d9d40d6	0.07678382

discrete_action_output_shape f4 [1, 3]
0	0x40c00000	6.0
1	0x40800000	4.0
2	0x40400000	3.0

network_body._body_endoder.seq_layers.0.bias f4 [20]
0	0x3e4ce36d	0.20008631
1	0x3e1521e7	0.14563714
2	0x3d297c0f	0.041378077
3	0x3e092447	0.13392745
4	0x3dbe3988	0.09288317
5	0x3e1538bc	0.14572424
6	0x3de05486	0.109536216
7	0x3bac9f8a	0.005268042
8	0xbd077eba	-0.03307984
9	0x3cb0afdf	0.021568237
10	0x3e550302	0.20801929
11	0x3dfba0d3	0.12286534
12	0x3e22d1aa	0.15900293
13	0x3d7acfd8	0.06123337
14	0x3d90cae7	0.070699506
15	0x3e1ed5e3	0.15511279
16	0xbcde3cbf	-0.027128575
17	0x3bad1fc6	0.0052833287
18	0x3e08f308	0.13373959
19	0x3e29b98f	0.16574691

network_body._body_endoder.seq_layers.0.weight f4 [20, 128]
0	0x3f30291f	0.68812746
1	0x3cac6086	0.02104212
2	0xbdfb16f9	-0.12260241
3	0x3f1c0109	0.6093908
4	0x3d3514fb	0.04420946
5	0x3b309f65	0.0026950475
6	0x3cfc7956	0.030819576
7	0xbdeac2f2	-0.11462964
8	0x3e1df55a	0.15425625
9	0x3f01bc91	0.50678355
10	0x3c0a07c2	0.008424701
11	0x3dc60451	0.09668792
12	0xbed91e39	-0.4240587
13	0xbddd13a8	-0.10794765
14	0x3cbb03ef	0.022829024
15	0x3efa652e	0.4890532
16	0xbbe1f88c	-0.006896084
17	0x3d84cdcc	0.06484565
18	0xbeefbd31	-0.4682403
19	0xbdcba378	-0.099432886
20	0x3e1329e5	0.1437145
21	0x3f119517	0.5686812
22	0xbc4f2c0d	-0.01264478
23	0x3e1db9ff	0.15402983
24	0xbef683f5	-0.4814755
25	0xbe24f27f	-0.1610813
26	0xbde12f6b	-0.109953724
27	0x3f1992eb	0.59989804
28	0xbe2f2aba	-0.17106143
29	0x3e8c8986	0.27448672
30	0xbf115f39	-0.56785923
31	0xbeb829e1	-0.3596945
32	0xbd296865	-0.041359324
33	0x3ed3eb6c	0.4139055
34	0xbda58124	-0.08081272
35	0xbc188db3	-0.0093111275
36	0xbeebd39d	-0.46059886
37	0xbe66de17	-0.22545658
38	0x3d9f5d9f	0.07781529
39	0x3e9d1ea3	0.30687436
40	0xbe0c2549	-0.13686098
41	0x3de67074	0.112519175
42	0xbef77185	-0.48328796
43	0xbef43d59	-0.47703055
44	0x3e315c7b	0.17320435
45	0x3ee905c7	0.4551222
46	0xbc7e7696	-0.015531203
47	0x3d8e95cb	0.069621645
48	0xbc222d08	-0.009898432
49	0xbe24d565	-0.16097029
50	0x3dacf116	0.08444421
51	0x3e946ce6	0.28989333
52	0xbe80988b	-0.2511638
53	0x3d96fce0	0.07372451
54	0xbe061a9a	-0.13096085
55	0x3ab2c5b9	0.0013639248
56	0x3e00e854	0.12588626
57	0x3eee38b2	0.4652763
58	0xbccbfee6	-0.024901818
59	0x3d6c0e16	0.05763062
60	0xbe961eec	-0.29320467
61	0xbd291d60	-0.04128778
62	0xbda3b67a	-0.07993789
63	0x3e7ac1f3	0.24488048
64	0xbcab9194	-0.02094344
65	0x3e254ce7	0.16142617
66	0xbddba2cd	-0.10724411
67	0xbd916819	-0.07099933
68	0x3de9432a	0.11389764
69	0x3ddaa18b	0.10675343
70	0xbb194efa	-0.002339302
71	0x3dee7814	0.11643997
72	0xbdf64bbd	-0.12026165
73	0xbccb5a55	-0.024823347
74	0x3dd1f37e	0.102515206
75	0x3d65920e	0.05604749
76	0xbc96df70	-0.01841709
77	0x3e2ea197	0.17053829
78	0xbe31d341	-0.17365743
79	0xbdeec59f	-0.11658787
80	0xbb914c0f	-0.0044341157
81	0x3e2f13a4	0.17097336
82	0x3e3e8f0b	0.18609254
83	0xbc995179	-0.018715607
84	0xbdc827d6	-0.09773223
85	0xbe501386	-0.20319948
86	0xbdbf902f	-0.09353673
87	0x3e41449e	0.18873832
88	0xbdc34884	-0.09535316
89	0x3bf0b011	0.0073452075
90	0xbe763926	-0.24045238
91	0xbe028a06	-0.12747964
92	0x3c97f975	0.018551568
93	0x3e1b1338	0.1514405
94	0xbd5334db	-0.05156408
95	0x3cb879a7	0.022518946
96	0xbebd1310	-0.36928606
97	0xbe0bf20c	-0.13666552
98	0x3e2e9588	0.17049229
99	0x3d625baf	0.055263218
100	0x3d0c7546	0.03429153
101	0xbd280371	-0.041018907
102	0xbe3d2b24	-0.18473488
103	0xbd96caf8	-0.07362932
104	0x3de6df9b	0.11273118
105	0x3d9ab3da	0.07553835
106	0x3d8a2456	0.06745212
107	0x3ce12dd1	0.027487667
108	0xbe12ae25	-0.14324243
109	0xbd1aaba6	-0.037761353
110	0x3e6228ee	0.22085926
111	0x3e7336e7	0.23751412
112	0x3d405c97	0.0469633
113	0x3dd31c96	0.10308187
114	0xbdc650d9	-0.09683389
115	0xbd083a21	-0.03325856
116	0x3c940409	0.01806833
117	0x3f099a6e	0.53751266
118	0xbd92ccd8	-0.07167977
119	0x3d519b7b	0.05117367
120	0xbe8e769c	-0.27824867
121	0xbdabc35d	-0.08386872
122	0x3d0483ce	0.03235226
123	0x3d2fa3f2	0.04288096
124	0x3d4309e2	0.047616847
125	0x3dbc69ff	0.09199905
126	0xbd8c1cc6	-0.068414256
127	0x3f43d23f	0.76492685
128	0x3f0d6b71	0.5524207
129	0xbe53bb58	-0.20676935
130	0xbd90d567	-0.07071953
131	0x3edc0f7b	0.4298056
132	0x3dd6f88a	0.10496624
133	0x3d20348d	0.039112616
134	0xbe76a34b	-0.24085729
135	0x3dce43ba	0.100715116
136	0x3d504242	0.05084444
137	0x3ef644c0	0.48099327
138	0x3e081bce	0.13291857
139	0xbdaf49c5	-0.08558992
140	0xbe93903e	-0.28820986
141	0xba8bf02e	-0.0010676438
142	0x3db8fb21	0.09032274
143	0x3ed44878	0.4146154
144	0x3e8a21aa	0.2697881
145	0x3e75b6ae	0.23995468
146	0xbed8d4ee	-0.42349952
147	0x3d03fa9a	0.032221414
148	0x3d29e353	0.04147656
149	0x3f0b923e	0.5452002
150	0xbd203b6a	-0.03911916
151	0x3d4887ef	0.04895776
152	0xbea4409b	-0.3208054
153	0xbe43583d	-0.19076629
154	0x3c933dd7	0.017973823
155	0x3f38a915	0.72133
156	0xbd50e04a	-0.05099515
157	0x3e11f40b	0.14253251
158	0xbe6ca825	-0.23111017
159	0xbdc810eb	-0.09768852
160	0xbe184654	-0.14870578
161	0x3ee67e16	0.4501807
162	0x3d58ec8e	0.05295997
163	0x3e82d9a0	0.2555666
164	0xbf12d430	-0.5735502
165	0xbddc6f09	-0.10763366
166	0x3bd3f621	0.00646855
167	0x3f219c2a	0.6312891
168	0x3d82c90f	0.06386005
169	0x3d6a81e4	0.05725278
170	0xbf008607	-0.5020451
171	0xbe07e933	-0.13272552
172	0xbd84ea6b	-0.06490024
173	0x3ed5c661	0.41752914
174	0x3d869d1f	0.06572937
175	0x3d3c1dde	0.04592692
176	0xbdfc4ee9	-0.123197384
177	0x3c8fa02d	0.017532432
178	0xbe1ea196	-0.15491328
179	0x3e3978e3	0.18112521
180	0x3b1bf127	0.002379486
181	0x3c5ecfca	0.013599345
182	0xbdfbc96d	-0.12294278
183	0xbe162b08	-0.14664853
184	0x3e20a23b	0.15686886
185	0x3e681eff	0.22668074
186	0x3c8cf47c	0.017206423
187	0x3e93a874	0.28839457
188	0xbe9487e5	-0.2900993
189	0xbe94326c	-0.2894472
190	0xbce33e71	-0.027739735
191	0x3e4e7c71	0.20164658
192	0x3cb262d8	0.021775648
193	0x3e5e0ca9	0.21684517
194	0xbe7bedce	-0.24602434
195	0xbe8faa8b	-0.280598
196	0xbe5acb62	-0.21366647
197	0x3e030e0d	0.12798329
198	0xbdbd2b00	-0.09236717
199	0x3da344d1	0.0797211
200	0xbdb0eb0c	-0.08638582
201	0xbeac25c9	-0.33622578
202	0xbdb99d2c	-0.09063181
203	0x3e89f07c	0.26941288
204	0xbd3efc3d	-0.046627272
205	0x3ea3ce0b	0.31993136
206	0xbe7a4d6f	-0.24443601
207	0xbda7c163	-0.081911825
208	0xbe1ce994	-0.15323478
209	0x3e886d49	0.26645878
210	0xbe4f29c4	-0.20230776
211	0x3dd4fb8e	0.10399543
212	0xbe4737f1	-0.19454934
213	0xbe24577f	-0.16049002
214	0x3db84a4b	0.08998545
215	0x3e195c99	0.1497673
216	0xbe5a208a	-0.21301475
217	0x3cddb3c4	0.027063258
218	0xbec029ac	-0.37531793
219	0xbd12324c	-0.035692498
220	0xbe15c0d4	-0.1462434
221	0x3e8f882b	0.28033575
222	0xbe59673c	-0.21230787
223	0x3c4c644f	0.012475087
224	0xbee52ccf	-0.4476075
225	0x3db82ca2	0.08992888
226	0xbd551058	-0.05201754
227	0x3e007d0c	0.12547702
228	0x3dc52d84	0.09627822
229	0x3d66873e	0.05628132
230	0xbe6a1010	-0.2285769
231	0xbc0a0c02	-0.008425714
232	0x3d013cea	0.031552233
233	0x3d76df55	0.06027158
234	0x3c2c897b	0.010530825
235	0x3e240f2f	0.16021417
236	0xbead93f3	-0.3390194
237	0xbc6c0f5b	-0.014407958
238	0xbbd8382e	-0.006598494
239	0x3da2b16b	0.07943996
240	0x3d634e4a	0.055494584
241	0x3cea7bc7	0.028623475
242	0xbe8e43ca	-0.27786094
243	0xbe5c66c3	-0.21523575
244	0x3d0b4b6f	0.034007486
245	0x3ed97d3a	0.42478353
246	0xbe226ba4	-0.15861374
247	0x3dbc714c	0.09201297
248	0xbf0b916e	-0.54518783
249	0xbe72304d	-0.23651238
250	0xbc841c46	-0.016126763
251	0x3b37a7be	0.0028023566
252	0xbd9f2912	-0.077715054
253	0x3d551913	0.052025866
254	0xbdcf33cb	-0.101173006
255	0x3e69b72b	0.2282378
