config/ppo/results/RayShoot0608_표준편차아주큼/Shooting/Shooting-499998.onnx (onnx, 13527 bytes, 7 tensors)

action_model._discrete_distribution.branches.0.bias f4 [3]
00000000: d7b2 973d 9f47 29bd 9b48 e0bc
0.07407158 -0.04132807 -0.027378371

action_model._discrete_distribution.branches.0.weight f4 [3, 20]
00000000: 5343 9f3e 9f0c 8f3d 45bf 26be d4ad 2abe
00000010: 2da1 113e b8b1 a73c fba5 013e 20f0 0f3e
00000020: d440 84bd a580 01bd 7e21 26be cb6a f7bc
00000030: 0ed4 bcbc ffa2 bdbd b2ab 263e 468d 7fbd
00000040: 288d 29bd 28b9 b3bd 373b e33d a963 473e
00000050: e252 1bbe f500 843d 7f4c 39bd c133 1f3c
00000060: ec1e 2fbd 152b b43c 2450 82bd 4095 9cbd
00000070: cbbc 7abc 4de5 e53c 63a5 583d 6665 093d
00000080: 3697 b8bc f7a1 1ebd 2da0 a8bd 2fd6 81bc
00000090: 54f6 e4bc 22a8 aebd ef22 18be e214 22be
000000a0: d711 90bd 2681 3fbe 421c 203e 678a 063e
000000b0: a994 5abe 95b1 7cbd db11 1fbd 6541 7cbd
000000c0: d1d6 b13d 76b5 1e3d c13c b43d cc7f 283c
000000d0: 75f7 a83d 68ee 0d3e bc22 fcbd 78f9 e53d
000000e0: 3524 533d 1724 b63d e487 413d 0d6c dbbc
0.31106052 0.06984829 -0.16283901 -0.16667873 0.1422164 0.020470485 0.12660973 0.14056444
-0.064576775 -0.031616826 -0.16223714 -0.03020229 -0.023050334 -0.09259605 0.16276434 -0.06239059
-0.041394383 -0.0877555 0.11095279 0.19471611 -0.15168336 0.06445495 -0.045238968 0.009716929
-0.0427541 0.0219932 -0.06362942 -0.07645655 -0.015303801 0.02806344 0.0528921 0.033543967
-0.02253304 -0.03872868 -0.08233676 -0.015849201 -0.02794949 -0.085281625 -0.14857076 -0.15828279
-0.07034653 -0.1870161 0.1563578 0.13138734 -0.21345772 -0.061692793 -0.038835388 -0.061585803
0.08683551 0.038747273 0.088006504 0.010284375 0.08250324 0.13860476 -0.123113126 0.11229223
0.0515482 0.08893602 0.047248736 -0.026784921

action_model._discrete_distribution.branches.1.bias f4 [3]
00000000: 13a8 e73c b369 90bd 1100 2f3d
0.028278386 -0.070514105 0.042724673

action_model._discrete_distribution.branches.1.weight f4 [3, 20]
00000000: ca16 b53e 85dd 063e d621 92be 0122 dbbe
00000010: aa0d 9d3e 00f9 05bc aa38 413d bd7e 323e
00000020: 058f 65be 4074 94be 23ee 94be 325d bbbd
00000030: 6c15 b1be 8c65 a9be 7410 1c3e 6503 17be
00000040: 9179 efbd 674e 8ebe fd5e 153e ef9d a53e
00000050: cde9 02be 083b 90bd 9bf6 bfbd e336 c13e
00000060: 4525 d23d 6420 13bf f047 aabe 44fa 013e
00000070: ed7c 9b3e bb3f 923e 7c32 c73e 5aa9 87be
00000080: b6d7 d83e 155a ed3d bb0e 6b3e 0430 31be
00000090: bdcb b2bc f52c c23e bc1f 0fbf d382 20be
000000a0: c981 7ebe bae2 45bd dd00 c13e 68a8 d9bc
000000b0: e22e babe 5e1a fc3e af65 723e 283e 93be
000000c0: 0a50 19be b759 79bc 60f9 28be eea0 b03e
000000d0: fa96 19be e45e da3d 13d3 c0be 7e8b 863e
000000e0: 7898 273e a6ea 51be 119d ac3e ccd8 7abe
0.3536895 0.1317044 -0.2854144 -0.4279938 0.30674487 -0.008177042 0.04717318 0.1743116
-0.22417839 -0.28994942 -0.29087934 -0.09148635 -0.34586656 -0.33085287 0.15240651 -0.14747389
-0.11693109 -0.2779419 0.14587016 0.32347056 -0.127845 -0.07042509 -0.09373208 0.37737188
0.10261015 -0.574713 -0.3325801 0.12693125 0.30368748 0.28564247 0.38905704 -0.26496392
0.42352074 0.115894474 0.22954838 -0.17303473 -0.021825666 0.37924924 -0.559078 -0.15674905
-0.24854197 -0.048311926 0.3769597 -0.02656956 -0.36363894 0.49238867 0.23671602 -0.2875836
-0.14971939 -0.015219144 -0.16501379 0.3449778 -0.14998999 0.1066263 -0.37661037 0.262783
0.16366756 -0.20499668 0.33713582 -0.24496764

discrete_action_output_shape f4 [1, 2]
00000000: 0000 4040 0000 4040
3.0 3.0

network_body._body_endoder.seq_layers.0.bias f4 [20]
00000000: 3d59 5c3e 86b4 163e 6007 383e 79ee da3d
00000010: ca29 203e 370a 553e 84fd 133e a3b6 f93d
00000020: 1702 873d 0347 033e 1b78 8f3d 7985 4d3e
00000030: 7b9c 813d 010b 073e bcb3 f03d 218a 473e
00000040: 3db6 6d3d ab9f c23d b9c3 a03e c99e 3c3e
0.21518417 0.14717302 0.17971563 0.10690016 0.15640941 0.20804678 0.14452177 0.12193038
0.065921955 0.12820058 0.0700533 0.20070447 0.063286744 0.13187791 0.117530316 0.19486286
0.058035124 0.095031105 0.31399325 0.18419947

network_body._body_endoder.seq_layers.0.weight f4 [20, 128]
00000000: 0c76 4d3f c4e3 13bd f491 9abc 0a1b e53e
00000010: 6ab9 44bd 435a 16bd 1003 343f 229e 2dbd
00000020: 55c9 e9bb 20fe 3c3e 1a5a c3bd 49dd 0a3d
00000030: e5c3 b93e bf08 95bb babd 12bd 1f11 103e
00000040: c5a8 ab3d 6d69 1e3d f2e1 a23e e87e 8f3d
00000050: df76 6c3e e058 e3bc f87a bfbd ca22 653e
00000060: 5974 cb3c 5c6c 8dbd 3bda 5d3e caea cfbd
00000070: 5988 193e a76c 123e 02f5 11be 5a81 5cbe
00000080: 58ef 1f3d 19b5 04be 5fe2 c0bd 1cea cd3d
00000090: c28a 0fbe 6d74 0a3e fa7a 2d3c dd89 03be
000000a0: cc61 84bd 68b0 1a3e 65a2 22be e4c7 093d
000000b0: 7dea be3d 3077 2fbe 070a 75be d13d 5c3e
000000c0: c720 883c b095 e63b 2e8e 6e3e e4f0 3bbe
000000d0: abf8 6ebe c882 2e3e 123d c2bc a7ea f1bc
000000e0: 2621 ec3d 8036 8ebd 0e54 12be a09d 243e
000000f0: 5eb7 bd3d 7d2c 793d f4fa cd3c 7884 89be
00000100: 008a 923d 4cb7 283e 1e46 c23d 47a8 adbb
00000110: a976 863e 6e86 1ebe a7f6 f13d c057 a23d
00000120: 220b eabc ed77 0dbd 7ed6 ef3d 39fe edbd
00000130: 59e5 1f3e b055 053e 887a e43c 5f49 f6bc
00000140: 2008 533d 040a dabd c07e 9fbd 4e16 503e
00000150: 4699 45bd e2b9 133e b99a ce3d 10b2 d0bd
00000160: 6fad 29be 85b3 8a3e b674 d7bd 8805 8b3e
00000170: 076a 713e 1dfc e3bd 3901 d13d 40d8 8d3e
00000180: 8e65 76bd 27a4 4d3e 5548 ce3d 413c 84bd
00000190: f370 84be 750f e23d 4190 263c d4f3 923d
000001a0: c2c8 8c3d c5fe 6dbe 2967 55bd 2c6b d83d
000001b0: 1709 93be 3a3a 18bd 6883 083d 6a6b 8ebd
000001c0: c1e9 a03b 3ab8 293e a783 edbd a296 9f3c
000001d0: 129c 9d3e 0394 70be 1c5d 063e fea4 1c3e
000001e0: 0519 943d 3061 f5bd 5412 353e f48f a23d
000001f0: c776 473c 2b85 94bc 7e9b 4bbe d067 8c3f
00000200: 06db 0e3f c22c 0cbe 7fd6 023d 93a1 423e
00000210: 5c09 3dbe 654b ca3d c7d0 6a3e 697c c3bd
00000220: c8f1 d63d 52bd 4fbc 840e d8bd f1b4 6e3e
00000230: 5c15 cb3d 5f52 05be 01b8 4c3e 16e7 84bd
00000240: c7ef 473b 1900 7a3e 671d 90bd 4915 e03d
00000250: 94c9 083d 2581 55be aefe 02bd 3a47 9f3d
00000260: 6d2d b33d 7aa2 2bbd 128d 13be 6ff8 df3b
00000270: c7bd 003e 703d 183c bafe dabd 0c49 0e3d
00000280: 973f f23d ad0a 37be e11c e83d 0dd9 443e
00000290: 112e 953d 4871 ea3d d53d 0c3e eb35 7abd
000002a0: de2c 2f3d fa77 083e 398d 37be 9b6a a23d
000002b0: bb5b 27be b9c0 34bd e3e6 893d f74d 23bd
000002c0: 077f 61be 705f 993c dddb 773c cc24 11be
000002d0: e9af 9fbd 5d11 a33d 39f1 e1bd 8989 c33c
000002e0: 7dff 673d 2f97 01be 04c4 39bd 81b8 8d3c
000002f0: 3688 36be 5ad6 3bbd fb39 983d 147e b33d
00000300: b03f 89bd 60f5 043e 6a18 90be cb45 f4b9
00000310: eac8 043d bc68 c23d 3fc2 7dbd 0a2a a33d
00000320: 7635 99be dd25 a73c 29df 88ba 6ad2 fabd
00000330: f302 98bc 30ec 453e 2565 40be 2563 993c
00000340: 2907 b13c 18a4 a03b f39e 353d dc10 c9bd
00000350: 8ba8 f0bd 46f2 cf3d fd05 c53d 2c0e 03be
00000360: b7b4 2f3d 4e2a 813c 93fc 41be 0b0a 90bc
00000370: a336 b63d 9ef4 29bd 037d a23d 9174 14bd
00000380: f259 9fbd 00c3 643d b8c9 ab3d 5b0b 77be
00000390: e5b1 c2bd 9d5d cb3d baa1 10be c3fd 0e3d
000003a0: b513 343e fe85 143e eb05 c33d f9b0 7c3c
000003b0: c865 babd a971 59bc 7388 0e3e ac6a 34be
000003c0: 15ee 8abb 886b 20bc 4732 d2bd f630 143d
000003d0: 6898 1a3e 2c61 633d bac5 04bc bf6b 123e
000003e0: b947 01be 576a a23c 1bec 613d c45b 99bd
000003f0: eabe 0cbe b3a5 583d bfc3 203e 7748 b83e
0.8025825 -0.036105886 -0.018868424 0.44747192 -0.048028387 -0.036707174 0.70317173 -0.042387135
-0.0071345964 0.18456316 -0.0953867 0.03390244 0.36282268 -0.0045481618 -0.03582547 0.14069031
0.083817996 0.03867476 0.31813008 0.07006627 0.2309222 -0.02775234 -0.09349626 0.22376552
0.024835752 -0.069054335 0.2166528 -0.10152204 0.14993419 0.1429926 -0.1425362 -0.21533719
0.039046615 -0.12959708 -0.09418177 0.100544184 -0.14017776 0.13520975 0.010588402 -0.1284556
-0.06463966 0.15106356 -0.15882261 0.033637896 0.09322069 -0.1713531 -0.23929606 0.21507956
0.016617192 0.007036887 0.23296425 -0.18353611 -0.23337047 0.17042077 -0.023710761 -0.029530836
0.1152976 -0.06943989 -0.14289877 0.16075754 0.0926349 0.060833443 0.025144078 -0.26858878
0.07155228 0.16476172 0.0948603 -0.0052996012 0.26262406 -0.15480968 0.11814623 0.07926893
-0.028569762 -0.0345382 0.11710833 -0.11620755 0.15614833 0.13020968 0.027890459 -0.030064283
0.05152142 -0.106464416 -0.077878475 0.20321009 -0.048241876 0.14426377 0.10088105 -0.10190213
-0.16570066 0.27090088 -0.10520308 0.27152658 0.23575602 -0.11132071 0.10205311 0.27704048
-0.060155444 0.2008215 0.1007239 -0.06456805 -0.25867423 0.110381044 0.010166229 0.07175413
0.06874229 -0.23241718 -0.052100334 0.105673164 -0.28717873 -0.037164904 0.033328444 -0.06954081
0.004910678 0.16574183 -0.11597376 0.019481007 0.30783135 -0.23493962 0.13121456 0.15297315
0.072313346 -0.11981428 0.17682773 0.07937613 0.012174315 -0.018129906 -0.19883534 1.0969181
0.55802953 -0.13688949 0.03194284 0.19006948 -0.18460602 0.098776616 0.22931205 -0.09545214
0.10495335 -0.012679415 -0.10549644 0.23311211 0.09916183 -0.13019703 0.19992067 -0.06489389
0.0030507909 0.244141 -0.07036858 0.1094156 0.033395365 -0.20850046 -0.031981163 0.07777257
0.08748899 -0.041902997 -0.14409283 0.0068350355 0.12572394 0.009291992 -0.106931165 0.03473763
0.11828535 -0.17875166 0.11333633 0.19223423 0.07284177 0.11447388 0.13695462 -0.061086576
0.042767398 0.13327017 -0.17924966 0.0793049 -0.16343586 -0.044129107 0.06733491 -0.039869275
-0.22021113 0.018722266 0.015128103 -0.14174193 -0.07797224 0.07962296 -0.11032338 0.023869293
0.056640137 -0.12655328 -0.04535295 0.017299892 -0.17825398 -0.04585872 0.07432934 0.08764282
-0.067016006 0.12984228 -0.28143626 -0.00046591306 0.03241817 0.09492633 -0.061952826 0.07967003
-0.299236 0.020403797 -0.0010442483 -0.122471645 -0.018556094 0.1932838 -0.18788584 0.018724034
0.02160986 0.004902374 0.04434104 -0.09817669 -0.11750897 0.10153632 0.09620283 -0.12798375
0.042896952 0.015767243 -0.18944006 -0.017582914 0.0889714 -0.04149305 0.07934 -0.03624398
-0.077808276 0.05585003 0.08388084 -0.24125426 -0.09506587 0.09929965 -0.14124194 0.034909975
0.17585643 0.14504239 0.09522613 0.015423053 -0.091014445 -0.013271728 0.13919239 -0.17618817
-0.0042398074 -0.009791262 -0.10263496 0.036179505 0.15097201 0.055512592 -0.008103782 0.14298914
-0.12625016 0.019826097 0.05515681 -0.07488206 -0.13744703 0.052892398 0.15699671 0.35992786
