config/ppo/results/RayShoot0610_357만번/Shooting/Shooting-3499998.pt (torch, 80967 bytes, 34 tensors)

discrete_act_size_vector f4 [1, 3]
0	0x40c00000	6.0
1	0x40800000	4.0
2	0x40400000	3.0

network_body._body_endoder.seq_layers.0.weight f4 [20, 128]
0	0xbf007ce0	-0.50190544
1	0x3d8be197	0.06830137
2	0x3e9f78af	0.31146762
3	0x3e14b974	0.1452387
4	0x3d09f88d	0.033684302
5	0xbdccff9b	-0.100096904
6	0xbf14ed25	-0.58174354
7	0x3e10d907	0.1414529
8	0x3eb29369	0.3487809
9	0x3d79f7db	0.06102739
10	0x3e415edc	0.18883842
11	0x3d6ae884	0.05735065
12	0xbf2c6e59	-0.6735588
13	0xbe8d8c0f	-0.2764592
14	0x3e5c8adc	0.21537346
15	0x3e0197d1	0.1265557
16	0x3e13268b	0.14370172
17	0x3bb3feca	0.0054930197
18	0xbf1fd90a	-0.6244055
19	0xbe41e277	-0.18934046
20	0x3eb45ff8	0.35229468
21	0x3f59c3a3	0.8506414
22	0x3eaab514	0.33341277
23	0xbce649e5	-0.028111408
24	0xbf1f3041	-0.62183005
25	0xbdfd17e1	-0.1235807
26	0x3e8848a8	0.26617932
27	0x3f830146	1.0234764
28	0xbb24e28d	-0.002515945
29	0xbe8b2442	-0.271761
30	0xbf07219e	-0.5278567
31	0x3dad874b	0.08473071
32	0x3e839ad8	0.25704074
33	0x3f80cc58	1.0062361
34	0x3c5e5349	0.013569661
35	0xbe9f7195	-0.31141344
36	0xbe9e09d2	-0.30866867
37	0xbd83d6e6	-0.06437473
38	0x3ec531dc	0.38514602
39	0x3f8146dd	1.0099751
40	0x3d99af8a	0.075041845
41	0xbe3e7280	-0.18598366
42	0xbf523c4f	-0.82123274
43	0x3e03ed16	0.1288341
44	0x3eb26483	0.3484231
45	0x3f327020	0.6970234
46	0x3d833b9d	0.06407855
47	0xbda1bf2e	-0.07897793
48	0xbf6e7180	-0.9314194
49	0x3c3b441f	0.011429816
50	0x3edf73b8	0.43642974
51	0x3f4a1c27	0.7894921
52	0xbe03f8d4	-0.12887889
53	0xbd42b39d	-0.047534574
54	0xbf5f8964	-0.87319016
55	0x3d37afc7	0.04484537
56	0x3ed85b56	0.42257184
57	0x3edb034a	0.42775947
58	0xbe60a3db	-0.21937506
59	0xbdcfe405	-0.10150913
60	0xbf3c53a6	-0.7356514
61	0x3dcf3e10	0.10119259
62	0x3ed25463	0.41080007
63	0x3ec5d01d	0.3863534
64	0x3d245935	0.040124137
65	0x3dadd9c3	0.084888004
66	0xbf508aa6	-0.8146156
67	0xbd58c87d	-0.052925576
68	0x3ef92f59	0.48668936
69	0x3ebd073b	0.3691958
70	0x3dcce14d	0.1000391
71	0xbe129c2f	-0.14317392
72	0xbf2d6a35	-0.67740184
73	0x3e2088cc	0.15677184
74	0x3ed768b8	0.42072082
75	0x3efb4b12	0.49080712
76	0x3dd9b797	0.1063072
77	0x3da56ee5	0.08077792
78	0xbf3e9c6e	-0.7445744
79	0xbcbaac79	-0.02278732
80	0x3ee2ecf4	0.44321406
81	0x3edcac59	0.4310024
82	0xba873f59	-0.0010318562
83	0xbd326219	-0.043550584
84	0xbf1d9c0c	-0.61566234
85	0x3ddbfca4	0.10741547
86	0x3e96ace1	0.2942877
87	0x3e86489a	0.26227266
88	0x3dd139d2	0.102161065
89	0x3cf290e8	0.029610112
90	0xbf0a3307	-0.5398411
91	0x3d9b8718	0.075941265
92	0x3e8c3ddf	0.27390954
93	0x3f1d4a0a	0.614411
94	0x3e029a27	0.12754117
95	0x3d8b8010	0.06811535
96	0xbf6db8bd	-0.92860013
97	0x3cb93137	0.022606475
98	0x3e784eab	0.2424876
99	0x3ef3820b	0.47560152
100	0xbe32c1c7	-0.17456733
101	0x3dba2c97	0.09090536
102	0xbf83e4c2	-1.0304186
103	0xbde5d166	-0.1122158
104	0x3e473dcf	0.19457172
105	0x3e9b07e2	0.30279452
106	0xbe57b34a	-0.21064487
107	0x3e0b001a	0.13574257
108	0xbf4aabf1	-0.7916861
109	0x3d9d6448	0.07685143
110	0x3db1bd0a	0.086786345
111	0x3f17bfb9	0.5927692
112	0xbd1cab91	-0.038249556
113	0x3ba486eb	0.0050209663
114	0xbf6bb8c9	-0.92078835
115	0x3d72e793	0.059302878
116	0xbdaa245e	-0.08307718
117	0x3f4358b7	0.76307243
118	0xbcabebcd	-0.020986462
119	0x3d0a2c57	0.033733692
120	0xbf9046b3	-1.1271576
121	0x3be49b8a	0.0069765495
122	0xbd83f262	-0.06442715
123	0xbcb38cf9	-0.021917807
124	0xbcf7f906	-0.03027011
125	0x3cf50f78	0.029914603
126	0xbc838469	-0.016054349
127	0xbeb39b88	-0.35079598
128	0xbb355067	-0.0027666332
129	0xbe365467	-0.17805634
130	0x3d9c1d20	0.07622743
131	0xbef6b856	-0.48187512
132	0xbdf41983	-0.119189285
133	0x3da397b1	0.07987917
134	0x3eb087d6	0.34478635
135	0xbd7844bf	-0.060612436
136	0x3e0f3393	0.13984518
137	0xbf2f477d	-0.6846846
138	0xbe89a081	-0.26880267
139	0x3e949790	0.29021883
140	0x3eaaa309	0.3332751
141	0x3e841d96	0.25803822
142	0xbdaa25e0	-0.08308005
143	0xbf058887	-0.5216145
144	0xbe948c3d	-0.29013243
145	0x3e0b9143	0.13629632
146	0x3ede88d2	0.4346376
147	0x3e38300a	0.17987075
148	0x3baf916e	0.0053579127
149	0xbf3a507b	-0.72779053
150	0xbea6441e	-0.32473844
151	0x3dce5f9d	0.100768305
152	0x3f55c00d	0.8349617
153	0x3db32ac3	0.087483905
154	0xbd245e9f	-0.0401293
155	0xbf297e9e	-0.6620883
156	0xbcd1b631	-0.025599571
157	0x3ecb2149	0.39673832
158	0x3f248f14	0.6428082
159	0xbd4aa801	-0.049476627
160	0x3d8260ca	0.06366117
161	0xbf3e93ec	-0.7444446
162	0x3c445ca3	0.011984977
163	0x3e77edbd	0.24211784
164	0x3f48a69c	0.78379226
165	0xbe47f609	-0.19527449
166	0xbe73cdb8	-0.23808944
167	0xbf07be6b	-0.5302493
168	0x3cb1ebb8	0.021718845
169	0x3e99a40a	0.30007964
170	0x3f2634a0	0.6492405
171	0xbe7b053c	-0.24513716
172	0xbe559af1	-0.20859887
173	0xbf47f6e2	-0.7811109
174	0xbdb1993c	-0.08671805
175	0x3e538bc3	0.20658784
176	0x3f4e010f	0.80470365
177	0xbe0e305f	-0.1388564
178	0xbedae57c	-0.42753208
179	0xbf66763b	-0.90024155
180	0x3d5feec0	0.05467105
181	0x3ebc6405	0.3679506
182	0x3f45c416	0.7725233
183	0xbda0c5d6	-0.07850234
184	0xbe6a8e0d	-0.2290575
185	0xbf04c858	-0.518682
186	0x3e0e5196	0.1389831
187	0x3e7324c9	0.23744501
188	0x3f2ea71e	0.6822375
189	0xbd9ac310	-0.075567365
190	0xbe5686b1	-0.20949818
191	0xbef0159d	-0.4689149
192	0xbdd88dc0	-0.10573912
193	0x3e22f339	0.15913095
194	0x3f0b0c0f	0.54315275
195	0x3cf10e6a	0.029425818
196	0xbe07f953	-0.13278703
197	0xbf08b5b1	-0.5340224
198	0xbc3494b9	-0.011021786
199	0x3e97f90c	0.29682195
200	0x3f24f079	0.6442943
201	0xbe5aa1fc	-0.21350855
202	0x3d0815ae	0.0332238
203	0xbedca81a	-0.43097
204	0xbd5b3ef6	-0.05352684
205	0x3d9123c3	0.07086899
206	0x3f602550	0.87556934
207	0xbec6f4e6	-0.38858718
208	0x3d63abab	0.055583637
209	0xbf4f4070	-0.809577
210	0xbda98836	-0.08277933
211	0x3e0d7e04	0.13817602
212	0x3f166437	0.58746666
213	0xbe15aeec	-0.14617509
214	0xbe34af9f	-0.17645119
215	0xbf040684	-0.5157244
216	0xbe60c6a1	-0.21950771
217	0x3cd20248	0.025635853
218	0x3f079424	0.5296042
219	0x3d81e541	0.06342555
220	0x3d6fdfa4	0.05856289
221	0xbf23f0d2	-0.6403934
222	0xbdd45f01	-0.10369683
223	0x3e648f0a	0.2232019
224	0x3f2dd5c5	0.6790431
225	0xbe3f726c	-0.18695992
226	0xbbe161ed	-0.0068781287
227	0xbf25f5ae	-0.64828
228	0xbdbefd7c	-0.09325692
229	0x3dcc1050	0.09964049
230	0x3f0da430	0.55328655
231	0x3c606896	0.01369681
232	0x3d86aebe	0.06576298
233	0xbf16ae7a	-0.5885998
234	0xbe36a12b	-0.17834918
235	0x3e2a773d	0.16647048
236	0x3ed06539	0.40702227
237	0xbdec280f	-0.11531078
238	0x3e632cd5	0.22185071
239	0xbf42b41a	-0.76056063
240	0xbe4c4509	-0.1994821
241	0xbdf4a861	-0.11946178
242	0x3f0eb10b	0.55738896
243	0xbe477660	-0.1947875
244	0x3e8377f1	0.25677446
245	0xbf845716	-1.0339077
246	0x3dec3443	0.11533406
247	0xbd1a60cf	-0.03768998
248	0x3f43bee2	0.7646314
249	0xbc8bcdcc	-0.017065905
250	0x3eba789c	0.36420143
251	0xbb7c51f1	-0.003850099
252	0xbc98234b	-0.018571516
253	0xbc22993c	-0.009924229
254	0x3ddfd9b7	0.10930198
255	0xbda5ede5	-0.081020154

network_body._body_endoder.seq_layers.0.bias f4 [20]
0	0x3e573253	0.21015291
1	0x3e081d9e	0.13292548
2	0x3e96c0b6	0.29443902
3	0xbd9bcdca	-0.076076105
4	0x3dc84974	0.09779635
5	0xbdbf30e7	-0.09335499
6	0x3d18153e	0.037129633
7	0x3e00430c	0.12525576
8	0x3e38fc56	0.18065009
9	0xbcfb1d4b	-0.030653616
10	0xbdb070f5	-0.08615295
11	0x3dd18e90	0.1023227
12	0xbd10e1ef	-0.035371717
13	0x3d1d61d4	0.038423374
14	0x3ccabdfd	0.024748797
15	0xbd12d914	-0.035851553
16	0x3d2108a1	0.03931487
17	0x3e8cfa92	0.2753492
18	0xbe6dac33	-0.2321022
19	0x3e09dcd3	0.13463144

action_model._discrete_distribution.branches.0.weight f4 [6, 20]
0	0xbde1ecc9	-0.11031491
1	0xbe507361	-0.20356514
2	0xbe48e0f1	-0.19617058
3	0x3ef5e3d2	0.48025376
4	0x3eb9e47f	0.3630714
5	0x3da9a287	0.08282953
6	0x3f290e67	0.660376
7	0xbe9eb6c2	-0.30998808
8	0xbde37b55	-0.11107508
9	0x3ea59844	0.32342732
10	0x3e66ed07	0.22551356
11	0xbda612aa	-0.08109029
12	0x3d2ef363	0.04271258
13	0x3ed0ff06	0.40819567
14	0x3eee2df3	0.4651943
15	0x3edec44e	0.43509144
16	0x3e7b092b	0.24515216
17	0xbee6975e	-0.4503736
18	0xbcbb56fa	-0.022868622
19	0x3e0ec2f3	0.13941555
20	0x3dfb7fdd	0.12280247
21	0x3d9e1663	0.07719114
22	0x3e081556	0.13289389
23	0x3d132fd3	0.03593428
24	0x3bf8367d	0.007574855
25	0xbe296363	-0.1654182
26	0xbd8b550d	-0.068033315
27	0x3e9c6f53	0.30553684
28	0xbc1f55de	-0.009725062
29	0x3de312e2	0.11087586
30	0xbe9a86d6	-0.30180997
31	0x3db586f1	0.08863629
32	0xbc2b3225	-0.010448967
33	0xbda6f4cb	-0.08152159
34	0xbdffc61b	-0.124889575
35	0xbe387140	-0.18011951
36	0x3d55be42	0.052183397
37	0x3e236b71	0.15958954
38	0x3cd07c09	0.02544977
39	0x3e1240e7	0.14282571
40	0x3da98704	0.08277705
41	0x3e1cc980	0.15311241
42	0x3e5557aa	0.20834222
43	0x3cc5cd63	0.024145788
44	0xbe7b07c5	-0.24514683
45	0xbdffade4	-0.12484339
46	0x3d257d2f	0.040402588
47	0x3dc4b9bb	0.09605738
48	0x3e2d11a4	0.1690126
49	0x3d755d49	0.059903417
50	0xbea4242f	-0.32058856
51	0x3d8d4a8a	0.06898983
52	0xbe249b7b	-0.16074936
53	0x3d8caf03	0.06869318
54	0xbe5c1256	-0.2149137
55	0x3c4fb082	0.01267636
56	0x3db1d7c3	0.086837314
57	0x3e4a5ffb	0.19763176
58	0xbe5b1faa	-0.21398798
59	0x3e1d7f1d	0.15380521
60	0x3d9e0020	0.077148676
61	0xbd8d751e	-0.06907104
62	0x3e85c8f0	0.26129866
63	0x3cc276eb	0.023738345
64	0xbd3cf9b8	-0.046136588
65	0xbaf8d863	-0.0018985387
66	0xbdd5cf1d	-0.10439894
67	0x3d2009e8	0.039071947
68	0x3c8e5cc9	0.017378228
69	0xbd0833b0	-0.033252418
70	0xbbe688ac	-0.0070353355
71	0x3dafcab5	0.08583585
72	0x3d6d3c7a	0.057919003
73	0xba57ce19	-0.000823231
74	0xbe46cbec	-0.19413728
75	0xbe30dda5	-0.1727205
76	0xbd92ea57	-0.07173603
77	0x3d99ff13	0.07519355
78	0x3d1f825f	0.03894269
79	0x3d1cf04e	0.03831511
80	0x3d9713f0	0.0737685
81	0x3e7ec70f	0.24880622
82	0x3dd778ef	0.10521113
83	0x3d51b307	0.051196124
84	0x3e21833d	0.1577272
85	0x3dfcead6	0.12349479
86	0xbe4d2d41	-0.20036794
87	0x3e7c65de	0.24648234
88	0x3e2cd965	0.16879804
89	0xbd4ddab0	-0.050257385
90	0xbe0c3ebb	-0.13695805
91	0x3e247c1d	0.1606297
92	0x3ea87119	0.32898787
93	0xbd7429f9	-0.05961034
94	0xbdecea3d	-0.11568115
95	0xbd898813	-0.06715407
96	0x3d4bc8c4	0.049752012
97	0x3e7eaa7e	0.24869725
98	0xbe44a2fb	-0.19202797
99	0x3d41e27d	0.047335137
100	0x3e3efc7a	0.18651
101	0x3c3ba3be	0.011452613
102	0xbe8bf004	-0.27331555
103	0xbe844457	-0.2583339
104	0x3d1b3371	0.037890855
105	0x3e8968b3	0.26837692
106	0x3d6cc0c7	0.057801034
107	0xbd6e456e	-0.058171682
108	0x3e051a6b	0.12998359
109	0xbea454db	-0.3209599
110	0x3eff1aa6	0.4982502
111	0x3e175c0f	0.14781211
112	0xbdc67663	-0.09690549
113	0xbe18f9a7	-0.14938985
114	0xbdc8f0c2	-0.09811546
115	0x3e94bc4f	0.29049918
116	0x3d6e3cd3	0.058163475
117	0x3e396f65	0.181089
118	0x3e9004de	0.28128713
119	0xbe8a98f2	-0.27069813

action_model._discrete_distribution.branches.0.bias f4 [6]
0	0x3cd69add	0.026196891
1	0x3e595c6e	0.21226665
2	0x3e170843	0.14749245
3	0x3c9efb29	0.019406872
4	0x3d88525e	0.06656335
5	0xbde37a26	-0.11107282

action_model._discrete_distribution.branches.1.weight f4 [4, 20]
0	0xbdd4021e	-0.10351966
1	0xbbb018ee	-0.0053740656
2	0xbcc05901	-0.02347994
3	0x3ed0f60d	0.40812722
4	0xbd43fb9d	-0.04784738
5	0xbe32c447	-0.17457686
6	0x3eb2feb8	0.3495996
7	0xbda42fe5	-0.08016948
8	0x3d896e12	0.06710447
9	0x3e0c0817	0.13674961
10	0xbe00ff43	-0.12597375
11	0xbd9c36c5	-0.07627634
12	0x3d6290ee	0.055313997
13	0x3e785ce7	0.2425419
14	0xbd4336d6	-0.047659718
15	0x3e846511	0.25858358
16	0x3d7e9e93	0.062162947
17	0xbeb73fe2	-0.35790926
18	0xbd3083c0	-0.043094397
19	0x3cd842c7	0.02639903
20	0xbf5a73b7	-0.85332817
21	0x3efea07a	0.4973181
22	0x3e67cf0f	0.2263758
23	0xbf1abbf9	-0.60443074
24	0xbf112d05	-0.5670932
25	0x3e94d4cf	0.2906861
26	0xbe2743a2	-0.16334394
27	0x3e651518	0.22371328
28	0x3f0a8763	0.54112834
29	0x3dd5e2da	0.10443659
30	0x3eb5faf0	0.35543013
31	0x3ecaf49e	0.39639753
32	0x3e5f56ae	0.2181041
33	0xbf26c48c	-0.65143657
34	0xbefe7c26	-0.49704093
35	0xbec373df	-0.3817434
36	0xbf3ee863	-0.74573344
37	0x3ec8e0a6	0.39233893
38	0xbdd3a323	-0.1033385
39	0xbf18e464	-0.59723496
40	0x3f4c096a	0.79701865
41	0xbf58ba55	-0.8465932
42	0x3da1b983	0.07896712
43	0xbebb6060	-0.36596966
44	0x3eb5bfa5	0.35497776
45	0x3e2a221d	0.16614576
46	0xbf5c5547	-0.8606762
47	0xbe8bc24f	-0.27296683
48	0xbf5eb9b7	-0.8700213
49	0xbd87ec76	-0.06636898
50	0xbe2ae1b6	-0.16687664
51	0xbf323f55	-0.69627887
52	0x3d8620c4	0.06549218
53	0x3da63127	0.08114844
54	0x3edd64ef	0.4324107
55	0xbef43273	-0.4769474
56	0x3ec91a52	0.39277893
57	0x3e4c9f32	0.19982603
58	0xbd61687a	-0.055031277
59	0x3eb26fa8	0.34850812
60	0x3d8e2ffe	0.069427475
61	0x3d2d5d9e	0.04232561
62	0xbdb4cbde	-0.08827947
63	0x3e9a33d3	0.30117664
64	0x3de71af8	0.11284441
65	0xbcc58274	-0.024110056
66	0x3ecfa6bd	0.405569
67	0x3dacaaa7	0.08430987
68	0x3dbf56fb	0.09342762
69	0xbd30026c	-0.04297106
70	0x39f5e0d1	0.00046897543
71	0x3e35851b	0.17726557
72	0xbdea50a7	-0.114411645
73	0x3dda6975	0.106646456
74	0x3c8373bc	0.016046397
75	0x3e944119	0.28955916
76	0x3e06e745	0.1317416
77	0xbe157f46	-0.14599332
78	0x3e2757a5	0.16342027
79	0x3de403f5	0.11133567

action_model._discrete_distribution.branches.1.bias f4 [4]
0	0x3cb75d7f	0.02238345
1	0xbcd7a315	-0.02632288
2	0x3d5ad3e5	0.053424735
3	0x3c84acce	0.016195681

action_model._discrete_distribution.branches.2.weight f4 [3, 20]
0	0x3e258bf9	0.16166677
1	0xbd1e0519	-0.03857908
2	0xbc1cddb9	-0.009574347
3	0x3d873493	0.066018246
4	0x3e67653f	0.22597216
5	0x3d8f6aec	0.070028156
6	0x3dde9edd	0.108701445
7	0x3d9b31ca	0.07577856
8	0xbdc095dc	-0.094035834
9	0xbc2c4cbb	-0.010516341
10	0xbb0f8ed6	-0.0021905205
11	0xbd81d66d	-0.063397266
12	0xbe8d3f2a	-0.27587253
13	0x3c8175ff	0.015803335
14	0x3db1c049	0.086792536
15	0x3e0e1d24	0.13878304
16	0x3e005e2e	0.12535927
17	0x3de36846	0.11103873
18	0xbb0a398b	-0.0021091427
19	0x3e1a312e	0.15057823
20	0x3ce6a0b3	0.0281528
21	0xbd18aa36	-0.0372717
22	0xbd4cb2cb	-0.049975198
23	0x3d560064	0.052246466
24	0xbdabaa44	-0.08382085
25	0xbdc757d2	-0.09733547
26	0x3d173d8d	0.036923934
27	0xbdc6a8c8	-0.09700161
28	0x3cf59a45	0.029980788
29	0x3bb0156b	0.005373647
30	0x3d34c966	0.04413738
31	0x3d5f5143	0.054520857
32	0x3e2ed6af	0.17074083
33	0x3cb24503	0.021761423
34	0xbcb10157	-0.021607084
35	0x3d95eb40	0.07320261
36	0x3c23bacd	0.009993267
37	0xbdeb26e6	-0.11482029
38	0x3dc895cd	0.09794197
39	0x3d219677	0.039450135
40	0x3ca858d2	0.020550165
41	0x3e2a9c7c	0.16661257
42	0x3dd869cd	0.10567055
43	0x3db39ce8	0.08770162
44	0x3d47817f	0.04870748
45	0x3d61357c	0.054982647
46	0x3d85285a	0.06501837
47	0x3cb3d4dd	0.021952087
48	0x3e35a95e	0.1774039
49	0x3dd9d54c	0.10636386
50	0x3d7a9832	0.0611803
51	0x3e18ea13	0.14933042
52	0x3dbf3df6	0.0933799
53	0x3e5889e8	0.21146357
54	0x3d3377f3	0.043815564
55	0xbc87496d	-0.016514504
56	0x3d24f2df	0.040270682
57	0x3d869a7e	0.06572436
58	0xbd8c9984	-0.06865218
59	0xbd8754a8	-0.06607944

action_model._discrete_distribution.branches.2.bias f4 [3]
0	0x3d7a4590	0.061101496
1	0xbb057010	-0.0020360984
2	0x3da1048d	0.07862196

exp_avg f4 [20, 128]
0	0x3a063b5b	0.0005120539
1	0xb9089cca	-0.00013028379
2	0xb89b3808	-7.4014126e-05
3	0x3a0759a4	0.0005163199
4	0xb90a9f49	-0.00013220044
5	0xb89c5772	-7.4549476e-05
6	0x3a063b5b	0.0005120539
7	0xb8f7c79a	-0.000118150565
8	0xb879e549	-5.9579765e-05
9	0x3a0759a4	0.0005163199
10	0xb919cac6	-0.00014666756
11	0xb8bad990	-8.909695e-05
12	0xb7a1e3ab	-1.9298712e-05
13	0xb7d6e586	-2.5617668e-05
14	0x3933b695	0.00017138787
15	0x3a069c15	0.00051349524
16	0xb6c201fd	-5.781882e-06
17	0xb81c4cee	-3.7264945e-05
18	0x3807badb	3.236053e-05
19	0xb7bfd6a8	-2.2868931e-05
20	0x39443fc8	0.00018715777
21	0x3a069c15	0.00051349524
22	0x37aa5f5a	2.030998e-05
23	0xb9536761	-0.0002016104
24	0xb68f23e0	-4.2659085e-06
25	0xb8f0860e	-0.000114690614
26	0x38a5a701	7.89892e-05
27	0x3a069cc8	0.00051350566
28	0xb8b2f3c8	-8.533109e-05
29	0xb972fec7	-0.0002317383
30	0xb68f23e0	-4.2659085e-06
31	0xb9000344	-0.00012208248
32	0x38bf57c9	9.123941e-05
33	0x114e5652	1.6277134e-28
34	0xb7bd7d87	-2.2589009e-05
35	0xb9066835	-0.00012818056
36	0xb68f23e0	-4.2659085e-06
37	0x378b22ea	1.658635e-05
38	0x396d5c71	0.00022636518
39	0x930b4ba6	-1.7581564e-27
40	0xb8c3577b	-9.314619e-05
41	0xb9b3d92a	-0.0003430334
42	0x17106829	4.666038e-25
43	0x37963026	1.7903814e-05
44	0x394b6ff3	0.00019401293
45	0x923629f4	-5.7480785e-28
46	0xb85d3616	-5.2740877e-05
47	0xb9b9c768	-0.0003543452
48	0x17106829	4.666038e-25
49	0x379630aa	1.7904054e-05
50	0x38138285	3.5169087e-05
51	0x11b3d77f	2.837403e-28
52	0xb8f4cbaf	-0.00011672766
53	0xb98e3fc0	-0.00027131848
54	0x17106829	4.666038e-25
55	0x383ef768	4.5529945e-05
56	0x3881d666	6.191134e-05
57	0x00000004	6e-45
58	0xb9604b00	-0.00021390244
59	0xb98cd250	-0.00026859576
60	0x17106836	4.666044e-25
61	0x383eef5e	4.5522458e-05
62	0x3932ca76	0.00017050825
63	0x00000004	6e-45
64	0xb8aa0116	-8.106434e-05
65	0xb95ed954	-0.00021252531
66	0x00000004	6e-45
67	0x381cd931	3.7395574e-05
68	0x394efbb2	0.00019739455
69	0x000000a5	2.31e-43
70	0x38658d92	5.4729702e-05
71	0x383a8c9a	4.44768e-05
72	0x98d2d159	-5.4495115e-24
73	0x385eca74	5.3117474e-05
74	0x39836922	0.00025064597
75	0x000000a5	2.31e-43
76	0xb8b94787	-8.8348104e-05
77	0xb8139096	-3.5182187e-05
78	0x98d2d159	-5.4495115e-24
79	0xb701787b	-7.717051e-06
80	0x399a2ee3	0.00029408102
81	0x126d21d2	7.48257e-28
82	0x3961387c	0.00021478714
83	0x3926134b	0.00015838181
84	0x191691d1	7.784266e-24
85	0xb82ba68f	-4.0924697e-05
86	0x39c3eb8b	0.00037368792
87	0x1209adc3	4.3443755e-28
88	0x392f895a	0.00016740468
89	0x39379b3e	0.00017510072
90	0x98d2d159	-5.4495115e-24
91	0xb81db41e	-3.7599464e-05
92	0x39ff7fe9	0.0004873269
93	0x121a2e10	4.865061e-28
94	0x399cac35	0.00029882943
95	0x39965cf0	0.00028679473
96	0x98e30b8c	-5.8689784e-24
97	0xb81db32d	-3.7598587e-05
98	0x3a1b3176	0.0005920151
99	0x11acd61e	2.7268775e-28
100	0x399d0965	0.00029952373
101	0x393f6d0e	0.00018255805
102	0x9984176b	-1.3657939e-23
103	0x35ef7e6e	1.7843684e-06
104	0x3a3c3bc0	0.00071805343
105	0x8000061b	-2.19e-42
106	0x39c1b98f	0.0003695008
107	0x38efdd82	0.00011437667
108	0x999ac636	-1.6003284e-23
109	0x39a86a3b	0.00032122605
110	0x3a510c0e	0.00079745136
111	0x8000061b	-2.19e-42
112	0x395b9b15	0.0002094324
113	0xb8b57aae	-8.6536034e-05
114	0x999ac636	-1.6003284e-23
115	0x39c21e09	0.0003702494
116	0x3a4e5a41	0.0007871725
117	0x0f9ad540	1.5267713e-29
118	0x3967e535	0.00022115263
119	0xb8aa98bc	-8.134681e-05
120	0x994c23b2	-1.05537614e-23
121	0x39bd1e90	0.0003607166
122	0x3a5014e1	0.00079376815
123	0x3c75de03	0.015006545
124	0xba61be6b	-0.00086114433
125	0x38c473d4	9.367583e-05
126	0xb88395ff	-6.274506e-05
127	0x3a063b5b	0.0005120539
128	0xb98ab2a6	-0.00026454515
129	0x39ae8da9	0.0003329341
130	0x398c8ce7	0.0002680786
131	0xb88c2894	-6.6832785e-05
132	0x39a36dc2	0.0003117156
133	0x39585441	0.00020630752
134	0xb98ab2a6	-0.00026454515
135	0x394894b2	0.0001912888
136	0x39408a35	0.00018362033
137	0xb88c2894	-6.6832785e-05
138	0x39981163	0.00029004653
139	0x39566fe0	0.00020450307
140	0xb93e7d0d	-0.00018166397
141	0xb9018ef0	-0.00012355647
142	0xb8c38067	-9.3222414e-05
143	0x37b76205	2.1860944e-05
144	0xb66b7ecf	-3.509154e-06
145	0x3909bc14	0.00013135403
146	0xb93eac45	-0.00018183987
147	0xb8b3fdb4	-8.582641e-05
148	0xb8c0e660	-9.198184e-05
149	0x37b76205	2.1860944e-05
150	0xb844eea9	-4.695231e-05
151	0x399676b2	0.00028698664
152	0xb94f5101	-0.00019771235
153	0x39482e93	0.00019090837
154	0x3939e140	0.00017726887
155	0x37b761d8	2.1860862e-05
156	0x38ab626b	8.172247e-05
157	0x39a90de6	0.00032244547
158	0xb94f5101	-0.00019771235
159	0x393ffdf3	0.00018309783
160	0x3938fe09	0.00017642243
161	0x1232bd8d	5.6400536e-28
162	0x38eacef4	0.000111965375
163	0x39e9b93e	0.0004457924
164	0xb94f5101	-0.00019771235
165	0x3921a3a8	0.00015415123
166	0x391ed41b	0.0001514707
167	0x1342a8cd	2.4569468e-27
168	0x3987ad6b	0.00025878413
169	0x3a55e66d	0.00081596413
170	0x198b400c	1.4398131e-23
171	0x393ae399	0.00017823129
172	0x39150ec3	0.00014215246
173	0x12cd6766	1.2962809e-27
174	0x38b5fb5f	8.677574e-05
175	0x3a59c6c2	0.000830751
176	0x198b400c	1.4398131e-23
177	0x393ae383	0.00017823097
178	0x395027b2	0.00019851213
179	0x120dd07f	4.4748746e-28
180	0x39987d05	0.00029084846
181	0x3a43176d	0.00074421504
182	0x198b400c	1.4398131e-23
183	0x38fdf5b2	0.000121097444
184	0x392a6da0	0.00016253302
185	0x00000004	6e-45
186	0x398fa6c9	0.0002739935
187	0x3a3d0b8c	0.00072114985
188	0x198b400c	1.4398131e-23
189	0x38fdd750	0.00012104085
190	0x3913b0a7	0.0001408482
191	0x00000004	6e-45
192	0x39bca4b1	0.0003598086
193	0x3a3c8fcb	0.00071930577
194	0x80000004	-6e-45
195	0x39219ca0	0.00015412504
196	0x39249772	0.00015696677
197	0x80000465	-1.576e-42
198	0x39482ac4	0.00019089418
199	0x3a01bc23	0.0004948994
200	0x9aca88c4	-8.37662e-23
201	0x3925e0aa	0.0001581932
202	0x3904ce1a	0.0001266528
203	0x80000465	-1.576e-42
204	0x39c1937d	0.00036921716
205	0x3a198ffb	0.00058579416
206	0x9aca88c4	-8.37662e-23
207	0x392a374c	0.00016233063
208	0x38b8a22a	8.804009e-05
209	0x92d79709	-1.3605641e-27
210	0xb87a9ebd	-5.975248e-05
211	0x39c091af	0.00036729636
212	0x9adefc9c	-9.222516e-23
213	0x392c76d8	0.00016447471
214	0x380f48bd	3.41616e-05
215	0x92a3ca86	-1.0336672e-27
216	0xb84bd185	-4.8594102e-05
217	0x39b670d9	0.00034797823
218	0x9aca88c4	-8.37662e-23
219	0x392d5396	0.00016529704
220	0xb86b797b	-5.6141504e-05
221	0x92515321	-6.6051236e-28
222	0xb9482f3b	-0.00019091081
223	0x398b83f1	0.0002661045
224	0x9ad9946b	-8.998888e-23
225	0x392d53c0	0.00016529765
226	0xb914e907	-0.0001420119
227	0x12afd852	1.109738e-27
228	0xb8bdec72	-9.056264e-05
229	0x39cafa52	0.00038714946
230	0x9b0c1d8d	-1.1590077e-22
231	0x3926aba3	0.00015894933
232	0xb96d0393	-0.00022603413
233	0x80000ca3	-4.533e-42
234	0xb9320f36	-0.0001698107
235	0x3a05d864	0.0005105792
236	0x9ac740d4	-8.2409206e-23
237	0xb86014c5	-5.3425105e-05
238	0xb9878419	-0.00025847627
239	0x80000ca3	-4.533e-42
240	0xb8811e1f	-6.15681e-05
241	0x3a411d0d	0.00073666946
242	0x9ac740d4	-8.2409206e-23
243	0xb8b14e2b	-8.4545776e-05
244	0xb982f365	-0.00024976875
245	0x9104dd09	-1.0481076e-28
246	0xb89c602b	-7.456572e-05
247	0x3a3c11ea	0.00071743
248	0x17d1fc4b	1.3569996e-24
249	0x37ef191c	2.8502713e-05
250	0xb986a5f7	-0.00025682125
251	0x3bd3cf86	0.0064639477
252	0x39c7cd00	0.00038108975
253	0xb88b65c7	-6.646994e-05
254	0xb9449037	-0.00018745741
255	0xb98ab2a6	-0.00026454515

exp_avg_sq f4 [20, 128]
0	0x38353d63	4.3210934e-05
1	0x37768d85	1.4695693e-05
2	0x3812523c	3.48857e-05
3	0x384c37a6	4.8689217e-05
4	0x3749e39a	1.2033526e-05
5	0x38126f76	3.491292e-05
6	0x3801464a	3.082146e-05
7	0x3780df9d	1.5362917e-05
8	0x3817dcf3	3.620698e-05
9	0x3837c442	4.381338e-05
10	0x373e2ae9	1.1334873e-05
11	0x380b63d7	3.3233166e-05
12	0x36a0cd4a	4.7922704e-06
13	0x374002d7	1.1444753e-05
14	0x3812d5b8	3.5008154e-05
15	0x3813368c	3.5098332e-05
16	0x377eb3ec	1.5181471e-05
17	0x3817d39d	3.6198286e-05
18	0x36351e3d	2.6988703e-06
19	0x371b58da	9.259407e-06
20	0x3810022d	3.43343e-05
21	0x380b6ee6	3.3243465e-05
22	0x377021a9	1.4312952e-05
23	0x381bb898	3.7126796e-05
24	0x35cfa173	1.546969e-06
25	0x3725a95a	9.874197e-06
26	0x3811dc6f	3.477599e-05
27	0x37c1d539	2.3106682e-05
28	0x377aef25	1.4956841e-05
29	0x3826f5ce	3.9806408e-05
30	0x361e81c3	2.3619366e-06
31	0x37249fe2	9.812387e-06
32	0x3811daff	3.477465e-05
33	0x34fb7395	4.683649e-07
34	0x378386ec	1.5679245e-05
35	0x383627f4	4.342939e-05
36	0x33b36eb0	8.355471e-08
37	0x371f18b5	9.482891e-06
38	0x380b8cef	3.3271437e-05
39	0x33e6e397	1.0751608e-07
40	0x37444eca	1.1700855e-05
41	0x382cadea	4.1169966e-05
42	0x32ef8291	2.7882637e-08
43	0x35be7ad6	1.4191853e-06
44	0x37dc1839	2.6237323e-05
45	0x33aed826	8.1418236e-08
46	0x3781a3d9	1.5454296e-05
47	0x382cf99b	4.124046e-05
48	0x320de4b0	8.259278e-09
49	0x35cae14f	1.5115746e-06
50	0x37f061a4	2.8655697e-05
51	0x33aa657d	7.9347025e-08
52	0x3781f9e6	1.5494366e-05
53	0x38302120	4.199252e-05
54	0x3343590f	4.5482974e-08
55	0x35b4fb06	1.3484103e-06
56	0x3800f529	3.07459e-05
57	0x32dec4d9	2.5933717e-08
58	0x37831b03	1.5628995e-05
59	0x383387ee	4.280352e-05
60	0x359dbc51	1.1752219e-06
61	0x35ec1902	1.7590648e-06
62	0x3803e1b1	3.1443025e-05
63	0x3364f6db	5.33099e-08
64	0x37439492	1.1657497e-05
65	0x382766e9	3.9911745e-05
66	0x359f6999	1.1877156e-06
67	0x35d392d2	1.5763455e-06
68	0x3806cb72	3.2137563e-05
69	0x349f2189	2.9640458e-07
70	0x3741d9f0	1.1554439e-05
71	0x382cb829	4.1179508e-05
72	0x32992d68	1.7832193e-08
73	0x368c699c	4.1846197e-06
74	0x381aebbf	3.6936017e-05
75	0x335790de	5.0190344e-08
76	0x3759c538	1.29801265e-05
77	0x38288a43	4.0183088e-05
78	0x31661699	3.348225e-09
79	0x36bfbc75	5.714183e-06
80	0x38218828	3.8512197e-05
81	0x346770dd	2.1554611e-07
82	0x376c6ade	1.4091578e-05
83	0x3832c460	4.2621396e-05
84	0x32949a90	1.7299755e-08
85	0x368605b4	3.994175e-06
86	0x382af5d0	4.076009e-05
87	0x34334457	1.6695536e-07
88	0x37673291	1.3780446e-05
89	0x382b67e3	4.086633e-05
90	0x3321f573	3.770897e-08
91	0x36ab76b7	5.1100174e-06
92	0x3833f134	4.2901564e-05
93	0x3303f144	3.0720244e-08
94	0x3764942b	1.3624357e-05
95	0x3834ff88	4.3153326e-05
96	0x33119ecb	3.3904865e-08
97	0x37126a59	8.727039e-06
98	0x383d5257	4.5137796e-05
99	0x33330cfc	4.1688494e-08
100	0x375a3867	1.3006945e-05
101	0x3834345b	4.2964104e-05
102	0x32f77fd2	2.881271e-08
103	0x3712a8c3	8.741571e-06
104	0x3851d9f3	5.0032464e-05
105	0x32a0f153	1.8736193e-08
106	0x37657d9d	1.367871e-05
107	0x3836db7c	4.3596592e-05
108	0x31ecdfca	6.893946e-09
109	0x37384286	1.0982743e-05
110	0x3855d44d	5.0980878e-05
111	0x33e8dc3b	1.08434016e-07
112	0x3775126b	1.4607426e-05
113	0x38391023	4.4122466e-05
114	0x33974cce	7.045456e-08
115	0x375ca9c5	1.3152549e-05
116	0x385b6698	5.2309217e-05
117	0x34a0af39	2.9929814e-07
118	0x376e4f93	1.4204433e-05
119	0x3841eda3	4.6236102e-05
120	0x34ae864b	3.2507737e-07
121	0x376ebc14	1.4229696e-05
122	0x384df0c1	4.910003e-05
123	0x3d17926f	0.037004884
124	0x3d7ebef2	0.06219382
125	0x37481238	1.1925171e-05
126	0x3852b7f4	5.023922e-05
127	0x38353d63	4.3210934e-05
128	0x376f4f0b	1.4263914e-05
129	0x3777ddc2	1.4773979e-05
130	0x37f2d07f	2.8945737e-05
131	0x370379aa	7.836536e-06
132	0x376c1407	1.4071359e-05
133	0x37fc8b22	3.010553e-05
134	0x37715647	1.4384807e-05
135	0x377cbffd	1.5065071e-05
136	0x37e96765	2.7823911e-05
137	0x368ba620	4.1618623e-06
138	0x376ad922	1.3998042e-05
139	0x37fa4fc1	2.983946e-05
140	0x3724dd84	9.826737e-06
141	0x37592889	1.2943646e-05
142	0x37de07d8	2.6468115e-05
143	0x3620d1a6	2.396389e-06
144	0x378d2210	1.6824371e-05
145	0x3805e970	3.1927077e-05
146	0x36e3b278	6.7859037e-06
147	0x3737d3be	1.095695e-05
148	0x37d3c912	2.524679e-05
149	0x35858c26	9.950061e-07
150	0x378fa596	1.7124035e-05
151	0x3809b8c6	3.283543e-05
152	0x36ba74d7	5.556834e-06
153	0x37303dff	1.0504852e-05
154	0x37d60e41	2.5517425e-05
155	0x34a58d0b	3.0836267e-07
156	0x37995a93	1.8281198e-05
157	0x38112700	3.4607016e-05
158	0x36ad7567	5.169469e-06
159	0x372acfc2	1.0181162e-05
160	0x37d4933f	2.5340936e-05
161	0x34988877	2.8411498e-07
162	0x379fd926	1.9055395e-05
163	0x38162903	3.5800982e-05
164	0x34ebb300	4.39024e-07
165	0x3724b874	9.818108e-06
166	0x37cfc2af	2.476698e-05
167	0x32a1ce6a	1.8836733e-08
168	0x378ae65f	1.6558157e-05
169	0x38166f34	3.5866353e-05
170	0x33ff927f	1.190101e-07
171	0x359c0f3c	1.162734e-06
172	0x378b8ff9	1.6637134e-05
173	0x3231da66	1.0352414e-08
174	0x379d6706	1.8763832e-05
175	0x3816e170	3.5972742e-05
176	0x33a40dc6	7.6393505e-08
177	0x35925d01	1.0904915e-06
178	0x37933b02	1.7551243e-05
179	0x32b54577	2.1102762e-08
180	0x379d51b4	1.8753904e-05
181	0x381a2952	3.6754944e-05
182	0x331f8318	3.71393e-08
183	0x351990e2	5.7207774e-07
184	0x3790ecc8	1.7276398e-05
185	0x313cae3c	2.7456641e-09
186	0x379ef15b	1.8947458e-05
187	0x381d2f8a	3.747599e-05
188	0x358a42aa	1.0301203e-06
189	0x352e8408	6.501218e-07
190	0x378fadcd	1.712786e-05
191	0x332107b5	3.7492743e-08
192	0x37843335	1.5759471e-05
193	0x3813417d	3.5108522e-05
194	0x3585efc2	9.979051e-07
195	0x350593e4	4.976157e-07
196	0x378dbcd5	1.6896442e-05
197	0x338e08c9	6.613988e-08
198	0x3784580b	1.5776624e-05
199	0x3815e886	3.5740923e-05
200	0x3557b148	8.035172e-07
201	0x36186b1f	2.2712118e-06
202	0x37a87dc7	2.008573e-05
203	0x327a54ac	1.4571167e-08
204	0x378c8c38	1.6754595e-05
205	0x3811e819	3.478685e-05
206	0x355461e2	7.911859e-07
207	0x3672f4ce	3.6203305e-06
208	0x37afd975	2.0962887e-05
209	0x33b9a10b	8.6440274e-08
210	0x3791d90f	1.7386423e-05
211	0x381a6b31	3.681629e-05
212	0x355d5ee9	8.246703e-07
213	0x360d24ee	2.1032133e-06
214	0x37ba0760	2.2176362e-05
215	0x33bc13af	8.7580126e-08
216	0x379082e8	1.7227096e-05
217	0x3817de34	3.620815e-05
218	0x355dc020	8.2608494e-07
219	0x3630edec	2.6364532e-06
220	0x37c4bc78	2.3452783e-05
221	0x324c7843	1.1901707e-08
222	0x37909f7f	1.7240409e-05
223	0x3822d6a2	3.8823702e-05
224	0x356262b8	8.4335215e-07
225	0x36a649a8	4.9557602e-06
226	0x37d06669	2.484322e-05
227	0x3329f1e7	3.9568388e-08
228	0x378c0b72	1.669463e-05
229	0x3821ea2b	3.8603477e-05
230	0x355f4dfe	8.318747e-07
231	0x3698dd9f	4.555753e-06
232	0x37f6e61d	2.943264e-05
233	0x3101ac56	1.8869932e-09
234	0x378c70cc	1.6741826e-05
235	0x3823e85b	3.9078626e-05
236	0x355708cb	8.0106537e-07
237	0x36b52d7f	5.399517e-06
238	0x37f5228b	2.9222361e-05
239	0x33a960c3	7.8872766e-08
240	0x3791c705	1.7378023e-05
241	0x38252f50	3.938313e-05
242	0x355cad17	8.2208265e-07
243	0x36e2e187	6.7615797e-06
244	0x37f83fa1	2.9593533e-05
245	0x3407e184	1.2654897e-07
246	0x378fb58c	1.7131468e-05
247	0x382e1080	4.15002e-05
248	0x349ef1f9	2.9605852e-07
249	0x36f56f2c	7.314511e-06
250	0x37e208e6	2.6945443e-05
251	0x3cec7f30	0.028869241
252	0x3d2e50fe	0.04255771
253	0x36caaad2	6.039955e-06
254	0x381c2403	3.7226837e-05
255	0x376f4f0b	1.4263914e-05

exp_avg f4 [20]
0	0x3a037807	0.0005015139
1	0x3adb4fdc	0.0016732174
2	0x39059248	0.00012738362
3	0xba888742	-0.0010416287
4	0xba8f15d2	-0.0010916537
5	0x39104312	0.00013757896
6	0xbacb4f1e	-0.001551125
7	0x3aa88dab	0.0012859603
8	0x3a9907a2	0.0011675248
9	0xbac88fcd	-0.0015301645
10	0xba6b3532	-0.00089724653
11	0x38fc58ec	0.000120328594
12	0xba11ec9b	-0.0005566568
13	0xbabea99d	-0.0014546398
14	0xbaf43ffd	-0.0018634793
15	0x3b223d04	0.0024755606
16	0x388eec3b	6.815089e-05
17	0x3b489118	0.003060406
18	0xb7825dd7	-1.5540905e-05
19	0xb9b978f8	-0.00035376078

exp_avg_sq f4 [20]
0	0x394ebacb	0.00019715277
1	0x3905a447	0.00012745066
2	0x383e0cb6	4.5311368e-05
3	0x38a34759	7.785735e-05
4	0x387242bc	5.7759447e-05
5	0x37c0c022	2.2977652e-05
6	0x392e18e6	0.00016603208
7	0x388ab0cf	6.613286e-05
8	0x3959579e	0.00020727373
9	0x37a9805a	2.0206138e-05
10	0x37e99051	2.7842967e-05
11	0x38d262f1	0.000100320096
12	0x3902f65f	0.00012489546
13	0x385be6fe	5.2428797e-05
14	0x37d4621b	2.5318053e-05
15	0x391328a7	0.00014034157
16	0x389c0bd2	7.4408614e-05
17	0x38d8ab1c	0.00010331554
18	0x3560d45c	8.3755526e-07
19	0x3916f372	0.00014395805

exp_avg f4 [6, 20]
0	0xbaa16349	-0.0012312914
1	0xba6381e9	-0.0008678721
2	0xba4b79cd	-0.0007761985
3	0xb859fb41	-5.197083e-05
4	0xba382c79	-0.000702567
5	0xba74126a	-0.0009310605
6	0xbc227dee	-0.009917719
7	0xbbd78eec	-0.006578317
8	0xbb1d5d4d	-0.002401191
9	0xbc32defa	-0.01091742
10	0xb991b172	-0.00027788762
11	0xbb8158e4	-0.003947364
12	0xbb424d89	-0.0029648265
13	0x390abae1	0.00013230323
14	0xbac09105	-0.0014691657
15	0xba69a95f	-0.0008913483
16	0xbc50ddce	-0.012748195
17	0xbc45d07b	-0.012073631
18	0x3a8042ff	0.0009785591
19	0xbb5292fa	-0.0032131062
20	0xbc12094c	-0.008913349
21	0xbb435f8e	-0.0029811594
22	0xbc45b52c	-0.0120671205
23	0x3a4d6df0	0.00078365114
24	0x3a8a3a60	0.0010545962
25	0x3ab5df38	0.0013875728
26	0xbaee8c55	-0.0018199781
27	0xbc92db53	-0.017926848
28	0xbbeb24a2	-0.007175998
29	0xbb49a990	-0.0030771233
30	0x3838607b	4.3958873e-05
31	0xbaf4bd65	-0.0018672167
32	0xbb556fef	-0.0032567938
33	0x3a8f0edb	0.0010914461
34	0x3ad098cb	0.0015914676
35	0xbb3f848b	-0.002922329
36	0xbc797567	-0.015225745
37	0xbc802d1a	-0.015646506
38	0x399e54d9	0.00030199325
39	0xbc805664	-0.015666194
40	0x3af04622	0.0018331448
41	0x3a4c086e	0.00077832385
42	0x3a9a932e	0.001179313
43	0x39b94694	0.00035338535
44	0x39e4f991	0.0004367349
45	0x3ae2201b	0.0017252
46	0x3b9d2253	0.0047953515
47	0x3bcb64cb	0.006207084
48	0x3b87eff4	0.0041484777
49	0x3c0f6abf	0.008753478
50	0x3aec4dda	0.0018028573
51	0x3b4d8c82	0.0031364267
52	0xba70bb9c	-0.00091832294
53	0xb9a33dca	-0.0003113582
54	0x39bcbe84	0.000360001
55	0x3b5b08f4	0.0033422085
56	0x3c18a53e	0.009316741
57	0x3c0ffc9a	0.008788252
58	0xb7b6ed71	-2.1806658e-05
59	0x3b09c058	0.0021019187
60	0xbbc43517	-0.005987774
61	0xb92db30a	-0.00016565263
62	0xbbfb4209	-0.007667784
63	0x39f7746b	0.0004719825
64	0x3a079d99	0.0005173325
65	0xba1b6606	-0.00059279834
66	0x3b087999	0.002082443
67	0xba751c18	-0.00093501946
68	0x39a00feb	0.00030529438
69	0x3ae1d350	0.0017229114
70	0x3a3dfe10	0.0007247636
71	0x3a93f650	0.0011288617
72	0xbba9aef5	-0.005178327
73	0x3939436c	0.00017668091
74	0x39ea89e0	0.00044734683
75	0x39b29ca8	0.00034067524
76	0xb6d69332	-6.394833e-06
77	0xb9d548f5	-0.00040680883
78	0x398b0104	0.00026512903
79	0xbc370e1f	-0.0111728
80	0x3c6e3aac	0.014540356
81	0x3b0a963d	0.0021146678
82	0x3c9aeb98	0.018911168
83	0xbaf70dc2	-0.0018848705
84	0xba9b5e12	-0.0011853597
85	0xbb0e2483	-0.0021689243
86	0x3b55d295	0.0032626737
87	0x3c9541e7	0.018219901
88	0x3b808d7f	0.0039231176
89	0x3b469ff5	0.0030307744
90	0xbb4d6453	-0.0031340315
91	0x39dca767	0.00042086394
92	0x3c30d3f0	0.010792717
93	0xba9c5f2f	-0.0011930222
94	0xba76d08e	-0.00094152323
95	0xba530a0e	-0.00080505095
96	0x3c9036aa	0.01760419
97	0x3c945f6d	0.018111909
98	0xbaada0ce	-0.0013246776
99	0x3ce5c87b	0.028049698
100	0xb97dc3f4	-0.00024200958
101	0x3a92d9a9	0.0011203784
102	0x39dafb2e	0.00041767344
103	0x39abf809	0.00032800462
104	0xb8fd5666	-0.00012080073
105	0x3a17d950	0.0005792575
106	0x3ad0c882	0.0015928897
107	0x3a842972	0.0010083152
108	0x3a9cfc55	0.0011977056
109	0x39fd1dfd	0.00048278263
110	0x3a5c2a95	0.0008398679
111	0x3a93a18f	0.0011263358
112	0x3ac798da	0.0015228048
113	0x38daa6eb	0.00010426141
114	0x373fa79b	1.1423511e-05
115	0x3a74ed07	0.0009343181
116	0x3a8a3490	0.0010544229
117	0x3aa01090	0.0012211967
118	0xb950653a	-0.00019874136
119	0xb8dc163f	-0.00010494561

exp_avg_sq f4 [6, 20]
0	0x39279538	0.0001598195
1	0x38cf7757	9.892758e-05
2	0x39a445e3	0.00031332587
3	0x3a0f5411	0.0005467544
4	0x38c36a41	9.318116e-05
5	0x37bda8ea	2.2609212e-05
6	0x3a0f548b	0.0005467615
7	0x393915e2	0.00017651127
8	0x3991e4a7	0.00027826914
9	0x39a7dff8	0.00032019592
10	0x386d528e	5.658209e-05
11	0x3903ddeb	0.00012575804
12	0x3928c6ca	0.00016095783
13	0x39c70795	0.00037961887
14	0x3828541f	4.0132665e-05
15	0x3a08e476	0.00052220316
16	0x3a1696c8	0.0005744514
17	0x39d8d536	0.00041357585
18	0x36bce205	5.6291487e-06
19	0x3aa9cc7c	0.0012954618
20	0x3b1febd7	0.0024402046
21	0x39ca62a1	0.00038601927
22	0x3b8dcc11	0.004327305
23	0x39476c94	0.00019018567
24	0x3919e1cb	0.00014675331
25	0x392383ae	0.00015593946
26	0x39a69aa8	0.00031777215
27	0x3b38956d	0.0028165237
28	0x3a3130e2	0.0006759298
29	0x39da246e	0.00041607342
30	0x37f69530	2.9394956e-05
31	0x3986869b	0.0002565876
32	0x39d16635	0.00039939737
33	0x392ef556	0.00016685328
34	0x385330c7	5.0351748e-05
35	0x399ffd10	0.0003051539
36	0x3b05554a	0.0020345026
37	0x3b8129e6	0.0039417623
38	0x372efe77	1.0430455e-05
39	0x3becf1c4	0.007230969
40	0x3b13619c	0.00224886
41	0x39c510ce	0.00037587289
42	0x3b9653c0	0.0045876205
43	0x39a9cc8b	0.00032386588
44	0x38b13799	8.4503736e-05
45	0x38fad41f	0.000119604396
46	0x3a05070c	0.00050745974
47	0x3b478702	0.003044546
48	0x3a4fa7d9	0.00079214346
49	0x3a0db1d3	0.0005405221
50	0x383b6b9d	4.4684497e-05
51	0x3988bd86	0.00026081147
52	0x39c68ca2	0.00037870283
53	0x3953a0af	0.00020182387
54	0x38135652	3.5127923e-05
55	0x39ab2581	0.00032643604
56	0x3af313ba	0.0018545308
57	0x3b8e5cd4	0.004344562
58	0x36f0da10	7.177943e-06
59	0x3bd4cdf3	0.0064942776
60	0x39f12b95	0.00045999573
61	0x386850d4	5.5388387e-05
62	0x3a7925f6	0.0009504253
63	0x38930309	7.0100716e-05
64	0x37bfec9a	2.287915e-05
65	0x37ad574b	2.0663856e-05
66	0x38993a13	7.306426e-05
67	0x39b14b55	0.00033816198
68	0x39137c5c	0.0001406534
69	0x38b38c04	8.561465e-05
70	0x3751aa32	1.2496997e-05
71	0x38038571	3.135711e-05
72	0x395d0952	0.00021079674
73	0x385439db	5.059862e-05
74	0x3732a8d1	1.0648932e-05
75	0x38b1dc0a	8.481003e-05
76	0x39502be3	0.00019852775
77	0x3a17c630	0.0005789725
78	0x36858b86	3.9799515e-06
79	0x3abb95a9	0.001431157
80	0x3ae40231	0.0017395673
81	0x3a2417b0	0.0006259633
82	0x3b4f3aa9	0.0031620658
83	0x391a40c3	0.0001471071
84	0x390e10cf	0.00013548437
85	0x39343bac	0.00017188367
86	0x398d987c	0.00027007225
87	0x3afe456e	0.0019399354
88	0x3a80f220	0.0009837784
89	0x39b1db59	0.00033923498
90	0x38b152de	8.455453e-05
91	0x39ca5652	0.00038592756
92	0x3a1d8b99	0.00060098764
93	0x3894ae85	7.089697e-05
94	0x386873a6	5.5420816e-05
95	0x39755d2e	0.00023399733
96	0x3aa69954	0.001271049
97	0x3b67a266	0.00353446
98	0x371e6176	9.440226e-06
99	0x3b6fd102	0.0036593084
100	0x385d7b52	5.2805357e-05
101	0x38684722	5.5379358e-05
102	0x3903ce96	0.00012570093
103	0x3836c124	4.3572058e-05
104	0x3774be98	1.4587909e-05
105	0x37a7bffb	1.999735e-05
106	0x38d0b256	9.9514305e-05
107	0x38e8e324	0.0001110493
108	0x38c87e30	9.5602474e-05
109	0x390a397c	0.0001318212
110	0x381cef51	3.741618e-05
111	0x38378acf	4.3759876e-05
112	0x384ac778	4.8346323e-05
113	0x37d16d34	2.4965593e-05
114	0x371da951	9.397351e-06
115	0x38b57e5f	8.654291e-05
116	0x392aad72	0.00016277077
117	0x39805d9b	0.00024483804
118	0x35c7c73f	1.4884644e-06
119	0x391b0c56	0.00014786547

exp_avg f4 [6]
0	0xbb8e72b8	-0.0043471716
1	0xbbb74e2d	-0.005594036
2	0x3b65d297	0.0035068148
3	0xbae0ff9f	-0.0017166025
4	0x3bfd03df	0.0077214087
5	0x39e13a28	0.00042958674

exp_avg_sq f4 [6]
0	0x39051569	0.00012691844
1	0x39bb2950	0.000356982
2	0x39b687f1	0.0003481503
3	0x38e88b60	0.00011088583
4	0x398ee208	0.00027252757
5	0x3834d11a	4.3110085e-05

exp_avg f4 [4, 20]
0	0xbc06a03d	-0.008216915
1	0x3940114c	0.0001831699
2	0xbb602c58	-0.0034206118
3	0xbc6cc0e8	-0.014450289
4	0xbc1a586f	-0.009420498
5	0x3a2d28b8	0.0006605494
6	0xbbe4d718	-0.006983649
7	0x3b0bab24	0.0021311725
8	0xba49a27b	-0.0007691753
9	0x3b9e4dd0	0.0048310533
10	0x3ad5563b	0.0016276309
11	0x39f63082	0.00046956918
12	0xba8d01c4	-0.0010757972
13	0xbc8f2919	-0.017475652
14	0xbb66db06	-0.0035225763
15	0xbc42ad0a	-0.011882076
16	0xbc10d20a	-0.00883914
17	0x3b72afad	0.003703098
18	0xb9fc0d4e	-0.00048075098
19	0xbcadb94d	-0.021206522
20	0x3a687838	0.00088680116
21	0x3b04c180	0.0020256937
22	0x3b8b9571	0.004259758
23	0x3881314a	6.16038e-05
24	0x38df6e2c	0.0001065399
25	0x391cbafd	0.00014946978
26	0x389cc444	7.475217e-05
27	0x3b21f8fb	0.0024715054
28	0x3ac04698	0.0014669476
29	0x3a0c7b31	0.0005358933
30	0xba35c083	-0.00069332885
31	0x3a4c1840	0.0007785596
32	0x3b421eb6	0.0029620356
33	0xb844ea7f	-4.6948433e-05
34	0x38029e76	3.1141994e-05
35	0xba4ba0c8	-0.0007767794
36	0x3a64666d	0.00087127724
37	0x3b20eb71	0.0024554397
38	0xb90ccc06	-0.00013427445
39	0x3b73243e	0.003710046
40	0x3a5764fc	0.0008216647
41	0x3a3f4b99	0.00072973367
42	0x3a9e0e10	0.0012058634
43	0xb98e6c14	-0.00027164875
44	0xb8a80ae4	-8.012893e-05
45	0x39f9e32e	0.00047662243
46	0xb9fb604e	-0.00047946203
47	0x3a89618d	0.0010481343
48	0x3aafed22	0.0013422112
49	0xb8765dec	-5.8738442e-05
50	0xba31adb2	-0.0006777897
51	0x39b3f38d	0.00034323
52	0xbb4ade0d	-0.0030955106
53	0xba5214ec	-0.0008013982
54	0x39920482	0.0002785065
55	0xbb1c5ed1	-0.0023860226
56	0xba90d297	-0.0011049089
57	0x398027e4	0.00024443783
58	0x39f81fcc	0.00047325937
59	0xbad2e820	-0.0016090907
60	0x3bd5541c	0.0065102708
61	0xbb409341	-0.0029384645
62	0xbb05f22a	-0.002043853
63	0x3c70475f	0.014665454
64	0x3c19f1f9	0.00939607
65	0xbaa8a823	-0.0012867491
66	0x3bf2484d	0.007393873
67	0xbbb92503	-0.005650164
68	0xbb059833	-0.0020384907
69	0xbbade2b3	-0.0053065657
70	0xb986a833	-0.0002568379
71	0xbad070e3	-0.0015902783
72	0x3a9eb40d	0.0012108103
73	0x3c96269f	0.018328963
74	0x3b5299a0	0.0032135025
75	0x3c768fa2	0.015048893
76	0x3c14b9af	0.009077474
77	0xbbd1c6d4	-0.006401876
78	0x39145a56	0.00014148033
79	0x3c9c9134	0.019112207

exp_avg_sq f4 [4, 20]
0	0x3991036e	0.0002765911
1	0x38dc1ae3	0.000104954255
2	0x3a88b8d6	0.0010431062
3	0x3b98d6be	0.004664271
4	0x3a0c503d	0.00053525326
5	0x384050e1	4.585169e-05
6	0x3b707abe	0.0036694254
7	0x3985c260	0.00025512557
8	0x3a7d4349	0.00096612104
9	0x399577a8	0.00028508645
10	0x3937aac6	0.00017515858
11	0x398fd0bc	0.00027430605
12	0x39f30ff9	0.00046360472
13	0x3b728152	0.003700335
14	0x3908207b	0.0001298207
15	0x3b7cc2ff	0.0038568375
16	0x3ab2598a	0.0013607007
17	0x39cfe748	0.00039654435
18	0x36808cec	3.8311027e-06
19	0x3bc6d1d2	0.006067493
20	0x392c19a6	0.00016412753
21	0x3917e8c6	0.00014487197
22	0x3a4c75a9	0.0007799515
23	0x38237717	3.897314e-05
24	0x37872e71	1.611488e-05
25	0x37ba11ca	2.2181212e-05
26	0x38f209bc	0.000115412724
27	0x3a01fb9d	0.0004958453
28	0x398edec4	0.00027250324
29	0x397c1433	0.00024040118
30	0x382032c1	3.819424e-05
31	0x38bf7f5d	9.131313e-05
32	0x394257da	0.00018534009
33	0x37388b03	1.0999621e-05
34	0x3733c6e6	1.0715541e-05
35	0x38ecc3dc	0.000112898386
36	0x398ad762	0.00026481884
37	0x3a67994a	0.00088347925
38	0x36b152db	5.2846567e-06
39	0x3a4d8688	0.0007840176
40	0x39bb365a	0.00035707915
41	0x38aa62cf	8.124636e-05
42	0x3a633c37	0.00086683355
43	0x3a09e80e	0.0005260714
44	0x398f1db7	0.00027297225
45	0x376bdf57	1.4059092e-05
46	0x39457268	0.00018830004
47	0x3a034299	0.0005007177
48	0x3921a186	0.00015414329
49	0x38a5578c	7.88412e-05
50	0x3786fa19	1.6090506e-05
51	0x3801aa6d	3.0914718e-05
52	0x3972d389	0.00023157721
53	0x3a40a267	0.00073484186
54	0x3898714d	7.269029e-05
55	0x3a4af443	0.00077420863
56	0x3a0a8448	0.00052839937
57	0x3a38c390	0.0007048184
58	0x36de985f	6.633854e-06
59	0x3b2b3edf	0.0026130003
60	0x39d5c464	0.00040772848
61	0x39677c30	0.0002207614
62	0x3ace61c6	0.0015745691
63	0x3ba012ba	0.004885045
64	0x3a25cde7	0.00063249323
65	0x388ae0fc	6.6222594e-05
66	0x3b7c78d9	0.003852418
67	0x3a47a135	0.0007615269
68	0x3a96c533	0.0011502862
69	0x39e8f9f2	0.00044436712
70	0x39520f08	0.0002003276
71	0x39b608c9	0.0003472029
72	0x3a17ec9f	0.0005795452
73	0x3b822dea	0.0039727585
74	0x39282253	0.00016034515
75	0x3b8a4eb2	0.004220807
76	0x3af008e1	0.0018313193
77	0x3a998ab9	0.0011714316
78	0x36f0082b	7.1535082e-06
79	0x3be87e2b	0.0070951185

exp_avg f4 [4]
0	0xba682ca0	-0.00088567473
1	0x3a299a38	0.0006469819
2	0xbafb88f9	-0.0019190601
3	0x3b0d6917	0.002157753

exp_avg_sq f4 [4]
0	0x39ce8002	0.00039386755
1	0x3922480e	0.00015476366
2	0x392e5da3	0.00016628816
3	0x39fb449a	0.00047925563

exp_avg f4 [3, 20]
0	0x3b86838a	0.004105036
1	0x3b8150de	0.0039464077
2	0x3bd96b39	0.0066350964
3	0xbb6d0b57	-0.003617009
4	0xbafbc13d	-0.001920737
5	0xb8fd25bc	-0.00012071009
6	0x3bc6819b	0.0060579306
7	0x3c79415e	0.015213339
8	0x3bbd2727	0.0057724896
9	0x3c1fc23e	0.009750901
10	0xba0711d1	-0.0005152496
11	0x3b861c4e	0.0040927297
12	0x3b89b4ea	0.004202475
13	0xbb8a4d60	-0.0042206496
14	0xbaa66e50	-0.0012697671
15	0x3ae592cd	0.0017515064
16	0x3c5d8b35	0.013521959
17	0x3c87dba9	0.016584234
18	0xba90719e	-0.0011020189
19	0x3c220fdc	0.0098914765
20	0x3a8603bf	0.0010224505
21	0x3a2d3fbb	0.0006608923
22	0xba5e7757	-0.0008486411
23	0x3c681334	0.014164735
24	0x3bef2c36	0.0072989715
25	0x3a9addba	0.0011815347
26	0x3c593ef2	0.013259636
27	0xba15fa53	-0.00057212
28	0x3b0abbd6	0.0021169088
29	0x3a23a14b	0.0006241991
30	0x392789f2	0.0001597775
31	0x3b234056	0.0024910173
32	0xba853aa8	-0.0010164576
33	0x3c680edc	0.014163699
34	0x3b631b41	0.0034653696
35	0x3c19f32a	0.009396354
36	0x3c4073c7	0.0117463535
37	0x3b553ac0	0.0032536238
38	0x39e6817a	0.00043965486
39	0x3b9ec23a	0.004844931
40	0xbba7f7cc	-0.0051259752
41	0xbb96f83a	-0.0046072276
42	0xbbbda199	-0.005787086
43	0xbc2cc7ae	-0.010545654
44	0xbbb03081	-0.005376876
45	0xba8b13d6	-0.001061077
46	0xbc9e39e8	-0.019314721
47	0xbc6fdf24	-0.014640603
48	0xbc014392	-0.007889645
49	0xbc29fb97	-0.010374925
50	0x39b9e8a7	0.0003545929
51	0xbbd7b919	-0.0065833447
52	0xbb50d6e4	-0.0031866366
53	0xbc22dd54	-0.009940464
54	0xbb0fddf0	-0.0021952353
55	0xbc36a278	-0.011147134
56	0xbccef6dd	-0.025264198
57	0xbca28040	-0.019836545
58	0x3a2da5b2	0.0006624117
59	0xbc716f7e	-0.014736054

exp_avg_sq f4 [3, 20]
0	0x3aeba61e	0.0017978584
1	0x3a28f3d7	0.00064450264
2	0x3b7f4790	0.0038952567
3	0x3b9df9d5	0.004821042
4	0x3a43a9f9	0.00074639876
5	0x394fad57	0.00019805632
6	0x3b818510	0.00395263
7	0x3b0b7960	0.0021282062
8	0x3adfc85e	0.0017073264
9	0x3a2abe81	0.00065133726
10	0x39421ad0	0.0001851127
11	0x3a244df3	0.0006267719
12	0x3a51a0d7	0.0007996684
13	0x3b7e4441	0.0038798007
14	0x3960a651	0.00021424262
15	0x3b84d9c9	0.0040542823
16	0x3b3b6eab	0.0028599899
17	0x3b83cef9	0.004022476
18	0x374a914f	1.20739705e-05
19	0x3c203333	0.009777832
20	0x39e80574	0.0004425455
21	0x3956887f	0.00020459479
22	0x3abf110c	0.0014577224
23	0x3b271300	0.0025493503
24	0x398a170f	0.0002633859
25	0x384248a7	4.6320867e-05
26	0x3af8e08f	0.0018987822
27	0x39d508a7	0.00040632972
28	0x3a4d72ac	0.0007837217
29	0x3966b722	0.00022002732
30	0x39004a76	0.0001223477
31	0x395d587c	0.00021109165
32	0x3a2f626b	0.00066903856
33	0x3b03acac	0.0020091934
34	0x389bec80	7.4350275e-05
35	0x3b143bd5	0.002261867
36	0x3a3d12b2	0.00072125637
37	0x3a27dc89	0.0006403407
38	0x3720a12a	9.574267e-06
39	0x3ba4b000	0.0050258636
40	0x3adcf1b5	0.0016856702
41	0x3a43c2da	0.0007467695
42	0x3b85d9f3	0.0040848195
43	0x3b9a663b	0.004711894
44	0x3a291115	0.0006449384
45	0x395e1707	0.00021180148
46	0x3b83626e	0.0040095365
47	0x3b09b9ed	0.0021015361
48	0x3b010951	0.001968939
49	0x3a274ba8	0.0006381818
50	0x39802f19	0.00024449153
51	0x3a38841c	0.0007038729
52	0x3a8e25fc	0.001084506
53	0x3b6ae61a	0.0035842718
54	0x3954a642	0.00020279831
55	0x3b808b9e	0.0039228937
56	0x3b264a51	0.0025373886
57	0x3b851390	0.00406117
58	0x37506c41	1.2422971e-05
59	0x3c102d27	0.008799828

exp_avg f4 [3]
0	0x3bef9788	0.007311765
1	0xba918779	-0.0011102996
2	0xbbcb35ad	-0.006201467

exp_avg_sq f4 [3]
0	0x3a28c6e1	0.00064383267
1	0x39c3e912	0.0003736695
2	0x3a23f0de	0.00062538486
