config/ppo/results/RayShoot0610_357만번/Shooting/Shooting-3574872.pt (torch, 80967 bytes, 34 tensors)

discrete_act_size_vector f4 [1, 3]
000000 00 00 c0 40 00 00 80 40 00 00 40 40
       6.0 4.0 3.0

network_body._body_endoder.seq_layers.0.weight f4 [20, 128]
000000 74 d5 00 bf e7 63 9a 3d bb 24 95 3e 04 8c 14 3e
       -0.50325704 0.07538586 0.29129586 0.14506537
000010 60 99 27 3d e7 c7 f6 bd 3c 97 14 bf d4 21 18 3e
       0.040917754 -0.12049847 -0.58043265 0.14856654
000020 82 3d a9 3e d2 90 5f 3d bd fa 48 3e 1f 64 29 3d
       0.3305474 0.05458147 0.19626899 0.04135525
000030 5e a0 28 bf ff e0 8a be a8 80 43 3e 44 e8 f5 3d
       -0.658697 -0.27124783 0.19092047 0.12007192
000040 86 0d 20 3e 51 e7 d8 bb 90 0e 1d bf c0 06 41 be
       0.15630159 -0.006619372 -0.61350346 -0.18850231
000050 bf 65 a9 3e fb 98 57 3f 4b dd b3 3e 7b 94 14 bd
       0.3308544 0.84217805 0.3512977 -0.036274415
000060 f3 83 1d bf 61 18 ec bd ed e9 7f 3e a5 0d 83 3f
       -0.61529464 -0.115280874 0.2499158 1.0238539
000070 6c 79 8e 3c cc f2 8f be 5c 8b 03 bf 46 74 bd 3d
       0.017391883 -0.28114927 -0.5138452 0.09250693
000080 d6 32 75 3e f7 e9 84 3f 8a 4c 0d 3d 2c c4 a6 be
       0.23945174 1.03839 0.03449682 -0.32571542
000090 10 92 9a be d7 12 7e bd c0 f3 ba 3e e1 5a 84 3f
       -0.30189562 -0.062029686 0.36514091 1.0340234
0000a0 06 24 d0 3d 39 80 47 be f0 36 53 bf 22 8d 0e 3e
       0.10163121 -0.19482507 -0.825057 0.13921025
0000b0 0d f2 a7 3e a8 55 39 3f 41 11 a7 3d ee 0d b9 bd
       0.32801858 0.72396326 0.08157588 -0.0903586
0000c0 5e 42 6c bf 2e 5c ab 3c 68 41 d6 3e 61 9d 4b 3f
       -0.9228877 0.020917978 0.41846776 0.79537016
0000d0 32 95 f3 bd 9c 84 80 bd dc 74 5d bf d3 65 98 3d
       -0.11893691 -0.06275293 -0.8650644 0.074412964
0000e0 74 5e d0 3e 6a 61 e0 3e 58 58 4e be b5 1f f5 bd
       0.40697062 0.4382432 -0.20150888 -0.11968938
0000f0 c2 5c 39 bf 86 01 06 3e d5 b7 c9 3e 1f de cf 3e
       -0.7240716 0.13086519 0.39398065 0.40599152
000100 b6 83 3b 3d a8 3f 81 3d ff c7 4e bf db 0c 0b bd
       0.045779906 0.063109696 -0.8077392 -0.033947807
000110 00 ab ed 3e 25 49 bd 3e f5 fd d4 3d 7c 85 2b be
       0.46419525 0.36969867 0.10400001 -0.16750139
000120 59 2f 2d bf 71 57 37 3e d2 a9 cc 3e cb ed f9 3e
       -0.6765037 0.1790445 0.39973313 0.48814234
000130 9a b3 f6 3d de fc 6a 3d 7f f6 3e bf 3a 07 4d ba
       0.12045975 0.05737006 -0.74594873 -0.0007821206
000140 72 9c d7 3e 6c 6b db 3e 20 ad 76 3c 4e fc 93 bd
       0.42111546 0.42855394 0.015055925 -0.07225858
000150 d0 2d 1d bf a0 72 06 3e 8a 6b 8c 3e f2 96 82 3e
       -0.6139803 0.13129663 0.27425796 0.25505787
000160 71 a1 eb 3d 40 74 57 ba 7d 0e 09 bf 92 4b ea 3d
       0.11505402 -0.0008218922 -0.5353773 0.11440195
000170 57 1e 82 3e 06 10 1f 3f 29 72 10 3e 5f 27 18 3d
       0.25413772 0.62133825 0.14106049 0.037146922
000180 0c 6f 6a bf 4a f0 75 3d f9 f4 64 3e fc a3 fa 3e
       -0.91575694 0.06004361 0.22359075 0.48953235
000190 d8 a1 25 be c4 a3 80 3d 6d 58 83 bf 16 cc a2 bd
       -0.1617502 0.06281236 -1.026136 -0.079490826
0001a0 f7 46 35 3e 70 c4 9f 3e 21 26 4a be 6f 99 d9 3d
       0.17702852 0.31204557 -0.19741108 0.10624968
0001b0 c2 26 4a bf b0 63 ce 3d 50 e7 89 3d 15 ff 18 3f
       -0.7896539 0.10077608 0.067335725 0.59764224
0001c0 b4 fe 04 bd a2 02 cc bc df b6 68 bf 3e 50 99 3d
       -0.032469466 -0.0249036 -0.9090404 0.07486008
0001d0 f6 f9 cc bd 9a 3b 43 3f 77 27 5b bc c9 82 58 3a
       -0.10008614 0.7626282 -0.013376108 0.00082592346
0001e0 e4 f5 91 bf 34 8c c6 3c f4 19 a2 bd 33 e3 aa bc
       -1.1403165 0.024236776 -0.079151064 -0.02086029
0001f0 e5 6c 2b bd 8a 7a 26 3d 96 4f 4b bb 97 4c b4 be
       -0.041851897 0.040644206 -0.0031022779 -0.35214683
000200 c5 d4 bb bb f3 01 36 be 6d 9c b9 3d 15 45 fd be
       -0.005732151 -0.17774181 0.09063039 -0.49466768
000210 48 40 00 be 98 2b b5 3d f5 7b b0 3e 44 ba 70 bd
       -0.12524521 0.088462055 0.34469572 -0.058771387
000220 09 2c 1d 3e ef bf 31 bf 8c 79 8c be f3 a1 97 3e
       0.1534883 -0.6943349 -0.27436483 0.29615745
000230 88 d7 ae 3e f2 b7 84 3e 27 59 8a bd 38 86 05 bf
       0.34148812 0.2592159 -0.06755286 -0.52157927
000240 14 86 99 be e7 29 10 3e c8 13 de 3e e2 03 3c 3e
       -0.29985106 0.14078484 0.43374467 0.18360856
000250 8d 7e c4 3c 8d 12 36 bf 2d f6 ac be f9 54 ca 3d
       0.023986125 -0.71122056 -0.33781567 0.098794885
000260 50 1e 56 3f af c4 a9 3d 9e 15 f6 bc 69 65 27 bf
       0.83640003 0.082894675 -0.030039605 -0.65389115
000270 38 60 27 bd 93 d5 c9 3e 74 5d 27 3f ba 16 5d bd
       -0.040863246 0.39420757 0.65376973 -0.053976752
000280 70 b1 9a 3d 9a f5 3a bf 9a a6 ca bb a4 81 6f 3e
       0.07553375 -0.7303101 -0.0061844112 0.23389298
000290 0a 49 49 3f 0b f3 43 be 76 6e 60 be 3d 12 03 bf
       0.78627074 -0.19135682 -0.21917138 -0.51199704
0002a0 00 e2 07 3b 92 b0 95 3e 4a 99 24 3f 47 be 80 be
       0.0020734072 0.29236275 0.642964 -0.2514517
0002b0 30 bd 3f be bf f0 44 bf 51 47 cb bd 31 6f 4f 3e
       -0.18724513 -0.7692985 -0.09925712 0.2025726
0002c0 bd a8 4e 3f e4 16 0d be c0 c0 d0 be 22 84 66 bf
       0.80726224 -0.13778263 -0.40772057 -0.9004537
0002d0 6d f0 47 3d e3 da bb 3e 3c e7 4a 3f e7 d0 af bd
       0.048813272 0.36690435 0.79259086 -0.08584767
0002e0 d3 b7 54 be e0 39 04 bf 47 3c fd 3d 9c e0 73 3e
       -0.20773248 -0.5165081 0.123650126 0.2381615
0002f0 47 8a 2e 3f ed ea b0 bd a0 8a 3d be 62 b3 f3 be
       0.68179744 -0.086385585 -0.18509912 -0.47597796
000300 00 5c e7 bd ac bb 25 3e e3 44 0d 3f 06 ba ef 3c
       -0.112968445 0.16184872 0.5518324 0.029263508
000310 f4 71 d8 bd 2e b8 0a bf e6 e4 6c bc cf 67 9a 3e
       -0.1056861 -0.54187286 -0.0144588705 0.30157325
000320 6d b6 27 3f 06 5e 69 be 61 d0 6f 3d 5d e8 e3 be
       0.65512735 -0.22789773 0.058548335 -0.44513217
000330 8a 24 7a bd 84 d7 9c 3d 74 bf 5f 3f 35 bf cb be
       -0.061070003 0.07658294 0.8740151 -0.39794317
000340 5a b7 a9 3d 6c d7 50 bf 13 59 cc bd df da 16 3e
       0.08286925 -0.8157871 -0.09977927 0.1473193
000350 97 77 15 3f 3a 96 20 be 91 0d 1e be b5 1d 04 bf
       0.58385605 -0.15682307 -0.15434863 -0.5160783
000360 72 2a 6c be 49 a3 1a 3d d4 ce 05 3f 2d d1 21 3d
       -0.23063067 0.037753377 0.5226872 0.039506126
000370 f7 11 a6 3d df f6 25 bf 84 94 ee bd 9b 7e 70 3e
       0.08108895 -0.6482982 -0.11649421 0.23485796
000380 52 fd 2a 3f 17 15 54 be bd fc 9a 3c 1a 9f 2c bf
       0.66792786 -0.2071117 0.018919343 -0.6743027
000390 9d fc dc bd 71 71 e2 3d 64 56 0c 3f aa 67 e9 ba
       -0.1079037 0.110567935 0.5481932 -0.0017807384
0003a0 26 e3 b5 3d 84 53 19 bf e6 49 49 be b5 ee 36 3e
       0.08881216 -0.5989306 -0.19657096 0.17864497
0003b0 15 ec cc 3e 72 98 00 be 7e b7 79 3e e4 f4 44 bf
       0.40023866 -0.12558153 0.24386403 -0.76936173
0003c0 65 ed 57 be 8f dc d5 bd c8 02 0d 3f f1 7e 4c be
       -0.21086653 -0.10442459 0.5508237 -0.199703
0003d0 3b c3 8d 3e 82 6e 85 bf 55 31 cf 3d 09 ff 91 bc
       0.27688012 -1.0424349 0.10116831 -0.017821806
0003e0 b3 56 43 3f dc e9 d1 bc 8a 88 c3 3e 62 31 3a 3c
       0.7630417 -0.025624208 0.3819011 0.011364313
0003f0 66 bd 90 ba ef c7 5b bc dd e9 f3 3d c3 00 ac bd
       -0.0011042773 -0.013414367 0.1190984 -0.08398583

network_body._body_endoder.seq_layers.0.bias f4 [20]
000000 cb c8 42 3e 90 4f 13 3e 2e d1 94 3e 55 47 af bd
       0.19021909 0.1438582 0.2906584 -0.085585274
000010 0a 44 cd 3d d3 9b aa bd 68 da 3f 3d 6f a8 01 3e
       0.10022743 -0.08330502 0.046839148 0.12661909
000020 8d 8d 4d 3e 2e 97 aa bc ec 1a 8f bd 7c 25 03 3e
       0.20073529 -0.020824041 -0.06987557 0.12807268
000030 38 b2 fb bc 24 26 d5 3c d3 05 05 3d e9 70 10 bd
       -0.03072463 0.026019163 0.032476258 -0.03526393
000040 ef 96 e2 3c ce f6 89 3e 8c 5d 62 be ef f9 ed 3d
       0.027659861 0.2694611 -0.22105998 0.11619937

action_model._discrete_distribution.branches.0.weight f4 [6, 20]
000000 e6 dc cd bd 8f 9c 48 be b9 b7 32 be 45 02 fc 3e
       -0.10051899 -0.19590972 -0.17452897 0.49220482
000010 c2 60 c1 3e 20 c9 9d 3d 1d fb 2a 3f 20 1d 99 be
       0.37769133 0.07704377 0.6678942 -0.29905033
000020 2a e3 d0 bd ce f1 a8 3e 1e ad 59 3e d1 71 95 bd
       -0.10199578 0.32996982 0.21257445 -0.072970994
000030 d2 52 74 3d e8 92 d9 3e 6b d9 f2 3e 40 20 e7 3e
       0.059649296 0.42494893 0.47431502 0.45141792
000040 99 1e 87 3e 13 75 df be d9 3f 1c bd 81 03 21 3e
       0.26390532 -0.43644008 -0.038146827 0.15723993
000050 80 d7 fc 3d 05 b1 94 3d b0 ff 08 3e d5 6f cb 3c
       0.12345791 0.07260326 0.13378787 0.0248336
000060 bf 6e cd 39 1c 3f 31 be 3b ea a4 bd 4f a5 9b 3e
       0.0003918316 -0.1730923 -0.080524884 0.30399558
000070 9f 39 80 bc 7b f6 da 3d 46 73 9f be c6 c6 9c 3d
       -0.015652476 0.10691544 -0.31142634 0.076551005
000080 06 60 0e bc c6 63 c1 bd 9f f6 07 be da 6e 3f be
       -0.008689886 -0.094428584 -0.13277672 -0.1869463
000090 82 7b 5a 3d 0f b3 1b 3e 02 92 b9 3c 93 20 14 3e
       0.053340442 0.15205024 0.02265263 0.14465551
0000a0 45 96 6f 3d 3b 8a 2a 3e b6 0e 4f 3e 4e 94 f5 3c
       0.058492918 0.16654293 0.20220456 0.029977944
0000b0 13 2b 85 be 7d a5 05 be c4 c8 4f 3d 44 55 c9 3d
       -0.26009426 -0.1305141 0.050728574 0.09830716
0000c0 9f b3 37 3e 4b 02 91 3d 3f 16 a3 be d3 5c a6 3d
       0.17939614 0.070805155 -0.3185291 0.081231736
0000d0 6c ed 22 be 14 41 70 3d e8 01 65 be b2 82 79 3c
       -0.15910882 0.058655813 -0.22364008 0.015228914
0000e0 03 86 9b 3d 95 44 4c 3e 22 68 65 be 25 1f 11 3e
       0.0759392 0.19948037 -0.22403005 0.14172037
0000f0 a1 18 9f 3d e5 d4 a5 bd 33 a3 82 3e fd 04 7d 3c
       0.077683695 -0.08097247 0.25515136 0.015443084
000100 db 15 25 bd cc 4e 66 3b 8d 96 e9 bd 43 32 01 3d
       -0.040304046 0.0035142181 -0.114056684 0.031542074
000110 e1 fb 13 3c 9e 48 1c bd 44 10 bf bb 52 d5 a2 3d
       0.009032221 -0.03815519 -0.0058307964 0.07950844
000120 28 de 64 3d 97 32 5c bb f0 24 44 be 8f cc 3c be
       0.055875927 -0.003359949 -0.19154716 -0.18437408
000130 39 2c 91 bd 3f 57 a5 3d 64 bc 03 3d e2 6a 05 3d
       -0.07088513 0.080732815 0.032162085 0.032572635
000140 01 74 ba 3d 81 00 76 3e 5d fc d2 3d fb 26 3e 3d
       0.09104157 0.2402363 0.10302041 0.046423893
000150 a4 1f 27 3e 5d 3b f2 3d 39 bd 4e be 84 07 79 3e
       0.16320664 0.11827729 -0.2018937 0.24319273
000160 9d b2 23 3e 75 ce 5e bd fa c2 0d be da f6 1c 3e
       0.15986104 -0.05439611 -0.13843909 0.15328541
000170 56 2d a1 3e f2 82 88 bd a5 c0 dc bd d9 f9 96 bd
       0.314799 -0.06665601 -0.107789315 -0.073718734
000180 e4 c4 35 3d 00 a4 79 3e 95 93 30 be bc 8a 47 3d
       0.044377223 0.24378967 -0.17243798 0.04871629
000190 14 3c 4c 3e 1e 62 f8 3c 26 18 84 be f4 59 6e be
       0.19944793 0.030320223 -0.25799674 -0.23276502
0001a0 14 10 eb 3c 10 b8 97 3e 10 49 a4 3d 21 b8 38 bd
       0.02869419 0.29632616 0.08021748 -0.045097474
0001b0 8e 54 1d 3e 2a d3 a6 be f1 36 06 3f 18 09 33 3e
       0.15364286 -0.3258298 0.52427584 0.17483938
0001c0 cb ac b0 bd 1e c0 fe bd 8b 56 de bd d5 87 9f 3e
       -0.08626708 -0.12438987 -0.108563505 0.3115832
0001d0 e7 b6 64 3d 23 75 42 3e d9 21 97 3e 33 d8 84 be
       0.05583849 0.18989997 0.2951801 -0.25946197

action_model._discrete_distribution.branches.0.bias f4 [6]
000000 0e 40 2a 3d e5 b6 5c 3e 12 8a 14 3e 32 3a 98 3c
       0.041564994 0.21554144 0.14505795 0.018582437
000010 15 dc 62 3d 7a 3d e6 bd
       0.055385668 -0.112421945

action_model._discrete_distribution.branches.1.weight f4 [4, 20]
000000 24 86 d0 bd 29 04 c2 bc 91 82 06 bd 10 5f ca 3e
       -0.10181835 -0.023683624 -0.03283936 0.39525652
000010 43 d2 5c bd f0 b5 3f be ee 14 a8 3e 55 4a c0 bd
       -0.05391146 -0.18721747 0.32828468 -0.09389178
000020 f0 7f 53 3d 74 25 f6 3d f8 f6 12 be 32 90 bb bd
       0.051635683 0.12018862 -0.14352024 -0.091583624
000030 65 f8 40 3d 4e be 6c 3e c3 63 6d bd da f7 77 3e
       0.047111887 0.2311947 -0.05795647 0.24215642
000040 40 b6 4a 3d c2 70 b9 be b5 69 a7 bc d1 3c b2 3c
       0.049490213 -0.3621884 -0.020436147 0.021757515
000050 9a 70 55 bf 54 a9 05 3f 5b 2b 84 3e f4 e2 19 bf
       -0.8337494 0.522115 0.25814328 -0.6011193
000060 1d 83 12 bf 10 2c 9a 3e 31 e3 18 be 63 04 7a 3e
       -0.57231313 0.30111742 -0.14930417 0.24415736
000070 d2 44 13 3f d6 ac d4 3d 4d 6e ba 3e 11 4a d9 3e
       0.57526886 0.10384528 0.36412278 0.4243932
000080 17 5a 6e 3e 4c be 25 bf 14 ef 00 bf 62 e2 ba be
       0.23276554 -0.64743495 -0.50364804 -0.3650084
000090 99 f3 3e bf 0e 95 d3 3e f5 95 01 be 7e 46 0f bf
       -0.7459045 0.41324657 -0.1265486 -0.5596694
0000a0 3a c1 4a 3f 23 57 59 bf 82 23 8a 3d ab a1 ba be
       0.7920109 -0.84898585 0.06745054 -0.36451468
0000b0 dd 17 ba 3e 01 ba 31 3e fc ac 5c bf fc 93 8b be
       0.3634633 0.17356111 -0.86201453 -0.2726134
0000c0 ed af 65 bf 2b fc 8f bd d7 94 29 be 7e 7c 3b bf
       -0.89721566 -0.07030519 -0.16560684 -0.73236835
0000d0 2e fa 74 3d 7a c5 ae 3d 33 50 e4 3e 23 2a f6 be
       0.059808902 0.085337594 0.44592437 -0.48079023
0000e0 3d 3d c8 3e ba 2d 41 3e c6 49 47 bd b7 bf b0 3e
       0.3910922 0.188651 -0.04865434 0.34521267
0000f0 d9 3e 84 3d 24 a1 3b 3d 99 e9 c1 bd e0 ae 9f 3e
       0.064573 0.045807973 -0.09468383 0.31188107
000100 82 ac e3 3d a4 61 a6 bc 01 2e d9 3e 9e 80 ab 3d
       0.11116888 -0.02031023 0.4241791 0.08374141
000110 c3 8f c9 3d a2 33 b4 bc ea 31 69 3c a2 94 3e 3e
       0.098418735 -0.021997277 0.014233092 0.18611386
000120 5d df e7 bd 79 ab e8 3d 49 22 76 3c a1 b5 9a 3e
       -0.113219 0.11360831 0.015022823 0.30216697
000130 b0 f6 10 3e 57 9e 17 be 7d 83 23 3e bb 3d d8 3d
       0.14156604 -0.14806496 0.15968128 0.10558649

action_model._discrete_distribution.branches.1.bias f4 [4]
000000 21 0d 61 3b 36 43 57 3b 25 95 4c 3d 31 8b 92 3c
       0.00343401 0.0032846457 0.049946923 0.017888637

action_model._discrete_distribution.branches.2.weight f4 [3, 20]
000000 eb dc 23 3e 62 78 fd bc 39 29 23 bc 64 fc 88 3d
       0.16002242 -0.030941192 -0.009958559 0.06688765
000010 b7 24 63 3e cb f2 8b 3d d7 a3 df 3d 28 aa 90 3d
       0.22181974 0.068334185 0.10919922 0.07063705
000020 0b f5 bf bd 72 b1 28 bc 9e 8f 11 3c 83 09 87 bd
       -0.0937291 -0.0102962125 0.008884339 -0.06593611
000030 ad 1d 88 be 76 b7 71 3c cb 6f b1 3d 8f 49 0f 3e
       -0.2658514 0.014753213 0.08663901 0.13992904
000040 58 3a f6 3d da e9 d1 3d 79 7d bb 39 dc 91 1a 3e
       0.12022847 0.10249682 0.00035760904 0.15094703
000050 bd 96 0a 3d 03 a0 1a bd 08 f7 2a bd c5 d2 8b 3d
       0.03383516 -0.037750255 -0.041739494 0.068273105
000060 39 33 89 bd e5 1e b4 bd 1f b6 6b 3d a2 f0 c1 bd
       -0.06699223 -0.08794955 0.05754673 -0.09469725
000070 4e 18 4b 3d e7 01 8b 3c 1c 8a 89 3d 6a 2e 91 3d
       0.049583726 0.01696868 0.067157954 0.07088931
000080 e0 12 37 3e 36 ed 19 3d 3e 6e 22 bc ee f1 be 3d
       0.17878294 0.037579738 -0.009913979 0.09323488
000090 8c dc ad 3c 34 05 de bd a1 41 b0 3d 6f 7b 4a 3d
       0.021223329 -0.10840836 0.08606268 0.04943412
0000a0 a7 48 a8 3c c6 d3 25 3e 81 21 d2 3d c7 8e a1 3d
       0.020542456 0.16194066 0.102602966 0.07888561
0000b0 0f a9 36 3d 83 83 46 3d ce dc 5a 3d ee 23 d4 3c
       0.04459482 0.048465263 0.053433232 0.025896039
0000c0 be 6c 2a 3e 73 af cb 3d 51 f7 0e 3d f3 8d 11 3e
       0.16643044 0.09945574 0.034903828 0.14214306
0000d0 f4 ad a2 3d e7 41 50 3e 2e a2 20 3d 19 4c e9 bc
       0.07943335 0.2033764 0.039217167 -0.028478669
0000e0 44 66 2a 3d 05 3b 8e 3d 5d ca 80 bd 69 66 92 bd
       0.041601434 0.06944851 -0.06288598 -0.071484394

action_model._discrete_distribution.branches.2.bias f4 [3]
000000 8a c4 59 3d 94 d2 dc 3c 28 27 86 3d
       0.05316595 0.02695588 0.06550437

exp_avg f4 [20, 128]
000000 01 5d 04 bb 8d 7a a5 b8 65 1f 63 38 01 5d 04 bb
       -0.0020197036 -7.89064e-05 5.4150256e-05 -0.0020197036
000010 8d 7a a5 b8 dd 1b 25 38 01 5d 04 bb 8d 7a a5 b8
       -7.89064e-05 3.9365015e-05 -0.0020197036 -7.89064e-05
000020 97 fb 63 38 01 5d 04 bb 8d 7a a5 b8 6e 1c 20 38
       5.435533e-05 -0.0020197036 -7.89064e-05 3.817345e-05
000030 71 e8 a9 38 8d 7a a5 b8 f3 55 2d ba 38 ae 00 bb
       8.1018436e-05 -7.89064e-05 -0.00066122337 -0.0019635092
000040 8d 7a a5 b8 12 57 bc 37 be 36 44 38 8d 7a a5 b8
       -7.89064e-05 2.2451892e-05 4.6781024e-05 -7.89064e-05
000050 11 8d 24 ba 00 b0 25 bb 8d 7a a5 b8 cc 2a ee 37
       -0.0006277124 -0.0025281906 -7.89064e-05 2.839174e-05
000060 be 36 44 38 8d 7a a5 b8 46 3f 22 ba 15 6a f3 ba
       4.6781024e-05 -7.89064e-05 -0.0006189238 -0.0018571044
000070 8d 7a a5 b8 c3 12 10 b9 31 0a b3 b6 8d 7a a5 b8
       -7.89064e-05 -0.000137399 -5.335802e-06 -7.89064e-05
000080 23 95 13 ba 32 69 fe ba a6 7a a5 b8 70 05 13 b9
       -0.0005629828 -0.0019410013 -7.890658e-05 -0.00014021038
000090 31 0a b3 b6 8d 7a a5 b8 88 4f 82 ba 32 69 fe ba
       -5.335802e-06 -7.89064e-05 -0.0009941915 -0.0019410013
0000a0 07 9b bf b8 7e 50 83 b9 c8 d4 bf 27 f8 3e b3 b7
       -9.136466e-05 -0.00025046238 5.3243847e-15 -2.1367785e-05
0000b0 37 e3 5d ba be bd 8b a2 8b 7a a5 b8 80 35 a6 ba
       -0.00084643386 -3.7876923e-18 -7.8906385e-05 -0.0012680739
0000c0 31 55 5d 28 7f 2b da 35 c6 de 54 ba be bd 8b a2
       1.2286437e-14 1.6254925e-06 -0.0008120354 -3.7876923e-18
0000d0 31 7a a5 b8 fe c5 a1 ba da f5 ce 9f 29 1d e3 39
       -7.890573e-05 -0.0012342331 -8.765112e-20 0.0004331854
0000e0 d8 75 bd b9 cb bd 8b a2 e5 79 a5 b8 f9 99 ae ba
       -0.0003613669 -3.7876977e-18 -7.890518e-05 -0.0013321034
0000f0 9c 55 14 a0 b4 a3 c5 b8 c0 b7 e9 b9 cb bd 8b a2
       -1.2564413e-19 -9.424184e-05 -0.00044578128 -3.7876977e-18
000100 14 4d b8 b8 3d 80 b8 b9 c7 6a 33 9f ad 32 46 ba
       -8.7881606e-05 -0.0003519076 -3.799305e-20 -0.0007560652
000110 69 95 0f ba cb bd 8b a2 38 d8 ac 37 7b 1e 0c ba
       -0.0005477281 -3.7876977e-18 2.0604683e-05 -0.0005345118
000120 c7 6a 33 9f a2 92 31 ba fc 20 e4 b9 cc c3 aa a0
       -3.799305e-20 -0.0006773864 -0.00043512124 -2.8928688e-19
000130 00 f2 d6 38 02 71 f4 39 c7 6a 33 9f 40 4a 18 3a
       0.00010249391 0.00046623504 -3.799305e-20 0.0005809404
000140 4f 57 28 3a cc c3 aa a0 a7 79 a5 b8 45 6e c5 39
       0.00064217014 -2.8928688e-19 -7.8904726e-05 0.00037656925
000150 0d 1e b8 1c 11 fd 6d 39 cd 5e 89 39 cc c3 aa a0
       1.2183867e-21 0.00022696356 0.00026201308 -2.8928688e-19
000160 ae 79 a5 b8 52 2c fc 39 0d 1e b8 1c 19 d5 90 ba
       -7.890478e-05 0.00048098207 1.2183867e-21 -0.0011049836
000170 05 c0 16 b8 af c3 aa a0 12 75 a5 b8 4e 53 4d 3a
       -3.594162e-05 -2.8928613e-19 -7.889619e-05 0.0007832543
000180 72 8f bc 1f aa 32 46 ba ef 59 af b8 af c3 aa a0
       7.985841e-20 -0.000756065 -8.361402e-05 -2.8928613e-19
000190 f2 42 df b8 e7 76 d9 38 9c e5 29 9c 04 b7 2f ba
       -0.00010645938 0.000103695136 -5.6214173e-22 -0.00067029917
0001a0 ba 4e 02 b7 b5 3d b2 0a 93 71 a2 38 62 ff b1 39
       -7.766934e-06 1.7163988e-32 7.745917e-05 0.00033950346
0001b0 9c e5 29 9c df 59 25 ba 8d 21 c6 38 00 29 8b 0b
       -5.6214173e-22 -0.00063076423 9.447625e-05 5.360254e-32
0001c0 47 7b a5 b8 b6 07 40 39 89 ed 0f 89 62 bd 31 b8
       -7.890775e-05 0.0001831342 -1.7324687e-33 -4.2376465e-05
0001d0 3c cc 7e ba 85 07 f9 0a 47 7b a5 b8 cd 77 93 39
       -0.00097197643 2.3980656e-32 -7.890775e-05 0.00028127283
0001e0 e0 f1 f6 8a a5 79 a5 b8 a3 07 68 ba 47 95 2f bd
       -2.3779922e-32 -7.890471e-05 -0.00088512356 -0.04286697
0001f0 e7 0d e3 bc 06 f5 f9 3a 3b d3 74 ba 01 5d 04 bb
       -0.02771659 0.0019070215 -0.0009339337 -0.0020197036
000200 19 1b 34 ba b7 4e 5c 36 62 67 c4 b9 19 1b 34 ba
       -0.0006870493 3.2828373e-06 -0.0003746106 -0.0006870493
000210 b7 4e 5c 36 26 05 c4 b9 19 1b 34 ba b7 4e 5c 36
       3.2828373e-06 -0.0003738787 -0.0006870493 3.2828373e-06
000220 ce 69 ca b9 19 1b 34 ba b7 4e 5c 36 7e a6 c6 b9
       -0.00038607273 -0.0006870493 3.2828373e-06 -0.0003788955
000230 f6 9a 01 ba b7 4e 5c 36 23 40 f3 b9 04 af 71 39
       -0.00049440505 3.2828373e-06 -0.00046396357 0.0002304875
000240 b7 4e 5c 36 ad 8f 2c ba db d3 47 b9 b7 4e 5c 36
       3.2828373e-06 -0.00065826887 -0.00019057041 3.2828373e-06
000250 1f 88 f5 b9 ea 7f ea 39 b7 4e 5c 36 93 08 42 ba
       -0.0004683146 0.0004472726 3.2828373e-06 -0.00074017904
000260 db d3 47 b9 b7 4e 5c 36 f7 fb f4 b9 63 0c 4c b9
       -0.00019057041 3.2828373e-06 -0.00046727035 -0.0001945957
000270 b7 4e 5c 36 f4 89 bf b9 f1 c5 fa b9 b7 4e 5c 36
       3.2828373e-06 -0.00036533142 -0.00047831194 3.2828373e-06
000280 fb e9 c5 b9 17 e3 52 b9 fe 5f 5c 36 a4 56 d0 b8
       -0.00037749097 -0.00020111758 3.283843e-06 -9.934351e-05
000290 f1 c5 fa b9 b7 4e 5c 36 00 46 98 38 17 e3 52 b9
       -0.00047831194 3.2828373e-06 7.260963e-05 -0.00020111758
0002a0 d0 55 9b b6 e1 f6 b7 b9 7e f9 a8 2a 09 1d 05 b6
       -4.62935e-06 -0.0003508842 3.0015915e-13 -1.9835445e-06
0002b0 21 3a f6 b9 2d 1c f5 21 5e 48 5c 36 db c3 13 ba
       -0.00046964086 1.6609304e-18 3.2824678e-06 -0.000563679
0002c0 90 7a 75 2a 60 80 8d 35 86 35 02 ba 00 1c f5 21
       2.1802894e-13 1.0542681e-06 -0.0004967082 1.6609257e-18
0002d0 5e 48 5c 36 f4 f7 2c ba ba b8 f5 21 67 d9 9f b9
       3.2824678e-06 -0.0006598227 1.6650742e-18 -0.0003048882
0002e0 96 19 3a ba 00 1c f5 21 14 6c 5c 36 be 60 3b ba
       -0.00070991495 1.6609257e-18 3.2845464e-06 -0.00071478996
0002f0 ce 87 1c 23 0a c1 cb b5 37 8f 37 ba 00 1c f5 21
       8.485535e-18 -1.518086e-06 -0.00070022367 1.6609257e-18
000300 00 98 d9 b7 d6 eb c7 b9 6a a1 fb 22 52 10 8e 37
       -2.5939196e-05 -0.0003813195 6.820459e-18 1.6935319e-05
000310 fd 41 31 ba 00 1c f5 21 8f 6d c9 b9 dc b2 1f ba
       -0.0006761847 1.6609257e-18 -0.00038419335 -0.0006092021
000320 6a a1 fb 22 08 b9 69 b8 b0 3a 58 ba 0d 54 4a 1e
       6.820459e-18 -5.5723853e-05 -0.0008248491 1.0711172e-20
000330 24 98 dc b9 1a 85 c3 ba 6a a1 fb 22 eb 29 95 ba
       -0.00042075024 -0.0014916987 6.820459e-18 -0.001138029
000340 7a a8 e7 ba 0d 54 4a 1e 39 7a 5c 36 e5 58 c0 ba
       -0.0017674111 1.0711172e-20 3.2853698e-06 -0.001467493
000350 48 dc 97 1e 77 a0 89 ba 55 2d d8 ba 0d 54 4a 1e
       1.6078853e-20 -0.0010500093 -0.0016493002 1.0711172e-20
000360 12 7e 5c 36 8f 0d c6 ba 48 dc 97 1e ce 3b cd 38
       3.2855937e-06 -0.0015110242 1.6078853e-20 9.786301e-05
000370 4c 59 bb ba 46 65 4a 1e 7c af 5b 36 29 fe b4 ba
       -0.001429358 1.0714734e-20 3.2735688e-06 -0.0013808656
000380 e0 21 c6 a1 d8 0f 8e 37 0f cd b0 ba 46 65 4a 1e
       -1.3425969e-18 1.6935097e-05 -0.0013488847 1.0714734e-20
000390 fe fc 15 38 65 a1 33 ba a8 36 b2 a0 2b 67 ed b7
       3.5759986e-05 -0.0006852358 -3.0190541e-19 -2.8300643e-05
0003a0 9f 02 b6 ba 91 0a 31 0a b2 b4 5a b9 33 db 71 ba
       -0.0013886279 8.524227e-33 -0.00020857414 -0.00092260836
0003b0 a8 36 b2 a0 6a ab 0d b9 38 82 ca ba be 70 55 09
       -3.0190541e-19 -0.00013510665 -0.0015450185 2.5691954e-33
0003c0 09 87 5c 36 c4 04 58 ba e1 19 64 0b 9d 2c 09 b8
       3.2861155e-06 -0.0008240456 4.3930672e-32 -3.2704895e-05
0003d0 fa 5a c1 b9 47 d5 a9 0a 8a 89 5c 36 0d b9 a4 ba
       -0.0003687961 1.6354334e-32 3.2862613e-06 -0.0012567356
0003e0 e2 97 39 0c b7 4f 5c 36 28 a0 d7 b9 00 69 68 3c
       1.4297587e-31 3.2828955e-06 -0.0004112732 0.01418519
0003f0 36 28 84 bc 90 78 ca ba 61 cd 32 3a 19 1b 34 ba
       -0.016132455 -0.0015447307 0.0006820765 -0.0006870493

exp_avg_sq f4 [20, 128]
000000 bb 8b c0 37 83 46 59 35 86 94 01 37 e2 ed c4 37
       2.295325e-05 8.094141e-07 7.72358e-06 2.3475794e-05
000010 2c 11 62 35 1d dc 04 37 82 71 74 37 59 d2 43 35
       8.421655e-07 7.919062e-06 1.4569961e-05 7.2949257e-07
000020 70 3f 1e 37 a2 ae bf 37 f1 af ad 35 0f 71 03 37
       9.432304e-06 2.2850294e-05 1.294071e-06 7.834532e-06
000030 14 43 9d 36 5e 2d 32 35 3c aa 3c 37 6a 80 b3 37
       4.6867735e-06 6.6376185e-07 1.1245309e-05 2.139826e-05
000040 b0 17 b1 35 7e a0 05 37 25 40 14 36 3f d7 35 35
       1.3194422e-06 7.964785e-06 2.2091056e-06 6.774098e-07
000050 68 72 4d 37 cb 94 94 37 2c eb bf 35 01 b3 0c 37
       1.22455895e-05 1.7712262e-05 1.4299053e-06 8.386328e-06
000060 92 ab bf 34 92 d5 62 35 7e 82 5b 37 ba de 71 37
       3.5701356e-07 8.4502346e-07 1.30838e-05 1.4416577e-05
000070 c4 ad cb 35 67 4e 10 37 c5 b7 54 34 4d fc 52 35
       1.5175251e-06 8.601323e-06 1.9810894e-07 7.859824e-07
000080 a5 39 60 37 e3 fa ee 36 a5 e6 df 35 c7 38 2a 37
       1.3364862e-05 7.12216e-06 1.6681921e-06 1.0146009e-05
000090 cb 72 12 34 48 23 70 35 b8 05 70 37 68 b7 a8 36
       1.3639071e-07 8.945831e-07 1.4306446e-05 5.0281415e-06
0000a0 b0 3e c8 35 b3 27 31 37 cb 63 23 33 c1 f4 5c 36
       1.4919406e-06 1.0559265e-05 3.8042156e-08 3.292502e-06
0000b0 ce a0 80 37 9e c3 00 34 3d 23 bb 35 7e e4 5e 37
       1.533367e-05 1.1992094e-07 1.3942841e-06 1.3285431e-05
0000c0 03 a2 23 33 53 80 4a 36 42 00 c2 37 e1 5b 31 34
       3.8098744e-08 3.017504e-06 2.3126722e-05 1.6517835e-07
0000d0 ca 09 e0 35 72 4a 67 37 21 e5 df 30 1f 39 8f 36
       1.669215e-06 1.3786006e-05 1.6290508e-09 4.268382e-06
0000e0 db bb df 37 60 86 32 34 89 58 f0 35 22 1a 82 37
       2.6671149e-05 1.6626427e-07 1.790716e-06 1.5509377e-05
0000f0 bc 90 02 33 45 e4 8d 36 a0 e9 e9 37 5d a6 b8 34
       3.039962e-08 4.2287015e-06 2.7884555e-05 3.4393716e-07
000100 34 7d 05 36 3a 91 5f 37 00 4d 0b 33 5e 5d a4 36
       1.9891422e-06 1.3325649e-05 3.243349e-08 4.8984502e-06
000110 6b 31 06 38 7c 73 1f 33 81 64 43 36 5f f7 6b 37
       3.1994114e-05 3.7125105e-08 2.9115765e-06 1.4064687e-05
000120 e1 dc 49 30 f6 a7 cf 36 be 57 0d 38 ea fd 86 33
       7.343726e-10 6.188634e-06 3.3698736e-05 6.286048e-08
000130 06 c6 85 36 7b 3c 84 37 b9 d0 fd 2f 15 2b ff 36
       3.986762e-06 1.576379e-05 4.6168738e-10 7.6046076e-06
000140 3b d5 13 38 92 99 37 34 1b b5 84 36 0d 53 86 37
       3.5246117e-05 1.7099072e-07 3.95499e-06 1.6012718e-05
000150 56 db 04 30 cf c0 0a 37 b5 47 15 38 58 3c c5 34
       4.8333015e-10 8.270333e-06 3.559115e-05 3.6738015e-07
000160 89 03 40 36 56 8a 88 37 d7 d0 8b 32 2f d5 9d 36
       2.8612287e-06 1.6276881e-05 1.6276699e-08 4.7037825e-06
000170 4c 87 0f 38 5b 8f 74 33 bb 91 38 36 22 59 7e 37
       3.4219862e-05 5.6941058e-08 2.7502963e-06 1.5160333e-05
000180 49 11 7c 32 f1 39 bb 36 60 20 0c 38 b0 78 f7 33
       1.4672261e-08 5.5797796e-06 3.3408753e-05 1.1523787e-07
000190 bf 3c 32 36 26 2c 7f 37 b3 d1 48 30 77 ec c5 36
       2.6559426e-06 1.52094635e-05 7.3057577e-10 5.8985856e-06
0001a0 c0 07 0d 38 df 20 46 34 34 bf 39 36 43 0e 83 37
       3.3624237e-05 1.8452145e-07 2.7678443e-06 1.5623058e-05
0001b0 7a cb c8 31 16 f4 ca 36 6d 1f 09 38 e5 4f 1a 34
       5.8438987e-09 6.0484845e-06 3.2692613e-05 1.4371433e-07
0001c0 5e 6a 31 36 66 23 8d 37 03 f1 82 31 13 4b 89 36
       2.643697e-06 1.6824994e-05 3.810898e-09 4.091658e-06
0001d0 8d 0c f2 37 96 0e 36 33 22 33 46 36 4c b9 8d 37
       2.8854492e-05 4.2388443e-08 2.9534062e-06 1.6894795e-05
0001e0 24 ac 81 32 ee f5 86 36 31 2f db 37 d6 03 74 3c
       1.5095857e-08 4.022141e-06 2.612881e-05 0.014893493
0001f0 87 62 27 3d 7e 28 90 37 8b 84 bd 37 bb 8b c0 37
       0.040865447 1.7184993e-05 2.2592276e-05 2.295325e-05
000200 51 70 f6 37 81 67 70 35 88 67 d2 36 88 01 64 37
       2.9377787e-05 8.9557585e-07 6.2705403e-06 1.35902155e-05
000210 96 e2 81 35 51 1b 1c 37 be e8 f8 37 1c c9 67 35
       9.677194e-07 9.304685e-06 2.9672283e-05 8.634686e-07
000220 09 9d d0 36 76 92 19 37 b5 41 b5 35 30 6a 24 37
       6.2171644e-06 9.153611e-06 1.3504674e-06 9.799885e-06
000230 19 e2 e9 37 3e 25 0c 35 de 28 db 36 5a a3 28 36
       2.788105e-05 5.220826e-07 6.531466e-06 2.5129034e-06
000240 3f 77 d1 35 d4 7d 3b 37 c0 9c c2 37 31 fa ee 34
       1.5606419e-06 1.1175365e-05 2.3199595e-05 4.4512993e-07
000250 3e e5 f7 36 64 fc 82 35 51 aa e7 35 f2 74 44 37
       7.387861e-06 9.75921e-07 1.726041e-06 1.1709739e-05
000260 ed b5 76 37 de a5 24 35 33 38 13 37 5a 1e 3c 35
       1.47051005e-05 6.133613e-07 8.774968e-06 7.0079625e-07
000270 f6 0a ee 35 7c 74 47 37 84 39 02 37 e9 34 18 35
       1.7735572e-06 1.1888445e-05 7.761995e-06 5.6701407e-07
000280 7e c7 1d 37 19 31 d0 35 f9 a7 3c 36 37 d2 29 37
       9.404377e-06 1.5511497e-06 2.8111956e-06 1.0122129e-05
000290 83 d2 b6 36 cd c6 0c 35 94 97 2b 37 26 5b bb 33
       5.4485295e-06 5.244336e-07 1.0227686e-05 8.724446e-08
0002a0 38 bb 32 36 42 38 2d 37 63 ef ad 35 62 5b 0a 35
       2.6633043e-06 1.0324702e-05 1.2959175e-06 5.1541986e-07
0002b0 92 ce 3e 37 b0 ce 2e 33 cc a4 31 36 8b f7 30 37
       1.1372978e-05 4.0700513e-08 2.647098e-06 1.0548053e-05
0002c0 63 1d 99 35 c2 bd 5a 34 59 0b 81 37 cb ee 1a 33
       1.1407941e-06 2.0371866e-07 1.5383283e-05 3.60731e-08
0002d0 44 61 4d 36 1a 4a 3a 37 ce da 36 34 a2 60 2e 35
       3.0603996e-06 1.1103717e-05 1.7029672e-07 6.496067e-07
0002e0 2a 1b 84 37 e3 08 52 33 62 aa 1c 36 0c f5 34 37
       1.5748275e-05 4.8902518e-08 2.3344987e-06 1.07858905e-05
0002f0 0c 45 50 34 e3 d2 e6 34 90 a8 86 37 f7 76 3e 34
       1.9396629e-07 4.299428e-07 1.6052538e-05 1.7738408e-07
000300 bc d2 24 36 98 19 4b 37 17 b9 63 34 5b 77 e4 34
       2.4560568e-06 1.2105702e-05 2.1208358e-07 4.2555152e-07
000310 88 c1 9a 37 07 0f f4 31 c7 b5 60 36 fa cd 5a 37
       1.844835e-05 7.103043e-09 3.348441e-06 1.304177e-05
000320 31 b9 30 34 71 ad 11 36 de 95 a5 37 14 f4 30 32
       1.645865e-07 2.170764e-06 1.973932e-05 1.0300045e-08
000330 47 a8 3f 36 a3 98 6a 37 a9 14 0a 34 f7 65 59 36
       2.8559168e-06 1.3983025e-05 1.2859768e-07 3.2394871e-06
000340 1f dc ae 37 8a a3 2a 33 52 b1 32 36 62 39 70 37
       2.0844918e-05 3.9729947e-08 2.662728e-06 1.4318475e-05
000350 3b 9f cb 33 74 66 75 36 1b ee ae 37 5f c3 09 34
       9.481888e-08 3.656748e-06 2.0853293e-05 1.2830195e-07
000360 44 ff 32 36 a7 5e 80 37 e5 7e 23 34 bd 03 21 36
       2.667265e-06 1.5302865e-05 1.5226722e-07 2.3993045e-06
000370 fe 20 b0 37 ad 20 3e 32 95 8d 32 36 94 0e 80 37
       2.0996198e-05 1.1066885e-08 2.6606479e-06 1.5265578e-05
000380 7c 85 0d 34 4b 42 41 36 52 47 ac 37 4a 4b 8c 33
       1.318021e-07 2.8797829e-06 2.0537209e-05 6.532953e-08
000390 78 e6 33 36 5f 30 83 37 ba eb d3 33 17 74 25 36
       2.680723e-06 1.5638941e-05 9.8683316e-08 2.465449e-06
0003a0 d5 c7 a8 37 68 3d 05 34 17 e5 3e 36 b1 14 86 37
       2.0120215e-05 1.240893e-07 2.8445554e-06 1.598368e-05
0003b0 ff 8c 02 34 ca 27 38 36 a6 c6 a7 37 8f 9f ce 33
       1.2158488e-07 2.7441297e-06 2.0000454e-05 9.621646e-08
0003c0 19 6a 2a 36 6c 5d 8c 37 6e 31 b3 33 62 4c 5b 36
       2.539373e-06 1.6732803e-05 8.344328e-08 3.2678004e-06
0003d0 e3 56 9f 37 d7 cc 9c 31 bb 16 32 36 8f 6c 8b 37
       1.8994737e-05 4.563485e-09 2.6537298e-06 1.6620643e-05
0003e0 0a 18 7f 34 7f 54 11 36 e3 41 8e 37 d1 ca 40 3c
       2.3757471e-07 2.1655867e-06 1.69584e-05 0.011767105
0003f0 01 01 1e 3d 73 9b 84 37 a1 f3 af 37 51 70 f6 37
       0.038575176 1.5808013e-05 2.0975074e-05 2.9377787e-05

exp_avg f4 [20]
000000 ca da 13 3b d0 0f 87 bb 25 b2 83 3a c5 e7 89 ba
       0.0022560828 -0.004121758 0.0010047598 -0.0010521343
000010 12 aa ea ba f4 db c6 b9 b7 7a 04 3b c0 51 1e bb
       -0.0017903468 -0.0003792938 0.0020214745 -0.0024157614
000020 6e aa 73 bb 5c 7e a7 b9 db 9a 8d b9 25 96 f5 ba
       -0.0037180441 -0.00031946867 -0.00027008992 -0.0018736763
000030 44 96 02 3b 2a cf 8d b9 32 3d cc ba 3a 23 c9 3a
       0.001992599 -0.00027047965 -0.0015582202 0.0015345581
000040 37 d5 67 ba eb f0 5a 39 74 66 c4 ba bc af a1 3a
       -0.0008843722 0.00020879849 -0.0014984147 0.0012335698

exp_avg_sq f4 [20]
000000 a6 3d 22 39 0a 22 08 39 c9 2b 9d 38 0f 05 04 39
       0.0001547249 0.00012982651 7.494499e-05 0.00012590385
000010 b4 fc d3 38 eb 98 fe 37 e9 f0 2c 39 dc 3c 61 38
       0.00010108334 3.0350368e-05 0.00016492944 5.370086e-05
000020 e2 fd 57 39 1f 49 d0 37 89 96 69 38 34 c1 ca 38
       0.00020598577 2.4829582e-05 5.5691726e-05 9.6680975e-05
000030 5c 2e 0b 39 78 59 f6 38 27 61 6a 38 db 09 08 39
       0.00013273343 0.00011746859 5.5880428e-05 0.00012973642
000040 83 66 27 38 d5 48 c3 38 9e ec f8 35 7e 71 0e 39
       3.9911374e-05 9.3118906e-05 1.8546305e-06 0.00013584454

exp_avg f4 [6, 20]
000000 93 b1 65 ba dc 94 a2 39 de b7 05 bb 3a 0b 82 39
       -0.00087621174 0.00031009957 -0.0020403783 0.00024803897
000010 98 5a 28 bb fe 0f 18 3a 09 b7 53 3b 9d e3 9d 3a
       -0.0025688764 0.0005800723 0.0032305142 0.0012045983
000020 75 4b d8 39 ee 9c 20 3b ba 2a c7 3a 2d d6 c6 3a
       0.0004125495 0.00245076 0.0015195229 0.001517003
000030 45 67 12 bb 5b b2 5b ba 8c 52 34 bb 23 6f 07 3b
       -0.0022339385 -0.0008380764 -0.0027515022 0.0020665608
000040 97 57 2d 3b b3 69 15 3b fa c7 3c bb f4 8d 1f bb
       0.0026449913 0.0022798597 -0.0028805719 -0.0024346085
000050 6c 41 7c bb 72 2c 89 ba 97 ba 0c bc b6 99 f8 39
       -0.0038491143 -0.0010465516 -0.008589408 0.0004741677
000060 98 62 63 ba 24 cd 36 ba 92 25 63 3b d2 48 09 39
       -0.00086740544 -0.00069733174 0.0034659845 0.00013092466
000070 5f b4 3b bb e0 c7 3f 3a a7 43 2a 3a cf 16 5a 3a
       -0.0028641445 0.00073158555 0.00064950663 0.0008319439
000080 0a c1 fd ba ef d0 57 ba 13 0a 56 39 79 af 24 3a
       -0.0019359898 -0.00082327327 0.00020412383 0.0006282251
000090 da 99 cc 3b 82 97 5f 3b 26 0a 0f 3a d6 31 25 bc
       0.0062439265 0.0034117405 0.00054565293 -0.010082683
0000a0 e8 00 45 bb 5f c8 94 3a 87 e3 8f 3b d3 5c 21 ba
       -0.0030060355 0.0011351219 0.004391137 -0.00061554945
0000b0 2e d3 83 3a 20 f5 02 3a 10 ae 2a bb c1 20 58 ba
       0.0010057443 0.0004995633 -0.002604369 -0.0008244627
0000c0 fc 9d f0 3a 0d a3 19 ba 60 9f 06 ba 07 c3 c2 b9
       0.001835763 -0.0005860783 -0.0005135443 -0.0003714787
0000d0 b1 a0 4d 3b 40 c7 89 39 99 f3 17 3a e6 b1 47 ba
       0.0031376297 0.0002627913 0.0005796492 -0.00076177565
0000e0 61 1e a2 bb fc 41 97 bb 3b 29 fd 39 ea 79 a6 3b
       -0.004947469 -0.0046160202 0.0004828664 0.0050804513
0000f0 66 c2 58 3b cf a0 8f b9 a8 76 32 3b ab 20 f4 39
       0.0033074855 -0.00027394897 0.002723137 0.00046563646
000100 eb 49 d5 3a cf 47 a6 37 da 8a 05 bb b7 97 77 ba
       0.001627264 1.982218e-05 -0.0020376951 -0.00094449095
000110 73 25 c4 b5 b5 fa f1 ba 4d 58 34 b9 00 3b b1 ba
       -1.4614037e-06 -0.0018461557 -0.00017199032 -0.0013521612
000120 4a 6a 87 3a fc c2 b7 3a fe f4 aa 3a 31 b0 99 b9
       0.0010331359 0.0014019902 0.0013042984 -0.00029313707
000130 86 a9 23 bb 96 06 ce ba 53 22 9f 3a b1 c8 68 3b
       -0.002497287 -0.0015718515 0.0012140967 0.0035520012
000140 7e 5c 0a 3b 1a 63 c1 38 c3 d3 69 3b 3d 2b 8e 38
       0.0021112259 9.221416e-05 0.0035679198 6.7791414e-05
000150 4b c9 5d 3a 37 c9 27 b9 da 16 36 bb e1 86 71 ba
       0.0008460476 -0.0001600132 -0.0027784617 -0.0009213519
000160 4b 02 2f 3a a1 73 04 bb a0 8d 0a ba 85 6c a6 ba
       0.0006676062 -0.0020210522 -0.0005285386 -0.0012697136
000170 0b 9c c0 3a db eb 29 3a d4 14 05 3a 0e f9 2b ba
       0.0014694942 0.00064819836 0.0005076651 -0.00065602444
000180 96 fc 8f bb eb 8d 2d bb a0 c5 c1 39 ca da 95 3b
       -0.0043941243 -0.0026482295 0.0003695907 0.004573201
000190 79 be 17 3b fc 75 63 b9 a3 f7 57 b8 f7 be 27 ba
       0.0023154302 -0.0002169236 -5.1490624e-05 -0.00063990004
0001a0 b0 3e 32 b8 8e 91 7d b9 5b 32 3e 3a 80 c6 b1 3a
       -4.249689e-05 -0.00024182184 0.00072554284 0.0013563186
0001b0 36 a7 52 b8 e9 b5 a6 3a 71 51 7a ba d3 16 29 3a
       -5.022363e-05 0.0012719008 -0.0009548879 0.00064502395
0001c0 53 b9 c0 ba dd c8 2a ba 7a 6e 23 39 7e ef 80 ba
       -0.0014703668 -0.00065149163 0.00015586047 -0.0009836999
0001d0 b4 88 41 3b 14 49 4e 3b 64 d6 8c 39 d3 14 34 ba
       0.0029530944 0.0031476663 0.00026862614 -0.0006869558

exp_avg_sq f4 [6, 20]
000000 52 41 28 3a 92 b0 b1 39 04 86 3e 3a d9 8e b8 3a
       0.0006418425 0.00033891626 0.00072678947 0.0014080658
000010 a6 d0 e9 39 37 c8 a2 38 9b a8 49 3a 23 ff 07 39
       0.00044596678 7.762055e-05 0.00076926657 0.00012969649
000020 94 2d 6f 3a 5f 2e b1 38 72 70 3c 39 64 2a 93 39
       0.0009123918 8.448655e-05 0.00017970966 0.00028069608
000030 9e 1e 4d 3a 60 f1 90 3a ee be 06 39 ae 16 92 3a
       0.0007824692 0.0011058263 0.00012850363 0.0011145675
000040 23 0f 46 3a 5b 89 3a 39 d6 b4 04 37 29 4c 41 3b
       0.0007555356 0.00017789511 7.909917e-06 0.0029494858
000050 fe 79 a2 3a 0f a3 01 39 ae d8 76 3a f5 a4 de 38
       0.0012395976 0.00012363143 0.0009416443 0.000106165106
000060 59 3d 24 39 73 e1 46 38 b2 4e db 38 65 4f 8e 39
       0.00015663113 4.7416845e-05 0.00010457392 0.00027143504
000070 c7 ae 8f 39 c0 f8 4b 38 e3 04 b3 37 e0 26 be 38
       0.00027405305 4.8630638e-05 2.1340738e-05 9.067147e-05
000080 ea b0 b0 39 f9 7f fa 38 7f 3c 2f 38 b8 cf 9b 38
       0.00033701147 0.00011944766 4.1779593e-05 7.4296666e-05
000090 03 19 40 3a dd 55 15 3a 6a 39 e5 36 76 76 0f 3b
       0.0007327946 0.00056966936 6.8314157e-06 0.0021890677
0000a0 87 79 4f 3a 44 1e 17 3a 31 ae d5 3a 98 88 40 3a
       0.00079145323 0.0005764703 0.0016302523 0.0007344573
0000b0 05 fc 4f 39 b3 70 df 38 58 4f f7 39 79 23 13 3a
       0.00019834943 0.000106544605 0.00047170627 0.0005612891
0000c0 9f f2 8c 3a 92 49 ba 38 bc 1a 96 38 c4 9a b0 39
       0.0010753459 8.882875e-05 7.157537e-05 0.00033684645
0000d0 81 6e 54 3a 23 2e 09 3a 22 f5 72 38 6d 21 ea 39
       0.00081036246 0.000523301 5.7925594e-05 0.00044656862
0000e0 96 55 ec 39 3e 24 88 3a d9 84 10 37 fe 6d 0f 3b
       0.00045077194 0.0010386778 8.614e-06 0.0021885629
0000f0 f6 42 c7 39 6d 1b 80 39 7a d2 52 3a 5a a0 d8 39
       0.00038006128 0.00024434496 0.0008042228 0.00041318202
000100 75 a1 24 39 42 99 a3 38 41 e9 0f 39 95 ef 85 39
       0.00015700406 7.800992e-05 0.00013724437 0.0002554624
000110 ef 06 e5 39 c4 de 1b 38 e9 ea 80 38 eb 75 25 39
       0.0004368345 3.7162346e-05 6.147271e-05 0.00015779554
000120 0e 86 f9 39 e5 22 ab 39 61 49 49 38 db 43 db 39
       0.0004759286 0.0003264166 4.7990474e-05 0.0004182149
000130 c7 aa ac 39 4b d5 d0 39 7d 8f b0 36 19 eb df 3a
       0.00032933636 0.00039831767 5.261913e-06 0.0017083614
000140 bf a3 49 3a 7b 02 81 3a 50 ff 04 3b 9a 4e dd 39
       0.00076919416 0.0009842658 0.002029378 0.00042210968
000150 76 1d 37 39 d5 34 6f 39 80 9b a7 39 a5 4f 42 3a
       0.00017463215 0.00022812498 0.0003196858 0.00074123807
000160 ef d5 ce 3a 66 2c c0 38 1a f9 71 39 15 6d 1f 3a
       0.001578031 9.163543e-05 0.00023076349 0.0006081623
000170 a4 30 99 3a 11 59 88 39 e2 9c 57 38 d0 da df 39
       0.001168747 0.000260063 5.1406103e-05 0.00042696903
000180 e7 fa b6 39 f0 6e a7 3a c8 6a 4b 37 ef 43 fa 3a
       0.00034900682 0.0012774151 1.2124605e-05 0.0019093732
000190 e5 96 1d 39 ea 2d 39 3a df 77 38 3a cd a5 ef 39
       0.000150289 0.00070640317 0.0007036905 0.00045709164
0001a0 1d 59 a1 38 e6 84 36 39 ec 02 d0 39 de 76 93 39
       7.693677e-05 0.00017406381 0.00039675029 0.00028126588
0001b0 ab d8 a9 3a c2 8a cf 38 e8 93 b7 39 06 9e 0c 3a
       0.0012958249 9.896375e-05 0.0003501468 0.00053641235
0001c0 ee d7 55 3a f6 b1 49 39 fe 36 d6 37 79 8b 2a 3a
       0.0008157481 0.0001923515 2.5536396e-05 0.00065057684
0001d0 27 94 f0 38 a3 45 9f 39 7c 28 3c 36 b9 4c 02 3a
       0.00011471687 0.00030378727 2.8037748e-06 0.0004970539

exp_avg f4 [6]
000000 59 34 47 bb 91 16 b5 ba ae bd 30 3b d7 1e d3 39
       -0.0030396192 -0.0013815929 0.0026968527 0.00040268034
000010 19 db 6d 3a d8 3a d9 39
       0.00090734806 0.00041433307

exp_avg_sq f4 [6]
000000 70 97 73 39 dc 1c 64 39 43 5d 90 39 c2 9d 4d 39
       0.00023230701 0.00021754525 0.00027535306 0.00019609093
000010 6b 2e a3 39 a0 8f ef 38
       0.00031124367 0.0001142316

exp_avg f4 [4, 20]
000000 10 96 8c 3b be 70 c9 3a e2 cb 8e 3b b6 8b b3 bb
       0.00429035 0.0015368683 0.004357801 -0.0054793013
000010 ad 77 86 bb 24 8c ed b9 85 5a 0d bc a2 b3 78 3a
       -0.004103622 -0.00045308575 -0.008627539 0.00094872166
000020 c2 7d 81 ba 5a ec a5 bb 20 64 27 bb 3a 28 07 bb
       -0.0009879398 -0.0050635757 -0.0025541857 -0.0020623342
000030 dd 0a 76 bb b5 ec 39 bc 35 3e 59 bb 8b 4e 8a bb
       -0.0037543096 -0.011347939 -0.003314865 -0.004220789
000040 ef c6 b9 bb be 0f 41 bb 52 a5 84 3a fc e8 85 3a
       -0.0056694667 -0.0029458846 0.001012007 0.001021653
000050 21 f1 4a ba 3f cd 17 ba 69 e7 4f bb 31 54 5b b8
       -0.00077416195 -0.0005790777 -0.0031723625 -5.2292078e-05
000060 c4 9c d1 b9 c5 d7 92 b9 16 3f 5c 3a 2e 97 3a 3a
       -0.00039980386 -0.0002800805 0.00084017345 0.00071178644
000070 ed 5d ca ba 35 93 9b 3a 93 ee bb b9 b3 25 40 38
       -0.0015439369 0.0011869433 -0.0003584517 4.5811477e-05
000080 68 2e 4a bb 0f e4 fd b9 8a df f0 38 68 85 cc b9
       -0.0030850414 -0.00048425837 0.00011485729 -0.00039009308
000090 39 12 0b 3b 94 aa db 3a 36 a5 d9 39 d1 fe 81 bb
       0.0021220578 0.001675921 0.00041512557 -0.003967144
0000a0 25 c3 e1 bb cf 4a cb 3a 99 9c 7f 3b df 9f fa bb
       -0.006889718 0.0015509966 0.0039003252 -0.0076484527
0000b0 4a 75 09 bc 71 04 7b b9 52 66 72 bb e4 60 2f 3b
       -0.00838978 -0.0002393888 -0.0036987257 0.0026760632
0000c0 be f9 f1 3a c5 25 56 39 bd 3b f7 ba 4d 67 7e 3a
       0.001846127 0.000204227 -0.0018862408 0.0009704724
0000d0 2b 45 8c 3b c4 5e 73 bc 72 c4 cb bb 54 17 40 bc
       0.0042807064 -0.014854137 -0.0062184865 -0.011724312
0000e0 0f f7 52 bc 8b 14 7c 3b b5 5d 28 3b 60 8a 70 bc
       -0.012876286 0.0038464393 0.002569062 -0.014681429
0000f0 73 21 5d 3b b7 8f 24 bb f1 b0 a6 bb fa eb 57 3c
       0.003374186 -0.0025110075 -0.005087011 0.01317882
000100 ba 33 53 3c 49 69 7e 3a 59 29 3c 3c 48 16 8e bb
       0.012890751 0.000970502 0.011484467 -0.004336152
000110 0e 15 33 3a 73 9e 70 3b 83 28 9d 3b 18 e9 88 3a
       0.00068314455 0.0036715537 0.004796089 0.0010445444
000120 e7 62 27 3b 0b 96 da 3c b9 45 1a 3c ef cc 85 3c
       0.0025541128 0.026682874 0.009416037 0.016333072
000130 ba 8b 86 3c 2f c6 28 bb 58 01 83 bb fb 61 90 3c
       0.016424049 -0.0025752892 -0.003997963 0.017624846

exp_avg_sq f4 [4, 20]
000000 70 0c a9 39 da 5a 0b 3a 8c 80 88 3a 1e 8b 8a 3b
       0.0003224346 0.0005315967 0.0010414287 0.00422801
000010 8e 6b 60 3a f3 58 1a 39 12 5b 77 3b c5 84 55 39
       0.0008560949 0.0001471972 0.003774349 0.00020362723
000020 de 84 d3 3a db 17 8f 39 38 18 0d 3a 0d 4b 05 3a
       0.001613762 0.0002729286 0.0005382332 0.0005084731
000030 91 07 ac 3a 45 78 53 3b 3e 06 f1 39 51 27 7a 3b
       0.0013124814 0.003226773 0.00045971753 0.0038170407
000040 43 65 86 3a f5 4c 56 39 63 f7 fe 36 88 57 75 3b
       0.0010253567 0.00020437299 7.5985895e-06 0.0037436206
000050 34 12 9e 38 4a 80 c4 39 58 c4 12 3a c7 2a a0 39
       7.537418e-05 0.00037479616 0.00055987155 0.0003054945
000060 01 c5 ab 37 c4 bc 10 39 c8 31 e2 39 69 c5 48 39
       2.0476526e-05 0.00013803231 0.0004314317 0.00019147027
000070 ff 41 47 3a 47 19 02 39 7e 53 cc 39 6f b4 a2 39
       0.0007601082 0.00012407183 0.0003897212 0.0003103348
000080 a1 ad 2b 3a e3 dc 0d 39 1e fe e0 36 b0 6a 05 3a
       0.0006549005 0.00013529095 6.7053033e-06 0.0005089445
000090 8e c4 57 38 d5 3f 71 39 a7 f1 a1 36 01 2e e8 39
       5.144305e-05 0.0002300733 4.826306e-06 0.00044284764
0000a0 a4 bf bd 39 68 07 b0 37 40 10 8f 39 39 6e b5 39
       0.00036191673 2.0984284e-05 0.00027287193 0.00034605133
0000b0 8c d0 9f 39 2e b6 02 37 b8 71 23 39 be 17 99 38
       0.00030482223 7.791021e-06 0.00015587255 7.300031e-05
0000c0 87 a4 a6 38 ee 81 47 37 a8 5c 6a 37 fa b1 97 37
       7.9461424e-05 1.1891576e-05 1.396906e-05 1.808348e-05
0000d0 f5 2d 79 39 ce 39 29 3a 9c c2 1b 39 6a 12 9b 39
       0.00023763611 0.0006455452 0.0001485445 0.00029577623
0000e0 c1 98 1b 3a bc 71 1c 39 2f c4 ec 36 99 52 b6 3a
       0.0005935543 0.00014919689 7.056187e-06 0.0013910114
0000f0 6e 82 0c 3a 74 7c 4a 3a 09 0f a6 3a e9 83 93 3b
       0.0005360012 0.00077242334 0.0012669276 0.004501809
000100 87 3c 8e 3a 2d d7 83 39 cc b3 84 3b 9b aa ab 39
       0.0010851779 0.00025146586 0.004049754 0.00032742773
000110 2c 39 05 3b d7 93 a5 39 bb f0 50 3a e0 a6 37 3a
       0.0020328267 0.00031581402 0.0007970442 0.00070057623
000120 f3 bc c3 3a 9b 58 71 3b a4 71 18 3a 43 04 89 3b
       0.0014933631 0.0036826495 0.00058152736 0.0041814162
000130 2b 2b c4 3a be 9e ab 39 ee d8 4a 37 82 c8 91 3b
       0.0014966478 0.00032733934 1.2090646e-05 0.004448951

exp_avg f4 [4]
000000 1a 84 a8 b9 90 b0 2e ba 99 2e 91 3b 8b a0 61 bb
       -0.0003214188 -0.0006663883 0.0044306037 -0.0034427966

exp_avg_sq f4 [4]
000000 84 a7 c4 39 e5 2b 31 39 95 ce 1b 39 fe 25 d5 39
       0.00037508842 0.00016896387 0.0001485891 0.00040654832

exp_avg f4 [3, 20]
000000 f7 a3 2f bb 52 b0 5f 39 2e 72 bc bb 1c aa 33 bc
       -0.0026800612 0.00021332622 -0.005750916 -0.01096585
000010 dd b7 04 bc fc be 05 bb 75 bd 19 bc 0d 37 9a 38
       -0.008100477 -0.0020408025 -0.009383549 7.353546e-05
000020 1f 86 96 bb 4e 37 0f bb 07 19 b8 bb 58 dc df ba
       -0.004593625 -0.0021853033 -0.005618218 -0.0017079217
000030 be 5e a0 bb 52 24 3b bc 90 e2 c6 bb f8 db 6f bc
       -0.0048941066 -0.011422234 -0.006069489 -0.014639847
000040 a3 51 75 bb 9d 92 22 3b e0 22 0c bb 8a 04 8e bc
       -0.0037432692 0.0024806627 -0.0021383092 -0.017336149
000050 a1 d4 06 3c a8 15 ce 3b aa 7a 3a 3c f4 60 91 3c
       0.008229406 0.0062892027 0.011381784 0.017746426
000060 12 cc c8 3b 4a 34 d6 3b 07 82 a5 3c 71 09 bf 3b
       0.0061278427 0.006536995 0.020203603 0.005829983
000070 1a b5 57 3c 56 7b 28 3b bc 75 00 3c a2 e5 0d 3c
       0.013165737 0.002570828 0.00784057 0.008660706
000080 9d 3d 8b 3b df a8 5d 3c 6f 11 6a 3b 7d e4 8c 3c
       0.0042492882 0.013529032 0.0035715958 0.017198795
000090 d2 e2 e0 3b 4f 07 99 3b b8 94 8e 3a db 33 99 3c
       0.0068629766 0.0046700607 0.0010878062 0.018701484
0000a0 f5 d7 b5 bb 24 0f d5 bb ca 82 b8 bb cb 06 de bb
       -0.0055494257 -0.006502049 -0.0056308256 -0.006775712
0000b0 44 77 01 3b d4 4d 93 bb d6 33 31 bc eb 6d c1 bb
       0.0019754926 -0.004495362 -0.010815581 -0.005902996
0000c0 dc 66 0c bc 51 88 c9 b9 d9 7c 11 bb 28 c3 e3 bb
       -0.008569445 -0.0003843927 -0.002219966 -0.0069507547
0000d0 73 9b 29 3a 0b ab 09 bb 27 d9 23 3b e2 57 27 bb
       0.0006470002 -0.002100649 0.002500126 -0.002553456
0000e0 b1 49 4c bb 97 49 ea bb 67 c4 89 3a 1c 9a b2 ba
       -0.0031171853 -0.007149886 0.0010510803 -0.001362625

exp_avg_sq f4 [3, 20]
000000 3e b9 cf 3a ae 77 b7 39 46 bc cd 3a e1 ca 8d 3b
       0.0015848053 0.00034993648 0.0015696369 0.0043271636
000010 dd e8 c7 3a ed 2e 60 39 25 56 90 3b f1 cd da 39
       0.0015251894 0.00021379786 0.0044048005 0.00041733638
000020 23 20 a6 3a 1c bb 9f 39 2d c7 34 3a 3e 48 e8 39
       0.0012674372 0.0003046625 0.00068961346 0.00044304313
000030 3a 63 65 3a b6 35 86 3b 79 48 3d 3a 1b f6 8a 3b
       0.00087504426 0.0040957583 0.0007220577 0.004240764
000040 e4 c0 0a 3b 70 84 69 3a bb c6 72 37 d4 8b d3 3b
       0.00211721 0.00089079794 1.4470595e-05 0.006455878
000050 68 97 6c 3a 24 f9 3d 3a 19 87 f2 3a c0 6f 51 3b
       0.0009025247 0.00072469027 0.0018503397 0.0031957477
000060 af 3a 24 3a cb 68 9d 39 af 88 49 3b 83 7c d8 39
       0.0006264848 0.0003002345 0.0030751636 0.000412915
000070 15 4a fe 3a bc 4a 94 39 43 ac 5d 3a cc b0 35 3a
       0.001940074 0.0002828444 0.000845615 0.0006930947
000080 85 0c d2 3a 9d 77 26 3b 27 13 8f 39 b4 04 5b 3b
       0.001602546 0.0025400885 0.00027289355 0.0033419551
000090 b0 ae 8c 3a f1 b0 56 3a ab e8 64 37 a1 f2 92 3b
       0.0010733213 0.00081898185 1.3644031e-05 0.00448449
0000a0 d4 18 a5 3a fe f4 6c 3a 14 1f 11 3b 14 36 9b 3b
       0.00125959 0.0009039192 0.0022143768 0.004736671
0000b0 47 ab ae 3a 6b 3b dc 39 3a 25 a8 3b 99 f7 1e 3a
       0.0013326191 0.0004200594 0.005131391 0.00060641166
0000c0 91 1f 26 3b a1 8a e0 39 5d 74 9b 3a 9f c5 76 3a
       0.0025348405 0.00042827896 0.001186024 0.0009413603
0000d0 3a 45 e8 3a 9c 35 80 3b 42 0b 25 3a e3 17 9b 3b
       0.0017720826 0.0039126407 0.0006295928 0.004733072
0000e0 b0 d5 c6 3a 25 b8 96 3a 0f 89 7d 37 2e b2 b9 3b
       0.0015169885 0.0011498971 1.5111887e-05 0.0056669926

exp_avg f4 [3]
000000 1b ad ad bb 48 2e cb 3b 57 09 6c ba
       -0.005300177 0.0062005855 -0.00090040773

exp_avg_sq f4 [3]
000000 b7 bb 03 3a 1d 44 fe 39 48 76 1b 3a
       0.0005025225 0.00048497404 0.0005930406
