config/ppo/results/RayShoot0610_357만번/Shooting/Shooting-1999998.onnx (onnx, 15002 bytes, 9 tensors)

action_model._discrete_distribution.branches.0.bias f4 [6]
0	0x3ddb71ef	0.107150905
1	0x3e37c5eb	0.17946593
2	0x3dd730e0	0.10507369
3	0xbc1bfac8	-0.00952024
4	0x3d16e25e	0.036836974
5	0x3b202adf	0.0024439616

action_model._discrete_distribution.branches.0.weight f4 [6, 20]
0	0xbcea679d	-0.02861386
1	0xbe2087f5	-0.15676863
2	0xbdb3c558	-0.08777875
3	0x3ef064b4	0.4695183
4	0x3e82013c	0.25391567
5	0xbdc59793	-0.09648051
6	0x3f0e0569	0.55477005
7	0xbe8a55ef	-0.27018687
8	0xbdc89f97	-0.09796064
9	0x3e53875c	0.20657104
10	0x3cb9187c	0.022594683
11	0xbd59bcd9	-0.053158615
12	0x3df4cf8f	0.11953651
13	0x3eb6b1ea	0.35682613
14	0x3ea8aafd	0.32942954
15	0x3ebb4e04	0.3658296
16	0x3e52ed6d	0.20598383
17	0xbec2818e	-0.37989467
18	0x3caf1bcb	0.021375557
19	0x3e2f7300	0.17133713
20	0x3e3d2fa5	0.18475206
21	0xbc895c10	-0.016767532
22	0x3d1a72b8	0.03770706
23	0xbda93533	-0.082621
24	0x3de56b3e	0.112020954
25	0xbaf72de1	-0.0018858277
26	0xbe1757f8	-0.14779651
27	0x3e7541b5	0.23950846
28	0xbdafdaa9	-0.08586628
29	0x3dcc5d72	0.09978761
30	0xbe3a1ddb	-0.18175451
31	0xbcdf30f3	-0.02724502
32	0xbd0e21f5	-0.034700353
33	0xbb760923	-0.0037542067
34	0xbd954506	-0.07288556
35	0xbdf8940d	-0.121376134
36	0x3e23dea5	0.16002901
37	0x3e24413c	0.1604051
38	0xbda5f079	-0.08102507
39	0x3d90c95a	0.07069655
40	0xbc45ecd2	-0.012080388
41	0x3e595717	0.21224628
42	0x3e3394f6	0.17537293
43	0xba9a4901	-0.0011771024
44	0xbe571bae	-0.21006653
45	0xbd630cbe	-0.055432074
46	0x3d981887	0.07426553
47	0x3d9353d1	0.07193721
48	0x3e52b8f9	0.20578374
49	0x3d8a25b1	0.0674547
50	0xbe3482bc	-0.17627996
51	0x3df08b23	0.11745288
52	0xbdf0ceab	-0.11758169
53	0x3c340c7c	0.010989305
54	0xbe0632f5	-0.13105376
55	0xbd3c3770	-0.045951307
56	0xbcf5126a	-0.029916007
57	0x3e1cf902	0.15329364
58	0xbe3b3208	-0.18280804
59	0x3d56ed47	0.05247238
60	0x3da6f94f	0.081530206
61	0xbd4a1321	-0.04933465
62	0x3e529027	0.20562802
63	0x3cae63fd	0.021287913
64	0x3d071b8f	0.032985266
65	0x3d94e5ef	0.07270419
66	0x3b0889bb	0.0020834047
67	0x3d8016ba	0.06254335
68	0x3cd0a96a	0.025471408
69	0x3d9fe783	0.07807829
70	0x3d80f424	0.06296566
71	0x3d4829dd	0.04886805
72	0xbd43739f	-0.047717687
73	0x3d953c04	0.07286838
74	0xbde4fa14	-0.11180511
75	0xbd86f6c9	-0.06590039
76	0xbd3aea69	-0.045633707
77	0x3da9db63	0.08293798
78	0x3d1bf38d	0.038074065
79	0xbc97adcb	-0.018515488
80	0x3d091412	0.033466406
81	0x3e219752	0.1578038
82	0x3dfe78c2	0.124253765
83	0x3c96d6dd	0.018413002
84	0xbc68a248	-0.014198847
85	0x3d44a2e0	0.048006892
86	0xbdedb5ed	-0.11606965
87	0x3e852777	0.26006672
88	0x3db69d4f	0.08916723
89	0xbd363fde	-0.044494502
90	0xbdbf2788	-0.09333712
91	0x3df9b68e	0.12193023
92	0x3e50a493	0.2037528
93	0xbe20c831	-0.15701367
94	0xbe93a17e	-0.28834146
95	0x3db2df9a	0.08734055
96	0x3bd3c7c6	0.006463024
97	0x3e4c512a	0.19952837
98	0xbdf4cb7a	-0.119528726
99	0x3e07e0f3	0.13269405
100	0x3e0c74da	0.1371645
101	0x3d6bd318	0.05757436
102	0xbe71fad5	-0.23630841
103	0xbe785eef	-0.24254964
104	0x3e41e719	0.18935813
105	0x3e9e4ecf	0.309195
106	0xbb8a3025	-0.004217165
107	0xbd299349	-0.041400228
108	0x3e2202ca	0.15821376
109	0xbe8526ed	-0.2600626
110	0x3ef167e2	0.4714957
111	0x3e19b88a	0.15011802
112	0x3d6f43f3	0.05841441
113	0xbd217cb9	-0.039425585
114	0x3dd9d064	0.106354505
115	0x3e59b54d	0.21260567
116	0x3e1f74d1	0.15571906
117	0x3e7d5366	0.24738845
118	0x3e8be4e3	0.27323064
119	0xbe479d40	-0.1949358

action_model._discrete_distribution.branches.1.bias f4 [4]
0	0x3d11b35d	0.035571445
1	0xbdcc1b7c	-0.0996618
2	0x3d076f3b	0.033065062
3	0x3d26a157	0.04068121

action_model._discrete_distribution.branches.1.weight f4 [4, 20]
0	0xbbcdc9de	-0.006280168
1	0x3d2a7389	0.04161409
2	0xbd5b26a5	-0.05350365
3	0x3ed280b3	0.41113815
4	0x3c4ff33a	0.012692267
5	0xbe41709d	-0.18890615
6	0x3eb9075a	0.3613842
7	0x3d404657	0.04694208
8	0x3d8c5466	0.06852035
9	0x3dd2d7c6	0.10295062
10	0xbdc01026	-0.0937808
11	0xbdaee667	-0.085400395
12	0xbcaab036	-0.020835977
13	0x3e6ef781	0.23336603
14	0xbc650a1d	-0.013979462
15	0x3e7b3465	0.24531706
16	0x3d9a3cac	0.075311035
17	0xbe9c5286	-0.3053171
18	0x3a98c2d7	0.0011654746
19	0x3caf0c2f	0.021368114
20	0xbf4ca17c	-0.79933906
21	0x3eefe39d	0.46853343
22	0x3e8552a6	0.26039618
23	0xbf0b9057	-0.5451712
24	0xbec7a582	-0.3899346
25	0x3ea5f2aa	0.324117
26	0xbdd2f4c4	-0.103005916
27	0x3e7d23c4	0.24720675
28	0x3f05af6d	0.52220803
29	0x3dde5230	0.1085552
30	0x3ec67d14	0.38767302
31	0x3ecf470d	0.40483895
32	0x3e84b4f7	0.25919315
33	0xbf2400a2	-0.64063466
34	0xbe999bcf	-0.30001685
35	0xbe9a707a	-0.30163938
36	0xbf4476cd	-0.76743776
37	0x3ecc1b38	0.39864516
38	0x3c6d522e	0.014484925
39	0xbf0a0f24	-0.5392935
40	0x3f394063	0.7236387
41	0xbf4e78f8	-0.80653334
42	0x3d8fabed	0.07015214
43	0xbed243f0	-0.41067457
44	0x3e666e03	0.22502904
45	0x3c8c305c	0.017112903
46	0xbf409c1e	-0.75238216
47	0xbeb03645	-0.34416404
48	0xbf456b53	-0.7711689
49	0xbdb2d0c3	-0.087312244
50	0xbe890f78	-0.26769614
51	0xbf1da250	-0.61575794
52	0x3ce331b0	0.027733654
53	0x3dbae24d	0.09125195
54	0x3eab350a	0.33438903
55	0xbed8ed38	-0.42368484
56	0x3ec428ca	0.3831237
57	0x3e393e94	0.18090278
58	0xbdf18ffe	-0.117950425
59	0x3ea852f3	0.32875785
60	0xbd2a8a1c	-0.041635618
61	0xbb99964f	-0.0046871076
62	0xbdfbca57	-0.12294453
63	0x3e8f93ca	0.28042442
64	0x3dd25d53	0.102717064
65	0x3db2fb93	0.0873939
66	0x3eb11b64	0.3459121
67	0xbb0ee469	-0.0021803624
68	0x3d56d1a2	0.052446015
69	0xbc039704	-0.00803161
70	0x3c202c99	0.009776258
71	0x3e04df50	0.12975812
72	0xbd93fe0c	-0.0722619
73	0x3dbe49e6	0.09291439
74	0xbc206dc2	-0.009791793
75	0x3e82adfa	0.2552336
76	0x3defe4da	0.11713572
77	0xbe594cf2	-0.21220759
78	0x3e001160	0.12506628
79	0x3d972086	0.0737925

action_model._discrete_distribution.branches.2.bias f4 [3]
0	0xbbdf47a3	-0.0068139597
1	0x3d931248	0.07181221
2	0x3d5cdd44	0.053921953

action_model._discrete_distribution.branches.2.weight f4 [3, 20]
0	0x3d70021f	0.058595773
1	0xbda8ef12	-0.08248724
2	0xbe02477b	-0.1272258
3	0x3d524bb7	0.05134174
4	0x3e36816f	0.17822812
5	0x3bfd7596	0.0077349646
6	0x3dab08f1	0.08351315
7	0xbcc1e03e	-0.023666497
8	0xbe00e1d3	-0.12586145
9	0x3d4c29a1	0.049844388
10	0x3dab604d	0.08367977
11	0xbdd6c068	-0.10485917
12	0xbe894f89	-0.26818493
13	0x3d11bcf8	0.035580605
14	0x3d6cdcbc	0.057827696
15	0x3dad9e97	0.08477514
16	0x3d9a91f6	0.07547371
17	0x3c50c52f	0.012742325
18	0x3de3ec12	0.11129011
19	0x3d018f6b	0.031630915
20	0x3db04dae	0.08608566
21	0x3cdf5734	0.027263261
22	0x39153e7e	0.00014233027
23	0x3d99d9f3	0.07512274
24	0xbce26ddf	-0.027640281
25	0x3d70a7a3	0.05875362
26	0x3d26b7cb	0.040702622
27	0x3cbe1411	0.023202928
28	0x3df068d7	0.117387466
29	0xbd2c6f64	-0.042098418
30	0x3d2a722e	0.041612796
31	0x3e124d90	0.142874
32	0x3e18f1c9	0.14935984
33	0x3d3bcbe8	0.045848757
34	0x3c18c5cb	0.009324501
35	0x3da82cdf	0.082116835
36	0x3d49248c	0.04910712
37	0xbc084f44	-0.00831968
38	0xbcb4363b	-0.021998515
39	0x3df07dfc	0.117427796
40	0x3d5b3eb1	0.053526584
41	0x3dfde0b2	0.12396373
42	0x3e084eed	0.13311358
43	0x3cd64974	0.026158072
44	0x3d3156d6	0.043295704
45	0xbd6ebc16	-0.05828484
46	0x3ca1f6b1	0.019770952
47	0x3c83c1ba	0.016083587
48	0x3dd66cfa	0.104700044
49	0x3d925279	0.07144637
50	0xbc40257a	-0.011727685
51	0x3db11afa	0.086477235
52	0x3db84489	0.08997447
53	0x3e07f1b2	0.13275793
54	0x3d08d720	0.033408284
55	0xbcfe82fe	-0.031068321
56	0x3d38f920	0.04515946
57	0x3d549bd8	0.051906437
58	0xbd1185b9	-0.03552792
59	0xbd75aa25	-0.059976716

discrete_action_output_shape f4 [1, 3]
0	0x40c00000	6.0
1	0x40800000	4.0
2	0x40400000	3.0

network_body._body_endoder.seq_layers.0.bias f4 [20]
0	0x3e4e0ea6	0.20122775
1	0x3dbcbf11	0.092161305
2	0x3e17ef87	0.14837466
3	0x3d692920	0.056923985
4	0x3d6401e3	0.05566586
5	0xbd9f7bcf	-0.077872865
6	0x3d275847	0.040855672
7	0x3d78eccd	0.060772706
8	0x3e121745	0.14266689
9	0xbd645415	-0.05574425
10	0xbd20b560	-0.039235473
11	0x3d7af81d	0.061271776
12	0xbc7ef379	-0.015560978
13	0x3e25fa67	0.16208802
14	0x3cfd3166	0.030907344
15	0xbd05c87e	-0.032661907
16	0x3e2c1060	0.16803122
17	0x3e24dcc8	0.16099846
18	0xbe621d04	-0.22081381
19	0x3e273401	0.16328432

network_body._body_endoder.seq_layers.0.weight f4 [20, 128]
0	0xbed08ddf	-0.4073324
1	0xbd0c8adf	-0.034312125
2	0x3e6639ba	0.22482958
3	0x3db17f84	0.086669
4	0xbd8525bd	-0.06501339
5	0xbe118c49	-0.14213671
6	0xbef47a6f	-0.4774966
7	0x3daf55ec	0.0856131
8	0x3e99ccc4	0.30039036
9	0xbcccc9e5	-0.024998615
10	0x3db0ed43	0.08639004
11	0xbbd28654	-0.0064247046
12	0xbf182e5f	-0.59445757
13	0xbe994b54	-0.29940283
14	0x3e3c899a	0.18411866
15	0x3dba0683	0.09083273
16	0x3ce9c97d	0.02853846
17	0xbd7bc7b6	-0.061469756
18	0xbf06590f	-0.5247964
19	0xbdfe6f79	-0.124236055
20	0x3ea9ff57	0.3320262
21	0x3f4be3fe	0.79644763
22	0x3e39aed2	0.18133095
23	0xbdb1758d	-0.08664999
24	0xbef8ec8c	-0.4861797
25	0xbd0947f5	-0.03351589
26	0x3e85893c	0.26081264
27	0x3f82ade8	1.0209322
28	0xbe3d29e6	-0.18473014
29	0xbeb27374	-0.3485371
30	0xbeeb3b12	-0.45943505
31	0x3e4125ff	0.1886215
32	0x3e89a2a9	0.26881912
33	0x3f92c0a9	1.1465045
34	0xbdf59016	-0.11990373
35	0xbec74f81	-0.38927844
36	0xbe48961a	-0.19588509
37	0x3d14dd92	0.03634412
38	0x3ec796c6	0.38982219
39	0x3f8c176f	1.0944651
40	0xbd56a139	-0.052399848
41	0xbe6c68ce	-0.23086855
42	0xbf2b434e	-0.66899574
43	0x3e43f7ff	0.19137572
44	0x3eae6322	0.34060007
45	0x3f238e74	0.6388924
46	0xbd0937e0	-0.033500552
47	0xbdc05957	-0.0939204
48	0xbf4dface	-0.8046082
49	0x3d994409	0.0748368
50	0x3edecebc	0.435171
51	0x3f31f736	0.6951784
52	0xbe5ebdb6	-0.21752056
53	0xbd15dc7d	-0.036587227
54	0xbf40c472	-0.7529975
55	0x3da2469c	0.07923624
56	0x3ecd7d93	0.40134868
57	0x3ecd4ca3	0.40097532
58	0xbea23577	-0.31681415
59	0xbdb6ec51	-0.089317925
60	0xbf3bebf1	-0.73406893
61	0x3a8d8aa8	0.0010798769
62	0x3ec17f07	0.37792227
63	0x3ed5b8b2	0.41742474
64	0xbd6158a8	-0.05501619
65	0x3da76180	0.081728935
66	0xbf4ca83b	-0.799442
67	0xbde5e075	-0.112244524
68	0x3ee49365	0.44643703
69	0x3ee6b8ef	0.45062968
70	0xbd263043	-0.04057337
71	0xbe04fbe8	-0.1298672
72	0xbf17734c	-0.59160304
73	0x3da21f02	0.079160705
74	0x3ec22cc0	0.37924767
75	0x3f0758aa	0.52869666
76	0xbd167d2f	-0.036740478
77	0x3e05e326	0.13074932
78	0xbf223e7c	-0.63376594
79	0xbd457602	-0.048208244
80	0x3ed6ad06	0.4192888
81	0x3eed0039	0.46289232
82	0xbe143642	-0.14473823
83	0xbbf12cb6	-0.0073600663
84	0xbf1ac714	-0.6046002
85	0x3d02ea4a	0.031961717
86	0x3e85b30e	0.2611317
87	0x3e877074	0.26452982
88	0xbc06317f	-0.008190512
89	0x3da6785d	0.08128426
90	0xbef4eb04	-0.47835553
91	0xbc874aed	-0.01651522
92	0x3e84bc82	0.2592507
93	0x3f2827ad	0.6568554
94	0x3da8251c	0.08210203
95	0x3dfa81e2	0.122318044
96	0xbf5649fe	-0.83706653
97	0xbdd7ad77	-0.10531133
98	0x3e639a10	0.22226739
99	0x3f099496	0.5374235
100	0xbe2916c0	-0.16512585
101	0x3e03f187	0.12885104
102	0xbf76658a	-0.96248686
103	0xbe37f9e1	-0.17966415
104	0x3e57b0fe	0.21063611
105	0x3ea667e6	0.32501143
106	0xbe49f15f	-0.19720982
107	0x3e1e505d	0.15460344
108	0xbf2f7a20	-0.6854572
109	0xbc438acc	-0.011934947
110	0x3e0adf56	0.13561758
111	0x3f1dd366	0.61650693
112	0xbc0a6503	-0.008446935
113	0x3b528a56	0.0032125912
114	0xbf4edaf8	-0.8080287
115	0x379229cc	1.742402e-05
116	0xbca65555	-0.020304361
117	0x3f2430af	0.64136785
118	0x3c17bb70	0.009260997
119	0x3cb4bf09	0.022063749
120	0xbf66a693	-0.9009792
121	0x3b34dee6	0.0027598678
122	0x3d40374b	0.04692773
123	0xbb84dc3d	-0.0040545748
124	0xbd5a8a12	-0.05335433
125	0xbc66c7a3	-0.014085683
126	0x3cbed716	0.02329592
127	0xbe832fa0	-0.25622272
128	0xbd1b518f	-0.037919577
129	0x3c84f4d2	0.01623002
130	0x3e0e863b	0.13918392
131	0xbeea3088	-0.4574015
132	0x3cf149e4	0.02945418
133	0x3dd3575e	0.10319398
134	0x3e9ac362	0.3022719
135	0x3db3a1ee	0.0877112
136	0x3e3a57c3	0.18197541
137	0xbf0c00d8	-0.5468879
138	0xbdc9b496	-0.09848897
139	0x3ea4e28a	0.32204086
140	0x3e8883db	0.26663098
141	0x3ec72485	0.3889505
142	0xbda5fe85	-0.081051864
143	0xbf074844	-0.52844644
144	0xbdc458bd	-0.09587238
145	0x3e44954b	0.19197576
146	0x3ec8cba0	0.39217854
147	0x3e50c605	0.20388038
148	0xbcb59570	-0.022165984
149	0xbf44044d	-0.7656906
150	0xbdaf7520	-0.08567262
151	0x3e1b8860	0.15188742
152	0x3f3e0c01	0.74237067
153	0x3d8c99da	0.06865282
154	0xbdd1a58b	-0.10236653
155	0xbf4c7a27	-0.7987389
156	0x3e59f9bb	0.21286671
157	0x3eef58e3	0.46747503
158	0x3f1d16fb	0.6136319
159	0xbe17f56e	-0.14839718
160	0xbc5211a1	-0.012821586
161	0xbf6248bb	-0.8839223
162	0x3e28d784	0.16488463
163	0x3e960707	0.29302236
164	0x3f1f831a	0.6230942
165	0xbe86c385	-0.26321045
166	0xbe965045	-0.29358116
167	0xbf0edd7b	-0.558067
168	0x3e3c57c7	0.1839286
169	0x3eaeac19	0.34115675
170	0x3f0a5a36	0.540439
171	0xbe839b13	-0.2570425
172	0xbe7e44f5	-0.24830993
173	0xbf2d4cde	-0.67695415
174	0x3d5cc383	0.053897392
175	0x3e6dcbbb	0.23222248
176	0x3f31ee58	0.6950431
177	0xbe0e41ea	-0.13892332
178	0xbeeee1c9	-0.46656635
179	0xbf5d0d9b	-0.86348885
180	0x3e59dae0	0.212749
181	0x3ec02394	0.37527144
182	0x3f35fe43	0.710911
183	0xbdd5a654	-0.10432115
184	0xbe82118f	-0.2540402
185	0xbef2bea5	-0.47411075
186	0x3e8b473b	0.27202782
187	0x3e6bdcb8	0.23033416
188	0x3f23a2d8	0.63920355
189	0x3cfc19ec	0.03077408
190	0xbe6284ec	-0.22121018
191	0xbedfbc22	-0.4369822
192	0x3d0b08ab	0.033943813
193	0x3e235c2e	0.15953133
194	0x3efc4333	0.4927002
195	0x3dbd7a85	0.09251884
196	0xbdf77d73	-0.120844744
197	0xbef7101e	-0.48254484
198	0x3e1b5537	0.15169226
199	0x3e93c704	0.28862774
200	0x3ef61a3c	0.4806689
201	0xbe149688	-0.14510548
202	0x3d4031ab	0.046922367
203	0xbed13746	-0.40862483
204	0x3dbcf78c	0.09226903
205	0x3d37ab1d	0.04484092
206	0x3f23d339	0.63994175
207	0xbec5a54f	-0.38602683
208	0x3d3806c8	0.044928342
209	0xbf50a7ad	-0.8150585
210	0x3da15cba	0.07879014
211	0x3e037849	0.12838854
212	0x3ef8d6f9	0.4860151
213	0xbd3703e1	-0.044681434
214	0xbe374b94	-0.17899925
215	0xbf0f4ae5	-0.55973655
216	0xbd81a474	-0.06330195
217	0x3ccd1091	0.025032314
218	0x3ea9c852	0.33160645
219	0x3e226b2c	0.15861195
220	0x3d54b00e	0.05192571
221	0xbf359b6e	-0.7094029
222	0x3cd0b530	0.025477022
223	0x3e65ebf1	0.22453286
224	0x3ecd7159	0.4012554
225	0xbd386cbd	-0.045025576
226	0x393f20be	0.00018227377
227	0xbf2dbbae	-0.678645
228	0xbcb73e5e	-0.022368606
229	0x3dcc53b7	0.09976905
230	0x3ecfa565	0.40555874
231	0x3dd1b09d	0.102387644
232	0x3d10aaa1	0.035318974
233	0xbf117535	-0.5681947
234	0xbde0312e	-0.1094688
235	0x3e3e8891	0.18606783
236	0x3eac9a2c	0.33711374
237	0xbc0d1da7	-0.008613027
238	0x3e2b473d	0.16726394
239	0xbf525d2a	-0.8217341
240	0xbe0a2098	-0.13488996
241	0xbd98247c	-0.07428834
242	0x3ee788f2	0.45221668
243	0xbdc1b126	-0.094576165
244	0x3e48136c	0.19538659
245	0xbf711e1a	-0.94186556
246	0x3e14ea31	0.14542462
247	0x3c14c2f8	0.009079687
248	0x3f0c2d68	0.54756784
249	0x3d34ac15	0.044109423
250	0x3e890b9a	0.26766664
251	0xbb9ce1df	-0.004787668
252	0xbb33be0d	-0.0027426512
253	0x3d19b0e3	0.037522208
254	0x3dabd3fa	0.08390041
255	0xbdedebdb	-0.116172515
