config/ppo/results/RayShoot0610_357만번/Shooting/Shooting-1999998.pt (torch, 80967 bytes, 34 tensors)

discrete_act_size_vector f4 [1, 3]
00000000: 0000 c040 0000 8040 0000 4040
6.0 4.0 3.0

network_body._body_endoder.seq_layers.0.weight f4 [20, 128]
00000000: df8d d0be df8a 0cbd ba39 663e 847f b13d
00000010: bd25 85bd 498c 11be 6f7a f4be ec55 af3d
00000020: c4cc 993e e5c9 ccbc 43ed b03d 5486 d2bb
00000030: 5f2e 18bf 544b 99be 9a89 3c3e 8306 ba3d
00000040: 7dc9 e93c b6c7 7bbd 0f59 06bf 796f febd
00000050: 57ff a93e fee3 4b3f d2ae 393e 8d75 b1bd
00000060: 8cec f8be f547 09bd 3c89 853e e8ad 823f
00000070: e629 3dbe 7473 b2be 123b ebbe ff25 413e
00000080: a9a2 893e a9c0 923f 1690 f5bd 814f c7be
00000090: 1a96 48be 92dd 143d c696 c73e 6f17 8c3f
000000a0: 39a1 56bd ce68 6cbe 4e43 2bbf fff7 433e
000000b0: 2263 ae3e 748e 233f e037 09bd 5759 c0bd
000000c0: cefa 4dbf 0944 993d bcce de3e 36f7 313f
000000d0: b6bd 5ebe 7ddc 15bd 72c4 40bf 9c46 a23d
000000e0: 937d cd3e a34c cd3e 7735 a2be 51ec b6bd
000000f0: f1eb 3bbf a88a 8d3a 077f c13e b2b8 d53e
00000100: a858 61bd 8061 a73d 3ba8 4cbf 75e0 e5bd
00000110: 6593 e43e efb8 e63e 4330 26bd e8fb 04be
00000120: 4c73 17bf 021f a23d c02c c23e aa58 073f
00000130: 2f7d 16bd 26e3 053e 7c3e 22bf 0276 45bd
00000140: 06ad d63e 3900 ed3e 4236 14be b62c f1bb
00000150: 14c7 1abf 4aea 023d 0eb3 853e 7470 873e
00000160: 7f31 06bc 5d78 a63d 04eb f4be ed4a 87bc
00000170: 82bc 843e ad27 283f 1c25 a83d e281 fa3d
00000180: fe49 56bf 77ad d7bd 109a 633e 9694 093f
00000190: c016 29be 87f1 033e 8a65 76bf e1f9 37be
000001a0: feb0 573e e667 a63e 5ff1 49be 5d50 1e3e
000001b0: 207a 2fbf cc8a 43bc 56df 0a3e 66d3 1d3f
000001c0: 0365 0abc 568a 523b f8da 4ebf cc29 9237
000001d0: 5555 a6bc af30 243f 70bb 173c 09bf b43c
000001e0: 93a6 66bf e6de 343b 4b37 403d 3ddc 84bb
000001f0: 128a 5abd a3c7 66bc 16d7 be3c a02f 83be
00000200: 8f51 1bbd d2f4 843c 3b86 0e3e 8830 eabe
00000210: e449 f13c 5e57 d33d 62c3 9a3e eea1 b33d
00000220: c357 3a3e d800 0cbf 96b4 c9bd 8ae2 a43e
00000230: db83 883e 8524 c73e 85fe a5bd 4448 07bf
00000240: bd58 c4bd 4b95 443e a0cb c83e 05c6 503e
00000250: 7095 b5bc 4d04 44bf 2075 afbd 6088 1b3e
00000260: 010c 3e3f da99 8c3d 8ba5 d1bd 277a 4cbf
00000270: bbf9 593e e358 ef3e fb16 1d3f 6ef5 17be
00000280: a111 52bc bb48 62bf 84d7 283e 0707 963e
00000290: 1a83 1f3f 85c3 86be 4550 96be 7bdd 0ebf
000002a0: c757 3c3e 19ac ae3e 365a 0a3f 139b 83be
000002b0: f544 7ebe de4c 2dbf 83c3 5c3d bbcb 6d3e
000002c0: 58ee 313f ea41 0ebe c9e1 eebe 9b0d 5dbf
000002d0: e0da 593e 9423 c03e 43fe 353f 54a6 d5bd
000002e0: 8f11 82be a5be f2be 3b47 8b3e b8dc 6b3e
000002f0: d8a2 233f ec19 fc3c ec84 62be 22bc dfbe
00000300: ab08 0b3d 2e5c 233e 3343 fc3e 857a bd3d
00000310: 737d f7bd 1e10 f7be 3755 1b3e 04c7 933e
00000320: 3c1a f63e 8896 14be ab31 403d 4637 d1be
00000330: 8cf7 bc3d 1dab 373d 39d3 233f 4fa5 c5be
00000340: c806 383d ada7 50bf ba5c a13d 4978 033e
00000350: f9d6 f83e e103 37bd 944b 37be e54a 0fbf
00000360: 74a4 81bd 9110 cd3c 52c8 a93e 2c6b 223e
00000370: 0eb0 543d 6e9b 35bf 30b5 d03c f1eb 653e
00000380: 5971 cd3e bd6c 38bd be20 3f39 aebb 2dbf
00000390: 5e3e b7bc b753 cc3d 65a5 cf3e 9db0 d13d
000003a0: a1aa 103d 3575 11bf 2e31 e0bd 9188 3e3e
000003b0: 2c9a ac3e a71d 0dbc 3d47 2b3e 2a5d 52bf
000003c0: 9820 0abe 7c24 98bd f288 e73e 26b1 c1bd
000003d0: 6c13 483e 1a1e 71bf 31ea 143e f8c2 143c
000003e0: 682d 0c3f 15ac 343d 9a0b 893e dfe1 9cbb
000003f0: 0dbe 33bb e3b0 193d fad3 ab3d dbeb edbd
-0.4073324 -0.034312125 0.22482958 0.086669 -0.06501339 -0.14213671 -0.4774966 0.0856131
0.30039036 -0.024998615 0.08639004 -0.0064247046 -0.59445757 -0.29940283 0.18411866 0.09083273
0.02853846 -0.061469756 -0.5247964 -0.124236055 0.3320262 0.79644763 0.18133095 -0.08664999
-0.4861797 -0.03351589 0.26081264 1.0209322 -0.18473014 -0.3485371 -0.45943505 0.1886215
0.26881912 1.1465045 -0.11990373 -0.38927844 -0.19588509 0.03634412 0.38982219 1.0944651
-0.052399848 -0.23086855 -0.66899574 0.19137572 0.34060007 0.6388924 -0.033500552 -0.0939204
-0.8046082 0.0748368 0.435171 0.6951784 -0.21752056 -0.036587227 -0.7529975 0.07923624
0.40134868 0.40097532 -0.31681415 -0.089317925 -0.73406893 0.0010798769 0.37792227 0.41742474
-0.05501619 0.081728935 -0.799442 -0.112244524 0.44643703 0.45062968 -0.04057337 -0.1298672
-0.59160304 0.079160705 0.37924767 0.52869666 -0.036740478 0.13074932 -0.63376594 -0.048208244
0.4192888 0.46289232 -0.14473823 -0.0073600663 -0.6046002 0.031961717 0.2611317 0.26452982
-0.008190512 0.08128426 -0.47835553 -0.01651522 0.2592507 0.6568554 0.08210203 0.122318044
-0.83706653 -0.10531133 0.22226739 0.5374235 -0.16512585 0.12885104 -0.96248686 -0.17966415
0.21063611 0.32501143 -0.19720982 0.15460344 -0.6854572 -0.011934947 0.13561758 0.61650693
-0.008446935 0.0032125912 -0.8080287 1.742402e-05 -0.020304361 0.64136785 0.009260997 0.022063749
-0.9009792 0.0027598678 0.04692773 -0.0040545748 -0.05335433 -0.014085683 0.02329592 -0.25622272
-0.037919577 0.01623002 0.13918392 -0.4574015 0.02945418 0.10319398 0.3022719 0.0877112
0.18197541 -0.5468879 -0.09848897 0.32204086 0.26663098 0.3889505 -0.081051864 -0.52844644
-0.09587238 0.19197576 0.39217854 0.20388038 -0.022165984 -0.7656906 -0.08567262 0.15188742
0.74237067 0.06865282 -0.10236653 -0.7987389 0.21286671 0.46747503 0.6136319 -0.14839718
-0.012821586 -0.8839223 0.16488463 0.29302236 0.6230942 -0.26321045 -0.29358116 -0.558067
0.1839286 0.34115675 0.540439 -0.2570425 -0.24830993 -0.67695415 0.053897392 0.23222248
0.6950431 -0.13892332 -0.46656635 -0.86348885 0.212749 0.37527144 0.710911 -0.10432115
-0.2540402 -0.47411075 0.27202782 0.23033416 0.63920355 0.03077408 -0.22121018 -0.4369822
0.033943813 0.15953133 0.4927002 0.09251884 -0.120844744 -0.48254484 0.15169226 0.28862774
0.4806689 -0.14510548 0.046922367 -0.40862483 0.09226903 0.04484092 0.63994175 -0.38602683
0.044928342 -0.8150585 0.07879014 0.12838854 0.4860151 -0.044681434 -0.17899925 -0.55973655
-0.06330195 0.025032314 0.33160645 0.15861195 0.05192571 -0.7094029 0.025477022 0.22453286
0.4012554 -0.045025576 0.00018227377 -0.678645 -0.022368606 0.09976905 0.40555874 0.102387644
0.035318974 -0.5681947 -0.1094688 0.18606783 0.33711374 -0.008613027 0.16726394 -0.8217341
-0.13488996 -0.07428834 0.45221668 -0.094576165 0.19538659 -0.94186556 0.14542462 0.009079687
0.54756784 0.044109423 0.26766664 -0.004787668 -0.0027426512 0.037522208 0.08390041 -0.116172515

network_body._body_endoder.seq_layers.0.bias f4 [20]
00000000: a60e 4e3e 11bf bc3d 87ef 173e 2029 693d
00000010: e301 643d cf7b 9fbd 4758 273d cdec 783d
00000020: 4517 123e 1554 64bd 60b5 20bd 1df8 7a3d
00000030: 79f3 7ebc 67fa 253e 6631 fd3c 7ec8 05bd
00000040: 6010 2c3e c8dc 243e 041d 62be 0134 273e
0.20122775 0.092161305 0.14837466 0.056923985 0.05566586 -0.077872865 0.040855672 0.060772706
0.14266689 -0.05574425 -0.039235473 0.061271776 -0.015560978 0.16208802 0.030907344 -0.032661907
0.16803122 0.16099846 -0.22081381 0.16328432

action_model._discrete_distribution.branches.0.weight f4 [6, 20]
00000000: 9d67 eabc f587 20be 58c5 b3bd b464 f03e
00000010: 3c01 823e 9397 c5bd 6905 0e3f ef55 8abe
00000020: 979f c8bd 5c87 533e 7c18 b93c d9bc 59bd
00000030: 8fcf f43d eab1 b63e fdaa a83e 044e bb3e
00000040: 6ded 523e 8e81 c2be cb1b af3c 0073 2f3e
00000050: a52f 3d3e 105c 89bc b872 1a3d 3335 a9bd
00000060: 3e6b e53d e12d f7ba f857 17be b541 753e
00000070: a9da afbd 725d cc3d db1d 3abe f330 dfbc
00000080: f521 0ebd 2309 76bb 0645 95bd 0d94 f8bd
00000090: a5de 233e 3c41 243e 79f0 a5bd 5ac9 903d
000000a0: d2ec 45bc 1757 593e f694 333e 0149 9aba
000000b0: ae1b 57be be0c 63bd 8718 983d d153 933d
000000c0: f9b8 523e b125 8a3d bc82 34be 238b f03d
000000d0: abce f0bd 7c0c 343c f532 06be 7037 3cbd
000000e0: 6a12 f5bc 02f9 1c3e 0832 3bbe 47ed 563d
000000f0: 4ff9 a63d 2113 4abd 2790 523e fd63 ae3c
00000100: 8f1b 073d efe5 943d bb89 083b ba16 803d
00000110: 6aa9 d03c 83e7 9f3d 24f4 803d dd29 483d
00000120: 9f73 43bd 043c 953d 14fa e4bd c9f6 86bd
00000130: 69ea 3abd 63db a93d 8df3 1b3d cbad 97bc
00000140: 1214 093d 5297 213e c278 fe3d ddd6 963c
00000150: 48a2 68bc e0a2 443d edb5 edbd 7727 853e
00000160: 4f9d b63d de3f 36bd 8827 bfbd 8eb6 f93d
00000170: 93a4 503e 31c8 20be 7ea1 93be 9adf b23d
00000180: c6c7 d33b 2a51 4c3e 7acb f4bd f3e0 073e
00000190: da74 0c3e 18d3 6b3d d5fa 71be ef5e 78be
000001a0: 19e7 413e cf4e 9e3e 2530 8abb 4993 29bd
000001b0: ca02 223e ed26 85be e267 f13e 8ab8 193e
000001c0: f343 6f3d b97c 21bd 64d0 d93d 4db5 593e
000001d0: d174 1f3e 6653 7d3e e3e4 8b3e 409d 47be
-0.02861386 -0.15676863 -0.08777875 0.4695183 0.25391567 -0.09648051 0.55477005 -0.27018687
-0.09796064 0.20657104 0.022594683 -0.053158615 0.11953651 0.35682613 0.32942954 0.3658296
0.20598383 -0.37989467 0.021375557 0.17133713 0.18475206 -0.016767532 0.03770706 -0.082621
0.112020954 -0.0018858277 -0.14779651 0.23950846 -0.08586628 0.09978761 -0.18175451 -0.02724502
-0.034700353 -0.0037542067 -0.07288556 -0.121376134 0.16002901 0.1604051 -0.08102507 0.07069655
-0.012080388 0.21224628 0.17537293 -0.0011771024 -0.21006653 -0.055432074 0.07426553 0.07193721
0.20578374 0.0674547 -0.17627996 0.11745288 -0.11758169 0.010989305 -0.13105376 -0.045951307
-0.029916007 0.15329364 -0.18280804 0.05247238 0.081530206 -0.04933465 0.20562802 0.021287913
0.032985266 0.07270419 0.0020834047 0.06254335 0.025471408 0.07807829 0.06296566 0.04886805
-0.047717687 0.07286838 -0.11180511 -0.06590039 -0.045633707 0.08293798 0.038074065 -0.018515488
0.033466406 0.1578038 0.124253765 0.018413002 -0.014198847 0.048006892 -0.11606965 0.26006672
0.08916723 -0.044494502 -0.09333712 0.12193023 0.2037528 -0.15701367 -0.28834146 0.08734055
0.006463024 0.19952837 -0.119528726 0.13269405 0.1371645 0.05757436 -0.23630841 -0.24254964
0.18935813 0.309195 -0.004217165 -0.041400228 0.15821376 -0.2600626 0.4714957 0.15011802
0.05841441 -0.039425585 0.106354505 0.21260567 0.15571906 0.24738845 0.27323064 -0.1949358

action_model._discrete_distribution.branches.0.bias f4 [6]
00000000: ef71 db3d ebc5 373e e030 d73d c8fa 1bbc
00000010: 5ee2 163d df2a 203b
0.107150905 0.17946593 0.10507369 -0.00952024 0.036836974 0.0024439616

action_model._discrete_distribution.branches.1.weight f4 [4, 20]
00000000: dec9 cdbb 8973 2a3d a526 5bbd b380 d23e
00000010: 3af3 4f3c 9d70 41be 5a07 b93e 5746 403d
00000020: 6654 8c3d c6d7 d23d 2610 c0bd 67e6 aebd
00000030: 36b0 aabc 81f7 6e3e 1d0a 65bc 6534 7b3e
00000040: ac3c 9a3d 8652 9cbe d7c2 983a 2f0c af3c
00000050: 7ca1 4cbf 9de3 ef3e a652 853e 5790 0bbf
00000060: 82a5 c7be aaf2 a53e c4f4 d2bd c423 7d3e
00000070: 6daf 053f 3052 de3d 147d c63e 0d47 cf3e
00000080: f7b4 843e a200 24bf cf9b 99be 7a70 9abe
00000090: cd76 44bf 381b cc3e 2e52 6d3c 240f 0abf
000000a0: 6340 393f f878 4ebf edab 8f3d f043 d2be
000000b0: 036e 663e 5c30 8c3c 1e9c 40bf 4536 b0be
000000c0: 536b 45bf c3d0 b2bd 780f 89be 50a2 1dbf
000000d0: b031 e33c 4de2 ba3d 0a35 ab3e 38ed d8be
000000e0: ca28 c43e 943e 393e fe8f f1bd f352 a83e
000000f0: 1c8a 2abd 4f96 99bb 57ca fbbd ca93 8f3e
00000100: 535d d23d 93fb b23d 641b b13e 69e4 0ebb
00000110: a2d1 563d 0497 03bc 992c 203c 50df 043e
00000120: 0cfe 93bd e649 be3d c26d 20bc faad 823e
00000130: dae4 ef3d f24c 59be 6011 003e 8620 973d
-0.006280168 0.04161409 -0.05350365 0.41113815 0.012692267 -0.18890615 0.3613842 0.04694208
0.06852035 0.10295062 -0.0937808 -0.085400395 -0.020835977 0.23336603 -0.013979462 0.24531706
0.075311035 -0.3053171 0.0011654746 0.021368114 -0.79933906 0.46853343 0.26039618 -0.5451712
-0.3899346 0.324117 -0.103005916 0.24720675 0.52220803 0.1085552 0.38767302 0.40483895
0.25919315 -0.64063466 -0.30001685 -0.30163938 -0.76743776 0.39864516 0.014484925 -0.5392935
0.7236387 -0.80653334 0.07015214 -0.41067457 0.22502904 0.017112903 -0.75238216 -0.34416404
-0.7711689 -0.087312244 -0.26769614 -0.61575794 0.027733654 0.09125195 0.33438903 -0.42368484
0.3831237 0.18090278 -0.117950425 0.32875785 -0.041635618 -0.0046871076 -0.12294453 0.28042442
0.102717064 0.0873939 0.3459121 -0.0021803624 0.052446015 -0.00803161 0.009776258 0.12975812
-0.0722619 0.09291439 -0.009791793 0.2552336 0.11713572 -0.21220759 0.12506628 0.0737925

action_model._discrete_distribution.branches.1.bias f4 [4]
00000000: 5db3 113d 7c1b ccbd 3b6f 073d 57a1 263d
0.035571445 -0.0996618 0.033065062 0.04068121

action_model._discrete_distribution.branches.2.weight f4 [3, 20]
00000000: 1f02 703d 12ef a8bd 7b47 02be b74b 523d
00000010: 6f81 363e 9675 fd3b f108 ab3d 3ee0 c1bc
00000020: d3e1 00be a129 4c3d 4d60 ab3d 68c0 d6bd
00000030: 894f 89be f8bc 113d bcdc 6c3d 979e ad3d
00000040: f691 9a3d 2fc5 503c 12ec e33d 6b8f 013d
00000050: ae4d b03d 3457 df3c 7e3e 1539 f3d9 993d
00000060: df6d e2bc a3a7 703d cbb7 263d 1114 be3c
00000070: d768 f03d 646f 2cbd 2e72 2a3d 904d 123e
00000080: c9f1 183e e8cb 3b3d cbc5 183c df2c a83d
00000090: 8c24 493d 444f 08bc 3b36 b4bc fc7d f03d
000000a0: b13e 5b3d b2e0 fd3d ed4e 083e 7449 d63c
000000b0: d656 313d 16bc 6ebd b1f6 a13c bac1 833c
000000c0: fa6c d63d 7952 923d 7a25 40bc fa1a b13d
000000d0: 8944 b83d b2f1 073e 20d7 083d fe82 febc
000000e0: 20f9 383d d89b 543d b985 11bd 25aa 75bd
0.058595773 -0.08248724 -0.1272258 0.05134174 0.17822812 0.0077349646 0.08351315 -0.023666497
-0.12586145 0.049844388 0.08367977 -0.10485917 -0.26818493 0.035580605 0.057827696 0.08477514
0.07547371 0.012742325 0.11129011 0.031630915 0.08608566 0.027263261 0.00014233027 0.07512274
-0.027640281 0.05875362 0.040702622 0.023202928 0.117387466 -0.042098418 0.041612796 0.142874
0.14935984 0.045848757 0.009324501 0.082116835 0.04910712 -0.00831968 -0.021998515 0.117427796
0.053526584 0.12396373 0.13311358 0.026158072 0.043295704 -0.05828484 0.019770952 0.016083587
0.104700044 0.07144637 -0.011727685 0.086477235 0.08997447 0.13275793 0.033408284 -0.031068321
0.04515946 0.051906437 -0.03552792 -0.059976716

action_model._discrete_distribution.branches.2.bias f4 [3]
00000000: a347 dfbb 4812 933d 44dd 5c3d
-0.0068139597 0.07181221 0.053921953

exp_avg f4 [20, 128]
00000000: c55c 493a 152f 8d37 1122 44b9 daee 483a
00000010: d944 8d37 cd8b 87b9 bf35 d937 7563 5337
00000020: 17a3 6538 1793 423a ea15 46b9 fb2f bcb9
00000030: 9fd5 db35 31f8 173a 82f3 3a39 1793 423a
00000040: 205d 45b9 ef8e a9b9 94e2 e4a8 152e 8038
00000050: ba99 e2b8 1793 423a 698f 5cb9 e017 c8b9
00000060: 94e2 e4a8 38a3 4fb9 7158 82b9 2dcc 2338
00000070: 1cc3 c8b8 bc17 cbb9 94e2 e4a8 7493 48ba
00000080: a0ca 9fb9 2019 1b9e acd4 bdb8 5579 4cba
00000090: c9d2 ba12 18ce 42ba 9d04 cfb9 2019 1b9e
000000a0: 123b 5dba 4395 b3ba c9d2 ba12 1aab 3eba
000000b0: 9d09 bcb9 2019 1b9e 0998 49ba 2cc5 10bb
000000c0: 8495 6795 592f 5aba 7b05 f3b9 2019 1b9e
000000d0: ca29 59ba d2a7 24bb 437e 1e0f e957 9cb8
000000e0: b148 02ba db53 9c03 bf82 89ba 2e93 45bb
000000f0: f17b 1e0f ce36 b3b8 7d2a 03ba 1607 bf8a
00000100: 6356 85ba 3321 53bb 131b 1f0f 02dd 85b9
00000110: e344 bbb9 eb06 d58a f3cb 8dba 8733 54bb
00000120: ced7 1d0f affd e0b8 b83e b7b9 3c26 4789
00000130: aa60 7dba 33d0 5dbb a699 0a8c d9d8 b0b8
00000140: a6cc 6cb9 e6cb 9601 e8e2 7dba 6eef 5cbb
00000150: 1a38 1b10 96d0 9db6 282b 7cb9 a200 0000
00000160: bc20 b2ba 745c 6abb 3a22 1b10 9add c7b5
00000170: 392d 87b9 f3b1 318a 33da 56ba 3852 62bb
00000180: 3a22 1b10 4a1a 6137 b8bc 70b9 9395 1814
00000190: a3de 31ba 9201 5ebb d9d0 1d10 81e4 52b6
000001a0: 8280 67b9 d659 1514 6119 fbba 5fe1 6dbb
000001b0: 81e5 1d8a 2610 53b6 9e21 43b9 024e 0080
000001c0: 9c3f c4ba ca5e 69bb 14c2 be0e 9851 0db5
000001d0: 587c bab9 d18b 0080 2902 feba 5c8a 7cbb
000001e0: 14c2 be0e 9518 0cb5 63cf b9b9 a934 f2bd
000001f0: 079c a33d de58 370c e8b5 d63a c55c 493a
00000200: d6e3 2137 aa17 8fb7 de4e 033a a69a 0938
00000210: f922 8fb7 958e ff39 418b ed36 6fd6 6d37
00000220: e208 083a 0779 2c36 f175 6439 a585 503a
00000230: 5543 c2b7 59a9 ca39 1486 393a 0779 2c36
00000240: 3806 4639 1bae c139 3eda 17a7 cb12 183a
00000250: 6b58 453a 0779 2c36 cca7 2c3a 17d2 233a
00000260: 3eda 17a7 40b4 5e3a eace 703a 0b7e c3b6
00000270: f969 133a e21c 673a 3eda 17a7 ea2d fa39
00000280: 4a19 713a b271 889e 36bf 113a 95c4 b83a
00000290: 86c9 4112 c542 d339 a8aa 6b3a b271 889e
000002a0: e0b4 813a 004a e63a 86c9 4112 f852 e439
000002b0: 0333 5e3a b271 889e 270e 6e3a 040f 213b
000002c0: a37c 1315 ef68 173a 96e5 713a b271 889e
000002d0: b4a2 6f3a ed0b 283b e465 a510 fb1a f638
000002e0: 7645 723a b3e8 9583 0a48 a33a 1c36 453b
000002f0: 1566 a510 1c90 0039 5178 6f3a fd8a c60a
00000300: 1f20 983a 3172 573b ad59 a510 9613 7939
00000310: 526a 503a 024e e40a c4e0 b73a 353b 593b
00000320: d777 a510 86af 0d39 a2c8 523a 2ced 020a
00000330: 8563 593a 2453 543b 0e2d 4d0b 7900 0339
00000340: 2587 413a 0830 e180 5c94 563a a7b4 533b
00000350: 8e7a f791 4421 ad37 129e 473a 5500 0000
00000360: 73c9 9d3a 7fec 683b d37a f791 2adb 4736
00000370: 4b27 423a 401d 7309 df6f 833a dded 663b
00000380: d37a f791 8573 8ab7 2920 433a 78cc fd91
00000390: 8f5d 7a39 b843 543b edbb f791 72b3 0b37
000003a0: 8c28 403a 7219 9890 8913 e83a eb81 6f3b
000003b0: 148c 238b a4ba 0b37 f5fc 383a 4403 0000
000003c0: 59af b73a 698e 6c3b d17f ba11 53c6 0037
000003d0: 4be4 5b3a 1697 0100 49be 013b 41ea 823b
000003e0: d17f ba11 66b8 0037 3eb3 563a d396 d63d
000003f0: f549 95bd 0144 398c fc68 cfba d6e3 2137
0.0007681365 1.6830434e-05 -0.00018704707 0.0007664986 1.684057e-05 -0.00025853366 2.5893443e-05 1.2599737e-05
5.4749744e-05 0.0007422431 -0.00018890915 -0.00035893903 1.6378943e-06 0.0005797176 0.00017829056 0.0007422431
-0.00018822076 -0.00032340686 -2.5411348e-14 6.112099e-05 -0.000108051536 0.0007422431 -0.0002103426 -0.0003816476
-2.5411348e-14 -0.00019801862 -0.00024861426 3.9052382e-05 -9.573085e-05 -0.0003873686 -2.5411348e-14 -0.0007651367
-0.0003047781 -8.2108274e-21 -9.0518355e-05 -0.00078000623 1.1790213e-27 -0.0007431223 -0.00039485554 -8.2108274e-21
-0.0008439283 -0.00137011 1.1790213e-27 -0.0007273421 -0.00035865317 -8.2108274e-21 -0.00076901965 -0.002209018
-4.6768026e-26 -0.00083230954 -0.00046352655 -8.2108274e-21 -0.000828412 -0.0025124443 7.8143186e-30 -7.455034e-05
-0.00049699383 9.188108e-37 -0.0010491236 -0.003014754 7.813872e-30 -8.545593e-05 -0.00050035847 -1.8395296e-32
-0.001017284 -0.0032215833 7.8445196e-30 -0.000255324 -0.00035718744 -2.0513756e-32 -0.0010818228 -0.0032379346
7.78226e-30 -0.000107284046 -0.0003495121 -2.3971731e-33 -0.0009665588 -0.003384602 -1.067737e-31 -8.432725e-05
-0.00022582951 5.539388e-38 -0.0009684996 -0.0033712047 3.061158e-29 -4.703247e-06 -0.0002404867 2.27e-43
-0.0013590078 -0.0035760673 3.0594727e-29 -1.489115e-06 -0.000257829 -8.5557085e-33 -0.00081959664 -0.003453387
3.0594727e-29 1.3417166e-05 -0.00022958487 7.703537e-27 -0.00067851896 -0.0033875448 3.112368e-29 -3.1425445e-06
-0.0002207775 7.5402946e-27 -0.0019157344 -0.0036297662 -7.60244e-33 -3.145085e-06 -0.00018609173 -2.7984e-41
-0.001497257 -0.0035609477 4.7025507e-30 -5.264533e-07 -0.00035569328 -5.0157e-41 -0.0019379306 -0.0038534617
4.7025507e-30 -5.2189836e-07 -0.00035440465 -0.118264504 0.07988744 1.412455e-31 0.0016381117 0.0007681365
9.649395e-06 -1.7057948e-05 0.00050090055 3.2807373e-05 -1.7063214e-05 0.00048743622 7.0793617e-06 1.41762275e-05
0.0005189312 2.5700444e-06 0.00021787711 0.0007954485 -2.3157956e-05 0.00038654616 0.0007077169 2.5700444e-06
0.00018885068 0.00036941547 -2.1073769e-15 0.000580114 0.0007528129 2.5700444e-06 0.0006586283 0.00062492624
-2.1073769e-15 0.0008495487 0.0009186106 -5.826126e-06 0.0005623396 0.00088162546 -2.1073769e-15 0.00047717924
0.0009197189 -1.4446583e-20 0.00055598037 0.0014096672 6.114846e-28 0.00040294803 0.00089899683 -1.4446583e-20
0.0009895824 0.0017569661 6.114846e-28 0.00043549365 0.0008476229 -1.4446583e-20 0.00090810884 0.00245756
2.9784735e-26 0.0005775829 0.00092276314 -1.4446583e-20 0.0009141371 0.0025641874 6.523801e-29 0.000117352196
0.0009241918 -8.810858e-37 0.0012457382 0.0030092066 6.5238307e-29 0.00012260716 0.0009135055 1.9118988e-32
0.0011606253 0.003287446 6.521919e-29 0.00023753787 0.0007950413 2.1984945e-32 0.0014028777 0.0033146862
6.526567e-29 0.00013512195 0.0008040761 6.3038794e-33 0.00082927226 0.0032398188 3.951546e-32 0.0001249331
0.0007382504 -2.0680217e-38 0.00081855594 0.0032303722 -3.904526e-28 2.0638698e-05 0.0007614802 1.19e-43
0.0012038186 0.0035541353 -3.9045425e-28 2.978088e-06 0.0007406368 2.9263814e-33 0.0010027847 0.0035236992
-3.9045425e-28 -1.6504675e-05 0.0007443452 -4.0042375e-28 0.00023876711 0.0032388996 -3.9085547e-28 8.326826e-06
0.00073302607 -5.9992634e-29 0.0017706017 0.0036545943 -3.149804e-32 8.328501e-06 0.00070567365 1.171e-42
0.001401405 0.0036095625 2.9424399e-28 7.6755705e-06 0.00083882053 1.46035e-40 0.0019797257 0.0039952104
2.9424399e-28 7.672328e-06 0.00081901613 0.10477986 -0.07289497 -1.4272346e-31 -0.0015824134 9.649395e-06

exp_avg_sq f4 [20, 128]
00000000: 8b5c 9437 acab 0f36 8300 c937 59cf c437
00000010: 8346 0936 d0db ce37 4c96 0137 4c80 d535
00000020: 3d60 d737 c0cd c737 18bb 1437 2177 da37
00000030: e1b7 0237 dd8a 8337 ab98 1938 904d b737
00000040: 8a70 1137 c543 de37 a830 f536 be23 f137
00000050: d084 4a38 3acf 9e37 f819 0b37 5dc8 e437
00000060: 31d8 d636 485e f737 1c32 4b38 d2a1 7d36
00000070: 105d 0937 e617 0e38 1c08 c936 591b 7c37
00000080: 98ac 4638 22e9 e235 48ce 1b36 75c0 0138
00000090: 0394 4a35 91fb 7d37 4d09 4938 e45f 2f35
000000a0: 9b15 8437 4c09 3f38 734c ce35 26a4 b537
000000b0: c045 5538 f4d8 ff35 f5ea 8637 9dd2 4738
000000c0: 20b3 e435 dd6a c237 56bc 5738 2701 a635
000000d0: 08c7 8a37 e8cd 5538 f946 a135 8352 2437
000000e0: 06ed 4c38 5f2f 1c35 8288 9237 3b0a 8238
000000f0: c59f 8435 9423 9236 862a 4238 ed15 6a34
00000100: dc43 9c37 efed 8a38 81ae 4034 60a1 a636
00000110: 8387 3c38 33b5 1735 f6b9 a637 f879 8d38
00000120: 8160 7734 1a1c bf36 933e 3738 a1c8 d234
00000130: c057 ad37 dcb8 8f38 6c7c 3b34 c49a e636
00000140: 4b2a 3538 472e dd34 8bdf b137 4d45 9238
00000150: b4e6 4034 fcaa b836 d54f 3038 f7b0 8134
00000160: fc7b b337 f7bd 9a38 b933 b833 1797 da36
00000170: 4038 2d38 7bca 7834 402b b137 3ae1 9a38
00000180: afad e732 b3a5 cb36 9f7a 2838 6047 7834
00000190: d7b7 4d38 f6f8 c338 f9df fe34 4006 be36
000001a0: 367d 2438 cfd7 8b34 3c0b 6338 eb8b c938
000001b0: fee3 e531 c4e1 f936 d270 2438 9c16 4234
000001c0: 7d6e 5f38 8634 c938 a984 4333 c1e3 e936
000001d0: b78e 1f38 ddbe 4b34 16f6 6e38 058d cf38
000001e0: 9067 3833 10bd d336 db35 1a38 e449 923d
000001f0: 393b 503d 63ee a837 2391 ed38 8b5c 9437
00000200: c1a2 d736 4fdc bb35 4de9 9f37 a923 7c36
00000210: 4453 d135 dc59 ae37 1107 6b37 5e65 9835
00000220: 011e 8f37 54ab 1336 1ba3 d136 8f58 b737
00000230: f727 6537 9c34 2936 bcb9 9837 619c b035
00000240: 74b2 ce36 2795 b837 8045 5d37 51df ad37
00000250: c8ec 1038 332f 6035 98c4 c336 76c1 b837
00000260: 7d31 2037 a477 b137 032e 1238 b52c d934
00000270: 9228 c836 008d e837 bae0 0337 9a16 a237
00000280: 2fa6 1038 4a49 0f33 323a e435 812a d137
00000290: 2a00 ed35 16bc a037 603d 1338 021c 6a34
000002a0: 53c7 a537 bafc 3638 6eee 7d35 e5ee da37
000002b0: 27d0 2538 ed8a 7135 6a37 aa37 cace 4138
000002c0: e803 7335 7b25 e637 f020 2a38 71c7 f434
000002d0: dc31 ae37 9a2b 4e38 6ec7 4435 4479 1037
000002e0: 1a24 2238 7a65 5734 cb66 b937 63c2 7438
000002f0: b260 6035 fa3c 1536 a50c 1938 d064 8d33
00000300: c9ed bd37 8d72 7e38 643a 1034 4826 3f36
00000310: c735 1638 b0dc e034 f9ea c437 89e1 8038
00000320: 88f0 1934 5664 6c36 c5e9 0f38 af85 c333
00000330: 1989 c937 0645 8438 d2a3 e333 7459 9336
00000340: 19de 0c38 8712 ca33 5d85 cc37 33dc 8638
00000350: c7cd aa33 6fa5 7a36 dd24 0738 1bde 7633
00000360: 02b2 d037 64f2 8d38 068e d633 34bb 8c36
00000370: a722 0338 2585 3233 dfef cd37 d080 8e38
00000380: 4178 b533 f213 7336 fc3e fe37 1e15 c732
00000390: 3e80 6038 eeb4 b838 83f6 9b34 a1d8 6e36
000003a0: 8bdc f337 cb6c db32 24a8 7238 9180 bd38
000003b0: fe56 7333 3649 a036 8eb9 f137 d6a9 9432
000003c0: 8af8 6e38 6aab bc38 248d 5a33 6536 9036
000003d0: 671f ea37 0150 0b34 3292 7c38 3e35 c138
000003e0: dd81 7733 49f1 6a36 90d9 dd37 c609 5b3d
000003f0: 19be 2e3d 8708 6937 5c0f c238 c1a2 d736
1.7686069e-05 2.1408587e-06 2.3961305e-05 2.3461575e-05 2.0455634e-06 2.4659472e-05 7.723993e-06 1.5907076e-06
2.5674812e-05 2.3818458e-05 8.865049e-06 2.6043099e-05 7.7914165e-06 1.568108e-05 3.6620226e-05 2.1851418e-05
8.668876e-06 2.649602e-05 7.3072333e-06 2.8746083e-05 4.8284244e-05 1.8931565e-05 8.291092e-06 2.727302e-05
6.402865e-06 2.9488598e-05 4.844564e-05 3.779413e-06 8.187504e-06 3.3877695e-05 5.991211e-06 1.5026738e-05
4.736762e-05 1.6906163e-06 2.3216871e-06 3.0935236e-05 7.546625e-07 1.51385475e-05 4.7930796e-05 6.533212e-07
1.5745687e-05 4.5546607e-05 1.5370446e-06 2.1653319e-05 5.0848117e-05 1.9062122e-06 1.6083455e-05 4.7641446e-05
1.7039456e-06 2.3176364e-05 5.1435396e-05 1.2368299e-06 1.6543563e-05 5.0974922e-05 1.201609e-06 9.794373e-06
4.8858135e-05 5.818346e-07 1.7468123e-05 6.2007886e-05 9.881265e-07 4.355281e-06 4.6292807e-05 2.1800925e-07
1.8628249e-05 6.6246714e-05 1.7944878e-07 4.965972e-06 4.4948898e-05 5.6515563e-07 1.9875337e-05 6.7461224e-05
2.3038776e-07 5.695515e-06 4.3688877e-05 3.9261525e-07 2.0664069e-05 6.853204e-05 1.7460997e-07 6.8725512e-06
4.319315e-05 4.119813e-07 2.120414e-05 6.974731e-05 1.7965323e-07 5.5035325e-06 4.203602e-05 2.415688e-07
2.1396198e-05 7.378676e-05 8.577576e-08 6.5144955e-06 4.12988e-05 2.3170462e-07 2.1120184e-05 7.385244e-05
2.6970921e-08 6.0691614e-06 4.016852e-05 2.3122766e-07 4.9047023e-05 9.344697e-05 4.7474148e-07 5.663169e-06
3.921726e-05 2.604779e-07 5.413148e-05 9.6104886e-05 6.690697e-09 7.447061e-06 3.920572e-05 1.8075883e-07
5.3270243e-05 9.59421e-05 4.552263e-08 6.970455e-06 3.8041468e-05 1.8975284e-07 5.6972807e-05 9.896796e-05
4.2935028e-08 6.3103e-06 3.6766618e-05 0.07143 0.05083773 2.0138168e-05 0.000113280745 1.7686069e-05
6.4264464e-06 1.3996704e-06 1.9062916e-05 3.7571683e-06 1.5595947e-06 2.078426e-05 1.4008737e-05 1.1354384e-06
1.70609e-05 2.2004433e-06 6.2476734e-06 2.1856538e-05 1.3658769e-05 2.5213585e-06 1.8206301e-05 1.3158534e-06
6.160053e-06 2.2003964e-05 1.3188808e-05 2.0727197e-05 3.4552795e-05 8.3515187e-07 5.8343394e-06 2.2024597e-05
9.548266e-06 2.1155756e-05 3.4851964e-05 4.0451928e-07 5.9651875e-06 2.7722213e-05 7.860532e-06 1.932243e-05
3.4487046e-05 3.3361438e-08 1.7004261e-06 2.4934534e-05 1.7657924e-06 1.916107e-05 3.510469e-05 2.1803137e-07
1.976235e-05 4.362755e-05 9.4596805e-07 2.6098869e-05 3.9532923e-05 8.998166e-07 2.0291383e-05 4.6207373e-05
9.053024e-07 2.743559e-05 4.0561834e-05 4.5593654e-07 2.0765634e-05 4.9154834e-05 7.33059e-07 8.611303e-06
3.8657432e-05 2.0060352e-07 2.2101585e-05 5.835517e-05 8.3587213e-07 2.2238223e-06 3.648982e-05 6.584162e-08
2.2641283e-05 6.0665003e-05 1.3432287e-07 2.84835e-06 3.581287e-05 4.1883823e-07 2.3474438e-05 6.145525e-05
1.433674e-07 3.5225144e-06 3.431157e-05 9.104712e-08 2.4024908e-05 6.307107e-05 1.060031e-07 4.391355e-06
3.3585446e-05 9.409728e-08 2.4380797e-05 6.430633e-05 7.9536726e-08 3.7349198e-06 3.222084e-05 5.7478342e-08
2.4878424e-05 6.768553e-05 9.9909855e-08 4.1941184e-06 3.1265106e-05 4.156495e-08 2.4549603e-05 6.795081e-05
8.4503434e-08 3.6221431e-06 3.0308489e-05 2.3176252e-08 5.3525197e-05 8.8075045e-05 2.905036e-07 3.5590858e-06
2.9070556e-05 2.5544429e-08 5.785389e-05 9.03617e-05 5.6656965e-08 4.7768945e-06 2.8815844e-05 1.73067e-08
5.6975092e-05 8.996467e-05 5.0885447e-08 4.297867e-06 2.7909597e-05 1.2974489e-07 6.0217637e-05 9.212874e-05
5.762728e-08 3.5009164e-06 2.6446563e-05 0.053476118 0.04266176 1.3889868e-05 9.253502e-05 6.4264464e-06

exp_avg f4 [20]
00000000: 1ed9 66bb 042d 863b efb7 b53a 4f3f 9b3a
00000010: ea9b 1c3a b87d 61ba d837 b5b8 c142 0c3a
00000020: 4060 163b 3bd1 173b bb6f d2b9 23f6 a9b8
00000030: 7986 7739 2dd7 c43a a0ed 633a 6d18 feb9
00000040: 452d 58bb 7e33 6aba 7201 7cb9 e264 86ba
-0.0035224627 0.0040947217 0.0013864021 0.0011844429 0.0005974161 -0.00086018024 -8.641154e-05 0.0005350523
0.0022945553 0.0023165483 -0.00040137567 -8.1043945e-05 0.0002360585 0.0015017741 0.00086947717 -0.00048464854
-0.0032985967 -0.00089340645 -0.00024033131 -0.0010253454

exp_avg_sq f4 [20]
00000000: e01a 8239 4844 4f39 3ef8 3c38 1288 2439
00000010: a92e 8738 819f 0f38 8f7c c138 cda2 8538
00000020: 82b9 8239 4371 9d37 f740 1638 75af c238
00000030: 9fc2 6c38 aec2 0339 f6ca 9538 19d6 ed37
00000040: 728c 0739 3898 fb38 7a55 0f37 cf71 c438
0.00024815556 0.00019766495 4.5053886e-05 0.00015690949 6.445993e-05 3.4242406e-05 9.226158e-05 6.372258e-05
0.00024933746 1.87686e-05 3.582329e-05 9.283322e-05 5.644804e-05 0.00012565657 7.142678e-05 2.8352299e-05
0.00012926923 0.000119969656 8.543366e-06 9.367207e-05

exp_avg f4 [6, 20]
00000000: d0ae dd3a 2d01 3a3a 17de 7a3a 3a45 aeb7
00000010: 93be c4b7 dd4f cfb9 0146 c9b7 8ef1 c33a
00000020: 9ed2 cf3a d8f6 6039 c8af b5b9 3842 9f38
00000030: 4113 a739 b8e5 083a e3e3 87ba c89b e037
00000040: 0a15 683a 678d f73a 7658 06bb 2a95 783a
00000050: 8847 b3bb 7d3b abba c8a6 1fbc 9400 5db9
00000060: 1034 823b a140 b139 7ba8 a139 cbf8 89bb
00000070: 45ee 8ebb 0ff0 bc3b 6236 1539 46c2 8dba
00000080: 5591 2cbb 3ba3 4b3a e552 5c3b 3755 bfb8
00000090: 8797 abbb 8df9 9bbb 7ed8 e3ba d650 18bc
000000a0: 1d47 83bb b20d da3b 71ac c0bb 8a40 3cbb
000000b0: b6a5 f23a 4497 11bb 6260 5839 de80 0e3c
000000c0: 6018 363b 3c44 393b 1cc8 55ba 2e55 98bb
000000d0: 19c2 0fbc 4395 57ba b45f b3ba e2d8 b7b9
000000e0: e836 68ba 7995 283a c144 d737 707e f4bb
000000f0: f8e0 b83b 7800 8239 7489 523b c5b3 183b
00000100: 935d a7b9 81c4 ba3a 81dd aeba 7faf c23a
00000110: 9f8b 583b fe49 f3ba 2685 e439 555a 1b3b
00000120: 1a7e c93b 1748 033b 4f07 763a 3f19 6dba
00000130: 63f2 363b f51c 863b ffab 4d3b 8243 0c3c
00000140: 13ec 3dbb 9c2c bdbb d584 663c 4705 a73a
00000150: 1f34 f2bb e94b fd3a 3169 153a 89c9 0fbc
00000160: 4794 63bb a008 0cbc 4427 3a3a 4bc8 a63b
00000170: b73a e73b 0c2e c7bb c734 07bb 60f5 a93a
00000180: aa59 69b7 8168 d0bb 9f63 203b 78ec f93b
00000190: 1275 a53b 2ef7 09ba e305 2bbb 94a7 02ba
000001a0: 3e4c fa3a b352 8dba 1f25 8f39 3cf8 ac3a
000001b0: 4df8 3639 9468 d13a 1ea8 04b9 bc7b ecba
000001c0: 7479 0abb f800 6c3b 5a26 3039 5853 bc37
000001d0: cb9e 213b 5298 933b dcd7 eeba bd87 c1b9
0.001691306 0.0007095512 0.0009569837 -2.0774653e-05 -2.3453764e-05 -0.0003954162 -2.3993665e-05 0.0014949308
0.0015855615 0.00021454261 -0.00034653977 7.594045e-05 0.00031867067 0.0005222219 -0.0010367598 2.6775422e-05
0.0008853233 0.0018886746 -0.0020499504 0.00094826764 -0.0054711737 -0.0013063994 -0.009744354 -0.00021076418
0.0039734915 0.00033808223 0.0003083384 -0.0042105666 -0.0043619 0.005765922 0.00014230006 -0.0010815344
-0.0026331742 0.00077681587 0.0033618745 -9.123462e-05 -0.0052365693 -0.0047599734 -0.0017383245 -0.009296617
-0.00400628 0.0066544646 -0.0058799316 -0.0028724992 0.001851252 -0.0022215405 0.0002063527 0.0086977165
0.0027785525 0.002826943 -0.0008155124 -0.004648826 -0.008774304 -0.0008223841 -0.0013685138 -0.0003506607
-0.00088582793 0.00064309646 2.5662013e-05 -0.0074613616 0.0056420527 0.00024795881 0.0032125385 0.002330051
-0.0003192244 0.0014249237 -0.001334116 0.0014853327 0.0033042205 -0.001856148 0.00043586752 0.0023704965
0.0061490657 0.0020031983 0.00093852443 -0.00090445945 0.002791547 0.0040928074 0.0031383035 0.008561017
-0.0028979823 -0.00577314 0.014069756 0.0012742662 -0.007391467 0.0019324991 0.00056995737 -0.008776077
-0.0034725831 -0.008546978 0.0007101188 0.0050897948 0.00705656 -0.0060784873 -0.0020630823 0.0012966804
-1.3908759e-05 -0.006360114 0.0024473441 0.007627066 0.0050493563 -0.0005262968 -0.0026096038 -0.00049840775
0.0019096208 -0.0010782093 0.00027302743 0.0013196538 0.00017449372 0.0015976601 -0.0001265113 -0.0018042247
-0.002112952 0.003601132 0.00016798955 2.2450156e-05 0.0024661298 0.004504242 -0.001822229 -0.00036912962

exp_avg_sq f4 [6, 20]
00000000: 4eec a93a 0df5 6f39 4344 e539 f148 973a
00000010: c558 ba39 00a4 1b39 f04e 073a 78df ee38
00000020: affe 3c3a e088 d838 5164 1f39 45b2 323a
00000030: fa8b ba3a daf7 743a e99f 0f3a 1f5a ed38
00000040: e4d1 833a 161e 103a 41d7 a838 fd05 a83a
00000050: 0de1 4f3b ebf3 0b3a bd7e 463a dfb4 0b39
00000060: 399b 0e3a e38b 1838 1f29 9837 d2c1 cc3a
00000070: d0cd 523a 629b 233a 8bca cc37 c613 0939
00000080: a6bf 0b3a 1cdc 1a3a 1490 d039 107f 2037
00000090: 2de6 163b 4029 443b 1259 3738 e001 f13a
000000a0: 2543 943a 4f24 3e3a b5b2 4d3a 0b31 0b3a
000000b0: 6ad9 ce38 64ad 9038 7eff 5039 33b9 b43a
000000c0: d7a9 933a 14f7 9d39 1182 6138 86d6 c739
000000d0: 64be 613a 09bd 1a3a 1184 2639 203a 0638
000000e0: bc7b 753a 9859 f13a dea9 0638 58fc 973a
000000f0: 7250 033a 011e 7f39 b501 153a 4288 ad39
00000100: d84a 9438 e511 9338 4d39 3c39 6255 c739
00000110: eca9 fd39 908c 8139 f620 5738 def0 b439
00000120: aa99 413a 5e31 8139 22d8 3539 217d 9538
00000130: 6e93 e339 5c26 833a c10d 8e38 cd54 183a
00000140: c623 1d3b c92e a73a 1d4b cc3a b2f2 fd39
00000150: 3f18 b939 d998 2c39 bfb7 4139 8081 073b
00000160: 3d39 fe3a 9ef9 033a 0fd1 ef38 aa72 493a
00000170: 0136 e73a c7ee 603a 1804 b939 cb69 3238
00000180: c824 fb3a d3b2 613b 0a96 da38 a280 f33a
00000190: 9489 d43a e33d 8139 b968 8839 766f 8a39
000001a0: e73a e339 a41d 1139 8a6b 0139 d0f6 8439
000001b0: e20c 053a 06d2 f138 5c92 3039 7dbe c839
000001c0: 8311 463a 2d80 073a 2f69 183a 3661 bf37
000001d0: 47bc 8c3a 19bd 903a b902 8b38 a8ea 393a
0.0012964101 0.00022884105 0.00043729143 0.0011542124 0.00035542823 0.00014843047 0.0005161604 0.00011390349
0.00072095817 0.000103251776 0.00015200792 0.00068167254 0.001423239 0.0009344794 0.00054788456 0.00011317827
0.0010057059 0.0005497647 8.0509584e-05 0.0012819167 0.0031719834 0.0005338776 0.0007571986 0.00013323453
0.000544 3.6369904e-05 1.813896e-05 0.0015621728 0.0008041533 0.00062411104 2.4413011e-05 0.00013072704
0.0005330987 0.00059074326 0.00039780198 9.566327e-06 0.002302538 0.0029931813 4.3713553e-05 0.00183874
0.0011311515 0.0007253335 0.0007846759 0.0005309737 9.863342e-05 6.8987516e-05 0.00019931604 0.0013788104
0.0011265826 0.0003012946 5.3765314e-05 0.0003811607 0.0008611439 0.0005902802 0.00015880192 3.2002223e-05
0.0009364446 0.0018413542 3.210629e-05 0.001159559 0.00050092407 0.00024329872 0.00056841533 0.0003309865
7.071131e-05 7.012839e-05 0.00017950423 0.00038019853 0.00048382522 0.00024709525 5.129069e-05 0.00034511735
0.00073852635 0.0002464158 0.00017342021 7.128181e-05 0.00043406658 0.0010005939 6.7736495e-05 0.0005810976
0.0023977621 0.0012755032 0.001558635 0.00048436743 0.00035304014 0.00016460138 0.00018474365 0.0020676553
0.001939572 0.0005034449 0.00011435348 0.0007684628 0.0017639996 0.00085805025 0.00035289 4.2537034e-05
0.0019160742 0.0034438863 0.00010422997 0.0018577764 0.0016215318 0.00024650907 0.00026017966 0.00026404456
0.000433407 0.0001383932 0.0001234246 0.00025360892 0.0005075467 0.000115308954 0.00016839191 0.00038288897
0.000755571 0.0005168941 0.00058140134 2.2814242e-05 0.0010737263 0.0011042684 6.6285436e-05 0.00070921564

exp_avg f4 [6]
00000000: f9ac ccb9 8167 4e3a 59d8 813a ad3b 223b
00000010: 5a83 64bb 3046 c5b9
-0.00039038787 0.00078736997 0.0009906396 0.0024754808 -0.003486833 -0.00037627062

exp_avg_sq f4 [6]
00000000: f721 4d39 3e49 9739 bb33 9339 5c34 1b39
00000010: f5ab cd39 a9ff 1d39
0.00019562976 0.00028855534 0.00028076567 0.00014801457 0.00039228765 0.00015067928

exp_avg f4 [4, 20]
00000000: 7acb 03bb dece d5ba d293 d0ba 7555 c03a
00000010: e2eb 053a 9b98 633a 73d1 d73a a2ef 7abb
00000020: cd3e 22bb 608f 6b3a 010f 073a 9c4f 3b3a
00000030: 92bb ee3a 47c5 513a f76e fe3a e8de 9b3a
00000040: 8691 7ebb 64da 3cbb 19cd 1cba 48b3 cdba
00000050: 37a9 123a a787 553b 8a2a 2339 3717 01bb
00000060: 658e 813a 7613 1fbb 125f 6d39 8975 d13b
00000070: 9313 213b 4e8b 183b 001d 3aba d55a 2fbb
00000080: 60ba dbbb bff1 d339 36d0 2ebb 90e0 9bb7
00000090: 7e34 db3b 1578 cf3b 48c0 61ba ce8b 6dbb
000000a0: c3ca a6bb 72a9 a5bb 99cb 64b9 7337 713b
000000b0: e73d d4ba a8bd b23a 496c f23a 8f4f 1abc
000000c0: 9336 90bb e080 c7bb bfd8 e139 7535 0e3b
000000d0: 6ed8 193b c89c 99b8 af94 863a 8348 933a
000000e0: fa56 d5bb f306 35bc dab3 9439 d54a bc3a
000000f0: 7f67 d63b e6b1 603b 8186 d83a fd33 50bb
00000100: a80c fe38 f683 4c39 a8ea 73bb a0a1 e03b
00000110: e0cd 903b 0d95 3b3b a3b7 77b9 8468 5bb9
00000120: c63c 263b 6bf4 93ba c224 9db9 0354 16bb
00000130: 13e0 723b 7fff f83b 0ef4 993a 904c 763b
-0.0020110295 -0.0016312262 -0.0015913195 0.0014673906 0.00051086966 0.0008682103 0.0016465619 -0.0038289805
-0.002475667 0.0008985903 0.0005152077 0.00071453466 0.0018213859 0.0008002114 0.0019411732 0.0011891993
-0.0038844063 -0.0028816694 -0.00059814897 -0.0015693689 0.0005594673 0.0032582076 0.00015560738 -0.0019697675
0.0009884356 -0.0024273074 0.00022637498 0.006392185 0.0024578318 0.0023276391 -0.0007099658 -0.002675702
-0.0067055672 0.0004042517 -0.0026674396 -1.858201e-05 0.006689607 0.0063314536 -0.0008611721 -0.003624666
-0.005090089 -0.0050556 -0.0002181962 0.0036806732 -0.0016192765 0.0013636844 0.0018495406 -0.009418382
-0.004401037 -0.006088361 0.00043076833 0.0021699343 0.002347495 -7.324811e-05 0.00102677 0.001123682
-0.0065106126 -0.01104902 0.0002836276 0.0014365563 0.0065430994 0.0034285723 0.0016519577 -0.0031769269
0.00012114021 0.00019504115 -0.0037218723 0.0068552047 0.0044190735 0.0028622777 -0.00023624166 -0.00020924403
0.0025365814 -0.0011288052 -0.0002997276 -0.0022938258 0.0037059828 0.007598817 0.0011745708 0.0037582256

exp_avg_sq f4 [4, 20]
00000000: 9014 513a 6921 c139 a38c 3f3a 11e8 843b
00000010: eef9 9539 3801 8239 f4f4 c63a 6339 353a
00000020: 56ad c23a 74a0 7539 cedb 6a39 3dd2 a83a
00000030: e7ce 3b3b 4519 493b f28e 263a d467 d639
00000040: 942b b33a 6882 463a f9cf d038 0e97 433b
00000050: 479d 7139 86e9 9739 e5cc 9d39 2544 0939
00000060: 36f0 3d38 8cb0 8b38 3e21 5a38 fd84 1c3a
00000070: 8b9d f139 5cf7 1939 1bd6 a038 8a43 7839
00000080: 93f3 0f3a f6ce f538 1204 4839 f6d8 4a37
00000090: ddc9 8839 3199 353a 4d46 9a38 633d aa39
000000a0: 87c1 bb3a cf4e 4d39 c7ee cf39 bd32 503a
000000b0: 0c50 a239 4bb3 1d38 fbdf bc38 cd42 113a
000000c0: 2ea7 093a 3fae 8539 6fc3 cb37 ccca 1039
000000d0: 59ef 113a 3518 cc3a cf37 ce39 5c5e df37
000000e0: 4b6f ce3a 5077 813a 3129 e837 7db6 ea3a
000000f0: 1916 8c3a bc56 b139 b593 383a f9a5 8e3b
00000100: 3129 e039 3f96 8739 f2f4 c43a f970 1a3a
00000110: 1791 c03a e99e 9839 050d 5e39 f088 aa3a
00000120: b527 403b 8962 7b3b ca46 4d3a f628 d539
00000130: c40e ff3a bec0 443a 4a5d 0439 1e59 553b
0.00079757813 0.0003683672 0.0007307028 0.004055985 0.00028605707 0.0002479644 0.0015179203 0.00069131533
0.0014852684 0.00023424794 0.00022397863 0.0012880039 0.002865726 0.0030685228 0.0006353698 0.0004089462
0.0013669604 0.00075725326 9.956951e-05 0.0029844674 0.00023042141 0.00028974953 0.00030098032 0.00013090724
4.5284825e-05 6.660921e-05 5.200621e-05 0.00059707445 0.0004608448 0.00014683366 7.669275e-05 0.00023676283
0.00054913125 0.0001172106 0.00019075003 1.2090653e-05 0.0002609034 0.00069274293 7.356387e-05 0.00032470663
0.0014324643 0.00019579682 0.0003966002 0.0007942131 0.00030958687 3.7598697e-05 9.006258e-05 0.0005541265
0.0005251047 0.0002549756 2.4290492e-05 0.00013808458 0.00055669766 0.0015571179 0.00039332962 2.6627611e-05
0.0015749721 0.0009877477 2.7675736e-05 0.0017907169 0.0010687738 0.00033824693 0.0007041053 0.0043532816
0.000427553 0.0002586115 0.0015026613 0.0005891468 0.0014691678 0.00029110097 0.0002117642 0.0013010781
0.0029320542 0.0038358292 0.0007830678 0.00040657044 0.0019459357 0.00075055275 0.00012623254 0.0032554339

exp_avg f4 [4]
00000000: 12c7 3eba a1bb 103a 2c79 7dbb 047e 843b
-0.00072775886 0.0005521123 -0.003867696 0.0040433425

exp_avg_sq f4 [4]
00000000: 12f6 b739 826c 3339 d217 4d39 a92f c639
0.00035087817 0.00017111193 0.00019559197 0.00037801013

exp_avg f4 [3, 20]
00000000: 20a4 f039 1d40 953b 1e37 b2bb 6af4 3ebb
00000010: 2cdd 853a 1171 99ba 5e24 13bb cea2 123c
00000020: da7b 433b a09c 9f3b f7d4 38b9 c622 5dbb
00000030: 2edb 8ebb c5b9 c6ba 677b 65ba cef5 e0ba
00000040: 4d47 8d3a e2b5 813b fd7e 5f3a ebc7 76bb
00000050: e124 50bc 54bb 9bbc a884 18bc 57dc 763b
00000060: bf2f 59bb 3ff0 323b 4aa0 4f3b dc89 f0bc
00000070: 4767 94bc 3a35 45bc ef39 b63a 6b2e 6cba
00000080: 9e50 6cbb e67d 3dbb 1ea8 83ba b2c6 1b3b
00000090: 659f 50bc 7687 debc 8634 233b e43d 74bb
000000a0: 8982 483c 98cd 6c3c 6a94 713c 5b5d 60ba
000000b0: 9f3d 163b e666 ccba 4908 72ba f52d a73c
000000c0: b8dd 773c 3fc7 ea3b b725 9fba 1417 8c3b
000000d0: 827d 023c cb4f 903b a054 f63a 2231 2dba
000000e0: 5ee4 3e3c ef11 be3c 5d1c 5bbb 9144 f53b
0.0004589865 0.004554762 -0.0054386994 -0.0029137381 0.0010213009 -0.001170667 -0.0022452096 0.0089499485
0.002982846 0.004870966 -0.00017626943 -0.003374265 -0.0043596243 -0.0015161565 -0.0008754045 -0.0017163099
0.0010778696 0.0039584497 0.00085256976 -0.0037655781 -0.012704105 -0.019010223 -0.009308971 0.0037667954
-0.003314003 0.0027303842 0.0031681233 -0.029362611 -0.018115653 -0.012036616 0.0013902764 -0.00090096024
-0.0036058794 -0.0028914153 -0.001004461 0.0023769555 -0.012733315 -0.027164202 0.0024903133 -0.0037268335
0.012238153 0.014453314 0.014744857 -0.0008558833 0.0022924913 -0.0015594631 -0.0009232802 0.020407656
0.015128545 0.0071648653 -0.0012141977 0.004275212 0.007964494 0.0044040433 0.0018793531 -0.00066067476
0.011651127 0.02320191 -0.0033433654 0.0074849804

exp_avg_sq f4 [3, 20]
00000000: 65e0 853b 3495 5039 c692 cc39 8bfd fe3a
00000010: 627a aa3a 0e3b 7938 8d1e 113a fb86 293a
00000020: 1e6a fe39 d025 183a d5f9 2d38 cfd1 3c39
00000030: 5870 0f3a 6378 633b 4a58 863a 05dd 4c39
00000040: c93e 8a3b de41 1a3b 005e 3038 99fc 3f3b
00000050: 62d2 933b 8b91 bf3a 7187 0b3b 434b c13b
00000060: 3830 8a3a 0439 ee39 9b75 f63a 2091 153b
00000070: c66e 583b 2ac2 193a f9db de39 0ca6 043b
00000080: 950f 943b e0dc e33b 0b1f a93a 6584 fe39
00000090: 2730 b03b 0f79 7e3b 4a6e 4a39 364c d13b
000000a0: 6481 ed3b b095 c63a 42f0 0f3b 00b9 e03b
000000b0: 483f fb3a 35c6 eb39 3d12 003b 16a7 223b
000000c0: 498e 613b a4e2 5f3a ff66 e039 6690 013b
000000d0: f27a 913b ed99 193c c10c ec3a b01e 023a
000000e0: 426e 073c 0d8e a13b 1bb3 4739 888c 023c
0.004085588 0.00019892008 0.00039019267 0.0019454224 0.0013006444 5.9421225e-05 0.00055358635 0.0006466952
0.0004852572 0.00058039743 4.147909e-05 0.00018007237 0.00054717576 0.0034709207 0.0010249701 0.00019537292
0.0042189104 0.0023537795 4.2049214e-05 0.0029294847 0.0045111636 0.0014615519 0.0021290446 0.0058988645
0.0010542935 0.00045437377 0.001880336 0.0022822097 0.003302501 0.00058654195 0.00042507032 0.0020240573
0.004518459 0.0069538206 0.0012902928 0.00048545297 0.005376834 0.003882948 0.00019305307 0.006387259
0.0072480906 0.0015150812 0.0021963273 0.006857991 0.001916864 0.0004497037 0.001954212 0.002481883
0.0034417084 0.0008540547 0.00042801347 0.0019769906 0.004439705 0.009375078 0.0018009172 0.0004963679
0.008266034 0.004930264 0.00019044841 0.007968076

exp_avg f4 [3]
00000000: 9182 703b 65bc 58bc c09b 1c3c
0.0036698917 -0.0132285105 0.009558618

exp_avg_sq f4 [3]
00000000: b694 a239 18fc 3a3a c903 4c3a
0.00031009846 0.0007132902 0.00077825465

exp_avg f4 [20, 128]
00000000: 4968 47ba b9de 07ba 65ab 89ba 559f 53ba
00000010: 9ad6 07ba 943c b6ba 3f53 fa38 f42f feb9
00000020: 425b 0ebb abb2 66ba 06e2 8ebb a979 08bc
00000030: 2271 4338 35bc b4bb c5dc 97bb abb2 66ba
00000040: c7b7 8ebb d372 20bc f0a9 55ac 65c9 78bb
00000050: 1fce 49bb abb2 66ba 65dc 20bc 7666 5cbc
00000060: f0a9 55ac 026f 6abb 01d6 4dbb 27de eb3b
00000070: 1802 23bc d8f8 49bc f0a9 55ac 3087 be3a
00000080: 6c64 44bb 4c54 a5a2 1e42 22bc c5d1 3abc
00000090: 1530 bc13 8068 943a 4ef2 2fbb 4c54 a5a2
000000a0: def3 0fbc 240f 29bc 1530 bc13 dcad d23a
000000b0: 5663 0fbb 4c54 a5a2 7a86 14bc 7d7d 1abc
000000c0: 76cd 9994 cc4b 93ba 6ab5 75bb 4c54 a5a2
000000d0: edcd 1bbc fc5f 20bc a9e6 a911 fbcb 21bb
000000e0: 92b1 67bb 1b41 1403 70db 04bc bc47 34bb
000000f0: 3cd3 a911 d989 37bb 645c 6cbb a612 d188
00000100: e7b6 27bc f5a2 5abb f0d1 a911 c79c 3ebb
00000110: cc64 69bb 44aa 5889 59e3 19bc 4cb6 2ebb
00000120: f7d0 a911 f6ea 3bbb d25f 61bb 7bcb 0909
00000130: eae4 39bc 0524 31bb 850e f68b b45b 3fbb
00000140: 366d 5bbb b8d3 1302 a9b0 3abc 9ea8 2fbb
00000150: 9ea6 b092 79a6 e5b8 782e 4abb 1506 0080
00000160: 8c62 33bc 5d2f 8e3a 3aa2 b092 ddda f9b8
00000170: a9ce 31bb 5db0 6489 213d 0abc ff16 bfb9
00000180: 3aa2 b092 61aa eab8 7c48 29bb 20a1 9e94
00000190: df51 d1bb 2e60 9439 8ba5 b092 6ba4 ecb8
000001a0: 0866 1abb b9cb 9f94 5ff5 51bc 5068 faba
000001b0: 2a28 6f8c 37a4 ecb8 f443 0bbb febb 0000
000001c0: dfe3 61bc 3489 08bb 0a16 3292 3205 edb8
000001d0: e018 feba b008 0100 59e1 5ebc b12b beba
000001e0: 0a16 3292 2f05 edb8 c34a c8ba ed74 373e
000001f0: 0b35 3f3e 921f b60b 672a 9d3c 4968 47ba
00000200: 60cc 9d3a 5db4 8039 6656 22bb 5aaa 3a3a
00000210: 10ab 8039 3432 0cbb dbc5 e83a 5c97 7139
00000220: b13b a8ba 00f3 15ba 9e55 103b df91 1b3b
00000230: 65ee 003a 87c1 453b 3406 f637 00f3 15ba
00000240: d4c7 0f3b 0206 7e3b 003c df2b 3613 0e3b
00000250: c86e 34ba 00f3 15ba daff a33b 71eb c13b
00000260: 003c df2b 8eb4 073b 9e2d 0eba 84d9 9fbb
00000270: f866 b23b 7411 b13b 003c df2b 68ce 3bba
00000280: 9024 a9ba 177a 1f23 5bb0 b13b bb03 9c3b
00000290: d5dd 3315 cdfe a639 243c 72ba 177a 1f23
000002a0: 9e9f 9f3b b5c2 6f3b d5dd 3315 6407 40ba
000002b0: ad5f 92ba 177a 1f23 3285 a43b 8863 873b
000002c0: 0e2e f795 290d 793a 3243 7638 177a 1f23
000002d0: 55bc ab3b d121 a73b 2f87 3e13 f759 e33a
000002e0: 199d 0939 68d5 3605 69f4 923b aea0 ad3a
000002f0: 7688 3e13 7c09 e93a e1cb bc39 5152 ef8b
00000300: 8f61 b23b f284 fe3a 0e82 3e13 be7f 723a
00000310: c551 683a 582e 8d8c 68fe 873b a759 b43a
00000320: 977c 3e13 3802 9f3a 5bf5 813a c4a7 e20b
00000330: b89c a53b 94af ad3a 6a91 520c 9722 f23a
00000340: b1c8 ec3a a318 4a03 cbbb a33b e31a a03a
00000350: 87ba 1c94 1cc9 3939 5443 c13a 8e26 0000
00000360: 507f 9d3b f807 49ba cdba 1c94 814d 9138
00000370: fe7c 9b3a 7403 ce8b 3131 933b cf2f 833a
00000380: cdba 1c94 8fc4 3b39 9530 c33a b3ba 0315
00000390: d50d 803b ce05 743a 66c4 1c94 10a1 8a38
000003a0: 215c 9b3a f843 f214 6696 fc3b 6f91 143b
000003b0: cb80 188d 78a4 8a38 3a19 713a 0c62 0280
000003c0: aef8 0f3c f8b2 183b 30b2 8d93 75e3 8a38
000003d0: 9e78 463a 334a 0580 9cda 253c 17d9 493b
000003e0: 30b2 8d93 20e3 8a38 f627 593a d9fa d8bd
000003f0: 03ce 52be e706 ea0c 901f 3cbc 60cc 9d3a
-0.0007606787 -0.00051830296 -0.001050335 -0.00080727536 -0.00051818194 -0.0013903552 0.00011936435 -0.00048482383
-0.0021721874 -0.00088004273 -0.00436044 -0.008329787 4.6596986e-05 -0.0055156 -0.004634472 -0.00088004273
-0.004355404 -0.009793001 -3.0363455e-12 -0.0037961837 -0.0030793024 -0.00088004273 -0.009818171 -0.013452163
-3.0363455e-12 -0.0035771732 -0.0031408074 0.0071981135 -0.00994923 -0.012327395 -3.0363455e-12 0.0014536139
-0.0029967083 -4.4812592e-18 -0.009903459 -0.011402552 4.7505285e-27 0.0011322647 -0.0026847306 -4.4812592e-18
-0.00878617 -0.010318551 4.7505285e-27 0.0016073543 -0.0021879277 -4.4812592e-18 -0.009065265 -0.009429333
-1.5530092e-26 -0.0011237799 -0.0037492164 -4.4812592e-18 -0.009509546 -0.009788509 2.6805654e-28 -0.0024688232
-0.0035353643 4.356803e-37 -0.008108959 -0.0027508577 2.6793682e-28 -0.0028005748 -0.0036065811 -1.2583114e-33
-0.010236478 -0.003336129 2.6792883e-28 -0.0029085146 -0.0035613058 -2.6080113e-33 -0.009392583 -0.002665895
2.6792283e-28 -0.0028673983 -0.0034389389 1.6586451e-33 -0.011346081 -0.0027029526 -9.47776e-32 -0.0029198946
-0.0033481843 1.0860615e-37 -0.011394658 -0.0026803385 -1.1148236e-27 -0.00010950579 -0.0030850451 -2.182e-42
-0.010948788 0.0010847856 -1.1147153e-27 -0.00011914012 -0.0027131236 -2.7527427e-33 -0.008437426 -0.00036447492
-1.1147153e-27 -0.00011189725 -0.0025830558 -1.6017476e-26 -0.0063879336 0.0002830042 -1.1147971e-27 -0.00011283982
-0.002355935 -1.6135252e-26 -0.012814849 -0.0019104574 -1.8423977e-31 -0.00011283944 -0.002125022 6.7439e-41
-0.013787239 -0.0020833733 -5.619406e-28 -0.00011302008 -0.0019386075 9.4952e-41 -0.013603532 -0.0014508871
-5.619406e-28 -0.00011302006 -0.001528107 0.17915697 0.18672578 7.015135e-32 0.019185258 -0.0007606787
0.0012039058 0.00024548444 -0.0024770736 0.0007120721 0.00024541514 -0.0021392228 0.0017759161 0.00023039937
-0.0012835172 -0.0005720109 0.0022023688 0.002373807 0.0004918336 0.0030175166 2.9328374e-05 -0.0005720109
0.0021939175 0.0038760905 1.5861756e-12 0.002167893 -0.0006882963 -0.0005720109 0.005004865 0.0059179594
1.5861756e-12 0.0020706984 -0.00054236676 -0.004878225 0.0054444037 0.005403692 1.5861756e-12 -0.0007164241
-0.0012904573 8.645261e-18 0.0054226345 0.004761187 3.6323757e-26 0.0003185183 -0.0009240529 8.645261e-18
0.004871323 0.003658456 3.6323757e-26 -0.000732532 -0.001116743 8.645261e-18 0.005020761 0.004131738
-9.983517e-26 0.0009500557 5.871355e-05 8.645261e-18 0.005240957 0.005100467 2.4048022e-27 0.0017345537
0.00013123862 8.5967954e-36 0.0044847024 0.0013246739 2.4048652e-27 0.0017779316 0.00036010056 -9.218331e-32
0.005443759 0.0019418283 2.4045493e-27 0.00092506025 0.0008862282 -2.1752382e-31 0.0041502006 0.0013759629
2.40428e-27 0.0012131399 0.000991504 8.730446e-32 0.0050540827 0.0013251179 1.622157e-31 0.0018473443
0.0018065182 5.9390746e-37 0.004996752 0.0012215044 -7.912773e-27 0.00017717894 0.0014744797 1.3831e-41
0.0048064366 -0.0007668729 -7.912827e-27 6.928575e-05 0.0011862812 -7.935351e-32 0.004491948 0.0010008755
-7.912827e-27 0.00017906933 0.0014891798 2.660252e-26 0.003907899 0.00093087263 -7.91472e-27 6.610353e-05
0.0011853018 2.4462564e-26 0.0077083586 0.0022669693 -4.6993645e-31 6.6109875e-05 0.00091971795 -2.18844e-40
0.008787317 0.0023300033 -3.576911e-27 6.62272e-05 0.0007571074 -4.85795e-40 0.010122921 0.0030799562
-3.576911e-27 6.622658e-05 0.0008283848 -0.105947204 -0.205864 3.6057563e-31 -0.011482134 0.0012039058
