config/ppo/results/RayShoot0607_5만번/Shooting/Shooting-63433.pt (torch, 77975 bytes, 28 tensors)

discrete_act_size_vector f4 [1, 2]
0	0x40400000	3.0
1	0x40400000	3.0

network_body._body_endoder.seq_layers.0.weight f4 [20, 130]
0	0xbe229e3d	-0.15880676
1	0x3dbba0d7	0.09161537
2	0x3dc4d402	0.0961075
3	0xbe6852f5	-0.22687896
4	0x3e4b2677	0.19838892
5	0x3e4007b7	0.18752943
6	0x3dbd9c26	0.092582986
7	0x3e439bdf	0.19102429
8	0x3c98c92c	0.018650614
9	0xbe3fc019	-0.18725623
10	0x3e1fa06b	0.15588538
11	0x3d387ceb	0.045041006
12	0x3ea45713	0.32097682
13	0x3e00edbb	0.12590687
14	0x3d4c6779	0.049903367
15	0xbeceb661	-0.4037352
16	0x3e535d08	0.20640957
17	0x3dbc37f5	0.091903605
18	0x3ee150b9	0.440069
19	0x3e392869	0.18081822
20	0xbdd59e90	-0.10430634
21	0xbef4bec8	-0.47801805
22	0x3e97d958	0.29658008
23	0xbcd9ee8f	-0.026603011
24	0x3eef0992	0.4668699
25	0x3d8ce02e	0.068786964
26	0x3dde249e	0.10846828
27	0xbec94dc3	-0.3931714
28	0xbc9f3ea9	-0.019439058
29	0x3e5102a3	0.20411162
30	0x3eb6ead1	0.35726026
31	0x3dee6ee6	0.11642246
32	0xbd7e93f7	-0.06215283
33	0xbec01ddf	-0.3752279
34	0x3d4059d3	0.046960663
35	0x3cacb5b3	0.021082735
36	0x3dcaa454	0.09894624
37	0xbd1ba497	-0.037998762
38	0x3baebffa	0.005332944
39	0xbee415f3	-0.44547996
40	0x3e067047	0.13128768
41	0x3ca2c520	0.019869387
42	0x3e16e78e	0.14736769
43	0xbdfb14a4	-0.12259796
44	0x3dfdbb7e	0.12389277
45	0xbe4595a5	-0.19295366
46	0x3dd5f75e	0.10447572
47	0x3de62ce5	0.11239032
48	0x3e994dd4	0.2994219
49	0x3dc0d162	0.094149366
50	0x3d839901	0.064256676
51	0xbeaa4fdc	-0.33264053
52	0x3da6fcfa	0.0815372
53	0xbd12b196	-0.03581389
54	0x3da8310a	0.082124785
55	0xbd81cf20	-0.06338334
56	0x3e1e88f2	0.15481928
57	0xbe6505b7	-0.22365461
58	0x3d8d3516	0.06894891
59	0x3ca6f80b	0.020381948
60	0x3eaec491	0.34134343
61	0x3d92ebcf	0.07173883
62	0x3d848b93	0.06471934
63	0xbe9a7e38	-0.30174422
64	0x3d8e940e	0.06961833
65	0xbd5ec6de	-0.054388873
66	0x3e501bc6	0.20323095
67	0x3e051403	0.12995915
68	0x3daa0fd3	0.083037995
69	0xbe29aa2e	-0.16568825
70	0xbcc0de11	-0.02354339
71	0x3d61c8bb	0.055123072
72	0x3e527232	0.20551375
73	0x3d569e7a	0.05239723
74	0x3dc0344a	0.09384973
75	0x3c807864	0.015682407
76	0x3bf3708c	0.007429188
77	0x3bd4c9ca	0.0064937817
78	0xbddc137d	-0.107459046
79	0x3bfbf65c	0.0076892804
80	0x3e2b78ac	0.16745251
81	0xbdfdedbc	-0.1239886
82	0x3e2222ab	0.15833537
83	0x3d878b70	0.066183925
84	0xbda8a846	-0.082352206
85	0x3e0f97a4	0.1402269
86	0x3be40985	0.0069591426
87	0xbd9631da	-0.07333727
88	0x3e3e6f19	0.18597068
89	0x3dc17653	0.09446397
90	0x3d7c2f07	0.061568286
91	0x3dec6b72	0.11543931
92	0x3d05afde	0.032638423
93	0xbd541020	-0.05177319
94	0xbcd2fc9d	-0.025755221
95	0xbde2a1b5	-0.110659994
96	0x3cb8b0e6	0.02254529
97	0x3e330381	0.17481805
98	0x3d801c65	0.06255416
99	0x3d6a7527	0.05724063
100	0x3d82ac07	0.06380468
101	0x3cd9598c	0.026531957
102	0x3e88e3a7	0.26736185
103	0x3dbe0716	0.09278695
104	0x3e7c4e85	0.24639328
105	0x3d143b10	0.03618914
106	0xbde78366	-0.11304359
107	0xbe4127be	-0.18862817
108	0x3dddc097	0.10827749
109	0x3dd9eb01	0.106405266
110	0x3d57c95f	0.052682277
111	0x3e206134	0.1566208
112	0x3d449975	0.04799791
113	0xbd2654b0	-0.040608108
114	0x3d1ba5fa	0.038000084
115	0xbd7aa6a8	-0.061194092
116	0x3e0c7cac	0.13719434
117	0xbcb363f4	-0.021898247
118	0xbe4e944b	-0.20173757
119	0xbddcc345	-0.10779432
120	0x3dc9ac6e	0.098473415
121	0x3e321d8b	0.17394082
122	0x3da4b752	0.08042778
123	0xbdae7243	-0.085178874
124	0xbcf1b369	-0.029504495
125	0x3d41c849	0.047310147
126	0xbd99694e	-0.074907884
127	0x3da85756	0.08219783
128	0x3e0a0ffb	0.13482659
129	0xbbeabd86	-0.0071637062
130	0xbf022c3b	-0.5084874
131	0x3c0fa0ec	0.008766394
132	0x3c0634cd	0.0081913
133	0xbf083bc5	-0.532162
134	0xbdea15bc	-0.11429927
135	0x3d6d4588	0.05792764
136	0xbd6de378	-0.05807826
137	0xbe4ba7bc	-0.19888204
138	0xbddca008	-0.10772711
139	0xbec999e7	-0.3937523
140	0x3df36ba0	0.11885762
141	0x3c6578f7	0.014005891
142	0x3eb8b3ca	0.36074668
143	0xbe904125	-0.281747
144	0xbc3d99a7	-0.011572278
145	0xbe9ed691	-0.31023076
146	0xbddafb96	-0.106925175
147	0xbd1d91df	-0.03846919
148	0x3f193130	0.5984068
149	0xbe512922	-0.20425847
150	0xbe57e57e	-0.21083638
151	0xbeb57361	-0.3543959
152	0xbd4537a0	-0.04814875
153	0xbdb1c5cb	-0.08680304
154	0x3ef18ce0	0.47177792
155	0xbe226380	-0.15858269
156	0xbbda4627	-0.006661195
157	0xbe2ea0f2	-0.17053583
158	0xbd6d99fb	-0.058008175
159	0x3c6b3e59	0.014358127
160	0x3efe8f46	0.49718684
161	0xbe3c461f	-0.18386124
162	0xbdd3c577	-0.10340398
163	0xbd3d03dd	-0.046146262
164	0xbddf6a11	-0.109089024
165	0xbcae0446	-0.021242272
166	0x3ed480db	0.4150456
167	0xbd1e12d1	-0.038592163
168	0xbd88f9fb	-0.06688305
169	0xbec9876d	-0.39361134
170	0xbc6a8aa5	-0.014315282
171	0x3c3a9a4e	0.011389328
172	0x3ec34dee	0.38145393
173	0xbe1db60a	-0.15401474
174	0x3decceac	0.11562857
175	0xbddddbaf	-0.10832917
176	0xbe3b58ae	-0.18295547
177	0xbdcfec3f	-0.10152482
178	0x3ea4baa7	0.32173654
179	0xbe846609	-0.25859097
180	0xbc7668d7	-0.015039644
181	0xbea7dd3d	-0.3278598
182	0x3d9f343c	0.07773635
183	0xbc6585a2	-0.014008911
184	0x3e78b3d4	0.24287349
185	0xbdeccb07	-0.11562162
186	0x3d2738b9	0.04082558
187	0xbde9ce5e	-0.114163145
188	0xbe17e0dd	-0.14831872
189	0x3cdb9da1	0.026808562
190	0x3dc80df8	0.09768289
191	0x3dc3af68	0.095549405
192	0xbd14ad4e	-0.03629809
193	0xbd0027f2	-0.031288095
194	0x3df30b91	0.118674405
195	0x3dfedde1	0.12444664
196	0x3e0c0d8e	0.13677046
197	0xbcc8fa51	-0.024533423
198	0x3ddc6a0c	0.10762414
199	0xbd94e9e5	-0.07271174
200	0x3a23f8ee	0.000625505
201	0xbd5267a1	-0.05136836
202	0x3e621464	0.22078091
203	0xbb8d06fc	-0.004303811
204	0x3db8bd43	0.09020474
205	0xbda5644a	-0.08075769
206	0xbddc8d1a	-0.107691005
207	0x3dd472c4	0.10373452
208	0x3e581b54	0.21104175
209	0xbde70fea	-0.11282332
210	0x3e5796e5	0.21053655
211	0xbcaf005e	-0.02136248
212	0x3c715123	0.014728817
213	0x3db90d06	0.09035687
214	0xbdac9da6	-0.084285066
215	0xbde50b29	-0.11183769
216	0x3e883bbe	0.2660808
217	0xbca22d6b	-0.019797048
218	0x3ce16479	0.02751373
219	0x3dea3e14	0.11437622
220	0x3e0fd664	0.14046627
221	0x3e2b8db0	0.16753268
222	0x3da8fbef	0.082511775
223	0x3e1b36a4	0.15157562
224	0x3dc5d2fd	0.096593834
225	0x3c778876	0.015108218
226	0x3e0b478c	0.13601512
227	0x3e1bc1be	0.15210626
228	0x3dbc5bbc	0.091971844
229	0x3daebf9b	0.085326396
230	0x3c07eaa6	0.008295691
231	0xbe46be55	-0.19408543
232	0x3e12ba25	0.14328821
233	0x3d76496d	0.060128618
234	0x3e9fad76	0.31187028
235	0x3d2c4694	0.042059496
236	0xbde7340f	-0.11289226
237	0xbddc06b9	-0.1074347
238	0x3e8c8693	0.27446422
239	0xbdc54f2f	-0.09634244
240	0x3e182bab	0.14860408
241	0x3e31874f	0.17336772
242	0x3bef7901	0.007308126
243	0x3d948029	0.07251007
244	0x3e175c1e	0.14781234
245	0x3cac152d	0.021006191
246	0x3e2583be	0.16163537
247	0xbe8c5142	-0.27405745
248	0xbd34f1b0	-0.044175804
249	0x3d42f8a1	0.047600392
250	0x3d51d1e4	0.051225558
251	0x3dc01059	0.09378118
252	0x3e229491	0.15876986
253	0x3cdc18bc	0.026867263
254	0x3e0e2fe8	0.13885462
255	0x3c000946	0.007814711

network_body._body_endoder.seq_layers.0.bias f4 [20]
0	0x3d7240da	0.05914388
1	0x3e02704a	0.12738147
2	0x3dc366d1	0.09541095
3	0x3dc189fe	0.09450148
4	0x3d82c5f5	0.063854136
5	0x3dac7ee3	0.08422639
6	0x3db0af34	0.08627167
7	0x3db02546	0.08600859
8	0x3d4343dd	0.04767214
9	0x3d899c49	0.06719262
10	0x3d1dbf99	0.0385128
11	0x3d7675f1	0.06017107
12	0x3d4d2cc4	0.05009152
13	0x3d69739c	0.05699502
14	0x3d89c7b6	0.06727545
15	0x3d74de39	0.05978224
16	0x3d788c5d	0.060680736
17	0x3db0c52f	0.0863136
18	0x3d485e1e	0.048917882
19	0x3d2a5b63	0.04159106

action_model._discrete_distribution.branches.0.weight f4 [3, 20]
0	0xbca6663a	-0.020312417
1	0xbcaf2f8d	-0.021384979
2	0x3cdc4053	0.02688614
3	0xbcf018e0	-0.029308736
4	0x3d4a3860	0.04937017
5	0xbc6f9621	-0.014623196
6	0x3c5fca49	0.013659068
7	0x3d6ecf3e	0.05830311
8	0x39b548ea	0.00034577335
9	0x3d9efbeb	0.07762893
10	0xbb8335be	-0.0040042093
11	0xbd3e9a73	-0.046534013
12	0xbc3df6ac	-0.011594456
13	0x3cddba5b	0.0270664
14	0xbd49d619	-0.049276445
15	0xbd0991ce	-0.033586316
16	0x3d886d87	0.06661516
17	0xbc90db64	-0.017682739
18	0x3d5eabb6	0.054362975
19	0xbc428bac	-0.011874121
20	0xbd9c38f0	-0.076280475
21	0x3dd5d59c	0.104411334
22	0x3de7f3bb	0.11325785
23	0x3c27e5fa	0.010247702
24	0xbdd957de	-0.106124625
25	0x3c3c1c25	0.01148132
26	0xbb4b1a17	-0.0030990893
27	0x3cb072c4	0.0215391
28	0xbd89f75e	-0.06736635
29	0x3a6c2d6a	0.0009009453
30	0xbdc2c339	-0.09509892
31	0x3e034348	0.12818635
32	0xbd6fd482	-0.058552273
33	0xbdd573b4	-0.10422459
34	0x3d1c27e7	0.03812399
35	0x3def344f	0.11679899
36	0xbd90d06a	-0.07071002
37	0x3c80d62c	0.015727125
38	0x3ce7a3cb	0.028276345
39	0xbd505801	-0.050865177
40	0x3d94ff31	0.072752364
41	0xbe0f5790	-0.13998246
42	0xbe102e72	-0.14080217
43	0xbb2b41c6	-0.0026131733
44	0x3bb2bccf	0.0054546366
45	0xbbedfd08	-0.0072628297
46	0xbd1525a3	-0.036412846
47	0xbd030919	-0.031991098
48	0x3dae415b	0.08508559
49	0xbd223f99	-0.039611433
50	0x3c7e0402	0.015503885
51	0xbcfb0ccc	-0.03064575
52	0x3db953ab	0.090491615
53	0x3d790772	0.060798116
54	0xbd34ac21	-0.044109467
55	0xbd479da4	-0.048734322
56	0x3cb166fc	0.021655552
57	0x3d0ef8c7	0.03490522
58	0x3ccde30c	0.025132678
59	0x3d7d56fd	0.061850537

action_model._discrete_distribution.branches.0.bias f4 [3]
0	0x3cfac768	0.030612662
1	0xbc9a5570	-0.018839568
2	0xbc3d87da	-0.011568034

action_model._discrete_distribution.branches.1.weight f4 [3, 20]
0	0x3c8e9370	0.017404288
1	0xbe103b3f	-0.140851
2	0x3d904597	0.07044523
3	0xbe2c9b7d	-0.16856189
4	0x3e173897	0.14767681
5	0xbc9e0cd4	-0.019293226
6	0x3dada42d	0.0847858
7	0x3df42ad5	0.11922232
8	0xbe45e6fb	-0.19326393
9	0x3de688b0	0.1125654
10	0x3b06ebe2	0.0020587374
11	0xbd118b74	-0.035533383
12	0xbd825f64	-0.063658506
13	0x3c291525	0.010319983
14	0x3d9a637f	0.075385086
15	0x3d3528cd	0.044228364
16	0x3e948053	0.29004154
17	0xbe9d81ba	-0.30763036
18	0xbdaecbbb	-0.08534952
19	0xbe03f342	-0.12885764
20	0x3e68282d	0.22671576
21	0x3ea7f8b2	0.32806927
22	0x3cd7e0f1	0.026352378
23	0x3e866ff3	0.26257285
24	0xbe079f5a	-0.13244382
25	0x3e52ee45	0.20598705
26	0xbdf36230	-0.11883962
27	0x3dd025c2	0.10163452
28	0xbe29d2a5	-0.16584261
29	0xbe2fa24b	-0.17151754
30	0x3cd2f6fe	0.02575254
31	0xbdbd9ba7	-0.09258204
32	0xbe1fbfd9	-0.15600528
33	0xbe93c743	-0.28862962
34	0xbc2dbf33	-0.0106046675
35	0xbc45c2b1	-0.012070344
36	0xbe2c2733	-0.16811828
37	0x3e4411bc	0.1914739
38	0xbd3a0f56	-0.04542478
39	0xbe39befc	-0.18139261
40	0xbe6b0686	-0.22951707
41	0xbe3f2829	-0.18667664
42	0xbe0d2cfb	-0.1378669
43	0xbdccd4db	-0.100015365
44	0xbc848329	-0.016175823
45	0xbe56c3c6	-0.20973119
46	0x3d91bda2	0.07116248
47	0xbe97ea35	-0.29670873
48	0x3e88fdba	0.26756078
49	0xbb08d227	-0.0020877214
50	0x3ae3f1b5	0.001739076
51	0x3e282544	0.16420466
52	0x3e354068	0.1770035
53	0x3e50a9a9	0.2037722
54	0xbe2200c2	-0.15820602
55	0xbcbcca31	-0.023045631
56	0xbe3fe787	-0.18740664
57	0x3dd18f2f	0.10232388
58	0x3e0414ad	0.12898512
59	0x3e80c092	0.2514692

action_model._discrete_distribution.branches.1.bias f4 [3]
0	0x3c477cfd	0.012175796
1	0x3c8a5d43	0.016890174
2	0xbce95cc2	-0.028486613

exp_avg f4 [20, 130]
0	0x3a36eb8d	0.0006977849
1	0xb98a9565	-0.0002643272
2	0xba898ff2	-0.001049517
3	0x39f95721	0.00047557897
4	0x399a25e8	0.0002940141
5	0xba7debab	-0.00096863013
6	0x3a1dae28	0.0006015026
7	0xb815d17b	-3.5719462e-05
8	0xba8754c9	-0.001032495
9	0xb958cce1	-0.00020675689
10	0xb92bf3f0	-0.00016398705
11	0xba1d4c71	-0.00060004654
12	0x3a311074	0.0006754466
13	0xb9420020	-0.00018501328
14	0xbaa570bd	-0.00126221
15	0x3886c1f6	6.425746e-05
16	0xb979eb30	-0.00023834105
17	0xba2116b2	-0.00061450445
18	0x3a2f4e53	0.00066873914
19	0xb9e7b3b1	-0.00044193634
20	0xbaa7d364	-0.0012804088
21	0xb987dd73	-0.000259142
22	0xba449a9c	-0.0007499845
23	0xba31bf31	-0.0006780504
24	0x39a205ba	0.00030903314
25	0xba2e8f16	-0.00066588947
26	0xba90e21b	-0.0011053713
27	0x381bca64	3.714337e-05
28	0xb9ad7420	-0.0003308365
29	0xba4b8cbc	-0.00077648065
30	0xb8643ad5	-5.4414228e-05
31	0xb93de423	-0.00018109432
32	0xba517288	-0.0007989784
33	0x3794e89c	1.7751292e-05
34	0xb9dca276	-0.00042082713
35	0xba2bb636	-0.0006550284
36	0xb9b2ee13	-0.00034128185
37	0x398c13a2	0.00026717508
38	0xba0083a6	-0.00049024296
39	0xb8b25a38	-8.504506e-05
40	0xb9fdddd9	-0.0004842121
41	0xba0b9d6d	-0.00053258875
42	0xba0ae6c7	-0.0005298671
43	0x3a11e9e9	0.00055661664
44	0xb9d131d7	-0.0003990072
45	0x3773cb98	1.45313315e-05
46	0xba07044f	-0.00051504833
47	0xb9e81fad	-0.0004427409
48	0xb9e74349	-0.00044109885
49	0x38ad075d	8.250654e-05
50	0xb9c736b0	-0.00037996983
51	0x38031634	3.1253512e-05
52	0xb9a1fb94	-0.00030895753
53	0xb9b47492	-0.00034419127
54	0xb8c57168	-9.4148156e-05
55	0xb917baa3	-0.0001447001
56	0xba0342e7	-0.00050072226
57	0x384af079	4.838451e-05
58	0x39303ae2	0.00016806604
59	0xb98cf47c	-0.00026885036
60	0xb63f46f5	-2.850252e-06
61	0x391e1f68	0.00015079754
62	0xba1206ec	-0.00055704894
63	0xb7dccfab	-2.6322747e-05
64	0x39910f6c	0.00027668045
65	0xb91a2b4c	-0.00014702714
66	0xb80709ff	-3.2195818e-05
67	0xb60fff5e	-2.1457304e-06
68	0xba0f4291	-0.0005464936
69	0xb990a544	-0.00027588953
70	0x38112941	3.4609115e-05
71	0xb8732a49	-5.7975096e-05
72	0xb8459adc	-4.7112684e-05
73	0xb96ab0e7	-0.0002238188
74	0xba1061a3	-0.0005507713
75	0xb99ef5bc	-0.00030319195
76	0x3953b710	0.00020190724
77	0xb86ee21c	-5.6954203e-05
78	0xb8459b17	-4.71129e-05
79	0xba839b66	-0.0010040819
80	0xba0fec35	-0.00054902147
81	0xb91bc917	-0.00014856864
82	0x38eef7fe	0.000113949165
83	0xb801cbd5	-3.094583e-05
84	0xb8855344	-6.3574436e-05
85	0xb93cb6ec	-0.00017997221
86	0xba1667ce	-0.0005737514
87	0xb91d4b43	-0.00015000724
88	0x38d45b4d	0.00010125954
89	0x380adf1a	3.3109543e-05
90	0xb8c29cdf	-9.2798604e-05
91	0xb96969e7	-0.00022260063
92	0xba1342bb	-0.00056175486
93	0xb916cc0e	-0.00014381131
94	0x37265fa4	9.916639e-06
95	0x37d3f64b	2.526785e-05
96	0xb91547b9	-0.00014236466
97	0xba3a47b2	-0.00071060203
98	0xba11a814	-0.00055563566
99	0x383b8ccf	4.4715413e-05
100	0x3738b31f	1.10089595e-05
101	0xb88becca	-6.672142e-05
102	0xb7f1c4e6	-2.8821127e-05
103	0xba00730e	-0.0004899957
104	0xba199291	-0.0005858327
105	0x39c63eef	0.00037812392
106	0x3747330f	1.1873212e-05
107	0xb9a01b7d	-0.00030538058
108	0xb747c61d	-1.1907451e-05
109	0xb9e65ecf	-0.00043939656
110	0xba1ae751	-0.00059091026
111	0x39543e28	0.0002024105
112	0x36cfb19d	6.1897576e-06
113	0xb9b1bb70	-0.00033899723
114	0x378e913d	1.6995351e-05
115	0xb95cb6da	-0.00021048952
116	0xba104cf0	-0.00055046286
117	0x38efa07e	0.00011426302
118	0x399538a4	0.00028461695
119	0xb9ba389c	-0.00035518862
120	0x37e3bdb7	2.7148852e-05
121	0xb9213a9f	-0.00015375995
122	0xb9ec4e78	-0.00045071892
123	0xbbb466c3	-0.005505414
124	0x3aaa0e12	0.0012974164
125	0xba6a5fa6	-0.00089406443
126	0x3a3bb315	0.0007160169
127	0x3aa30d15	0.0012439812
128	0xbbbc2478	-0.005741652
129	0xbbd09582	-0.006365479
130	0x3adbb227	0.0016761468
131	0x3916089a	0.00014308319
132	0x3ab01ea8	0.0013436871
133	0x397b2f08	0.00023954746
134	0x3a4bb294	0.00077704457
135	0x3adac848	0.0016691769
136	0x3b0374cb	0.0020058628
137	0x3917ee71	0.00014489309
138	0x3a924af1	0.001116125
139	0xb99e441d	-0.00030186857
140	0x3a1ed647	0.00060591515
141	0x3af475ef	0.001865087
142	0x3afec87e	0.0019438413
143	0x39a7da6a	0.00032015453
144	0x3a9081a6	0.0011024966
145	0xba11e961	-0.0005566087
146	0x3a1c79c6	0.00059690734
147	0x3b13352e	0.0022462117
148	0x3b12ce2d	0.0022400722
149	0x396da055	0.0002266181
150	0x3a9ac2bd	0.0011807304
151	0xb9a7199d	-0.00031871806
152	0xb9e7fafc	-0.0004424675
153	0x3b17f6a4	0.002318778
154	0x3a144274	0.0005655654
155	0xb98aff9c	-0.00026511855
156	0x3aefc183	0.0018291924
157	0xb9c282a0	-0.00037099887
158	0xb8c3558e	-9.3142604e-05
159	0x3b135ced	0.0022485808
160	0x3af8185e	0.001892816
161	0xb7819a8f	-1.544997e-05
162	0x3a8eb39e	0.001088727
163	0xb8511c1a	-4.9855655e-05
164	0x3931cb2b	0.00016955721
165	0x3b053eb9	0.0020331575
166	0x3a12ecb1	0.0005604728
167	0x3b00a95b	0.0019632194
168	0x3af13bbd	0.0018404644
169	0x390b8cad	0.00013308479
170	0x38e99c7e	0.00011139455
171	0x3b03f7d0	0.0020136721
172	0xb99c04eb	-0.00029758303
173	0x3b34a0b6	0.0027561611
174	0x3afe2698	0.0019390164
175	0xb932031e	-0.00016976564
176	0x374a482b	1.2056941e-05
177	0x3b0cba31	0.0021473283
178	0xba25a707	-0.00063191395
179	0x3b09dcd2	0.002103616
180	0x3b113a43	0.002215997
181	0xb8009f11	-3.066572e-05
182	0x391c48ab	0.0001490439
183	0x3b0b3513	0.0021241351
184	0xb8dbe2e2	-0.00010484994
185	0x3a8b06a2	0.0010606835
186	0x3b034b6a	0.0020033964
187	0xb88beeb7	-6.6725006e-05
188	0x3937d37f	0.00017531028
189	0x3aff9720	0.0019499995
190	0xb8011f4e	-3.078515e-05
191	0x3a8172b2	0.0009876101
192	0x3aed3784	0.001809821
193	0x379ff65b	1.9068995e-05
194	0x3a024813	0.00049698463
195	0x3adb2138	0.0016718274
196	0x390208be	0.00012401023
197	0x3a771a03	0.00094261783
198	0x3af25c83	0.0018490705
199	0x391d3f24	0.00014996208
200	0x39c3db41	0.00037356655
201	0x3ab04060	0.001344692
202	0x3906f2aa	0.00012869635
203	0x38f2a22e	0.000115696675
204	0x3aee9d57	0.001820485
205	0x390b38bd	0.0001327721
206	0x39c3c559	0.00037340334
207	0x3ab283cf	0.0013619604
208	0x3906f2dd	0.0001286971
209	0x3a49649e	0.00076825346
210	0x3aea4303	0.0017872754
211	0x396a5a8e	0.00022349713
212	0xb8709b32	-5.7364996e-05
213	0x3a9cdf35	0.0011968376
214	0x38f7e6a2	0.000118208365
215	0x3a5d3b19	0.0008439287
216	0x3ae8166b	0.0017706876
217	0x395ebe0a	0.00021242365
218	0xb865a7f4	-5.4754273e-05
219	0x3a9183d4	0.001110191
220	0x395db111	0.00021142165
221	0x3a299492	0.0006468977
222	0x3ae02a17	0.0017102388
223	0x3961c5c7	0.0002153135
224	0x36fb0f0d	7.482135e-06
225	0x3a86d2d4	0.001028622
226	0xb93b5d91	-0.00017868566
227	0x3a4c44bb	0.0007792224
228	0x3af4b67a	0.0018670105
229	0x39e31f93	0.0004332034
230	0x37e09a3a	2.6774698e-05
231	0x3a67b025	0.0008838198
232	0xb97caaf3	-0.00024096276
233	0x3a44bc1f	0.0007504839
234	0x3ae8671a	0.0017730922
235	0x3958d628	0.00020679145
236	0x37cccf04	2.4415094e-05
237	0x3a8424bc	0.0010081748
238	0xb984eb1c	-0.00025352172
239	0x3a7733ad	0.00094300025
240	0x3ae22698	0.0017253933
241	0x39495d46	0.00019203601
242	0xb82513ca	-3.9357496e-05
243	0x3a602f24	0.00085519464
244	0x3830c12e	4.2141583e-05
245	0x3a3100a7	0.00067521114
246	0x3abf0a64	0.001457524
247	0x3946063a	0.00018885071
248	0x3844a739	4.688578e-05
249	0x3a5685ba	0.0008183379
250	0x385a8f28	5.2108575e-05
251	0x3a206f60	0.0006120112
252	0x3aac8064	0.0013160822
253	0xbb52836b	-0.0032121788
254	0x3bfcf9c8	0.007720206
255	0x3b5c26b3	0.0033592402

exp_avg_sq f4 [20, 130]
0	0x37a3748c	1.9485386e-05
1	0x37b66d60	2.1747022e-05
2	0x3826f75c	3.9807856e-05
3	0x3784cb2a	1.5830232e-05
4	0x37c0c148	2.2978187e-05
5	0x382fa1a8	4.1873805e-05
6	0x3797a060	1.8075283e-05
7	0x37b73a67	2.1842496e-05
8	0x382aaf9b	4.0694704e-05
9	0x374dc7c8	1.2265467e-05
10	0x37c7d897	2.3823506e-05
11	0x38335214	4.2753367e-05
12	0x377757ea	1.4742816e-05
13	0x37c18d6a	2.3073244e-05
14	0x38308bb7	4.209179e-05
15	0x3702e2a8	7.801376e-06
16	0x37d53c9a	2.5419798e-05
17	0x38399113	4.4242548e-05
18	0x3747803f	1.1891184e-05
19	0x37d0fab7	2.491228e-05
20	0x38376467	4.3724107e-05
21	0x36992f93	4.5652937e-06
22	0x37e16829	2.6870594e-05
23	0x383f1eb9	4.556656e-05
24	0x3703f25d	7.864638e-06
25	0x37d5e6a9	2.5498988e-05
26	0x383f05d0	4.5543362e-05
27	0x362e7fee	2.6002485e-06
28	0x37e60350	2.741968e-05
29	0x384073a9	4.5884084e-05
30	0x36c49d5a	5.8595733e-06
31	0x37dd0da4	2.6351605e-05
32	0x3843636a	4.658421e-05
33	0x35ed8865	1.7697572e-06
34	0x37e0e6c0	2.6810332e-05
35	0x383cc3dc	4.50051e-05
36	0x3677d826	3.6931683e-06
37	0x37e04770	2.6736147e-05
38	0x3843e85b	4.670802e-05
39	0x35bab493	1.3910634e-06
40	0x37d10772	2.4918209e-05
41	0x38376232	4.372205e-05
42	0x36157556	2.2271029e-06
43	0x37dd89cb	2.6409418e-05
44	0x38443061	4.6775098e-05
45	0x35869aef	1.002887e-06
46	0x37d27a93	2.5091029e-05
47	0x3833e5a4	4.2890795e-05
48	0x35d0b552	1.5549979e-06
49	0x37de05fc	2.6467249e-05
50	0x38453f90	4.7027657e-05
51	0x354bda8a	7.594141e-07
52	0x37c87988	2.389845e-05
53	0x382f539a	4.180111e-05
54	0x35a55b85	1.2320094e-06
55	0x37da15c8	2.5997768e-05
56	0x38407601	4.5886267e-05
57	0x353f9ad8	7.137837e-07
58	0x37cb0618	2.4202323e-05
59	0x382c4e9a	4.10812e-05
60	0x3590e8e2	1.0796614e-06
61	0x37db1e28	2.6120877e-05
62	0x383d1db7	4.5088786e-05
63	0x352591e3	6.1679583e-07
64	0x37c5b097	2.3566461e-05
65	0x3825864c	3.946414e-05
66	0x358dec83	1.0574153e-06
67	0x37d63771	2.5536605e-05
68	0x383bbcd8	4.476015e-05
69	0x3557803d	8.028035e-07
70	0x37baf34e	2.2286225e-05
71	0x381e631c	3.776244e-05
72	0x3590644d	1.0758027e-06
73	0x37cebc46	2.4644785e-05
74	0x38393ca6	4.416392e-05
75	0x3569030d	8.6803703e-07
76	0x37ab4fac	2.0421889e-05
77	0x3817e4ad	3.6214176e-05
78	0x359a75d1	1.1508183e-06
79	0x37cbe7a2	2.4307348e-05
80	0x383696b6	4.3532542e-05
81	0x35b6abcc	1.3610056e-06
82	0x37a271cd	1.9364898e-05
83	0x3812d4e5	3.5007386e-05
84	0x35a47bd6	1.2254993e-06
85	0x37c25fb3	2.3171166e-05
86	0x3831f447	4.242759e-05
87	0x358aa168	1.0328777e-06
88	0x3795db60	1.7864339e-05
89	0x380af15a	3.312654e-05
90	0x35a1d9bc	1.2058804e-06
91	0x37b70382	2.1816933e-05
92	0x382c6f84	4.1111853e-05
93	0x3591c301	1.0860095e-06
94	0x378d7fb3	1.6867974e-05
95	0x3804b0b3	3.1635816e-05
96	0x35993dd0	1.1417378e-06
97	0x37af619b	2.0907077e-05
98	0x3829ff39	4.0530434e-05
99	0x3589e244	1.0273147e-06
100	0x3778d17f	1.4830729e-05
101	0x37f40a53	2.9091874e-05
102	0x35b455a7	1.3435973e-06
103	0x37aee701	2.0849986e-05
104	0x3825da67	3.954247e-05
105	0x3583fe27	9.834229e-07
106	0x3762015a	1.3470964e-05
107	0x37e5b918	2.7385118e-05
108	0x35aebdb4	1.3019221e-06
109	0x37af5dda	2.0905329e-05
110	0x38226341	3.8716247e-05
111	0x35985a5d	1.1351182e-06
112	0x374b90eb	1.2133484e-05
113	0x37dace24	2.6083617e-05
114	0x35b14340	1.32071e-06
115	0x37a35da9	1.9474728e-05
116	0x381e4e68	3.7743157e-05
117	0x35ad043b	1.2890736e-06
118	0x3733fb22	1.0727703e-05
119	0x37ca21e0	2.409605e-05
120	0x35a3df1c	1.220938e-06
121	0x37998707	1.8301898e-05
122	0x381855f4	3.6319674e-05
123	0x3b888c42	0.0041671107
124	0x3bf5e23a	0.007503775
125	0x37b3fca0	2.14561e-05
126	0x380be041	3.3349035e-05
127	0x3aeb197c	0.0017936672
128	0x3b03dc13	0.0020120188
129	0x3bf32d01	0.0074211364
130	0x38146992	3.538427e-05
131	0x37ab8b7b	2.044974e-05
132	0x38508d54	4.9722687e-05
133	0x378faa6a	1.7126284e-05
134	0x37d4d02a	2.5369303e-05
135	0x386d398e	5.6558805e-05
136	0x382cc14e	4.1188025e-05
137	0x379efb9b	1.895223e-05
138	0x38453e3d	4.7026424e-05
139	0x372fb556	1.0473033e-05
140	0x37c71232	2.3731121e-05
141	0x38718a44	5.7587647e-05
142	0x381addce	3.6923033e-05
143	0x37aa01d3	2.0266429e-05
144	0x384f16a9	4.937375e-05
145	0x36f20f63	7.2139533e-06
146	0x37c66237	2.3649174e-05
147	0x3871d3cb	5.7656125e-05
148	0x38010bca	3.0766976e-05
149	0x37bf3dc9	2.2797745e-05
150	0x3866573e	5.4917524e-05
151	0x36b7b463	5.474825e-06
152	0x37b1265f	2.1117912e-05
153	0x386bf922	5.626039e-05
154	0x379a6439	1.84049e-05
155	0x37f63b88	2.9353207e-05
156	0x3886650a	6.408438e-05
157	0x368ed060	4.256188e-06
158	0x37aa82b5	2.0326444e-05
159	0x38656d19	5.469946e-05
160	0x375e1592	1.3237253e-05
161	0x38025e73	3.1082378e-05
162	0x388cddeb	6.717056e-05
163	0x3641ea08	2.8895465e-06
164	0x37a12b84	1.921296e-05
165	0x385e1705	5.2950363e-05
166	0x3728ba58	1.0056967e-05
167	0x380a0335	3.290475e-05
168	0x389191b0	6.941275e-05
169	0x363a19b0	2.7731112e-06
170	0x379bbbc9	1.8564884e-05
171	0x38598825	5.1863626e-05
172	0x36d13bed	6.2356617e-06
173	0x380db7cf	3.3788205e-05
174	0x38944321	7.069694e-05
175	0x3615f3cb	2.2344636e-06
176	0x37977b95	1.805815e-05
177	0x3853d1d9	5.0501756e-05
178	0x368b24ee	4.146822e-06
179	0x3810457e	3.4396995e-05
180	0x38964b27	7.1665556e-05
181	0x35e3fa23	1.6985617e-06
182	0x378d4e87	1.6845077e-05
183	0x384ae221	4.8371152e-05
184	0x36374c61	2.7313583e-06
185	0x38114255	3.463247e-05
186	0x38980ad2	7.24994e-05
187	0x35eac17b	1.7490669e-06
188	0x37896d0e	1.6382455e-05
189	0x3843da79	4.669509e-05
190	0x36061b2e	1.9983377e-06
191	0x3815f1f0	3.574969e-05
192	0x38976e4d	7.220786e-05
193	0x35c8f0d7	1.4971255e-06
194	0x378fe0ca	1.7151604e-05
195	0x383c74a1	4.4931312e-05
196	0x360118e7	1.9236993e-06
197	0x3817f20a	3.6226622e-05
198	0x3896f423	7.1980314e-05
199	0x35cfdd1c	1.5487053e-06
200	0x3787449e	1.6125206e-05
201	0x3836716a	4.3497806e-05
202	0x35f140d5	1.7974768e-06
203	0x380d9f17	3.3765184e-05
204	0x389622ba	7.159026e-05
205	0x35c721f3	1.4836536e-06
206	0x3774d598	1.45932645e-05
207	0x382f5b21	4.180812e-05
208	0x35f0a265	1.7928656e-06
209	0x3814d728	3.548633e-05
210	0x3895a3d7	7.135391e-05
211	0x35d2ec45	1.5714983e-06
212	0x37644e1b	1.3608044e-05
213	0x3828d70e	4.0254607e-05
214	0x35dadad4	1.6305953e-06
215	0x3811e539	3.4784174e-05
216	0x3894454a	7.070096e-05
217	0x36380a4b	2.7424128e-06
218	0x375712f2	1.281941e-05
219	0x38216af8	3.8485014e-05
220	0x35e3581c	1.6938461e-06
221	0x380d61b9	3.370803e-05
222	0x3893465d	7.0226124e-05
223	0x36371f29	2.7287263e-06
224	0x37504fff	1.2416392e-05
225	0x381a816b	3.683699e-05
226	0x35bea99a	1.4205464e-06
227	0x38086683	3.25204e-05
228	0x3893153f	7.0134636e-05
229	0x3634f58e	2.6965022e-06
230	0x3742cea0	1.161141e-05
231	0x3810d5b5	3.4531306e-05
232	0x36031280	1.953129e-06
233	0x380e4e37	3.392828e-05
234	0x38915634	6.9301954e-05
235	0x362cf6ea	2.577372e-06
236	0x372cb13b	1.0293264e-05
237	0x380900c4	3.266406e-05
238	0x3605126b	1.9829265e-06
239	0x3808bee8	3.2602722e-05
240	0x388f5b9a	6.8358335e-05
241	0x362e5d97	2.5982497e-06
242	0x3729e8e8	1.0127413e-05
243	0x380489e6	3.159968e-05
244	0x35fd06f8	1.8851997e-06
245	0x38012204	3.0787676e-05
246	0x388c7279	6.6970424e-05
247	0x36298b80	2.5264162e-06
248	0x3721f5d4	9.653584e-06
249	0x37ffaca5	3.0478763e-05
250	0x35fe8814	1.8964079e-06
251	0x37ef1f8c	2.850571e-05
252	0x3888df76	6.526608e-05
253	0x3b690fd9	0.0035562424
254	0x3c4dea04	0.012568001
255	0x380fcca9	3.428446e-05

exp_avg f4 [20]
0	0xb9d20ef1	-0.00040065454
1	0x3afd2452	0.0019313192
2	0x398b4f0f	0.0002657105
3	0x3aa29a8c	0.0012405678
4	0xbb11e6d7	-0.0022262835
5	0x3a67e325	0.0008845798
6	0xba2362cc	-0.00062326784
7	0xb88da0de	-6.753368e-05
8	0xba9d317d	-0.0011992898
9	0xba594e69	-0.0008289577
10	0xba95f60b	-0.0011441124
11	0x3af9fd18	0.001907262
12	0xba07a457	-0.000517433
13	0xbb08106e	-0.0020761746
14	0x3ad55e38	0.001627869
15	0x3adb6d87	0.0016741016
16	0xbaf9d2fe	-0.0019060073
17	0x39da7799	0.00041669307
18	0xba22e88a	-0.00062144606
19	0xba38b7f4	-0.0007046454

exp_avg_sq f4 [20]
0	0x388d7112	6.744465e-05
1	0x38d25330	0.00010029075
2	0x387eb697	6.072837e-05
3	0x389cfa82	7.4853204e-05
4	0x38388c08	4.3999433e-05
5	0x381e67a7	3.776667e-05
6	0x37886bb5	1.6262618e-05
7	0x389d2cac	7.494664e-05
8	0x38cd9aa3	9.803965e-05
9	0x37558cfc	1.2728615e-05
10	0x37115371	8.662101e-06
11	0x38016cb2	3.0857227e-05
12	0x38463966	4.7260335e-05
13	0x38ae91c4	8.3241175e-05
14	0x3764c8e0	1.3636629e-05
15	0x37945bee	1.7685783e-05
16	0x39071cd1	0.00012885338
17	0x38d93455	0.00010357114
18	0x3729007d	1.0073299e-05
19	0x389aa50e	7.374036e-05

exp_avg f4 [3, 20]
0	0xbc88a6ed	-0.016681159
1	0xbce87f1e	-0.028380927
2	0xbd4b320a	-0.049608268
3	0xbc80b440	-0.01571095
4	0xbd859e46	-0.06524329
5	0xbcf265f3	-0.029589629
6	0xbdb2f01e	-0.08737205
7	0xbd3d945d	-0.04628407
8	0xbc823db2	-0.01589856
9	0xbc780630	-0.015138194
10	0xbcdffe49	-0.027342932
11	0xbce6602d	-0.028122032
12	0xbc8e0a53	-0.017338907
13	0xbd38d858	-0.045128196
14	0xbd2f69d1	-0.042825524
15	0xbd27e492	-0.040989466
16	0xbd7881b4	-0.06067057
17	0xbc61b8ef	-0.013777002
18	0xbb88259f	-0.0041548754
19	0xbca597f1	-0.020214053
20	0x3cf03706	0.029323112
21	0x3ce38d5b	0.027777364
22	0x3d29b562	0.041432746
23	0x3ce3344d	0.0277349
24	0x3d61858c	0.055059
25	0x3d0b066b	0.033941668
26	0x3d78e88c	0.06076865
27	0x3d52463c	0.051336512
28	0x3c3e0ea2	0.011600168
29	0x3a2c33f8	0.0006569023
30	0x3d12042f	0.03564852
31	0x3c69bd94	0.01426639
32	0x3c842223	0.016129559
33	0x3d03c220	0.032167554
34	0x3d10568a	0.03523878
35	0x3cebfebe	0.028807994
36	0x3d56851a	0.05237303
37	0x3cc4f1e9	0.024041133
38	0x3bd8dcf8	0.0066181384
39	0x3c0c03ca	0.008545825
40	0xbc4f31d7	-0.01264616
41	0x3a1c032a	0.0005951399
42	0x3c06040b	0.008179675
43	0xbc450e7e	-0.012027381
44	0x3c26f02c	0.010189097
45	0xbb8ea8ae	-0.0043536043
46	0x3cda1042	0.02661908
47	0xbba58632	-0.0050513977
48	0x3b8cd81c	0.004298223
49	0x3c6d350d	0.01447798
50	0xbc080f2d	-0.008304399
51	0x3c631d3c	0.0138619505
52	0x3a9e887a	0.0012095117
53	0x3c546bea	0.012965182
54	0x3bf8dac3	0.007594438
55	0x3c47b6e1	0.012189598
56	0x3c08140e	0.008305563
57	0xbc28480a	-0.010271082
58	0xbb216cc5	-0.0024631482
59	0x3c3f304c	0.01166923

exp_avg_sq f4 [3, 20]
0	0x3c54e2d4	0.012993533
1	0x3c049964	0.008093212
2	0x3c715dfc	0.01473188
3	0x3c191862	0.009344192
4	0x3cb0f81e	0.021602686
5	0x3c7d61cb	0.01546521
6	0x3d06fdcc	0.032956883
7	0x3cc84575	0.024447182
8	0x3c0e6740	0.008691609
9	0x3c170f6d	0.009219986
10	0x3c918c2d	0.017767036
11	0x3b3a4eea	0.0028428384
12	0x3c3e5ec8	0.011619277
13	0x3c762618	0.015023731
14	0x3c4c2957	0.012461028
15	0x3c0de5ea	0.008660773
16	0x3ca3a415	0.019975701
17	0x3c212484	0.009835366
18	0x3b2b047e	0.0026095207
19	0x3c18c0c3	0.009323302
20	0x3be28dd6	0.006913881
21	0x3beff08a	0.0073223757
22	0x3c5177f2	0.012784945
23	0x3bcfd481	0.006342471
24	0x3c36ecd0	0.011164859
25	0x3c3dd237	0.011585764
26	0x3ccc4fa6	0.024940323
27	0x3c8c6ba3	0.017141169
28	0x3b8d8f47	0.0043200585
29	0x3ba90aa1	0.005158738
30	0x3c150e8a	0.009097705
31	0x3b22c410	0.00248361
32	0x3b9bf1c7	0.0047590467
33	0x3bd87ae6	0.0066064475
34	0x3c427f65	0.011871194
35	0x3c107433	0.008816767
36	0x3c448188	0.011993773
37	0x3bc3f3a6	0.005979973
38	0x3ab4abd0	0.0013784114
39	0x3b926890	0.004468031
40	0x3c3ad4b6	0.011403253
41	0x3ba68bec	0.005082598
42	0x3c1e999e	0.00968018
43	0x3bf63ae1	0.007514343
44	0x3c9492b0	0.018136352
45	0x3c3cddc4	0.011527482
46	0x3cc2f8dc	0.023800306
47	0x3c8d671c	0.01726108
48	0x3c0efc67	0.00872717
49	0x3bdf3ace	0.00681243
50	0x3c81cdb2	0.015845153
51	0x3b05d712	0.0020422381
52	0x3c42c8cb	0.011888693
53	0x3c6cb92e	0.014448447
54	0x3bbd5f66	0.0057791946
55	0x3bae6136	0.005321647
56	0x3c7af1ff	0.015316485
57	0x3c0056dc	0.007833209
58	0x3af97bd9	0.0019034102
59	0x3c1c676d	0.009546143

exp_avg f4 [3]
0	0xbc7d4be3	-0.015459987
1	0x3c3bfa67	0.011473275
2	0x3b82a2fd	0.003986715

exp_avg_sq f4 [3]
0	0x3ad464fd	0.0016204413
1	0x3a8eff5f	0.0010909847
2	0x3ab1225b	0.0013514267

exp_avg f4 [3, 20]
0	0xbb82c36a	-0.0039905803
1	0x3a8d71ce	0.0010791363
2	0xbb58c7a1	-0.0033077972
3	0x3a8c1a40	0.0010688975
4	0xbc35436c	-0.011063438
5	0xbbc8ac68	-0.006124068
6	0xbbfaa682	-0.007649244
7	0xbc474a84	-0.012163762
8	0x3bd9ed63	0.006650613
9	0xbb533bc4	-0.0032231668
10	0x3a03204e	0.0005002067
11	0xbb41240f	-0.0029470955
12	0x3b8d2b3a	0.0043081315
13	0x3aca3ecd	0.0015430093
14	0xbc1fdce7	-0.009757257
15	0xbbc77c96	-0.00608785
16	0xbc3a15e2	-0.011357756
17	0x3bcbf4a5	0.0062242323
18	0x3b7ef68e	0.0038904282
19	0x3bc8a0be	0.0061226776
20	0x3b9b76d8	0.004744392
21	0x3b93dfc1	0.0045127575
22	0x3b660cbf	0.0035102812
23	0x3af17f50	0.0018424783
24	0x3c6c40e0	0.014419764
25	0x3bc73f3a	0.0060805352
26	0x3c583724	0.01319674
27	0x3c406cdd	0.011744705
28	0xbac4ff69	-0.0015029731
29	0x3b2cef86	0.0026387884
30	0x3b7bea3e	0.003843918
31	0x3b97c654	0.004631797
32	0xba624395	-0.00086312863
33	0x3b7db40f	0.003871206
34	0x3c418ca4	0.0118133165
35	0x3be1abba	0.0068869265
36	0x3c335fcc	0.010948133
37	0xb9ec7783	-0.0004510247
38	0xba2605b6	-0.00063332485
39	0xba0f0c22	-0.0005456825
40	0xba440e3f	-0.00074789295
41	0xbbb71dd7	-0.005588274
42	0xb94f668c	-0.0001977926
43	0xbb3e8ef8	-0.0029076915
44	0xbb5b4833	-0.0033459782
45	0x385519ee	5.0807306e-05
46	0xbbb56aa6	-0.005536395
47	0x39dffbf6	0.000427216
48	0xbba88a9b	-0.005143476
49	0x3a1a1b93	0.00058787427
50	0xbb8e2218	-0.0043375604
51	0xbadc7af3	-0.001682131
52	0xbb616c60	-0.0034396872
53	0xbbb12e62	-0.0054071406
54	0xbb065158	-0.0020495262
55	0xba5046c9	-0.0007945118
56	0x39db1e66	0.00041793584
57	0xbbbd0fb3	-0.0057696938
58	0xbb556b77	-0.0032565275
59	0xbbb695c8	-0.0055720545

exp_avg_sq f4 [3, 20]
0	0x3bb615ad	0.005556783
1	0x3b31d058	0.002713224
2	0x3be4a8c7	0.0069781276
3	0x3b666e76	0.0035161055
4	0x3c0020e9	0.007820346
5	0x3bc7e06f	0.0060997526
6	0x3c5089cc	0.012728166
7	0x3c1f74ad	0.0097324075
8	0x3b80d387	0.003931466
9	0x3b02d597	0.0019963735
10	0x3c08b1c3	0.008343163
11	0x3a879ad0	0.001034582
12	0x3ba2ecd4	0.00497208
13	0x3bc54d96	0.006021212
14	0x3b911e27	0.0044286433
15	0x3b719d61	0.0036867487
16	0x3bfeae22	0.007772223
17	0x3b61d66d	0.0034460083
18	0x3a4cbfad	0.00078105443
19	0x3b7be19d	0.0038434037
20	0x3ba66aee	0.005078665
21	0x3b45c626	0.003017792
22	0x3bbd736f	0.005781583
23	0x3b744b4d	0.0037276328
24	0x3bb65657	0.0055644917
25	0x3bd358ac	0.0064497795
26	0x3c2c86ef	0.010530218
27	0x3c0d92a3	0.008640918
28	0x3b306d36	0.0026920564
29	0x3b04a0f2	0.0020237532
30	0x3bd8dea2	0.006618337
31	0x3a6f3d47	0.00091262575
32	0x3b502501	0.0031760337
33	0x3b777797	0.003776049
34	0x3b91f469	0.004454185
35	0x3b713f0e	0.0036811265
36	0x3babe18e	0.005245394
37	0x3b4c78cc	0.003119993
38	0x3a318bce	0.00067728467
39	0x3b2ffd29	0.0026853776
40	0x3b68cfca	0.0035524243
41	0x3b0b39ad	0.0021244094
42	0x3b637be8	0.0034711305
43	0x3b2b65f3	0.0026153296
44	0x3b9ec5f7	0.0048453766
45	0x3b2e9086	0.0026636436
46	0x3c04a3cf	0.008095696
47	0x3b5be00a	0.0033550286
48	0x3b83bd70	0.0040203854
49	0x3b5745b3	0.003284794
50	0x3bcb6190	0.0062066987
51	0x3a4548b0	0.0007525785
52	0x3b9fac6e	0.00487285
53	0x3bb2be72	0.0054548318
54	0x3a7773ea	0.0009439575
55	0x3afffcf4	0.0019530342
56	0x3b819185	0.003954115
57	0x3b3425bb	0.002748831
58	0x3a08ef3f	0.0005223639
59	0x3b922a60	0.004460618

exp_avg f4 [3]
0	0xb9fb925e	-0.00047983503
1	0x3b02ef1b	0.0019978944
2	0xbac6f9a8	-0.0015180605

exp_avg_sq f4 [3]
0	0x3a3014c6	0.00067169627
1	0x3a08de9a	0.00052211585
2	0x39ee47b5	0.00045448323

exp_avg f4 [20, 130]
0	0x3a8d7ce4	0.0010794667
1	0xb8cdf35d	-9.820492e-05
2	0xbae6241d	-0.001755837
3	0xba8bce7e	-0.0010666398
4	0xb96e14f0	-0.00022705249
5	0xbabcc24d	-0.0014401168
6	0x3a0a8ff7	0.00052857347
7	0xb9447e06	-0.00018738964
8	0xbaf4b312	-0.001866909
9	0xbb2fc041	-0.0026817473
10	0xb9040076	-0.00012588673
11	0xbaabb4e3	-0.0013100173
12	0xba9fdeb9	-0.0012197114
13	0x38d48e45	0.000101354475
14	0xbabddaad	-0.0014484726
15	0xbb18c82e	-0.0023312676
16	0xb94225f2	-0.00018515417
17	0xba67da3c	-0.000884447
18	0xbaf0c4ab	-0.0018369158
19	0xb809e67c	-3.2878e-05
20	0xbaa56c06	-0.0012620694
21	0xbb3afc1a	-0.0028531612
22	0xb9eb7d1f	-0.00044915915
23	0xba0c3536	-0.0005348505
24	0xbb4e97c3	-0.0031523563
25	0xb8e0704b	-0.000107020685
26	0xba73e0b3	-0.0009303197
27	0xbb0b54d6	-0.0021260283
28	0xb9d36a95	-0.00040324466
29	0xba6704c8	-0.0008812663
30	0xba526a22	-0.0008026679
31	0xba2d851b	-0.00066192605
32	0xbb112a17	-0.0022150332
33	0xbaf6c0e6	-0.0018825799
34	0xb99569ae	-0.00028498232
35	0xba57f359	-0.0008237861
36	0x393e16f8	0.00018128369
37	0xba4248a6	-0.0007411338
38	0xbb3b182a	-0.0028548338
39	0xbaaf4ce4	-0.0013374356
40	0xb9b3d54c	-0.0003430046
41	0xba535fc9	-0.00080632843
42	0x39d04503	0.0003972427
43	0xb9aa9440	-0.00032535382
44	0xbb51ce50	-0.003201384
45	0xbab21672	-0.0013587011
46	0x39e7b1cd	0.00044192225
47	0xba5e827d	-0.0008488072
48	0x39a34e1d	0.00031147982
49	0xb9906d94	-0.00027547462
50	0xbb65d6dc	-0.0035070693
51	0xba035008	-0.0005009179
52	0x38d72e3e	0.00010260612
53	0xba8ac1e1	-0.0010586345
54	0x3a00c708	0.00049124705
55	0xba8bab5f	-0.0010655931
56	0xbb787901	-0.003791392
57	0xb9d932ce	-0.00041427318
58	0x38dbb820	0.0001047703
59	0xba8e1b4b	-0.0010841874
60	0xb8420632	-4.6258974e-05
61	0xba2d61a7	-0.00066139776
62	0xbb679ede	-0.0035342495
63	0xb7cb1bfe	-2.421252e-05
64	0x3954ae4e	0.00020282829
65	0xbabea27a	-0.0014544271
66	0xb8e64dd7	-0.000109817534
67	0x382f95dd	4.1862822e-05
68	0xbb5df25c	-0.0033866381
69	0x38eee89e	0.00011392053
70	0x39a94809	0.00032287862
71	0xbaaff214	-0.0013423585
72	0xb91683e6	-0.00014354251
73	0x39dc41e8	0.00042010774
74	0xbb5c212e	-0.0033589113
75	0xb8e33b3a	-0.00010835235
76	0x3952816e	0.00020075377
77	0xbaa1f45f	-0.0012356153
78	0xb9168507	-0.00014354671
79	0xba03cf2e	-0.00050281256
80	0xbb589a68	-0.0033051018
81	0xb936e12f	-0.0001744076
82	0x38ea5808	0.000111743866
83	0xbaa9eb4c	-0.0012963801
84	0xb9962626	-0.00028638652
85	0xb8d06848	-9.937637e-05
86	0xbb4ee729	-0.0031570888
87	0xb9388728	-0.00017597957
88	0x379a1081	1.8365916e-05
89	0xbaaef972	-0.0013349487
90	0xb9869549	-0.00025669698
91	0xb9bcfb9a	-0.00036045612
92	0xbb4d078c	-0.0031285016
93	0xb92f2188	-0.00016701792
94	0x38c0167f	9.159464e-05
95	0xbaa55502	-0.0012613835
96	0xb986248c	-0.000255857
97	0x38a7dd3f	8.004391e-05
98	0xbb4d8024	-0.0031356895
99	0xb81f67bb	-3.800516e-05
100	0x38c03e3a	9.166864e-05
101	0xbab06730	-0.0013458487
102	0xb95b4a5d	-0.0002091317
103	0xb9f5f75c	-0.0004691434
104	0xbb553ebe	-0.0032538618
105	0x384271ed	4.6359306e-05
106	0x37bb4da4	2.2328291e-05
107	0xbab119c7	-0.001351171
108	0xb82ef621	-4.1714058e-05
109	0xba6846c8	-0.0008860645
110	0xbb60ce53	-0.0034302666
111	0x37c1039a	2.300907e-05
112	0xb88514fe	-6.345844e-05
113	0xbaad4615	-0.0013219739
114	0xb885173d	-6.346263e-05
115	0xbaf28088	-0.001850144
116	0xbb5e0b61	-0.0033881294
117	0x371773db	9.027276e-06
118	0x393875b8	0.00017591461
119	0xba96e956	-0.0011513631
120	0x38a89858	8.0392405e-05
121	0xba8346a2	-0.0010015557
122	0xbb64e5ae	-0.0034926939
123	0x3bef7d41	0.0073086326
124	0x3aa39995	0.0012481684
125	0xba07e1b7	-0.00051834754
126	0xbb081301	-0.002076328
127	0xbbe04a60	-0.0068448037
128	0xbae2311b	-0.0017257066
129	0x3cacf2fe	0.021111961
130	0xbb526ece	-0.0032109502
131	0xbaba6f24	-0.0014223796
132	0x3a5eb048	0.0008494896
133	0xbb70c8dd	-0.0036740818
134	0xb95f3bd8	-0.00021289231
135	0x3ab34ee7	0.0013680131
136	0xbaf9b5cf	-0.0019051376
137	0xbb28e49c	-0.0025771027
138	0xb85756bb	-5.134077e-05
139	0xbbcd9d3e	-0.0062748482
140	0x3a4b6dc9	0.0007760195
141	0x3b1bc99a	0.0023771287
142	0xba775618	-0.0009435131
143	0xbb43f38f	-0.002989981
144	0xba2db245	-0.00066259905
145	0xbaeb8944	-0.0017969985
146	0x3a89ca6f	0.00105126
147	0x38f9208a	0.00011879306
148	0xb946b532	-0.00018950252
149	0xbae8ca93	-0.0017760567
150	0xba03598a	-0.0005010596
151	0x399d529e	0.00030006928
152	0x3a2b3b5a	0.00065319764
153	0xba470e3f	-0.00075933704
154	0x3ab406d9	0.0013734951
155	0xba4a4879	-0.0007716488
156	0xbad272c3	-0.001605593
157	0xb9d7a7a6	-0.00041132903
158	0x3a09a48b	0.0005250654
159	0xb9df4f2f	-0.0004259287
160	0xb9eb7f49	-0.00044917528
161	0xbade04f4	-0.0016938732
162	0xb9dfd111	-0.0004268964
163	0xba0ea002	-0.0005440713
164	0x39c8692d	0.00038225335
165	0xba3ee883	-0.0007282572
166	0xb9a00d87	-0.00030527657
167	0xbb711fd9	-0.0036792664
168	0xb79d7878	-1.8771956e-05
169	0xb9a89ca5	-0.00032160166
170	0x39a6027f	0.00031663847
171	0xba8cda40	-0.0010746196
172	0xb84bf2d8	-4.8625137e-05
173	0xbb44f7a9	-0.0030054844
174	0xb9b80e44	-0.00035105844
175	0x3a8a49bb	0.0010550538
176	0xbb0d6bee	-0.0021579224
177	0xbae829b6	-0.0017712626
178	0xb987a0fe	-0.00025869155
179	0xbb08a5e7	-0.0020850839
180	0xb975bdb4	-0.0002343569
181	0x3a9b52d6	0.0011850249
182	0xbb06bbba	-0.002055867
183	0xbaf8d472	-0.0018984212
184	0xba65f557	-0.0008772215
185	0xbb3fd3a5	-0.0029270437
186	0xb8940b38	-7.0592796e-05
187	0x3a935b33	0.001124239
188	0xbb2d750c	-0.002646747
189	0xbb0d4310	-0.0021554865
190	0x3a93e47f	0.0011283307
191	0xbb1b187f	-0.0023665724
192	0xbaf57743	-0.0018727559
193	0xb8cd4b24	-9.789158e-05
194	0xbb488ba6	-0.0030600815
195	0xba217fde	-0.00061607163
196	0x3a9b59e0	0.0011852346
197	0xbad7c2f3	-0.0016461298
198	0xbaf9201f	-0.0019006765
199	0x3a11252b	0.00055368495
200	0xba860d0c	-0.0010227277
201	0x39ef619b	0.00045658354
202	0x3aab0385	0.0013047314
203	0xbb0b4b24	-0.0021254504
204	0xbb0641ed	-0.0020486072
205	0x39ee1ab8	0.00045414804
206	0xba5ea90b	-0.00084938173
207	0x3a5345bf	0.0008059404
208	0x3aab042e	0.001304751
209	0xbb4d628f	-0.0031339263
210	0xbb14d2fd	-0.0022708767
211	0x39c1fd7e	0.00037000695
212	0xba59e1f8	-0.0008311565
213	0x39d9ba7c	0.00041528407
214	0x3af17c26	0.001842384
215	0xbb0a7700	-0.0021128058
216	0xbb363599	-0.0027802943
217	0x39c059f9	0.0003668813
218	0xb98678ee	-0.0002564857
219	0xb9bb2832	-0.00035697367
220	0x3b04c490	0.0020258762
221	0xba60de83	-0.00085780787
222	0xbb3aaf52	-0.0028485847
223	0x39c223e8	0.00037029316
224	0xb99dbebb	-0.0003008748
225	0xba3350ca	-0.00068403466
226	0x3ae9f452	0.0017849302
227	0xba6b1521	-0.0008967687
228	0xbb338eb7	-0.0027398297
229	0xb825c6a2	-3.9524057e-05
230	0xb98bbe57	-0.0002665396
231	0xb9ed86c6	-0.00045304577
232	0x3ad93cf5	0.0016573953
233	0xba8c9e4b	-0.0010728327
234	0xbb2c2c7c	-0.0026271632
235	0xba06e591	-0.00051459024
236	0xb899ac19	-7.327664e-05
237	0xb9b7154d	-0.0003492035
238	0x3a83a023	0.0010042231
239	0xbab6ec87	-0.0013955989
240	0xbb095d92	-0.0020960313
241	0xba5bc52f	-0.00083835697
242	0x3992c14b	0.00027991305
243	0x36ea33a7	6.9797566e-06
244	0x3a712ff2	0.0009200565
245	0xbad24953	-0.0016043581
246	0xbb04afa0	-0.0020246282
247	0xba5f409d	-0.0008516403
248	0xba9a0ade	-0.0011752506
249	0x34d78be8	4.0148666e-07
250	0x39c61bef	0.00037786315
251	0xbb3b719e	-0.0028601657
252	0xbad46a9c	-0.0016206088
253	0x3d016f65	0.031600375
254	0x3c72db76	0.014822831
255	0x38dc30f0	0.00010499533

exp_avg_sq f4 [20, 130]
0	0x3821f76f	3.861583e-05
1	0x378b36f3	1.6595679e-05
2	0x381ad7a6	3.69173e-05
3	0x37e8d0d0	2.7753791e-05
4	0x37ad7430	2.0677311e-05
5	0x3833a406	4.2829684e-05
6	0x38255e16	3.942669e-05
7	0x378654fb	1.6013617e-05
8	0x381191d6	3.4706514e-05
9	0x379514d6	1.7771887e-05
10	0x37bee40a	2.2755954e-05
11	0x384352c1	4.6568694e-05
12	0x380b16c6	3.3161392e-05
13	0x37929798	1.7475148e-05
14	0x3815a4db	3.5677902e-05
15	0x372fdb5e	1.0481888e-05
16	0x37df17ee	2.6594815e-05
17	0x3849eafc	4.814098e-05
18	0x37c91740	2.3971894e-05
19	0x37a9c268	2.0236897e-05
20	0x382885b7	4.0178853e-05
21	0x371234ac	8.714542e-06
22	0x37e3dafc	2.7162481e-05
23	0x384d6c24	4.8976523e-05
24	0x3782bd05	1.5585227e-05
25	0x37a99ef7	2.0220394e-05
26	0x383b676f	4.4680604e-05
27	0x36d54ac9	6.356601e-06
28	0x37edd981	2.8353885e-05
29	0x384f630e	4.9444898e-05
30	0x373afbdf	1.1145107e-05
31	0x37b38cdd	2.1404057e-05
32	0x3841d722	4.6215144e-05
33	0x369341df	4.38861e-06
34	0x37ed5504	2.829219e-05
35	0x3851e3df	5.0041705e-05
36	0x36ed78b0	7.0772003e-06
37	0x37c306d5	2.3248993e-05
38	0x384bd9df	4.860188e-05
39	0x3634164a	2.6835064e-06
40	0x37e4cf97	2.7276385e-05
41	0x38510998	4.9838418e-05
42	0x369840d6	4.537501e-06
43	0x37d09dec	2.486907e-05
44	0x38508880	4.971819e-05
45	0x35ed659e	1.768745e-06
46	0x37e0eef4	2.6814152e-05
47	0x384ef5c7	4.9343125e-05
48	0x364bdc8c	3.0377732e-06
49	0x37c5dc68	2.3586865e-05
50	0x3851352e	4.987901e-05
51	0x35b8dee0	1.3773933e-06
52	0x37e119e8	2.6834154e-05
53	0x384cc7a5	4.8823324e-05
54	0x361936ea	2.283074e-06
55	0x37aa3459	2.0289956e-05
56	0x3848740d	4.7791797e-05
57	0x359d168f	1.1703977e-06
58	0x37e67294	2.7471491e-05
59	0x3847dd21	4.765124e-05
60	0x35dff9f4	1.6687541e-06
61	0x37a20637	1.9314799e-05
62	0x38445177	4.680591e-05
63	0x3582e2da	9.751777e-07
64	0x37e69a14	2.7489885e-05
65	0x38436555	4.6585996e-05
66	0x35cafc6f	1.5123641e-06
67	0x3788d194	1.6310056e-05
68	0x3841391c	4.6067973e-05
69	0x35860497	9.985114e-07
70	0x37e49732	2.7250124e-05
71	0x384104b7	4.6019177e-05
72	0x35ac528a	1.2839021e-06
73	0x3774067d	1.4545044e-05
74	0x3839f42a	4.4334833e-05
75	0x35763371	9.1717e-07
76	0x37da3854	2.6013855e-05
77	0x3841c159	4.6194855e-05
78	0x35a88dde	1.2558264e-06
79	0x37707981	1.4333405e-05
80	0x3839a48f	4.4260694e-05
81	0x35521692	7.826394e-07
82	0x37d20933	2.5038235e-05
83	0x3839db51	4.431169e-05
84	0x35cbb0a9	1.5176093e-06
85	0x377cfec6	1.507969e-05
86	0x3830db0a	4.2165666e-05
87	0x35102bdc	5.3708004e-07
88	0x37b816dc	2.1945154e-05
89	0x38332d07	4.271886e-05
90	0x3587dd77	1.0122739e-06
91	0x376101fd	1.3411508e-05
92	0x3828cde9	4.024609e-05
93	0x34f84493	4.6243494e-07
94	0x37a87cea	2.0085328e-05
95	0x3827bd87	3.9992414e-05
96	0x356639e0	8.5765896e-07
97	0x3754a859	1.2675381e-05
98	0x38275b46	3.9900908e-05
99	0x34f3f671	4.5441587e-07
100	0x379b456f	1.8509772e-05
101	0x381a21a3	3.6747788e-05
102	0x3584c120	9.890973e-07
103	0x375ecabd	1.3279435e-05
104	0x38234fee	3.893667e-05
105	0x34e5e4af	4.2820963e-07
106	0x37840942	1.5739937e-05
107	0x381171ca	3.467667e-05
108	0x358a4fdf	1.0305047e-06
109	0x3769ae7d	1.3928508e-05
110	0x38234962	3.893057e-05
111	0x34db8c94	4.0894213e-07
112	0x37662bea	1.3719293e-05
113	0x380a2320	3.2934477e-05
114	0x3587bc9c	1.0113176e-06
115	0x3778b07c	1.4823043e-05
116	0x382025e6	3.818227e-05
117	0x34bea043	3.5506864e-07
118	0x3742bf48	1.1607837e-05
119	0x37fe20d1	3.029444e-05
120	0x358fd5ad	1.0716518e-06
121	0x376c3008	1.4077879e-05
122	0x381c9d10	3.7339574e-05
123	0x3bdf495d	0.0068141655
124	0x3b08efe2	0.0020894934
125	0x37f3873a	2.9030827e-05
126	0x381bb693	3.7124915e-05
127	0x3aaa0c79	0.0012973688
128	0x3b062a3f	0.0020471958
129	0x3c593af2	0.013258683
130	0x3a293bd2	0.00064557523
131	0x39ced028	0.0003944647
132	0x3a464afd	0.0007564275
133	0x3a06e879	0.00051463355
134	0x39ff6bb4	0.00048717635
135	0x3a5ec7bc	0.00084983907
136	0x3a203908	0.0006112014
137	0x39d9452d	0.00041441005
138	0x3a4034be	0.0007332078
139	0x39a86b1b	0.00032123257
140	0x3a1f9462	0.00060874794
141	0x3a7a5e91	0.00095508347
142	0x39e2bf9a	0.00043248833
143	0x3a0145a1	0.0004931335
144	0x3a4f08e4	0.0007897748
145	0x39690d8d	0.0002222566
146	0x3a3793f1	0.0007002941
147	0x3a85296e	0.0010159442
148	0x398f7e7d	0.00027369327
149	0x3a13c0f1	0.00056363555
150	0x3a614cd4	0.0008594517
151	0x393779d1	0.0001749762
152	0x3a38ab79	0.00070445944
153	0x3a877c6b	0.0010336762
154	0x39493fda	0.0001919264
155	0x3a107e64	0.0005511998
156	0x3a627aa9	0.00086394936
157	0x38f95674	0.000118893484
158	0x3a450012	0.0007514964
159	0x3a8b7990	0.0010641087
160	0x392205c1	0.00015451667
161	0x3a13686c	0.0005623165
162	0x3a60a30b	0.0008569217
163	0x3886ae5d	6.4220956e-05
164	0x3a463824	0.0007561466
165	0x3a903e55	0.0011004905
166	0x38f9014e	0.00011873488
167	0x3a089076	0.00052095146
168	0x3a5cadd0	0.0008418234
169	0x38144ce5	3.5357563e-05
170	0x3a3d9a8c	0.0007232807
171	0x3a919a98	0.0011108695
172	0x38bc4910	8.9781475e-05
173	0x39fee04c	0.0004861377
174	0x3a5750cd	0.00082136394
175	0x37ca509c	2.4117813e-05
176	0x3a419b2c	0.0007385488
177	0x3a90ff48	0.0011062408
178	0x38904120	6.8785856e-05
179	0x39f2bec9	0.00046299983
180	0x3a5434b5	0.0008095012
181	0x379e461e	1.8867719e-05
182	0x3a38ac13	0.0007044684
183	0x3a8fa1e8	0.0010958286
184	0x386493f0	5.4497214e-05
185	0x39d6ccc9	0.00040969838
186	0x3a46babf	0.0007580928
187	0x37847a5a	1.57926e-05
188	0x3a34a38b	0.0006890825
189	0x3a8a0cb8	0.0010532355
190	0x3853aa46	5.04649e-05
191	0x39bba0ae	0.00035787135
192	0x3a3c1762	0.0007175115
193	0x3780d360	1.5357218e-05
194	0x3a2c5245	0.00065735384
195	0x3a84c8c4	0.0010130634
196	0x3840c652	4.5961067e-05
197	0x39951f63	0.0002844288
198	0x3a2f1077	0.00066781737
199	0x379f8da2	1.902023e-05
200	0x3a26448a	0.00063426106
201	0x3a819bc7	0.0009888344
202	0x382cf550	4.123646e-05
203	0x396c8eff	0.00022559984
204	0x3a20dde7	0.00061365817
205	0x3796f789	1.7996661e-05
206	0x3a1f1382	0.00060682755
207	0x3a815e2e	0.0009869987
208	0x38294eb9	4.0366056e-05
209	0x394a7c27	0.00019310472
210	0x3a1a026b	0.0005874994
211	0x3783d3bf	1.5715019e-05
212	0x3a16655a	0.00057371485
213	0x3a74ee31	0.00093433546
214	0x382b3e4a	4.082759e-05
215	0x393b1a6a	0.0001784355
216	0x3a0b4707	0.0005313013
217	0x372d194c	1.0317493e-05
218	0x39f62a91	0.0004695249
219	0x3a65f2c6	0.0008771833
220	0x38026836	3.109147e-05
221	0x39116b24	0.0001386819
222	0x39fe9ab2	0.00048561912
223	0x3721a9c6	9.635876e-06
224	0x39d88908	0.00041300827
225	0x3a50c201	0.0007963479
226	0x37d6d131	2.56082e-05
227	0x390016c6	0.00012215515
228	0x39f5e627	0.00046901518
229	0x371be30d	9.291584e-06
230	0x39c4d452	0.00037542224
231	0x3a3da769	0.0007234724
232	0x37dcfaf6	2.6342906e-05
233	0x38f98da2	0.000118996264
234	0x39e7dfbf	0.00044226457
235	0x36d5f098	6.3759035e-06
236	0x39b478b2	0.000344222
237	0x3a352dcf	0.0006911428
238	0x37dcd0fd	2.6323361e-05
239	0x38ed62b4	0.000113194255
240	0x39e374ba	0.00043383782
241	0x36d69a43	6.3956554e-06
242	0x39a71ad3	0.00031872708
243	0x3a2dc9b4	0.00066294824
244	0x37d445de	2.5304904e-05
245	0x3901dae2	0.00012383939
246	0x39e38187	0.0004339332
247	0x36d38205	6.3034263e-06
248	0x398cb073	0.00026834346
249	0x3a1e8704	0.00060473406
250	0x37cd475d	2.4471135e-05
251	0x3905b898	0.00012752635
252	0x39d9384f	0.00041431419
253	0x3df8ef11	0.12154973
254	0x3cc27487	0.023737205
255	0x3a07b43b	0.0005176698

exp_avg f4 [20]
0	0xbb53aff1	-0.0032300914
1	0xbabde25c	-0.0014487016
2	0x3ca2a732	0.019855116
3	0xbc4136fb	-0.0117928935
4	0x3c148bd3	0.00906654
5	0xbc225614	-0.009908218
6	0xbb7fde80	-0.0039042532
7	0x3c9eede2	0.01940054
8	0x3c981a6a	0.018567283
9	0x3ceb8b23	0.028752869
10	0xbbdc052b	-0.0067144833
11	0xbbddb467	-0.0067658904
12	0xbc32a413	-0.010903376
13	0x3ba99b63	0.0051759942
14	0xbb3bfe9a	-0.002868569
15	0xbc6bd36f	-0.014393671
16	0x3c0d3a5a	0.008619869
17	0xbc8a02ff	-0.016847132
18	0xbc26c84a	-0.010179589
19	0xba9dd894	-0.0012042695

exp_avg_sq f4 [20]
0	0x38b09b62	8.421276e-05
1	0x3ab9963f	0.0014159157
2	0x3b3d0b66	0.0028845905
3	0x3ab1cab1	0.0013564435
4	0x3a2c01ab	0.0006561528
5	0x3a362a40	0.0006949045
6	0x39aa1f9e	0.00032448483
7	0x3b9f6291	0.004864045
8	0x3b981029	0.0046405983
9	0x3bb9c720	0.0056694895
10	0x3b4d7a8b	0.003135356
11	0x3b0e38cf	0.002170134
12	0x3aac3ae8	0.0013140114
13	0x3a4a6e31	0.0007722108
14	0x3923f33a	0.000156355
15	0x3b0435dd	0.0020173707
16	0x39fbb5ea	0.00048009987
17	0x3a9fbf63	0.0012187775
18	0x3b283015	0.0025663425
19	0x394b011b	0.0001936

exp_avg f4 [1, 20]
0	0x3dad8ec1	0.08474494
1	0xbcb88888	-0.02252604
2	0xbba74107	-0.0051041874
3	0x3d394f2d	0.045241524
4	0xbd8229a3	-0.06355598
5	0x3d163abc	0.036677107
6	0xbc1b27fd	-0.009469983
7	0x3d244f76	0.040114842
8	0x3d0264c6	0.031834386
9	0xbc62532b	-0.013813774
10	0x3baa4e96	0.0051973565
11	0x3bed8dec	0.0072495844
12	0x3c6525df	0.01398608
13	0x3cda385a	0.026638199
14	0x3d875580	0.06608105
15	0x3d01bd82	0.03167487
16	0x3cb8083a	0.02246486
17	0x3d605e09	0.05477718
18	0x3cff37f1	0.031154605
19	0xbcd0e8f1	-0.0255017

exp_avg_sq f4 [1, 20]
0	0x3d8c7b9f	0.06859516
1	0x3df52d43	0.119715236
2	0x3d99972c	0.07499537
3	0x3ceb37a9	0.028713064
4	0x3dea3cd8	0.11437386
5	0x3bbca088	0.0057564415
6	0x3cc25a8e	0.02372482
7	0x3e800ecb	0.25011286
8	0x3eb61eea	0.3557046
9	0x3e09b673	0.13448505
10	0x3cd2f501	0.025751593
11	0x3d21022f	0.039308723
12	0x3cd12b56	0.02553336
13	0x3dd0f786	0.10203461
14	0x3d2018e0	0.039086223
15	0x3c99791f	0.018734513
16	0x3e2fd2a5	0.17170198
17	0x3d319b26	0.04336085
18	0x3ce9e2d6	0.028550547
19	0x3e7a1210	0.24420953
