config/ppo/results/RayShoot0608_1/Shooting/checkpoint.pt (torch, 77207 bytes, 28 tensors)

discrete_act_size_vector f4 [1, 2]
0	0x40400000	3.0
1	0x40400000	3.0

network_body._body_endoder.seq_layers.0.weight f4 [20, 128]
0	0xbe355c50	-0.17710996
1	0xbe8e5b85	-0.278042
2	0x3e0234bf	0.12715434
3	0xbe182165	-0.14856489
4	0x3d35e13b	0.04440425
5	0x3c9e0aab	0.019292196
6	0x3d191c82	0.037380703
7	0xbe8fb3ee	-0.28066963
8	0x3d1bdae2	0.03805054
9	0xbddd5207	-0.10806661
10	0xbcda1c76	-0.0266249
11	0x3ba99397	0.005175065
12	0x3e97e86c	0.2966951
13	0xbe131ba4	-0.14366013
14	0x3e536cbd	0.20646949
15	0xbed546e3	-0.41655645
16	0x3a8dbe94	0.0010814243
17	0x3e179a38	0.14804924
18	0x3e92f49e	0.28702253
19	0xbdfa8e79	-0.12234206
20	0xbd0ebf77	-0.034850564
21	0xbe7972a1	-0.24360134
22	0xbe40f6ae	-0.18844101
23	0x3dc7eda9	0.09762127
24	0x3e7ede94	0.24889594
25	0xbd6d13c5	-0.05788018
26	0x3e1edb73	0.155134
27	0xbec7dbe4	-0.3903495
28	0xbe06301b	-0.13104288
29	0xbd62446d	-0.055241037
30	0x3e951bed	0.29122868
31	0xbdb1f8a7	-0.08690005
32	0x3e73c7f6	0.23806748
33	0x3b2e434b	0.0026590403
34	0x3df5a2c2	0.11993934
35	0x3d5f00a4	0.05444397
36	0x3ea92a34	0.3304001
37	0x3d8a6c59	0.06758947
38	0x3e636a06	0.22208413
39	0xbe28b1a0	-0.16474009
40	0x3d629119	0.055314157
41	0xbd879621	-0.06620432
42	0x3d4f33a3	0.050586354
43	0xbdb25e60	-0.08709407
44	0x3dd7839c	0.10523149
45	0xbdc7832e	-0.097418174
46	0x3d677491	0.05650765
47	0x3e53b213	0.20673399
48	0x3e4fbe49	0.20287432
49	0x3dacd5b0	0.08439195
50	0x3d645380	0.055743694
51	0xbe349a70	-0.17637038
52	0xbdd32837	-0.10310405
53	0x3d943ac0	0.07237768
54	0x3dbc3bcb	0.09191092
55	0x3db8a31c	0.09015486
56	0x3d991b16	0.07475869
57	0xbdf07790	-0.11741555
58	0xbd19c4e9	-0.037541304
59	0xbca16b82	-0.019704584
60	0x3e90a065	0.2824737
61	0xbe1deb2b	-0.1542174
62	0x3db65436	0.08902781
63	0xbe66dfee	-0.2254636
64	0x3c242bc8	0.010020204
65	0x3e0751e9	0.1321484
66	0x3e46e8a4	0.19424683
67	0x3c6ed09c	0.014576104
68	0x3dec3e07	0.11535268
69	0xbe65d4a5	-0.22444399
70	0xbd881182	-0.06643964
71	0x3e2ae083	0.16687207
72	0x3bb46641	0.0055053537
73	0xbd152f74	-0.036422208
74	0x3dcef8f7	0.1010608
75	0xbdc9881c	-0.09840414
76	0xbdf4fa2d	-0.1196178
77	0x3d692846	0.056923173
78	0x3d89c972	0.06727876
79	0x3e50dfb2	0.20397833
80	0xbd60cbb8	-0.05488178
81	0xbeb60379	-0.35549524
82	0xbdfd628b	-0.12372311
83	0xbd7c4a9b	-0.061594587
84	0x3e118d21	0.14213993
85	0xbd85fd63	-0.0654247
86	0xbdc334d6	-0.09531562
87	0xbe423123	-0.18964057
88	0x3cbe1bff	0.023206709
89	0xbcf8b9e4	-0.030362077
90	0x3e10f005	0.1415406
91	0xbca31efd	-0.019912237
92	0x3d2baaa1	0.04191077
93	0xbe72e3c2	-0.23719695
94	0xbdf446aa	-0.119275406
95	0x3e17d097	0.14825664
96	0x3de2a1ed	0.11066041
97	0x3e0af52a	0.13570085
98	0x3e10638e	0.14100477
99	0xbde5122e	-0.11185108
100	0xbd4fc9b3	-0.050729465
101	0x3b2cff74	0.002639738
102	0x3e51f2dc	0.205028
103	0xbd3f1c57	-0.046657886
104	0xb9a889b9	-0.00032146068
105	0xbcad800e	-0.021179225
106	0x3d3b5402	0.045734413
107	0x3e2a7081	0.1664448
108	0x3df00078	0.117188394
109	0x3e5723bf	0.2100973
110	0x3de6e9c1	0.11275054
111	0xbde2a6ae	-0.11066948
112	0xbc9de27d	-0.019273037
113	0x3e9cae5c	0.30601776
114	0x3da4a5b1	0.08039416
115	0x3deac3c3	0.1146312
116	0x3d9ac3b0	0.07556856
117	0xbe29978f	-0.16561721
118	0xbd9b63ee	-0.075874195
119	0x3ba858fb	0.0051375604
120	0xbc0dd0f5	-0.008655776
121	0x3d274a2e	0.040842228
122	0x3e315d85	0.17320831
123	0xbc9011eb	-0.017586669
124	0xbc38f209	-0.011288174
125	0x3b8b80ab	0.004257282
126	0x3e771cb3	0.24132042
127	0xbe79887d	-0.24368472
128	0x3eb98496	0.36233968
129	0xbe020bd2	-0.12699822
130	0x3b226720	0.0024780706
131	0x3ea5658d	0.3230404
132	0x3dbd13f2	0.0923232
133	0x3da9d4eb	0.08292564
134	0x3d815ee5	0.06316928
135	0x3db9b1c1	0.09067107
136	0x3ddda205	0.108219184
137	0x3ece83c3	0.403349
138	0x3e0fa996	0.14029536
139	0x3e1dfdea	0.15428892
140	0xbdcbd2e7	-0.09952336
141	0x3b842f15	0.004033933
142	0x3e2fb903	0.1716042
143	0x3e32faaf	0.1747844
144	0x3da932df	0.08261656
145	0x3e1efd00	0.155262
146	0xbe8668c0	-0.26251793
147	0x3d285bb3	0.041103076
148	0x3e63ddb5	0.22252543
149	0x3e20aca6	0.1569086
150	0x3d815d26	0.06316595
151	0x3db6c9a2	0.08925177
152	0xbec73ee8	-0.3891518
153	0xbda7669e	-0.081738696
154	0x3dd4aa5d	0.10384057
155	0x3e8c53f5	0.27407804
156	0x39714134	0.00023007841
157	0x3e0830b6	0.13299832
158	0xbe99e4de	-0.30057424
159	0x3dd73c17	0.10509508
160	0x3dd590c7	0.10428005
161	0x3ebcdfb4	0.36889422
162	0xbd93f460	-0.07224345
163	0x3e2e1890	0.17001557
164	0xbe9d4141	-0.30713847
165	0xbd621778	-0.055198163
166	0x3da1f0fd	0.07907293
167	0x3dfe0dad	0.12404952
168	0xbceefc45	-0.029173026
169	0x3d9de692	0.077099934
170	0xbe74b423	-0.23896842
171	0x3ce46e38	0.027884588
172	0x3d9577fd	0.072982766
173	0x3df3c71a	0.1190321
174	0xbdebb8f5	-0.11509887
175	0x3e7ad233	0.24494247
176	0xbe37d1e0	-0.17951155
177	0xbd8c4764	-0.06849554
178	0x3e4e5203	0.20148472
179	0x3e8b7fdf	0.27245995
180	0x3d1c6e7c	0.038191304
181	0x3d9f4551	0.07776893
182	0xbe3ddd24	-0.1854139
183	0xbdc5ab8c	-0.096518606
184	0x3e713a22	0.23557332
185	0x3deae9f1	0.11470402
186	0xbdc16ed8	-0.0944497
187	0xbd87e757	-0.066359214
188	0xbe43a5bd	-0.19106193
189	0xbd8c8523	-0.06861331
190	0xbd9f6e9e	-0.077847704
191	0x3db9ec10	0.090782285
192	0xbdbbdf58	-0.09173459
193	0x3e3e4b9d	0.18583532
194	0xbe5b0a10	-0.21390557
195	0xbd54cf0f	-0.05195528
196	0x3e81d50c	0.25357854
197	0x3e0fde4b	0.14049642
198	0x3dfb92d0	0.12283862
199	0x3dc2058b	0.094737135
200	0xbe599ad8	-0.21250474
201	0xbe15521f	-0.14582108
202	0x3e1a754a	0.15083805
203	0x3e32fa98	0.17478406
204	0x3d12750c	0.035756156
205	0x3e6abde8	0.22924006
206	0xbe5fb783	-0.21847348
207	0x3d81f5a0	0.063456774
208	0xbb5f4118	-0.0034065899
209	0x3dfa671e	0.12226699
210	0xbe0baa02	-0.13639072
211	0xbded61f8	-0.11590952
212	0xbe5f7373	-0.21821384
213	0x39fe4e12	0.00048504822
214	0x3e250e85	0.1611882
215	0x3e229ef1	0.15880944
216	0xbc733ea4	-0.014846478
217	0x3e397882	0.18112376
218	0xbafb6901	-0.0019181074
219	0x3d906f91	0.070525296
220	0x3c5e2b5b	0.013560141
221	0x3e85a6df	0.26103875
222	0xbcafc11e	-0.02145439
223	0x3d13ddb9	0.036100123
224	0xbe2e15fd	-0.17000575
225	0xbd336b86	-0.043803714
226	0x3dc6921c	0.09695837
227	0x3d1e17d6	0.03859695
228	0xbe0c5948	-0.13705933
229	0x3e335d15	0.17515977
230	0xbe6e03cd	-0.23243637
231	0xbdce782b	-0.10081514
232	0xbd614278	-0.05499503
233	0x3d81a6de	0.063306555
234	0x3c0405ca	0.008058021
235	0x3df0aeb3	0.11752071
236	0xbe4b519a	-0.19855347
237	0x3cb8d910	0.022564441
238	0xbd1cb16b	-0.038255136
239	0x3eb27c6d	0.34860554
240	0x3da303cd	0.07959709
241	0x3dfe15aa	0.12406476
242	0xbc43ebe2	-0.011958094
243	0xbcd6478b	-0.026157161
244	0x3dc63ceb	0.09679588
245	0x3d5cc828	0.05390182
246	0x3e2b0d06	0.16704187
247	0x3e88d232	0.26722866
248	0xbe51e17f	-0.20496176
249	0xbdb9b682	-0.09068014
250	0xbd69ac15	-0.057048876
251	0xbd1b6504	-0.037938133
252	0x3d76d6c5	0.060263414
253	0xbbc94156	-0.006141822
254	0x3e11d66a	0.14241949
255	0x3e191ab1	0.14951588

network_body._body_endoder.seq_layers.0.bias f4 [20]
0	0x3dcd7ebd	0.10033939
1	0x3db7cff4	0.08975211
2	0x3de390ff	0.1111164
3	0x3db7df47	0.08978134
4	0x3df516ae	0.119672164
5	0x3e018be3	0.12651019
6	0x3db57676	0.08860485
7	0x3c4a006e	0.012329204
8	0x3e0cd276	0.1375216
9	0x3e0bdadd	0.13657708
10	0x3dce6a82	0.100789085
11	0x3dd74ee4	0.10513094
12	0x3db39815	0.08769242
13	0x3ad8b353	0.0016532935
14	0x3de2dc5e	0.11077188
15	0x3e140fc7	0.14459144
16	0x3dd86932	0.105669394
17	0x3dc4ad69	0.09603388
18	0x3e04ba1e	0.12961623
19	0x3e0ce230	0.13758159

action_model._discrete_distribution.branches.0.weight f4 [3, 20]
0	0x3cb75626	0.022379946
1	0x3dd7cb9d	0.10536883
2	0xbdc169b9	-0.09443993
3	0x3d49ea36	0.049295627
4	0x3da6611b	0.0812399
5	0xbe08e224	-0.13367516
6	0x3d3a4376	0.045474492
7	0xbcdc81b9	-0.026917325
8	0x3d2c621c	0.042085752
9	0xbc724307	-0.014786488
10	0x3dcdf6b3	0.1005682
11	0x3d0c0c0e	0.034191184
12	0x3da281a7	0.079348855
13	0xbcc73cf2	-0.024321053
14	0x3d4e0b77	0.050303902
15	0xbc2ab071	-0.0104180435
16	0x3d7a1ca4	0.06106247
17	0xbd98252c	-0.07428965
18	0xbc772a2c	-0.015085738
19	0x3dd29f3c	0.10284278
20	0xbd17d9ef	-0.037073072
21	0xbca7d725	-0.020488331
22	0xbd174bc9	-0.03693751
23	0x3b81b6a3	0.0039585396
24	0xbd07bcad	-0.03313892
25	0x3d25ee66	0.040510558
26	0xbc6343d7	-0.013871155
27	0x3cbb58b3	0.022869444
28	0xbd68ff37	-0.056884017
29	0xbdf860ae	-0.12127815
30	0xbd2fc1d9	-0.042909477
31	0x3cf7face	0.03027096
32	0xbd7c9eab	-0.061674755
33	0xbdc4cf47	-0.096098475
34	0x3d175f06	0.036955856
35	0xbd25e344	-0.04049994
36	0xbd205ff3	-0.039154004
37	0xbb92e7dd	-0.0044832067
38	0x3c06732d	0.008206171
39	0xbc994137	-0.018707855
40	0x3bdd06cc	0.006745195
41	0xbd311edd	-0.043242324
42	0x3e0e7de3	0.1391521
43	0xbdf42ee5	-0.11923007
44	0xbc80d396	-0.015725892
45	0x3dbaa033	0.09112587
46	0x3c0cdcdf	0.008597582
47	0xbb99c6db	-0.004692895
48	0xbcce241b	-0.0251637
49	0x3de10a11	0.10988248
50	0xbdd8674c	-0.10566577
51	0xbd72bab6	-0.059260093
52	0xbd1c6ae4	-0.038187876
53	0x3d8922f0	0.06696117
54	0xbd516190	-0.051118433
55	0x3d76cdd3	0.060254883
56	0xbc157774	-0.009122718
57	0x3dadc823	0.08485439
58	0xbad23cd7	-0.001603986
59	0xbd3d6b81	-0.0462451

action_model._discrete_distribution.branches.0.bias f4 [3]
0	0x3d050e76	0.032484494
1	0xbc2df960	-0.010618538
2	0xbc94e911	-0.018177541

action_model._discrete_distribution.branches.1.weight f4 [3, 20]
0	0xbdde5456	-0.108559296
1	0x3cdb78c5	0.026790986
2	0xbea07d6b	-0.31345686
3	0xbe2c7249	-0.16840471
4	0x3e98db0a	0.29854614
5	0xbdf2c529	-0.118540116
6	0x3d1a0655	0.037603695
7	0xbdb1daa5	-0.08684281
8	0x3d516cb9	0.051129077
9	0x3e996b03	0.29964456
10	0xbcc4be49	-0.024016516
11	0x3e172a6f	0.14762281
12	0x3d8d05e5	0.0688589
13	0x3d028478	0.031864613
14	0x3d20fa56	0.03930124
15	0x3e9d1bfe	0.3068542
16	0x3dab9d45	0.08379606
17	0x3d82b3ec	0.063819736
18	0xbe3122ae	-0.17298386
19	0x3cc533ef	0.024072615
20	0x3e8c6c05	0.27426162
21	0xbe780efb	-0.24224465
22	0x3e8b5f96	0.27221364
23	0xbdaf1501	-0.08548928
24	0xbda30de4	-0.07961634
25	0x3e9e6906	0.30939502
26	0x3e41ea30	0.18936992
27	0x3c1e3dfb	0.009658332
28	0x3e491699	0.19637527
29	0x3d44708a	0.047958888
30	0xbe882f8d	-0.26598778
31	0xbef05b2d	-0.46944562
32	0x3e2cc635	0.16872485
33	0xbbea2e1b	-0.0071466095
34	0xbeb9299e	-0.36164564
35	0xbd7aa0a2	-0.061188348
36	0x3e1a739b	0.15083162
37	0x3e3d49e4	0.18485218
38	0x3e5d5d4d	0.21617623
39	0xbeb08ec3	-0.3448392
40	0xbe22c5f3	-0.15895824
41	0x3e03438d	0.12818737
42	0x3d9686d4	0.07349935
43	0x3e779bb1	0.24180485
44	0xbe5451d6	-0.20734343
45	0xbe338bff	-0.17533873
46	0xbe998554	-0.29984534
47	0x3e121bcd	0.14268418
48	0xbed260a3	-0.41089353
49	0xbf0629c0	-0.52407455
50	0x3e4cd607	0.2000352
51	0x3e51d09e	0.20489737
52	0xbe961fa6	-0.2932102
53	0xbdaa843e	-0.083260044
54	0x3e51f607	0.20504008
55	0xbec36789	-0.3816493
56	0xbe968d15	-0.29404512
57	0xbe897acc	-0.268515
58	0x3b8b1f4d	0.0042456747
59	0x3e6f1070	0.23346114

action_model._discrete_distribution.branches.1.bias f4 [3]
0	0xbbe55013	-0.006998071
1	0xbcc4a3b6	-0.024003845
2	0x3ce1bd48	0.027556077

exp_avg f4 [20, 128]
0	0xba283a10	-0.00064173434
1	0x3078ea2f	9.055467e-10
2	0x3a9097ec	0.0011031604
3	0xb8bb718d	-8.938005e-05
4	0x2f1f1881	1.4469671e-10
5	0x3a600d8a	0.00085469394
6	0xb9bed8fb	-0.00036401287
7	0x307f0dec	9.2788244e-10
8	0x3a5b2b6c	0.00083606574
9	0xb8f47dd4	-0.00011658264
10	0x80000004	-6e-45
11	0x3a696d04	0.0008904489
12	0xbaad2e26	-0.0013212606
13	0x3078ea2f	9.055467e-10
14	0x3a8084eb	0.0009805238
15	0x3a4f411b	0.0007906125
16	0xb48f2ab1	-2.6666888e-07
17	0x3a26b4b9	0.0006359327
18	0xbaa01285	-0.001221255
19	0x2e4a7c96	4.6040137e-11
20	0x3a5a5bdd	0.0008329729
21	0xb7963616	-1.790658e-05
22	0xb48ec407	-2.659219e-07
23	0x3a45e9e1	0.0007549804
24	0xba8a62b7	-0.0010557984
25	0xb65b7611	-3.2702267e-06
26	0x3a598c4f	0.00082988007
27	0xb6fed814	-7.5949447e-06
28	0x80000004	-6e-45
29	0x39ef92a9	0.00045694903
30	0xb9bbb751	-0.00035804
31	0x328a4c53	1.6100023e-08
32	0x39d06826	0.00039750448
33	0xb7c504bc	-2.3486435e-05
34	0x80000004	-6e-45
35	0x39e37bd1	0.00043389064
36	0xb91f3760	-0.0001518405
37	0x328a4c53	1.6100023e-08
38	0x39b75814	0.00034970103
39	0xb7c504bc	-2.3486435e-05
40	0x80000004	-6e-45
41	0x39cc707c	0.0003899372
42	0xa947669c	-4.4275876e-14
43	0x328a4c53	1.6100023e-08
44	0x396ad63d	0.00022395789
45	0xb81f4e69	-3.798158e-05
46	0x1917c1ed	7.84568e-24
47	0x39e82894	0.0004428072
48	0xa26ddfb9	-3.2237927e-18
49	0x3617131b	2.2511874e-06
50	0x3a1ddb92	0.0006021793
51	0xb81848f7	-3.6307578e-05
52	0x80000004	-6e-45
53	0x39ed0424	0.00045207248
54	0xa26ddfb9	-3.2237927e-18
55	0x23a7aa6a	1.817835e-17
56	0x3a0859b8	0.00052013574
57	0xb8184c42	-3.6310645e-05
58	0x00000004	6e-45
59	0x39b5b65c	0.0003465888
60	0xa3a538f7	-1.7913461e-17
61	0xb7826409	-1.554379e-05
62	0x3a08a1f7	0.0005212123
63	0xb42bdb67	-1.6005434e-07
64	0x00000004	6e-45
65	0x3998f6f5	0.00029175697
66	0xb16e0031	-3.4633667e-09
67	0xb7826409	-1.554379e-05
68	0x39fd6ba1	0.0004833611
69	0x391925a9	0.00014605247
70	0x80000004	-6e-45
71	0x3958ec2b	0.00020687345
72	0xb0a0d4b2	-1.1701984e-09
73	0xb7826409	-1.554379e-05
74	0x3a147bbd	0.00056641904
75	0x39177898	0.00014445407
76	0x80000004	-6e-45
77	0x3974c0c9	0.00023341471
78	0x9a5a1231	-4.5096038e-23
79	0x377fc1aa	1.5244275e-05
80	0x3a1186f2	0.00055514195
81	0x3917a38f	0.00014461413
82	0x00000004	6e-45
83	0x39197f05	0.00014638536
84	0x9a5a1231	-4.5096038e-23
85	0xb6b6be98	-5.4462107e-06
86	0x39f86bc7	0.00047382546
87	0x3917a27f	0.00014461017
88	0x00000004	6e-45
89	0x394bfa54	0.00019452843
90	0xa2d0ffa0	-5.6649166e-18
91	0xb89fe0e1	-7.623598e-05
92	0x39bb1b2f	0.00035687673
93	0xb5d71097	-1.6023577e-06
94	0x80000004	-6e-45
95	0x398b785d	0.00026601824
96	0xaf3bae65	-1.7069508e-10
97	0xb89fe0e1	-7.623598e-05
98	0x39a9d734	0.0003239453
99	0xb6283daa	-2.5069844e-06
100	0x80000004	-6e-45
101	0x39568cc0	0.00020461064
102	0x31adb956	5.056033e-09
103	0xb89fe0e1	-7.623598e-05
104	0x39e51b3f	0.00043698584
105	0xb6280f78	-2.5042955e-06
106	0x212ea02e	5.916549e-19
107	0x397a4bd4	0.00023870106
108	0x9c0de276	-4.694568e-22
109	0xb72f822d	-1.0461122e-05
110	0x39de929d	0.00042452375
111	0x38076a99	3.2285785e-05
112	0x80000004	-6e-45
113	0x39695f94	0.00022256217
114	0x9c0de276	-4.694568e-22
115	0xb62792a9	-2.4970307e-06
116	0x39b98740	0.0003538672
117	0x380767b6	3.2283097e-05
118	0x80000004	-6e-45
119	0x387ecc13	6.0748378e-05
120	0x8000003d	-8.5e-44
121	0xb85c73ee	-5.2560055e-05
122	0x39abedb9	0.0003279278
123	0xbca6a9ad	-0.02034458
124	0xbb5d0fd7	-0.0033731365
125	0x391bdef3	0.00014865007
126	0xba7aaf11	-0.000956283
127	0xba283a10	-0.00064173434
128	0x39901e5c	0.0002748844
129	0xb017e117	-5.525335e-10
130	0xbaa8e1df	-0.0012884698
131	0xb8a24a30	-7.7385805e-05
132	0xae4ee504	-4.7042384e-11
133	0xba747ac2	-0.00093261537
134	0xb96402ec	-0.00021744863
135	0x31791f21	3.6251964e-09
136	0xba8ca0ee	-0.0010729113
137	0xb9510618	-0.00019934063
138	0x80000004	-6e-45
139	0xba63d6da	-0.0008691378
140	0x3a8db1df	0.0010810456
141	0xb017e117	-5.525335e-10
142	0xbaa1fc47	-0.001235851
143	0xba4ce85a	-0.00078166055
144	0xb693929b	-4.3980085e-06
145	0xba5659e1	-0.0008176845
146	0x3aa5e219	0.0012655883
147	0xae09e787	-3.135583e-11
148	0xba938c8f	-0.00112571
149	0x389d1eff	7.492117e-05
150	0xb6937afa	-4.3952577e-06
151	0xba67c94a	-0.0008841945
152	0x3a94f371	0.0011364055
153	0xb7299b81	-1.0109391e-05
154	0xba89de3a	-0.0010518499
155	0xb85e21da	-5.296045e-05
156	0x80000004	-6e-45
157	0xba215907	-0.00061549287
158	0x3938013c	0.00017548067
159	0xb7289ff7	-1.0050825e-05
160	0xba13d15e	-0.0005638803
161	0xb8e1ff53	-0.00010776394
162	0x80000004	-6e-45
163	0xba18a5a8	-0.00058230245
164	0x37923ca6	1.7432798e-05
165	0xb7289ff7	-1.0050825e-05
166	0xb9cfe7ba	-0.00039654766
167	0xb8e1ff53	-0.00010776394
168	0x80000004	-6e-45
169	0xba104a5e	-0.00055042456
170	0x2717b92e	2.1055846e-15
171	0xb7289ff7	-1.0050825e-05
172	0xb9b7f4b6	-0.00035086804
173	0xb8d8e252	-0.00010341838
174	0x99510793	-1.0806576e-23
175	0xb9cf7e39	-0.0003957616
176	0x214394c1	6.6265444e-19
177	0xb6edd2e4	-7.0877013e-06
178	0xba493f78	-0.0007676999
179	0xb959c25c	-0.00020767137
180	0x80000004	-6e-45
181	0xb9a1e958	-0.00030882168
182	0x214394c1	6.6265444e-19
183	0x23b7ad87	1.9914391e-17
184	0xba42ed08	-0.0007435833
185	0xb959c324	-0.00020767428
186	0x80000004	-6e-45
187	0xb952380d	-0.00020048041
188	0x233e3d61	1.0312918e-17
189	0xb7019b30	-7.725132e-06
190	0xba42efef	-0.00074362656
191	0xb5a10fc9	-1.2000029e-06
192	0x80000004	-6e-45
193	0xb94f232a	-0.00019754158
194	0x31819a36	3.771926e-09
195	0xb7019b30	-7.725132e-06
196	0xba40c6f8	-0.00073538674
197	0x39cd2d8c	0.00039134582
198	0x00000004	6e-45
199	0xb9c6c383	-0.0003791117
200	0x30edaba9	1.7292808e-09
201	0xb7019b30	-7.725132e-06
202	0xba43e49a	-0.0007472724
203	0x39c5acad	0.00037703422
204	0x00000004	6e-45
205	0xb9d70f37	-0.00041019332
206	0x1a5b8297	4.5393628e-23
207	0xb842f4f8	-4.648135e-05
208	0xba3ebeb1	-0.000727634
209	0x39c64dbd	0.00037823422
210	0x80000004	-6e-45
211	0xb9ae98f3	-0.00033301822
212	0x1a5b8297	4.5393628e-23
213	0x3741301b	1.1514897e-05
214	0xba29ea56	-0.0006481757
215	0x39c64eb8	0.00037824153
216	0x80000004	-6e-45
217	0xb9b37d35	-0.00034234827
218	0x229bf124	4.226815e-18
219	0x38e5b664	0.00010953544
220	0xba132fa8	-0.00056147063
221	0xb76ffc8b	-1.430431e-05
222	0x00000004	6e-45
223	0xb98869fb	-0.00026018903
224	0xb01b885f	-5.6582466e-10
225	0x38e5b664	0.00010953544
226	0xba095ae8	-0.00052396813
227	0xb8677863	-5.518681e-05
228	0x80000004	-6e-45
229	0xb94b2b67	-0.00019375757
230	0xb1a89e4e	-4.9074407e-09
231	0x38e5b664	0.00010953544
232	0xba225eae	-0.0006193918
233	0xb8677794	-5.5186058e-05
234	0xa1a7e9d0	-1.137825e-18
235	0xb94bd5c8	-0.00019439228
236	0x1ad73b98	8.9018195e-23
237	0x380a3c10	3.29577e-05
238	0xba269419	-0.0006354466
239	0xb7f2fca9	-2.8966302e-05
240	0x00000004	6e-45
241	0xb93c4f68	-0.00017958658
242	0x1ad73b98	8.9018195e-23
243	0x36dae1a4	6.5231743e-06
244	0xba1f8552	-0.0006085235
245	0xb7f2fe4a	-2.896706e-05
246	0x00000004	6e-45
247	0xb8df3491	-0.0001064326
248	0x0000001d	4e-44
249	0x380f7ca0	3.4209923e-05
250	0xba21c785	-0.00061713933
251	0x3ca5c36f	0.020234792
252	0x3c7429fa	0.014902586
253	0xb8732c90	-5.7977217e-05
254	0xba02e50d	-0.00049932377
255	0x39901e5c	0.0002748844

exp_avg_sq f4 [20, 128]
0	0x3795771f	1.7817654e-05
1	0x35835fc1	9.788129e-07
2	0x37d62934	2.5529975e-05
3	0x37017f5e	7.718654e-06
4	0x336f998e	5.578618e-08
5	0x37c5ff91	2.3603237e-05
6	0x381c8bfd	3.7323673e-05
7	0x34ea93ac	4.3693342e-07
8	0x37ba64e5	2.221991e-05
9	0x36949f6f	4.429304e-06
10	0x330c50a7	3.2669643e-08
11	0x37bf786e	2.2825054e-05
12	0x381ad22d	3.6912203e-05
13	0x32feef57	2.9678331e-08
14	0x37b4d641	2.1557442e-05
15	0x36a0d413	4.7930603e-06
16	0x32fe79fa	2.962496e-08
17	0x37b09ef8	2.105486e-05
18	0x37839992	1.5687929e-05
19	0x3555f5e1	7.9706484e-07
20	0x37d49ff0	2.5346846e-05
21	0x364dc8bf	3.066423e-06
22	0x33e88b88	1.08287225e-07
23	0x37b259b7	2.126103e-05
24	0x37476844	1.18856005e-05
25	0x3561a078	8.4052544e-07
26	0x37d79dd7	2.5703497e-05
27	0x3601c9d9	1.9339989e-06
28	0x3403a977	1.2261977e-07
29	0x37b2737b	2.1273028e-05
30	0x36ee068a	7.093714e-06
31	0x3620cdd8	2.3961675e-06
32	0x37dddc24	2.6447764e-05
33	0x35ab5dca	1.2767789e-06
34	0x334c7192	4.7600743e-08
35	0x37a58205	1.9730078e-05
36	0x36aa9715	5.083983e-06
37	0x3612ae48	2.185714e-06
38	0x37d8554c	2.5788926e-05
39	0x34d66fdf	3.9942003e-07
40	0x31a54b27	4.810676e-09
41	0x37a00ecc	1.9080377e-05
42	0x367402b5	3.636041e-06
43	0x35dc5fea	1.6419192e-06
44	0x37c8c07c	2.393149e-05
45	0x34be7891	3.5477981e-07
46	0x333c222d	4.3803244e-08
47	0x379dbbbf	1.8803285e-05
48	0x363e3884	2.8345103e-06
49	0x35d620b1	1.5953757e-06
50	0x37c3f803	2.3361301e-05
51	0x34962742	2.796824e-07
52	0x337f0d2b	5.938379e-08
53	0x37a44268	1.9581246e-05
54	0x36090fa2	2.042369e-06
55	0x35ca318d	1.5064594e-06
56	0x37bfecc7	2.2879232e-05
57	0x34917b61	2.7098125e-07
58	0x33cb4b44	9.466615e-08
59	0x37a3e4eb	1.9537712e-05
60	0x3679c464	3.7218206e-06
61	0x3616b31d	2.2456e-06
62	0x37c3c054	2.3335371e-05
63	0x3399ca01	7.161362e-08
64	0x33ca1e0e	9.411825e-08
65	0x37a05598	1.9113344e-05
66	0x35f096e0	1.7925304e-06
67	0x3551656b	7.800615e-07
68	0x37b5a86d	2.165531e-05
69	0x33de3d0b	1.0348784e-07
70	0x334038b8	4.475507e-08
71	0x379d55df	1.8755845e-05
72	0x355c1c27	8.1997354e-07
73	0x354ec6c9	7.703025e-07
74	0x37a70375	1.9909561e-05
75	0x344aa117	1.887132e-07
76	0x332f0f05	4.0759023e-08
77	0x37a71629	1.991827e-05
78	0x357d5637	9.4375304e-07
79	0x351877aa	5.6798547e-07
80	0x37a337b6	1.9457057e-05
81	0x3407b652	1.2639183e-07
82	0x33c6bed0	9.254802e-08
83	0x37a87a5d	2.008414e-05
84	0x3563cfc1	8.486641e-07
85	0x34f85e47	4.6262195e-07
86	0x37a2a443	1.9388395e-05
87	0x334a4458	4.709395e-08
88	0x33d1ae1d	9.763992e-08
89	0x379caeb5	1.8678003e-05
90	0x355f840b	8.326612e-07
91	0x3392293e	6.806157e-08
92	0x37a30dbb	1.9437508e-05
93	0x3324fc03	3.841343e-08
94	0x33cdcf63	9.58378e-08
95	0x379cf49d	1.8710556e-05
96	0x3561c1b2	8.4100895e-07
97	0x3336f637	4.259911e-08
98	0x379d3b2c	1.8743413e-05
99	0x344d0cb5	1.9096736e-07
100	0x340aedb0	1.2938722e-07
101	0x37920a18	1.7409257e-05
102	0x356d4728	8.8392926e-07
103	0x334cd576	4.7691593e-08
104	0x37949968	1.771441e-05
105	0x346eb7fb	2.2232409e-07
106	0x33f48223	1.1385807e-07
107	0x3785f62a	1.5969465e-05
108	0x3578315f	9.2459044e-07
109	0x33296f07	3.9449358e-08
110	0x379759d5	1.8042434e-05
111	0x348d8f99	2.6367778e-07
112	0x33f625c5	1.1462138e-07
113	0x3785bc42	1.59425e-05
114	0x35b97f2a	1.3820584e-06
115	0x32447dcb	1.14373035e-08
116	0x3793f15b	1.7636155e-05
117	0x34859769	2.4883346e-07
118	0x335df351	5.1676867e-08
119	0x37818ebc	1.5444464e-05
120	0x35bac3bd	1.3915047e-06
121	0x333cade9	4.393033e-08
122	0x378d0caf	1.6814416e-05
123	0x3bb4c6fb	0.0055168844
124	0x3bf7e140	0.0075646937
125	0x3693ceee	4.405031e-06
126	0x3856f10c	5.124607e-05
127	0x3795771f	1.7817654e-05
128	0x37d5c860	2.5484886e-05
129	0x35889da2	1.0178667e-06
130	0x37a16df1	1.9243891e-05
131	0x37887b33	1.6269832e-05
132	0x3471f966	2.2535605e-07
133	0x379b885a	1.8540934e-05
134	0x37de1593	2.6474509e-05
135	0x34e4c084	4.2608383e-07
136	0x37a054b9	1.9112938e-05
137	0x37491c79	1.1987163e-05
138	0x345647d1	1.995643e-07
139	0x3799c7a8	1.8331993e-05
140	0x37b7eb5e	2.1924901e-05
141	0x3448c249	1.8697132e-07
142	0x379e0444	1.8837054e-05
143	0x371d36cf	9.37069e-06
144	0x333d5e3c	4.4090697e-08
145	0x37933fbb	1.7553442e-05
146	0x374ada1a	1.2090919e-05
147	0x3525208d	6.151466e-07
148	0x37a4b063	1.963246e-05
149	0x36df5758	6.656086e-06
150	0x349f1de6	2.9637812e-07
151	0x379743ca	1.803217e-05
152	0x3714bf55	8.866035e-06
153	0x352c09b2	6.40891e-07
154	0x37a67fb6	1.9848212e-05
155	0x3685d3f3	3.988383e-06
156	0x3488879a	2.5430637e-07
157	0x379a4cfa	1.8394076e-05
158	0x36b9ece7	5.5410087e-06
159	0x36080ee3	2.0274244e-06
160	0x37a94a8a	2.018108e-05
161	0x3632f6eb	2.6667792e-06
162	0x329eebc9	1.8500844e-08
163	0x378dcf6c	1.6905098e-05
164	0x3688b2f0	4.073947e-06
165	0x35ea0d18	1.7438169e-06
166	0x37a4bb49	1.9637535e-05
167	0x35bc85e5	1.404606e-06
168	0x3185bd07	3.8922994e-09
169	0x3788c029	1.6301945e-05
170	0x363e45de	2.8352874e-06
171	0x35b5239a	1.3495912e-06
172	0x379b6c0e	1.8527757e-05
173	0x35ba191d	1.3865389e-06
174	0x328e34b3	1.655494e-08
175	0x37868ad5	1.6038694e-05
176	0x3617005c	2.2500963e-06
177	0x35a8b990	1.2570981e-06
178	0x3797548e	1.8039977e-05
179	0x3596f831	1.1248104e-06
180	0x32aa122c	1.9798868e-08
181	0x37871036	1.6100803e-05
182	0x35f1ce03	1.8015857e-06
183	0x3537c1fb	6.845509e-07
184	0x37903c65	1.7194261e-05
185	0x355b530f	8.1704724e-07
186	0x3310e3a2	3.3734644e-08
187	0x3789b4eb	1.641592e-05
188	0x35f99856	1.8596281e-06
189	0x359b41ed	1.1567587e-06
190	0x37933829	1.7549917e-05
191	0x3510593a	5.377402e-07
192	0x3312ea31	3.420627e-08
193	0x37856fef	1.5906959e-05
194	0x35852574	9.920172e-07
195	0x3520d828	5.9919194e-07
196	0x378c6da4	1.6740356e-05
197	0x3507ef86	5.063997e-07
198	0x329f3cf2	1.8537751e-08
199	0x3785a600	1.5932135e-05
200	0x350dfa8b	5.289118e-07
201	0x351f7e44	5.9415856e-07
202	0x3787b2a0	1.6176433e-05
203	0x353dd82c	7.072256e-07
204	0x328f3052	1.6669365e-08
205	0x378bfd1c	1.6687954e-05
206	0x34e64a55	4.2894922e-07
207	0x350727c6	5.0349297e-07
208	0x378555cc	1.5894788e-05
209	0x356ff0e9	8.938501e-07
210	0x33218822	3.7609546e-08
211	0x378c93b8	1.6758087e-05
212	0x34d69018	3.9965448e-07
213	0x34192d0e	1.4265626e-07
214	0x3780e300	1.5364494e-05
215	0x35299a59	6.318201e-07
216	0x332dd891	4.0476667e-08
217	0x3781c26d	1.5468535e-05
218	0x35163328	5.5953797e-07
219	0x34236445	1.5217036e-07
220	0x37801537	1.5268668e-05
221	0x350f546e	5.339451e-07
222	0x333cbcfb	4.3944038e-08
223	0x37818919	1.544184e-05
224	0x35173724	5.6332124e-07
225	0x3410b9db	1.3478659e-07
226	0x377d0c86	1.5082891e-05
227	0x34d4a837	3.961047e-07
228	0x3364973e	5.322294e-08
229	0x376dbb0c	1.4169851e-05
230	0x35192a34	5.7058355e-07
231	0x3410eb37	1.3496616e-07
232	0x377cbc93	1.5064276e-05
233	0x34d524eb	3.9701203e-07
234	0x335d4d01	5.1525607e-08
235	0x37655874	1.3670058e-05
236	0x3530c52d	6.585204e-07
237	0x340224d1	1.2120587e-07
238	0x3781b894	1.546395e-05
239	0x351d3d47	5.857623e-07
240	0x33909080	6.731807e-08
241	0x37642807	1.3599179e-05
242	0x355c50d7	8.2074024e-07
243	0x32310dd0	1.0305897e-08
244	0x377e17eb	1.5145149e-05
245	0x350f18d7	5.33078e-07
246	0x33326489	4.153529e-08
247	0x37564965	1.27724825e-05
248	0x355e04c4	8.270838e-07
249	0x3452d1e2	1.9634129e-07
250	0x3777f099	1.4778366e-05
251	0x3b9dbd6a	0.0048138397
252	0x3bdd0d99	0.0067460057
253	0x365dd0d0	3.305311e-06
254	0x3837582e	4.3712724e-05
255	0x37d5c860	2.5484886e-05

exp_avg f4 [20]
0	0x39e2f932	0.00043291744
1	0xba0f5e51	-0.00054690713
2	0xba4bf7c9	-0.00077807583
3	0xba69f3a7	-0.00089245517
4	0x3ab1003f	0.0013504102
5	0x394d9be3	0.00019608396
6	0x3a8f8da2	0.0010952244
7	0xba47277f	-0.0007597133
8	0x3aa4a5af	0.0012561585
9	0x3aafe858	0.0013420684
10	0xba36b6f6	-0.00069700123
11	0xba656174	-0.00087501784
12	0x3a766f6f	0.000940076
13	0x39ef9c1f	0.00045701952
14	0xba846a11	-0.0010102411
15	0x3ab7683d	0.0013992857
16	0x3a80080f	0.0009768027
17	0x3a0f207e	0.0005459859
18	0xb9948ce5	-0.00028333734
19	0xba86e0ed	-0.0010290422

exp_avg_sq f4 [20]
0	0x38ad5c66	8.2664934e-05
1	0x389fba3c	7.6164e-05
2	0x39422405	0.000185147
3	0x3907bdac	0.00012945262
4	0x390d88c8	0.00013497763
5	0x38ece465	0.00011295899
6	0x38a5e361	7.910166e-05
7	0x3771ca3c	1.4411806e-05
8	0x39063956	0.00012800595
9	0x39a9c6e1	0.00032382368
10	0x3906f9e1	0.00012872323
11	0x3953c699	0.00020196511
12	0x38acd7e3	8.241811e-05
13	0x3702b2fa	7.790275e-06
14	0x38f29eb6	0.000115690214
15	0x3966d60b	0.00022014246
16	0x389cfd5c	7.4858515e-05
17	0x38ad51b3	8.2645005e-05
18	0x3882d834	6.239154e-05
19	0x390b91f8	0.0001331045

exp_avg f4 [3, 20]
0	0xbb4b1698	-0.0030988809
1	0xbb58b19c	-0.0033064848
2	0xb972c42e	-0.00023152001
3	0xbbb351f9	-0.0054724184
4	0xbb23439b	-0.0024912122
5	0xba97595e	-0.0011547019
6	0xbac38c1e	-0.0014919078
7	0x3b2ffbe5	0.0026853022
8	0xbb8318c7	-0.0040007564
9	0xbafa29e0	-0.0019085966
10	0xbbd06f6d	-0.0063609392
11	0xb9f567d3	-0.00046807397
12	0xbb8801ed	-0.00415062
13	0xbbc31001	-0.0059528355
14	0x3aaefe0d	0.001335086
15	0x398e088e	0.00027090724
16	0xbb99518d	-0.004678911
17	0x3ae23597	0.0017258403
18	0x3be44a23	0.0069668456
19	0xbc0b4b46	-0.008501833
20	0x3b36fb40	0.0027920753
21	0xbaf6531d	-0.001879308
22	0xbbd867b1	-0.006604158
23	0x3a00bc72	0.0004910893
24	0x3c17375e	0.009229509
25	0x3b5b058b	0.0033420052
26	0x3b17ef32	0.0023183343
27	0xbb3aabf4	-0.002848384
28	0x3bb3303b	0.005468396
29	0x3b9e6d51	0.004834809
30	0xbb24c745	-0.0025143188
31	0xbaf1348c	-0.0018402501
32	0x3b238c97	0.0024955624
33	0xb9541d17	-0.00020228732
34	0xbb05ad5a	-0.0020397515
35	0x3bb6c787	0.0055779847
36	0x3b1d5658	0.0024007764
37	0x3af56e40	0.0018724874
38	0x3b348cf4	0.0027549835
39	0xbaa0aa2b	-0.0012257745
40	0x39a02145	0.00030542366
41	0x3ba9b9cf	0.005179621
42	0x3bdfda85	0.0068314695
43	0x3ba2fd38	0.0049740337
44	0xbbdcf0ed	-0.006742588
45	0xbb0f7b46	-0.0021893545
46	0xba590697	-0.0008278875
47	0x39298f9d	0.00016170596
48	0xbac0b9e5	-0.0014703838
49	0xbb3fe951	-0.0029283355
50	0x3c114834	0.008867312
51	0x3b16b2dd	0.0022994794
52	0x3ad87de0	0.0016517006
53	0x3bc9a96c	0.00615423
54	0x3a36a3ac	0.0006967138
55	0xbbbfba55	-0.00585107
56	0x3b15185b	0.0022750113
57	0xbb6bd4a6	-0.0035984903
58	0xbc1f5f4a	-0.0097273085
59	0x3c1f3898	0.009718083

exp_avg_sq f4 [3, 20]
0	0x3b478f91	0.0030450562
1	0x3c2b2f9c	0.010448363
2	0x3bb9cb28	0.00566997
3	0x3c00f41c	0.0078707
4	0x3c15ceba	0.009143526
5	0x3abf34c1	0.0014587865
6	0x3bd08517	0.006363522
7	0x3c131aaa	0.008978525
8	0x3be3e97c	0.0069553237
9	0x3bfc0bd2	0.007691839
10	0x3c292198	0.010322951
11	0x3c0d50e8	0.008625247
12	0x3b900b4c	0.004395878
13	0x3ab43283	0.0013747964
14	0x3c2a2e35	0.010386993
15	0x3c02b6bf	0.00797814
16	0x3bd5a712	0.0065201605
17	0x3b8159e8	0.0039474852
18	0x3c3ef585	0.011655216
19	0x3c442580	0.011971831
20	0x3b0b3c45	0.002124564
21	0x3bde0d5c	0.006776495
22	0x3b717143	0.003684119
23	0x3bbd9e30	0.0057866797
24	0x3bc925ef	0.0061385552
25	0x3a932d82	0.0011228772
26	0x3b8a65a4	0.0042235423
27	0x3bd3a4c3	0.00645885
28	0x3ba156bc	0.0049236696
29	0x3ba23ca1	0.004951075
30	0x3be73d1a	0.0070568444
31	0x3bbecde0	0.005822882
32	0x3b4e3177	0.0031462589
33	0x3a663586	0.00087817793
34	0x3be5c04e	0.00701145
35	0x3ba56956	0.0050479574
36	0x3b94bb53	0.0045389323
37	0x3b27c078	0.0025596898
38	0x3c0d0b6b	0.008608679
39	0x3c0744e7	0.008256174
40	0x3b11d0db	0.0022249732
41	0x3bd676e2	0.0065449337
42	0x3b81765b	0.0039508766
43	0x3b88dcc3	0.0041767075
44	0x3bca66a5	0.006176787
45	0x3a94fcae	0.0011366808
46	0x3b9b6ad3	0.004742959
47	0x3bc36f15	0.0059641697
48	0x3ba7d6bc	0.005122034
49	0x3bb7b2dd	0.005606039
50	0x3bc74fac	0.0060824957
51	0x3baca2bc	0.005268423
52	0x3b55679e	0.0032562981
53	0x3a8e3d98	0.0010852097
54	0x3bcde965	0.0062839263
55	0x3bbdebdd	0.0057959394
56	0x3b9c91a1	0.0047781025
57	0x3b40e76b	0.002943481
58	0x3bf1f2d4	0.0073836837
59	0x3bea4bc1	0.007150144

exp_avg f4 [3]
0	0x3afd97f5	0.0019347655
1	0x3a5e802c	0.0008487727
2	0xbb366c0d	-0.00278354

exp_avg_sq f4 [3]
0	0x3ae83f4d	0.001771906
1	0x3aa9f8ac	0.0012967787
2	0x3aa27c78	0.0012396714

exp_avg f4 [3, 20]
0	0x3aa03c76	0.001222505
1	0xbac47cbd	-0.0014990788
2	0xbaa2e6d6	-0.0012428414
3	0xba960c80	-0.0011447817
4	0x3bdbcf53	0.0067080646
5	0x3b04dda5	0.0020273712
6	0x3b725204	0.0036975155
7	0x3ba2a2f1	0.004963272
8	0x3b81f24b	0.003965651
9	0x3b8c211b	0.0042764074
10	0xbba361b3	-0.004986012
11	0x39b106f3	0.00033765248
12	0x3ad00742	0.0015871304
13	0xbb4a8bff	-0.0030906198
14	0x3af10fea	0.0018391584
15	0x3bd5d12d	0.00652518
16	0x3a8fca45	0.0010970315
17	0x3bb693b6	0.0055718077
18	0x3c55c666	0.01304779
19	0xbbc94781	-0.006142557
20	0x3a74296f	0.00093140354
21	0x3bf22906	0.0073901443
22	0x3c0721eb	0.008247833
23	0x3c0285c1	0.00796646
24	0xbb8b31a6	-0.004247862
25	0x3a1ffb95	0.00061028573
26	0xba43f6d9	-0.0007475443
27	0xbb15d322	-0.002286144
28	0xbadbcbd5	-0.0016769121
29	0xbb16a921	-0.0022988992
30	0x3c333dda	0.0109400395
31	0x3bcac00f	0.006187446
32	0xb9752696	-0.00023379395
33	0x3b2e1464	0.0026562447
34	0x3bb19ce0	0.0054203123
35	0xbb9bb4d4	-0.004751781
36	0x3a422fed	0.0007407654
37	0xbb852816	-0.0040636165
38	0xbbb9e71d	-0.005673303
39	0x3c592f26	0.01325587
40	0xbb0d4715	-0.002155726
41	0xbbc1128b	-0.005892103
42	0xbbe59956	-0.0070068045
43	0xbbdf966e	-0.0068233525
44	0xbb2165e9	-0.0024627394
45	0xbb2cfa32	-0.0026394245
46	0xbb41744d	-0.0029518784
47	0xbb2f5b0b	-0.0026757147
48	0xbb16342d	-0.0022919283
49	0xbb01bb0c	-0.0019795327
50	0xbbc32c44	-0.0059562046
51	0xbbd5dd9e	-0.006526663
52	0xbab1bc50	-0.001356015
53	0x39e35835	0.00043362533
54	0xbbede6b9	-0.0072601703
55	0xbae8a9f9	-0.0017750851
56	0xbaf13b40	-0.0018404499
57	0xbac5c4de	-0.0015088578
58	0xbbf1b2ff	-0.0073760743
59	0xbbe92cdc	-0.0071159434

exp_avg_sq f4 [3, 20]
0	0x3abfa574	0.0014621452
1	0x3b89be4a	0.0042035924
2	0x3b305127	0.002690384
3	0x3b67d0ce	0.003537226
4	0x3b665545	0.003514604
5	0x3a367cee	0.0006961365
6	0x3b34c612	0.002758388
7	0x3b865acb	0.004100179
8	0x3b499ea8	0.0030764733
9	0x3b416dcd	0.002951491
10	0x3b89d609	0.004206423
11	0x3b577d38	0.0032881033
12	0x3b056869	0.0020356423
13	0x3a2b783b	0.0006541048
14	0x3b8d0b25	0.004304307
15	0x3b486d49	0.0030582717
16	0x3b385315	0.0028125693
17	0x3aea9046	0.001789578
18	0x3bbfaf40	0.005849749
19	0x3b9a2472	0.0047040517
20	0x3aa3a1d3	0.001248414
21	0x3b09e992	0.002104376
22	0x3afb1359	0.0019155546
23	0x3b059733	0.0020384311
24	0x3b1835d2	0.0023225439
25	0x3a1c53e7	0.000596343
26	0x3b115f0e	0.00221819
27	0x3b3f9f04	0.0029239068
28	0x3b2730a3	0.0025511167
29	0x3b077af3	0.0020672649
30	0x3af6793b	0.001880444
31	0x3ab2d5ae	0.0013644004
32	0x3ad3d906	0.00161627
33	0x39fc41fc	0.00048114348
34	0x3b0a8ca5	0.002114096
35	0x3b090156	0.0020905337
36	0x3b10a325	0.0022069898
37	0x3abd77e7	0.0014455289
38	0x3ba3b496	0.0049958928
39	0x3af7a0bb	0.0018892506
40	0x3a06380c	0.0005120046
41	0x3b32b0e8	0.002726609
42	0x3a9e9a42	0.0012100416
43	0x3b2226ab	0.0024742286
44	0x3ad2100d	0.0016026512
45	0x39885b54	0.00026007986
46	0x3a6ddfce	0.0009074182
47	0x3b2b7319	0.0026161133
48	0x3a60f61c	0.0008581595
49	0x3a8f3869	0.0010926846
50	0x3b3f4d1d	0.002919025
51	0x3b1989c0	0.0023428053
52	0x3a1e355d	0.00060351734
53	0x3983bd95	0.00025127517
54	0x3b46d454	0.003033896
55	0x3a9f6596	0.0012161012
56	0x3a5d31b7	0.0008437889
57	0x3a352162	0.00069095765
58	0x3b5686fb	0.0032734263
59	0x3b60ddd0	0.0034311898

exp_avg f4 [3]
0	0x3b11f53c	0.0022271415
1	0x3a54aaf4	0.0008112632
2	0xbb471fff	-0.0030384061

exp_avg_sq f4 [3]
0	0x3a503919	0.00079430785
1	0x3a059251	0.000509535
2	0x39ff85bc	0.0004873703

exp_avg f4 [20, 128]
0	0x3bfc5f33	0.0077017783
1	0x2e0bd82f	3.179695e-11
2	0x3baa2355	0.0051922
3	0x3b5f5540	0.0034077913
4	0xadddca93	-2.5214752e-11
5	0x3c011eb3	0.007880854
6	0x3b32f317	0.0027305537
7	0xb2a6c2ed	-1.9413585e-08
8	0x3bb40121	0.0054932986
9	0x3b9a187e	0.0047026267
10	0x00000004	6e-45
11	0x3bdd44ef	0.0067526023
12	0x3be73d33	0.007056856
13	0x2e0bd82f	3.179695e-11
14	0x3b641eba	0.0034808354
15	0x3bae574b	0.0053204647
16	0xb6b53723	-5.400639e-06
17	0x3bc0d8e8	0.0058852322
18	0x3c239c90	0.009986058
19	0xace4d0f6	-6.503349e-12
20	0x3b32d5b9	0.0027288033
21	0xbae95372	-0.0017801358
22	0xb6b3bba3	-5.3564595e-06
23	0x3bd94e35	0.0066316375
24	0x3c183e0e	0.009292139
25	0xb6ac51b7	-5.1355123e-06
26	0x3b65acba	0.003504558
27	0xbb196f50	-0.0023412295
28	0x00000004	6e-45
29	0x3bbde684	0.005795302
30	0xb842ec1c	-4.64731e-05
31	0xb70166be	-7.712921e-06
32	0x3c042ff4	0.008068074
33	0xbb11f296	-0.0022269837
34	0x00000004	6e-45
35	0x3bcd15bd	0.006258695
36	0xb9f4c2df	-0.00046684497
37	0xb70166be	-7.712921e-06
38	0x3c1b6a6a	0.00948582
39	0xbb11f296	-0.0022269837
40	0x00000004	6e-45
41	0x3bd22760	0.0064133853
42	0xa9be0291	-8.43814e-14
43	0xb70166be	-7.712921e-06
44	0x3c14902c	0.009067576
45	0xbafd4bd7	-0.001932497
46	0x181e0a76	2.0426303e-24
47	0x3ba557d6	0.0050458713
48	0xa49bc935	-6.756139e-17
49	0x35ca5f10	1.507784e-06
50	0x3bc117aa	0.0058927136
51	0xbadd5a39	-0.001688785
52	0x00000004	6e-45
53	0x3bafc014	0.0053634737
54	0xa49bc935	-6.756139e-17
55	0xa43e84e2	-4.131224e-17
56	0x3bd0903b	0.00636485
57	0xbadd592a	-0.0016887535
58	0x80000004	-6e-45
59	0x3bbdcc97	0.0057922113
60	0xa49e8c58	-6.875933e-17
61	0xb6e99142	-6.9608514e-06
62	0x3bd5aedb	0.0065210885
63	0xb64c3b00	-3.0432711e-06
64	0x80000004	-6e-45
65	0x3bae8a2a	0.005326529
66	0xb18cddf6	-4.0997703e-09
67	0xb6e99142	-6.9608514e-06
68	0x3be297d1	0.0069150706
69	0xbb4b8135	-0.0031052355
70	0x80000004	-6e-45
71	0x3bdfb345	0.0068267905
72	0x311235c3	2.1276356e-09
73	0xb6e99142	-6.9608514e-06
74	0x3bcbdad3	0.0062211542
75	0xbb517716	-0.003196185
76	0x80000004	-6e-45
77	0x3bd9f2c3	0.006651254
78	0x9b90a275	-2.3927787e-22
79	0x3716a62d	8.9793875e-06
80	0x3bcffc81	0.0063472395
81	0xbb514408	-0.003193142
82	0x80000004	-6e-45
83	0x3bd0d04d	0.0063724876
84	0x9b90a275	-2.3927787e-22
85	0x357e45b5	9.472381e-07
86	0x3bcdffe2	0.006286607
87	0xbb5143ba	-0.0031931237
88	0x80000004	-6e-45
89	0x3bdf7d73	0.0068203746
90	0x238ec34e	1.5478386e-17
91	0x36474dd3	2.969861e-06
92	0x3bc33588	0.005957309
93	0xb8beb28d	-9.093164e-05
94	0x80000004	-6e-45
95	0x3be981e2	0.007126079
96	0xb14290e5	-2.8313079e-09
97	0x36474dd3	2.969861e-06
98	0x3bbaa3d3	0.005695799
99	0xb993ce9e	-0.00028191967
100	0x80000004	-6e-45
101	0x3beee22b	0.007290145
102	0x321634d8	8.743164e-09
103	0x36474dd3	2.969861e-06
104	0x3b975ea2	0.0046194354
105	0xb993cfc2	-0.00028192817
106	0x21349bac	6.11924e-19
107	0x3be2a1a2	0.006916241
108	0x9c86c647	-8.91863e-22
109	0xb7f1ecda	-2.8839731e-05
110	0x3b9bc0f9	0.0047532287
111	0xba04b3a0	-0.00050621666
112	0x80000004	-6e-45
113	0x3be058f5	0.006846542
114	0x9c86c647	-8.91863e-22
115	0xb57bc990	-9.37981e-07
116	0x3ba9724e	0.005171097
117	0xba04b30c	-0.00050620805
118	0x80000004	-6e-45
119	0x3bdebd01	0.0067974334
120	0x00000070	1.57e-43
121	0x388f4410	6.831449e-05
122	0x3ba44149	0.0050126654
123	0xbce1da0e	-0.027569797
124	0xbd1e04cf	-0.038578805
125	0x3a2c949b	0.0006583423
126	0xbafea63e	-0.0019428206
127	0x3bfc5f33	0.0077017783
128	0x3c8d87c3	0.01727665
129	0xb2181f78	-8.85472e-09
130	0x3c60ce02	0.013720991
131	0x3c09ffa7	0.008422769
132	0xb095d344	-1.0901222e-09
133	0x3ca3b097	0.019981666
134	0x3b8dadda	0.0043237032
135	0xb372dcc4	-5.65458e-08
136	0x3c6e1294	0.014530797
137	0x3c4587a8	0.012056269
138	0x00000004	6e-45
139	0x3c8c5e04	0.017134674
140	0x3c737021	0.014858277
141	0xb2181f78	-8.85472e-09
142	0x3c1b8d50	0.009494141
143	0x3c6870a5	0.014187013
144	0xb74ae7d4	-1.2094115e-05
145	0x3c822953	0.015888846
146	0x3cb742df	0.022370754
147	0x2f9353a6	2.679858e-10
148	0x3bfa5cda	0.0076404633
149	0xbb7fe815	-0.0039048244
150	0xb74918e4	-1.1986329e-05
151	0x3c92bbee	0.017911877
152	0x3ca9ac42	0.020712022
153	0x38f6d9ae	0.0001177074
154	0x3c1c10a6	0.009525454
155	0xbba95845	-0.0051679933
156	0x00000004	6e-45
157	0x3c7ffaca	0.015623758
158	0xb9085e62	-0.00013005131
159	0x3930da42	0.00016865975
160	0x3ca2ffd9	0.019897388
161	0xbb1aa2dc	-0.0023595607
162	0x00000004	6e-45
163	0x3c7cb778	0.015424602
164	0xba582f85	-0.0008246827
165	0x3930da42	0.00016865975
166	0x3cc03812	0.023464236
167	0xbb1aa2dc	-0.0023595607
168	0x00000004	6e-45
169	0x3c80dfdf	0.01573175
170	0xaa480491	-1.7765153e-13
171	0x3930da42	0.00016865975
172	0x3cba1277	0.022713883
173	0xbacffa7d	-0.0015867498
174	0x198d6150	1.4618363e-23
175	0x3c5533a7	0.013012803
176	0xa53fabf3	-1.6624868e-16
177	0xb7e2a8ec	-2.701996e-05
178	0x3c7ee653	0.015557843
179	0xbac3ece5	-0.0014947919
180	0x00000004	6e-45
181	0x3c63e186	0.013908749
182	0xa53fabf3	-1.6624868e-16
183	0xa4e81df5	-1.0066471e-16
184	0x3c89384c	0.016750477
185	0xbac3ea28	-0.0014947103
186	0x80000004	-6e-45
187	0x3c74a9ac	0.014933031
188	0xa54333e0	-1.693113e-16
189	0x38d9e3cc	0.00010389797
190	0x3c8c98d5	0.01716272
191	0xb6c901ab	-5.990461e-06
192	0x80000004	-6e-45
193	0x3c6a0c06	0.014285093
194	0xb21d1803	-9.144062e-09
195	0x38d9e3cc	0.00010389797
196	0x3c9447e7	0.018100692
197	0xbbc21d63	-0.0059239133
198	0x80000004	-6e-45
199	0x3c8bc2b3	0.017060613
200	0x319e459e	4.6063198e-09
201	0x38d9e3cc	0.00010389797
202	0x3c84f25f	0.016228853
203	0xbbc92160	-0.006138012
204	0x80000004	-6e-45
205	0x3c88e7ab	0.01671203
206	0x9c0973b3	-4.5479035e-22
207	0xb8cd5e11	-9.792683e-05
208	0x3c85c0a0	0.016327202
209	0xbbc8ef1e	-0.0061320206
210	0x80000004	-6e-45
211	0x3c82d0a5	0.01596863
212	0x9c0973b3	-4.5479035e-22
213	0xb73dfa84	-1.1323606e-05
214	0x3c843488	0.01613833
215	0xbbc8eebe	-0.006131976
216	0x80000004	-6e-45
217	0x3c8bd1cb	0.01706781
218	0x2438d012	4.0074882e-17
219	0xb87d89c5	-6.044821e-05
220	0x3c7c7c5a	0.015410507
221	0xb9607364	-0.00021405291
222	0x80000004	-6e-45
223	0x3c938a92	0.018010411
224	0xb1d67d04	-6.2424323e-09
225	0xb87d89c5	-6.044821e-05
226	0x3c742197	0.014900587
227	0xba142317	-0.0005650981
228	0x80000004	-6e-45
229	0x3c95b2ff	0.018273829
230	0x32a3d0b8	1.9070612e-08
231	0xb87d89c5	-6.044821e-05
232	0x3c48393c	0.012220677
233	0xba14247f	-0.00056511903
234	0x2380c817	1.3962529e-17
235	0x3c905208	0.01761724
236	0x9cf1d695	-1.600351e-21
237	0xb7bfe959	-2.2877635e-05
238	0x3c4d1077	0.012516133
239	0xba8f2fb9	-0.0010924257
240	0x80000004	-6e-45
241	0x3c8f3567	0.017481519
242	0x9cf1d695	-1.600351e-21
243	0x36c3de40	5.837326e-06
244	0x3c5c8f0b	0.0134618385
245	0xba8f2f04	-0.0010924046
246	0x80000004	-6e-45
247	0x3c8ea6d5	0.017413536
248	0x00000117	3.91e-43
249	0x3921164e	0.00015362466
250	0x3c561bb1	0.013068126
251	0xbd93e530	-0.072214484
252	0xbd8273eb	-0.06369766
253	0x3abb1ab9	0.0014274932
254	0xbc1c408c	-0.009536874
255	0x3c8d87c3	0.01727665

exp_avg_sq f4 [20, 128]
0	0x3a0c822b	0.0005359973
1	0x376341f1	1.35456075e-05
2	0x39a5511c	0.00031531684
3	0x399e0fbd	0.00030147834
4	0x358d494c	1.0526651e-06
5	0x39a1db29	0.000308716
6	0x3a01c85c	0.00049508153
7	0x373adeec	1.1138367e-05
8	0x39a87a4e	0.0003213458
9	0x3981959b	0.00024716262
10	0x357a4e91	9.3246587e-07
11	0x399c93ad	0.00029864666
12	0x39a70242	0.00031854404
13	0x37080fc2	8.109901e-06
14	0x39ac56bc	0.0003287102
15	0x3958a6b4	0.00020661467
16	0x3520405d	5.9698306e-07
17	0x3999c6db	0.00029330593
18	0x396f6758	0.00022831315
19	0x372fdf90	1.0482865e-05
20	0x39b0ab01	0.00033696744
21	0x39261472	0.0001583861
22	0x3686c6ac	4.0166397e-06
23	0x399f89c7	0.00030429495
24	0x392e1589	0.00016601956
25	0x372e0c58	1.0374082e-05
26	0x39b511f3	0.00034536383
27	0x38d29297	0.00010040885
28	0x35f59735	1.829793e-06
29	0x39a35e99	0.00031160263
30	0x38e6cbd4	0.000110052206
31	0x3889f696	6.578599e-05
32	0x39c0934d	0.0003673084
33	0x38598a52	5.1865652e-05
34	0x349090e5	2.6927515e-07
35	0x399b9027	0.00029671306
36	0x387f8099	6.0916504e-05
37	0x389a6bfe	7.363407e-05
38	0x39bef449	0.0003642163
39	0x38183b00	3.6294572e-05
40	0x3324be8a	3.835752e-08
41	0x39975ec6	0.00028871576
42	0x384b1b6e	4.8424517e-05
43	0x38807c43	6.126661e-05
44	0x39b49142	0.000344405
45	0x37f1f810	2.8844952e-05
46	0x334fba58	4.8365422e-08
47	0x3994c723	0.00028377128
48	0x38368c94	4.3523105e-05
49	0x387bbc80	6.0018618e-05
50	0x39a6d3c2	0.0003181976
51	0x3800f060	3.0741445e-05
52	0x345a7f96	2.0349248e-07
53	0x3992dadb	0.0002801035
54	0x38266642	3.967272e-05
55	0x380e45bd	3.3920387e-05
56	0x3997383b	0.0002884286
57	0x37db7b84	2.616435e-05
58	0x352af15c	6.368116e-07
59	0x39903d9d	0.00027511726
60	0x38278d7f	3.994768e-05
61	0x380a4761	3.296824e-05
62	0x3998cd50	0.0002914467
63	0x37a5d44a	1.9768388e-05
64	0x352499a5	6.1318343e-07
65	0x398e3949	0.0002712703
66	0x37e6633c	2.7464346e-05
67	0x363a979b	2.7804406e-06
68	0x3986e04c	0.00025725586
69	0x37921025	1.7412074e-05
70	0x34020783	1.2109926e-07
71	0x398d70ea	0.00026977743
72	0x37abffc8	2.0503896e-05
73	0x362e120e	2.593853e-06
74	0x397d17e6	0.00024136863
75	0x37a4d730	1.9650528e-05
76	0x33efa6fa	1.11596776e-07
77	0x39ac2cee	0.00032839872
78	0x37a559a2	1.9711271e-05
79	0x35b2ec87	1.3330872e-06
80	0x397911f3	0.00023753177
81	0x3802cf61	3.1187552e-05
82	0x34134000	1.3713725e-07
83	0x39a6183f	0.00031680052
84	0x37a0c3b5	1.916462e-05
85	0x35e584a2	1.7100431e-06
86	0x39702a16	0.00022903862
87	0x37eb59a4	2.8055925e-05
88	0x34819905	2.413946e-07
89	0x39818184	0.00024701294
90	0x37a3f8cc	1.954697e-05
91	0x34af2687	3.2624322e-07
92	0x396bfcb3	0.00022505484
93	0x37acc06d	2.0593603e-05
94	0x34a14793	3.0040664e-07
95	0x397b8b38	0.00023989088
96	0x379a400c	1.8388055e-05
97	0x33764a04	5.7343655e-08
98	0x396ad9b2	0.00022397077
99	0x371cf57d	9.355482e-06
100	0x348b91fe	2.599699e-07
101	0x396b9ca8	0.00022469705
102	0x3793c060	1.7613347e-05
103	0x32ec546a	2.7512403e-08
104	0x3969791d	0.0002226573
105	0x3713e2af	8.814662e-06
106	0x3445e37d	1.8429814e-07
107	0x395edc73	0.00021253694
108	0x379765cf	1.8048011e-05
109	0x33028533	3.0389128e-08
110	0x39672f70	0.00022047549
111	0x3774e492	1.45967515e-05
112	0x362196c6	2.4078631e-06
113	0x395c9992	0.00021038044
114	0x379e63bb	1.8881508e-05
115	0x34aa2df1	3.1698394e-07
116	0x3964209f	0.00021755927
117	0x376e89fe	1.4218034e-05
118	0x35a142de	1.2014896e-06
119	0x394d3481	0.00019569883
120	0x37a0c2ed	1.9164256e-05
121	0x3333095f	4.1685208e-08
122	0x395eb7a8	0.00021239987
123	0x3d7a39ec	0.061090395
124	0x3de79245	0.113071956
125	0x3842eb8b	4.647257e-05
126	0x3a3c2344	0.0007176886
127	0x3a0c822b	0.0005359973
128	0x3b559e47	0.0032595561
129	0x38ae0330	8.29756e-05
130	0x3b005a70	0.0019585155
131	0x3af0ae29	0.0018362451
132	0x36d04e34	6.207987e-06
133	0x3afb2dce	0.0019163431
134	0x3b42f387	0.0029747204
135	0x388ebc79	6.8061934e-05
136	0x3b02be8a	0.0019949996
137	0x3ac46219	0.0014982849
138	0x36bc689a	5.615014e-06
139	0x3af31bc9	0.0018547709
140	0x3af580ca	0.0018730399
141	0x384fb391	4.951988e-05
142	0x3b05906c	0.0020380272
143	0x3aa002b7	0.001220784
144	0x36804ea6	3.823853e-06
145	0x3aee1760	0.0018164925
146	0x3aa69351	0.0012708699
147	0x38863c00	6.400794e-05
148	0x3b090371	0.0020906592
149	0x3a70d0ec	0.0009186405
150	0x37d5b7ef	2.547723e-05
151	0x3af6ca96	0.0018828686
152	0x3a727c3a	0.00092500786
153	0x3884cea0	6.3327374e-05
154	0x3b0b666d	0.0021270767
155	0x3a11a1af	0.0005555404
156	0x374491aa	1.1716425e-05
157	0x3afc92aa	0.0019269784
158	0x3a1a9f73	0.00058983936
159	0x39d09b54	0.0003978858
160	0x3b130676	0.002243427
161	0x39795ac1	0.00023780299
162	0x35a0cc8e	1.1980462e-06
163	0x3af160e3	0.0018415715
164	0x398fe5f6	0.0002744642
165	0x39eada45	0.00044794581
166	0x3b11d34b	0.0022251185
167	0x39094b78	0.00013093452
168	0x3482feca	2.439977e-07
169	0x3aeb8bab	0.0017970701
170	0x394fb20a	0.00019807383
171	0x39c2ddec	0.00037167908
172	0x3b0a7707	0.0021128075
173	0x38d6db6b	0.00010245185
174	0x34defbf8	4.1534054e-07
175	0x3ae5eb12	0.001754137
176	0x392df3fe	0.0001658946
177	0x39be3b29	0.00036283702
178	0x3b00704c	0.0019598184
179	0x390a732f	0.00013203615
180	0x35ac98b6	1.2859443e-06
181	0x3ae3624b	0.0017348019
182	0x3917eb50	0.00014488143
183	0x3955d5de	0.00020392935
184	0x3ae97fc9	0.0017814572
185	0x390df7ec	0.00013539166
186	0x35d97d5d	1.6204245e-06
187	0x3ae024ac	0.0017100773
188	0x39307c6c	0.00016831019
189	0x3951d5a1	0.00020011376
190	0x3aebc459	0.0017987593
191	0x38bf6e24	9.128105e-05
192	0x35779b44	9.224061e-07
193	0x3adc3762	0.0016801173
194	0x38ccd5f4	9.76733e-05
195	0x37988bf8	1.818499e-05
196	0x3ad2fde5	0.0016097395
197	0x38854209	6.354234e-05
198	0x352d5f88	6.458654e-07
199	0x3adbb517	0.0016762343
200	0x38689654	5.5453114e-05
201	0x378f12fe	1.7055772e-05
202	0x3ac682e7	0.0015145213
203	0x389fa613	7.6126445e-05
204	0x352ec278	6.510304e-07
205	0x3b0538ce	0.0020328048
206	0x386c70e3	5.637192e-05
207	0x3717181a	9.005913e-06
208	0x3ac32ead	0.001489123
209	0x391ecee2	0.00015145124
210	0x35511325	7.7886426e-07
211	0x3b001ab1	0.001954716
212	0x38650dfe	5.4610886e-05
213	0x374093c3	1.1478495e-05
214	0x3abc9a88	0.0014389316
215	0x390e0fb2	0.00013548022
216	0x3577e56b	9.234852e-07
217	0x3ac8561a	0.0015284449
218	0x387a084f	5.9612383e-05
219	0x3608ee95	2.0404452e-06
220	0x3ab8be98	0.0014094887
221	0x38e20e7b	0.00010779217
222	0x35a6d2da	1.242933e-06
223	0x3ac1c160	0.0014782362
224	0x3879774c	5.947733e-05
225	0x34c5ad67	3.6820276e-07
226	0x3ab809b5	0.0014040979
227	0x3817ddbf	3.6207723e-05
228	0x35cc7ed4	1.5236096e-06
229	0x3ab51b3a	0.0013817318
230	0x386464d9	5.4453358e-05
231	0x342ffc8a	1.6390018e-07
232	0x3ab6a96a	0.0013935987
233	0x3810a721	3.4487926e-05
234	0x35a1de64	1.2060159e-06
235	0x3aac2af8	0.0013135364
236	0x38655735	5.4679072e-05
237	0x3410a3a7	1.3470581e-07
238	0x3ab51380	0.0013815016
239	0x388ba8b0	6.659457e-05
240	0x3793cb04	1.7618302e-05
241	0x3aaa2b4d	0.0012982875
242	0x3879dbc6	5.9570906e-05
243	0x361cb8a3	2.3353284e-06
244	0x3ab24641	0.001360126
245	0x388705d7	6.4383894e-05
246	0x370fe2ac	8.57624e-06
247	0x3a9e7134	0.001208818
248	0x3884ee8b	6.3386826e-05
249	0x3451a628	1.9525089e-07
250	0x3aad52f5	0.0013223576
251	0x3ec2de0a	0.38060027
252	0x3f3841cc	0.719754
253	0x398e4dd2	0.0002714233
254	0x3b903ce9	0.0044017923
255	0x3b559e47	0.0032595561

exp_avg f4 [20]
0	0x3c69c76e	0.014268739
1	0x3d17969b	0.037008863
2	0xbc07db8f	-0.008292093
3	0xbbcdec8d	-0.0062843026
4	0xbcfa6036	-0.030563455
5	0x3d0fdfac	0.03512542
6	0x3cf49592	0.029856477
7	0xbd0840d8	-0.033264965
8	0x3d1bac21	0.03800595
9	0x3cf22f69	0.029563623
10	0xbce0f6c0	-0.02746141
11	0x3d168374	0.036746457
12	0x3c8a84fb	0.016909113
13	0xbca7d482	-0.020487074
14	0xbcdef520	-0.027216494
15	0xbcde4015	-0.027130166
16	0xbcd7e2b2	-0.026353214
17	0x3d130148	0.035889894
18	0x3d4252a0	0.04744208
19	0xbcf19380	-0.029489279

exp_avg_sq f4 [20]
0	0x3a9a0e38	0.0011753505
1	0x3be9e855	0.007138292
2	0x3af8dd08	0.0018986771
3	0x3a773287	0.00094298314
4	0x3bfe0d7c	0.0077530723
5	0x3bf69d74	0.007526094
6	0x3b97541a	0.00461818
7	0x3c532d8b	0.012889276
8	0x3bf03be7	0.0073313597
9	0x3bcd3180	0.0062620044
10	0x3c133576	0.008984914
11	0x3bd8c757	0.00661556
12	0x3acaa844	0.0015461524
13	0x3b66cf80	0.0035218894
14	0x3bc09bca	0.0058779465
15	0x3c102918	0.00879886
16	0x3b97c697	0.004631828
17	0x3bdc7aa1	0.0067284857
18	0x3c3e13fd	0.011601445
19	0x3c450d20	0.012027055

exp_avg f4 [1, 20]
0	0x3e52528b	0.205393
1	0x3e03de3e	0.12877747
2	0xbbba8007	-0.0056915316
3	0xbc884fd2	-0.016639624
4	0x3d315385	0.04329254
5	0x3e28c8e4	0.16482884
6	0x3e21fe38	0.15819633
7	0x3d690391	0.056888167
8	0x3e1bff54	0.15234119
9	0x3daf20cd	0.08551178
10	0x3d94aabf	0.0725913
11	0x3e1b31d6	0.1515573
12	0x3e3c7d52	0.18407181
13	0x3d5358d4	0.051598385
14	0x3d59c1ee	0.05316346
15	0x3dac6c0d	0.084190466
16	0x3d6b049d	0.057377446
17	0x3e21a376	0.15785012
18	0x3e3ca4e6	0.18422279
19	0x3d85044d	0.06494961

exp_avg_sq f4 [1, 20]
0	0x3e866389	0.26247814
1	0x3dc8d33c	0.09805915
2	0x3d311b94	0.04323919
3	0x3c915353	0.017739927
4	0x3c4d7ceb	0.01254199
5	0x3e2e602b	0.17028873
6	0x3e211a92	0.15732792
7	0x3ccee66e	0.025256362
8	0x3e2a72dc	0.16645378
9	0x3dc6858c	0.09693441
10	0x3cd65584	0.026163824
11	0x3ddcd3fd	0.10782621
12	0x3e3e77eb	0.18600433
13	0x3c784f50	0.015155628
14	0x3c98cd0d	0.018652463
15	0x3d05d171	0.032670442
16	0x3c520f80	0.012821078
17	0x3e55f501	0.20894243
18	0x3e1f5419	0.15559424
19	0x3d0112a4	0.031511918
