config/ppo/results/RayShoot0610_다중/Shooting/Shooting-350984.onnx (onnx, 14750 bytes, 9 tensors)

action_model._discrete_distribution.branches.0.bias f4 [4]
0	0x3d41cc1f	0.047313806
1	0xbccb7af4	-0.024838902
2	0xb9e56ae1	-0.00043757915
3	0x3ccc8114	0.024963893

action_model._discrete_distribution.branches.0.weight f4 [4, 20]
0	0x3d91e0ca	0.07122953
1	0xbc8b8513	-0.017031228
2	0x3d454d88	0.048169643
3	0xbd925dde	-0.0714681
4	0x3dc02c14	0.09383407
5	0x3db43b0e	0.08800326
6	0x3c83dae1	0.01609558
7	0x3df9472e	0.121717796
8	0x3dab0c5c	0.08351967
9	0xbd32e57e	-0.043675892
10	0x3c769422	0.015049966
11	0x3e03cafe	0.12870404
12	0x3bbcefc9	0.0057658893
13	0xbd8cd236	-0.06876032
14	0x3c0df3fe	0.008664129
15	0xbb8a2a51	-0.0042164703
16	0x3d48428c	0.04889159
17	0xbcb03a5c	-0.021512203
18	0x3bc97df0	0.006149046
19	0x3d9e5153	0.07730355
20	0x3d218cb3	0.03944082
21	0x3cbf33ad	0.02334007
22	0x3d7938db	0.060845237
23	0xbda8bbcb	-0.08238944
24	0xbc744c01	-0.014910699
25	0x3a54c793	0.0008116897
26	0x3c459b20	0.01206091
27	0x3d11d09f	0.035599347
28	0xbdda8dc7	-0.10671573
29	0xbe1147ea	-0.1418759
30	0xbda5a5df	-0.08088278
31	0x39c2c8e4	0.0003715224
32	0x3db67345	0.08908705
33	0xbc7b4207	-0.015335566
34	0x3de9edb0	0.114222884
35	0x3d855fc7	0.06512409
36	0xbd27c037	-0.040954795
37	0xbd9f1f91	-0.07769693
38	0xbe0c886b	-0.13723914
39	0xbd202abb	-0.03910325
40	0x3c10ae93	0.008830684
41	0x3d321d92	0.04348523
42	0xbd50b996	-0.05095824
43	0x3dbbfbf9	0.09178919
44	0xbdc5e343	-0.09662487
45	0xbdae3a4e	-0.085072145
46	0xbc800d2d	-0.015631283
47	0xbc1d51e6	-0.009602046
48	0x3cc46a34	0.023976423
49	0x3d2e4c70	0.042553365
50	0x3d172f3d	0.036910284
51	0xbd0d3efe	-0.034483902
52	0x3ddba45a	0.10724707
53	0x3cf7b6de	0.030238565
54	0x3d85fd47	0.065424494
55	0x3c5e1c48	0.013556547
56	0xbc979a14	-0.018506087
57	0x3d889d14	0.06670585
58	0x3da3f69a	0.0800602
59	0xbc56ca0d	-0.013109696
60	0xbdb8f264	-0.09030607
61	0x3d76618c	0.06015162
62	0xbbc95b55	-0.006144921
63	0x3e0c489c	0.13699573
64	0x3cf811c6	0.030281913
65	0xbc49ce36	-0.012317231
66	0x3ceeb6cb	0.029139897
67	0xbdf4e841	-0.119583614
68	0x3bfdbfb1	0.0077437987
69	0x3db34ea3	0.08755233
70	0x3d98070d	0.0742322
71	0xbd379682	-0.04482127
72	0xbdd3cc3d	-0.1034169
73	0x3ce461d1	0.027878674
74	0xbdefc3a8	-0.1170724
75	0xbd844767	-0.064589314
76	0xbb6afe67	-0.0035857202
77	0x3da5fa02	0.08104326
78	0x3db00932	0.08595504
79	0x3ce991f1	0.028511973

action_model._discrete_distribution.branches.1.bias f4 [3]
0	0xbd1651c5	-0.036699075
1	0x3da14c16	0.0787584
2	0xbca27d5a	-0.019835163

action_model._discrete_distribution.branches.1.weight f4 [3, 20]
0	0x3d304c44	0.043041483
1	0xbd58baae	-0.052912407
2	0x3ced83e1	0.028993549
3	0xbc78a84f	-0.015176847
4	0x3cb60a7e	0.0222218
5	0x3cb5e9af	0.022206156
6	0x3d032ffa	0.032028176
7	0x3e02fbbe	0.12791345
8	0xbd045511	-0.03230769
9	0x3ad49168	0.0016217651
10	0xbc1344b5	-0.008988549
11	0x3d166823	0.036720406
12	0xbc76fdc7	-0.015075154
13	0x3a43513d	0.0007450765
14	0x3c1e95f9	0.009679311
15	0xbca90a6c	-0.020634852
16	0x3cf90391	0.030397208
17	0xbdba32ab	-0.090916954
18	0x3db8ac17	0.090171985
19	0xbd59ddd7	-0.05319008
20	0xbce8c81e	-0.028415736
21	0x3d098ae7	0.033579733
22	0x3cf10515	0.029421369
23	0xbcad4d2c	-0.021154962
24	0x3b1a1a8b	0.0023514356
25	0x3cc3033a	0.02380525
26	0x3d44470f	0.04791933
27	0xbd95862e	-0.07300983
28	0x3c53bbae	0.012923164
29	0xbcd0e3e5	-0.025499294
30	0x3dffe5ce	0.12495004
31	0xba39eb41	-0.00070922455
32	0x3d6c7500	0.057728767
33	0x3d7084c1	0.058720354
34	0x3d4bf344	0.049792543
35	0x3d8764cc	0.06611022
36	0x3a10a67a	0.0005517971
37	0x3dc8ca43	0.09804203
38	0x3cfe7719	0.03106265
39	0xbb13e00b	-0.002256396
40	0x3b4c3a3c	0.003116264
41	0x3d34a32f	0.044100937
42	0xbd0fd366	-0.035113715
43	0xba03df91	-0.00050305674
44	0x3beb5063	0.0071812137
45	0xbd67a20d	-0.056551028
46	0xbc85f1c5	-0.016350636
47	0xbcdb0b71	-0.026738854
48	0x3c5973ea	0.013272265
49	0xbcc5ae1c	-0.024130873
50	0x3c96627c	0.018357508
51	0xbc9e57e6	-0.019329023
52	0x3d10ff66	0.035399817
53	0xbe10bc44	-0.14134318
54	0xbdcb5220	-0.099277735
55	0x3d10ef08	0.035384208
56	0xbc1db037	-0.009624532
57	0xbc6dd218	-0.014515422
58	0xbe2b1d86	-0.16710481
59	0x3e1ac0fb	0.15112679

action_model._discrete_distribution.branches.2.bias f4 [3]
0	0x3d2471bf	0.04014754
1	0xbb907f32	-0.004409694
2	0xbceca5b7	-0.028887613

action_model._discrete_distribution.branches.2.weight f4 [3, 20]
0	0x3d818c66	0.06325607
1	0x3dece490	0.11567032
2	0xbc872273	-0.016495919
3	0xbc07f67c	-0.008298513
4	0x3d37ba11	0.04485518
5	0x3d2300ad	0.039795566
6	0x3d8d0b0a	0.06886871
7	0xbc03f7cd	-0.008054686
8	0x3e16854f	0.1469929
9	0x3cbdbe0e	0.023161914
10	0xbd5e096b	-0.0542082
11	0x3e8a1a91	0.26973394
12	0xbe961466	-0.29312438
13	0x3c821792	0.01588038
14	0xbd4f8f73	-0.050673913
15	0xbe59f96d	-0.21286555
16	0x3e30c204	0.17261511
17	0x3d05e053	0.032684635
18	0x3d9d8e7f	0.076931946
19	0xbda66764	-0.08125189
20	0x3ee8ab25	0.45443073
21	0xbe03e952	-0.12881973
22	0x3e0ad667	0.1355835
23	0x3dd68982	0.10475446
24	0xbe7f242b	-0.2491614
25	0xbed211f2	-0.41029316
26	0x3caea8a4	0.021320648
27	0x3ee1bc2f	0.44088885
28	0xbdd85afc	-0.10564229
29	0xbe15290c	-0.1456644
30	0xbe23072a	-0.15920702
31	0xbd070f0e	-0.03297334
32	0x3ed519ee	0.41621345
33	0x3c3d5e93	0.011558193
34	0x3ea23dcb	0.3168777
35	0xbe8aa2a3	-0.27077207
36	0xbecca0c9	-0.3996642
37	0x3c1ece74	0.009692777
38	0xbd1f88df	-0.03894889
39	0xbd8f457c	-0.06995675
40	0xbf18f06a	-0.5974184
41	0xb9b100d1	-0.0003376068
42	0xbdf9428e	-0.121708974
43	0xbcfd3834	-0.030910589
44	0x3e23c5d4	0.15993434
45	0x3e95c112	0.29248863
46	0xbda6eec3	-0.08151009
47	0xbf10c2af	-0.56547064
48	0x3d49e801	0.04929352
49	0x3de95c39	0.11394543
50	0x3e43aa30	0.1910789
51	0xbe9ab00f	-0.30212447
52	0xbde5d17b	-0.11221596
53	0xbd92d949	-0.0717035
54	0xbe68c9c3	-0.22733216
55	0x3ee24970	0.44196653
56	0x3e179ec2	0.14806655
57	0xbd7d691a	-0.06186781
58	0x3c7b6ae2	0.015345307
59	0x3e119823	0.14218192

discrete_action_output_shape f4 [1, 3]
0	0x40800000	4.0
1	0x40400000	3.0
2	0x40400000	3.0

network_body._body_endoder.seq_layers.0.bias f4 [20]
0	0x3e3a90b3	0.18219261
1	0x3ceed340	0.029153466
2	0x3d81f054	0.06344667
3	0x3d883e43	0.066525005
4	0x3d25cd26	0.040478848
5	0x3d913cc5	0.07091669
6	0xbd56a6c8	-0.05240515
7	0x3e0df9d7	0.13864838
8	0x3d356f9f	0.044295903
9	0x3d1124fa	0.035435654
10	0x3dae3a3e	0.085072026
11	0x3d6119ca	0.054956235
12	0x3dee8364	0.116461545
13	0x3c03b747	0.008039302
14	0x3df6568c	0.12028226
15	0x3d836c91	0.06417192
16	0x3d3ae5be	0.045629255
17	0x3d0e8f9c	0.034804925
18	0x3df24641	0.11829806
19	0x3d4c1efb	0.049834233

network_body._body_endoder.seq_layers.0.weight f4 [20, 128]
0	0x3e5f98d8	0.21835649
1	0xbd5b1162	-0.053483374
2	0xbd70e993	-0.058816504
3	0xbd53354b	-0.051564496
4	0x3ca0eb4a	0.019643445
5	0x3e3e3fe8	0.18579066
6	0x3ebf11dc	0.37318313
7	0x3c8cc50d	0.017183805
8	0x3c61b3bf	0.013775765
9	0xbe11b90b	-0.14230745
10	0xbe2793f5	-0.16365035
11	0x3d997690	0.07493317
12	0x3f0f3141	0.5593453
13	0x3e25b6c4	0.16183001
14	0xbde84bf7	-0.11342614
15	0xbea84b16	-0.32869786
16	0x3e482df5	0.19548781
17	0x3e5e033b	0.2168092
18	0x3f145014	0.5793469
19	0xbc047ec8	-0.008086868
20	0xbdebd69e	-0.11515544
21	0xbf1f177e	-0.6214522
22	0x3e3aeaa7	0.18253575
23	0x3e4ee1a7	0.20203267
24	0x3efd9e2e	0.49534744
25	0xbd5e7ebb	-0.05432008
26	0xbd7aefe3	-0.06126393
27	0xbf1d536a	-0.61455405
28	0x3b0fb369	0.0021927005
29	0x3dcba878	0.09944242
30	0x3f4135f2	0.7547294
31	0x3d5aac2d	0.053386856
32	0xbd61d356	-0.055133186
33	0xbefa40c8	-0.4887755
34	0x3be7a198	0.007068824
35	0x3e8bc982	0.27302176
36	0x3f1a7c43	0.6034586
37	0xbcaf0532	-0.021364782
38	0xbe34e874	-0.17666799
39	0xbf07be43	-0.5302469
40	0xbc1f0f31	-0.009708212
41	0x3e5ee320	0.21766329
42	0x3f07de8f	0.5307397
43	0xbd101c6a	-0.035183348
44	0xbe339366	-0.17536697
45	0xbf163b18	-0.5868392
46	0x3d129a26	0.03579154
47	0x3e93cda5	0.28867832
48	0x3eefe1dc	0.46852005
49	0xbe648707	-0.22317134
50	0xbdb849d3	-0.08998456
51	0xbedbc4fc	-0.42923725
52	0xbb81df04	-0.003963353
53	0x3e3ceee9	0.18450512
54	0x3ed7bcf6	0.42136353
55	0x3cf25147	0.029579772
56	0x3cbff803	0.02343369
57	0xbf0d4749	-0.551869
58	0x3dfdc9b3	0.12391987
59	0x3db836e7	0.08994847
60	0x3ee2f6fd	0.44329062
61	0x3dea368c	0.11436185
62	0xbd0292fe	-0.031878464
63	0xbec26155	-0.37964883
64	0xbd562b1a	-0.0522872
65	0x3e320012	0.1738284
66	0x3ee4d1f0	0.4469142
67	0x3d5c6b86	0.05381348
68	0x3ca8a1ed	0.020585025
69	0xbf05d26c	-0.52274203
70	0xbc24eb9a	-0.010065937
71	0x3e532558	0.20619714
72	0x3ee5b94c	0.44867933
73	0x3d91312d	0.07089458
74	0xbd22f430	-0.039783657
75	0xbf0c2d23	-0.54756373
76	0xbd07fa50	-0.0331977
77	0x3e9d38da	0.30707437
78	0x3eaa236e	0.33230156
79	0xbdc804db	-0.09766551
80	0xbd1ddff2	-0.03854365
81	0xbf005405	-0.50128204
82	0xbd58a505	-0.05289175
83	0x3e4dfff0	0.20117164
84	0x3ec31373	0.38100776
85	0x3e015e31	0.12633587
86	0x3cd0c0e3	0.0254826
87	0xbebf5540	-0.37369728
88	0xbe0ca69c	-0.13735431
89	0x3e77fd86	0.24217805
90	0x3ec1451f	0.37748048
91	0x3e081b7a	0.13291731
92	0x3dbdd115	0.09268395
93	0xbed72ced	-0.42026463
94	0xbdff9cfb	-0.124811135
95	0x3df26240	0.11835146
96	0x3eaddf85	0.33959594
97	0x3c872fc0	0.016502261
98	0x3dde8f45	0.1086717
99	0xbe3d0622	-0.1845937
100	0xbdf1f04f	-0.11813413
101	0x3e2b2089	0.1671163
102	0x3ec8bda4	0.39207184
103	0x3d645106	0.055741332
104	0x3eaa98af	0.33319613
105	0xbea81bbf	-0.3283367
106	0xbeb1bb72	-0.34713322
107	0x3e898080	0.2685585
108	0x3ed88474	0.42288554
109	0x3e1f8f39	0.15581979
110	0x3e493742	0.19649985
111	0xbf008a7d	-0.50211316
112	0xbde3431e	-0.11096786
113	0x3e1b8b91	0.15189959
114	0x3ed10825	0.40826526
115	0x3e39dc05	0.18150337
116	0x3e57e250	0.21082425
117	0xbe86f5fa	-0.2635954
118	0xbe1d03c9	-0.15333475
119	0x3ea8efe0	0.3299551
120	0x3ecabc29	0.3959668
121	0x3eeccfb3	0.46252212
122	0x3e5153c4	0.2044211
123	0x3983c875	0.0002513562
124	0x3b10c19a	0.0022088052
125	0xbd92daf2	-0.07170667
126	0x3db6ae98	0.0892002
127	0x3dcf8420	0.10132623
128	0x3e71772d	0.23580618
129	0xbc91038a	-0.017701883
130	0x3cab6129	0.020920353
131	0x3d873f99	0.06603927
132	0xbdd7f891	-0.10545457
133	0xbcf548f7	-0.029942019
134	0xbb8389db	-0.0040142364
135	0xbc2d9be1	-0.010596246
136	0xbe0dba3f	-0.13840578
137	0x3e721e4f	0.23644374
138	0xbc646ace	-0.01394148
139	0x3e41eb9d	0.18937536
140	0x3d4196e3	0.047263037
141	0x3d8a2c81	0.0674677
142	0x3d9c71c4	0.076388866
143	0x3e201018	0.1563114
144	0x3c68d8fd	0.01421189
145	0xbd73e0c5	-0.05954053
146	0xbe2101d5	-0.15723355
147	0x3e109400	0.14118958
148	0x3defdb52	0.11711754
149	0xbd228b4e	-0.039683633
150	0x3c3aa908	0.011392839
151	0xbcbcc253	-0.02304188
152	0xbeefcb79	-0.46834925
153	0xbdad446d	-0.08460317
154	0x3e6ccc24	0.23124748
155	0xbddf2567	-0.10895806
156	0xbe580fa4	-0.21099716
157	0xbe47f957	-0.1952871
158	0xbf019cba	-0.5062977
159	0xbe2921af	-0.16516756
160	0x3e711ebe	0.23546883
161	0xbe092b99	-0.13395537
162	0xbd8fa099	-0.070130534
163	0x3e0c3720	0.13692904
164	0xbe9b08b3	-0.30280074
165	0x3d043da0	0.032285333
166	0x3eab9c5f	0.3351774
167	0xbdc674d9	-0.09690256
168	0xbd875e07	-0.06609731
169	0x3d832ae1	0.06404663
170	0xbe342bfc	-0.17594904
171	0x3d701493	0.05861337
172	0xbcb924d9	-0.022600578
173	0xbe89f5e6	-0.26945418
174	0xb9e629f9	-0.0004390029
175	0x3d88fb42	0.066885486
176	0xbdd2c935	-0.102922834
177	0xbb9cf462	-0.004789875
178	0x3e375e4e	0.17907068
179	0xbdb1bd0e	-0.086786374
180	0xbb9c216d	-0.004764727
181	0x3cb31d1f	0.021864472
182	0xbde02780	-0.10945034
183	0xbd44549e	-0.04793226
184	0x3dbb7d11	0.09154714
185	0xbe0a3300	-0.13496017
186	0x3dacf48f	0.08445083
187	0x3dbd3e3b	0.09240385
188	0xbdfe9ed5	-0.124326386
189	0x3dd7a95c	0.105303496
190	0x3c35f4d8	0.011105739
191	0xbd9fbd8c	-0.07799825
192	0xbde844f9	-0.113412805
193	0x3dc3c066	0.095581815
194	0xbe93bfd4	-0.2885729
195	0xbbd73297	-0.00656731
196	0x3e173e14	0.14769775
197	0xbd661a6c	-0.05617754
198	0x3c818bc1	0.01581371
199	0x3cceb1d2	0.025231276
200	0xbdff0fb3	-0.12454166
201	0xbc89b3b7	-0.016809328
202	0x3e92ff3f	0.28710362
203	0xbd8a8e03	-0.06765368
204	0xbda314c0	-0.07962942
205	0xbd44e76b	-0.04807226
206	0xbe4b70b1	-0.19867207
207	0x3d838581	0.06421948
208	0x3d84293f	0.064531796
209	0x3d4f502f	0.05061358
210	0x3d17b22a	0.037035145
211	0x3bc0c77c	0.0058831554
212	0xbe351f2d	-0.17687674
213	0x3e0c6892	0.13711765
214	0x3d7675c8	0.06017092
215	0xbe569a6e	-0.20957348
216	0xbeabcd24	-0.33554947
217	0x3cd124df	0.025530277
218	0xbea7ef0b	-0.32799563
219	0xbe34c0f7	-0.17651735
220	0x3e28cc8a	0.16484275
221	0x3d8caa37	0.068684034
222	0xbe1a6a7f	-0.15079688
223	0xbc2c61dd	-0.010521379
224	0xbe459f2b	-0.19298999
225	0xbd02d96b	-0.031945627
226	0x3e418b0a	0.18900695
227	0x3e55073a	0.20803538
228	0xbe04b8de	-0.12961146
229	0x3ddc8962	0.10768391
230	0xbe5960a8	-0.21228278
231	0x3c4cc8d9	0.012499058
232	0x3d85ae76	0.065274164
233	0xbd9f4d75	-0.07778446
234	0xbe43949a	-0.19099656
235	0xbd2f3755	-0.042777378
236	0xbe8b6469	-0.27225044
237	0xbe351e7a	-0.17687407
238	0x3dd472bb	0.103734456
239	0xbd70c7f6	-0.058784448
240	0xbcdf6d9e	-0.02727395
241	0x3e2d127b	0.16901581
242	0xbd974ab6	-0.07387297
243	0x3d9b234f	0.07575094
244	0x3e02f63b	0.12789242
245	0x3e0eaad5	0.13932355
246	0xbdce0c91	-0.100609906
247	0x3dc04b71	0.09389389
248	0xbe4155cc	-0.18880385
249	0x3cb8fceb	0.022581538
250	0x3cfd9bb1	0.030958029
251	0xbcca464b	-0.024691721
252	0xbc68457e	-0.0141767245
253	0x3dd7ac96	0.10530965
254	0xbe6a4746	-0.22878751
255	0x3e291194	0.16510612
