config/ppo/results/RayShoot0607/Shooting/checkpoint.pt (torch, 77975 bytes, 28 tensors)

discrete_act_size_vector f4 [1, 2]
0	0x40400000	3.0
1	0x40400000	3.0

network_body._body_endoder.seq_layers.0.weight f4 [20, 130]
0	0x3e611cfc	0.21983713
1	0xbe1de492	-0.15419224
2	0xbd5dd3dd	-0.054157127
3	0x3e728de2	0.23686936
4	0xbd6b8322	-0.057498105
5	0xbdb67eb5	-0.08910886
6	0x3dbdd9a8	0.0927003
7	0xbdea5c23	-0.11443355
8	0x3d073fa5	0.03301968
9	0x3e8c3115	0.27381197
10	0xbdb6268c	-0.08894071
11	0xbdc616a9	-0.09672291
12	0xbbee2a48	-0.007268224
13	0x3d5eff5b	0.054442745
14	0xbc787304	-0.015164141
15	0x3ebecef6	0.37267274
16	0xbda8d7ac	-0.08244261
17	0xbc8f8aaf	-0.017522184
18	0xbe394093	-0.1809104
19	0xbaddde4d	-0.0016927213
20	0xbc9abf9d	-0.018890196
21	0x3e9db243	0.30800065
22	0xbe2a3d7d	-0.16625018
23	0xbd472b7d	-0.048625458
24	0xbe15efc6	-0.14642248
25	0x3e215d82	0.15758327
26	0x3d4fdba7	0.050746586
27	0x3ec14dc3	0.3775464
28	0x3d192bbc	0.037395224
29	0xbdaf79ab	-0.08568128
30	0xbe5f2d70	-0.21794677
31	0x3de03c1a	0.109489635
32	0x3d78ca13	0.060739588
33	0x3ed7ee2c	0.42173898
34	0xbe28481c	-0.16433758
35	0xbe6e5dcb	-0.23277967
36	0xbe9c6d6a	-0.30552226
37	0x3dbc0cf7	0.0918216
38	0xbb7325e2	-0.0037101437
39	0x3e431861	0.19052269
40	0xbdbf923b	-0.09354063
41	0x3e0e848c	0.1391775
42	0xbe857357	-0.2606456
43	0xbda6e6f0	-0.081495166
44	0xbdffc450	-0.124886155
45	0x3dc47cf5	0.09594146
46	0xbe05d4e0	-0.13069487
47	0xbe58415c	-0.21118683
48	0xbe5136a5	-0.20431001
49	0xbd102f41	-0.035201315
50	0xbe4db170	-0.20087218
51	0x3e887b54	0.26656592
52	0xbd3bd4eb	-0.04585735
53	0x3d7b7529	0.06139103
54	0xbea2a8b4	-0.31769335
55	0xbd8b5524	-0.06803349
56	0x3c5959d6	0.013266047
57	0x3e7d0427	0.24708615
58	0x3d88d4e6	0.06681232
59	0xbd38bb42	-0.045100458
60	0xbe46f00e	-0.19427511
61	0xbd7be43a	-0.06149695
62	0xbc71376d	-0.014722687
63	0x3e0ae780	0.13564873
64	0xbe24a9ef	-0.1608045
65	0x3d21015a	0.03930793
66	0xbe11905b	-0.14215223
67	0xbe0d80b0	-0.13818622
68	0x3d45c2b4	0.048281386
69	0x3e02370b	0.1271631
70	0xbe3c1b37	-0.18369757
71	0xbcca8307	-0.024720682
72	0xbd32899b	-0.043588262
73	0x3c4a1eda	0.012336457
74	0xbdd372a0	-0.10324597
75	0x3e09bc6c	0.13450783
76	0xbdf5464a	-0.11976297
77	0xbd903b11	-0.07042516
78	0x3d1c47b5	0.038154323
79	0x3ce87f8f	0.028381137
80	0x3d9153b5	0.07096044
81	0x3e90ec91	0.28305486
82	0xbe71a9f4	-0.23599988
83	0xbdd6822f	-0.10474049
84	0xbe1f09e4	-0.15531117
85	0x3dcdb94d	0.10045109
86	0x3c896cac	0.016775452
87	0x3e083e38	0.13304985
88	0xbe3dcd03	-0.18535237
89	0xbd0e2319	-0.03470144
90	0xbd68ea45	-0.05686404
91	0xbdc283e4	-0.094978124
92	0xbc6a67c2	-0.014306964
93	0x3d364f48	0.044509202
94	0xbe35a2f5	-0.17737944
95	0xbdb4e178	-0.08832067
96	0xbe5c9518	-0.2154125
97	0xbe13a7e2	-0.14419511
98	0x3cc2fdd7	0.02380268
99	0x3d478c0f	0.048717555
100	0xbd3b784d	-0.045769025
101	0xbc9aa37c	-0.018876784
102	0xbc83b8f9	-0.016079413
103	0xbe5b28e0	-0.21402311
104	0xbd84bf68	-0.0648182
105	0x3d24df9b	0.04025231
106	0xbb867cc3	-0.004104228
107	0x3bc21c4b	0.005923783
108	0xbe8c2c93	-0.27377757
109	0xbd5bf320	-0.05369866
110	0x3cf62c55	0.030050436
111	0x3d78e6f1	0.060767118
112	0x3d8a114a	0.06741579
113	0x3e066cc0	0.13127422
114	0xbe0876b2	-0.13326529
115	0xbdbb11d8	-0.09134263
116	0xbe74f7b7	-0.2392262
117	0x3dd5421b	0.10412999
118	0x3d39ada5	0.045331616
119	0x3d8d6169	0.06903345
120	0xbdf67815	-0.120346226
121	0xbdd78e40	-0.10525179
122	0x3d1a30a9	0.037644062
123	0x3df9da3c	0.12199828
124	0xbcaef727	-0.021358086
125	0x3c532f39	0.012889677
126	0x3bdffc0e	0.006835467
127	0xbce1455b	-0.027498892
128	0x3dc4356e	0.095805034
129	0x3e8e7cb4	0.27829516
130	0x3f000562	0.50008214
131	0xbe0ca92c	-0.13736409
132	0x3e09fed9	0.13476123
133	0x3eed8cfd	0.46396628
134	0xbe15418f	-0.1457579
135	0x3dba411b	0.09094449
136	0x3ebe6d3f	0.37192723
137	0xbd5093f1	-0.050922338
138	0x3d5ae05c	0.053436622
139	0x3ef96d70	0.48716307
140	0xbd648d38	-0.05579874
141	0x3e34de26	0.17662868
142	0xbe301616	-0.17195925
143	0x3c44ab74	0.012003768
144	0x3e5a5660	0.21322012
145	0x3cb6ff14	0.022338428
146	0x3de93bf0	0.11388385
147	0xbc82a382	-0.015947107
148	0xbee0cc92	-0.43906075
149	0x3e6c23f5	0.23060592
150	0x3eadcce0	0.3394537
151	0x3e0dca36	0.13846669
152	0x3d8583bf	0.06519269
153	0xbd21ac7f	-0.039471146
154	0xbee6a073	-0.45044288
155	0x3e0d1844	0.13778788
156	0x3e0a7029	0.13519348
157	0xbd9ed105	-0.07754711
158	0x3e0cf448	0.13765061
159	0x3e00e98d	0.12589093
160	0xbecd726a	-0.40126354
161	0x3da73d51	0.08165992
162	0x3db16fce	0.08663903
163	0xbd89207f	-0.06695651
164	0xbc87bf94	-0.016570844
165	0x3c928acf	0.017888455
166	0xbe9cb1f1	-0.3060451
167	0xbca75886	-0.020427953
168	0x3e96881b	0.29400715
169	0x3bfde20a	0.007747893
170	0x3ce8a9bd	0.02840125
171	0x3d8b159e	0.067912325
172	0xbe0968f0	-0.13418937
173	0xbd026949	-0.03183869
174	0x3dd8cc37	0.10585826
175	0xbd5fd589	-0.054647002
176	0xbd4db6b6	-0.050223075
177	0x3ddc00fd	0.10742376
178	0xbe5e20ec	-0.21692246
179	0xbd0f0398	-0.034915537
180	0x3d9ec600	0.07752609
181	0x3e176f94	0.14788657
182	0xbdd5d535	-0.10441057
183	0x3e71f8e9	0.23630108
184	0xbe154a93	-0.14579229
185	0xbe059dd7	-0.13048492
186	0x3e36a7d8	0.17837465
187	0x3d65522f	0.05598658
188	0xbcea51de	-0.02860349
189	0x3e4f75dc	0.20259804
190	0xbe801968	-0.25019383
191	0x3e8fca26	0.28083915
192	0xbc15de97	-0.009147308
193	0xbc11987e	-0.008886455
194	0x3d90aee2	0.07064606
195	0x3e26a7d1	0.16274954
196	0xbe5aaf35	-0.21355899
197	0xbd208b61	-0.039195422
198	0x3c0169a7	0.007898725
199	0xbc77cfb4	-0.015125204
200	0x3da21368	0.07913858
201	0x3e596ff8	0.21234119
202	0xbe067526	-0.13130626
203	0x3bf9817a	0.0076143118
204	0xbe319c98	-0.17344892
205	0x3e3fcfbd	0.1873159
206	0x3e05828c	0.13038081
207	0x3e6067a6	0.21914539
208	0xbea870c1	-0.32898524
209	0x3e00fca6	0.12596378
210	0x3e327d9c	0.17430729
211	0xbd4166cf	-0.047217187
212	0x3e131814	0.14364654
213	0x3debf938	0.11522144
214	0xbe2f9e01	-0.17150117
215	0x3cb00f29	0.021491604
216	0x3db4f857	0.088364296
217	0xbc6dc628	-0.014512576
218	0x3e007db8	0.12547958
219	0xbd48e014	-0.049041823
220	0xbe9f6e33	-0.31138763
221	0xbe0e48c8	-0.13894951
222	0xbe4ec849	-0.2019359
223	0xbe10d0a8	-0.14142096
224	0x3d09cc4f	0.03364211
225	0x3c4ffafa	0.012694115
226	0xbe22eb12	-0.15909985
227	0xbd6c1fc7	-0.057647493
228	0xbd3c5f39	-0.04598925
229	0xbbd05d61	-0.006358788
230	0x3dbd836a	0.09253581
231	0x3e918dfa	0.28428632
232	0xbe822d8e	-0.2542538
233	0x3e050161	0.12988807
234	0xba1d65ae	-0.0006004226
235	0x3d732cd8	0.05936894
236	0x3e931ae5	0.28731456
237	0x3e3c7dfb	0.18407433
238	0xbdcb6a02	-0.09932329
239	0xbdabf401	-0.083961494
240	0xbe112507	-0.14174281
241	0x3da7aa51	0.08186782
242	0xbd1be86a	-0.038063444
243	0xbc176ed6	-0.009242734
244	0xbe835f9a	-0.25658876
245	0x3ce1e716	0.02757601
246	0x3d06c498	0.03290233
247	0x3e025fa1	0.12731792
248	0xbd4a7bd8	-0.049434513
249	0x3ddc2535	0.10749284
250	0xbe0bd84e	-0.13656732
251	0xbda99f3f	-0.08282327
252	0xbda735cd	-0.081645586
253	0xbd816d28	-0.06319648
254	0x3d673233	0.056444358
255	0xbe8e22c2	-0.27760893

network_body._body_endoder.seq_layers.0.bias f4 [20]
0	0xbcd28331	-0.025697323
1	0x3d25f28d	0.040514518
2	0x3d248a42	0.040170915
3	0x3ce25a29	0.027630882
4	0x3e0a9134	0.13531953
5	0x3d97aa4e	0.0740553
6	0x3df2ca7f	0.11855029
7	0x3c9fbe0f	0.019499807
8	0xbcbe0a78	-0.023198351
9	0x3dbba19c	0.09161684
10	0x3d1c644d	0.03818159
11	0x3ddde552	0.10834755
12	0x3da758a1	0.081712015
13	0x3d93f013	0.07223525
14	0x3d39c192	0.04535062
15	0x3e13c838	0.14431846
16	0x3d93c42b	0.072151504
17	0x3d3a005e	0.045410506
18	0x3dadd66b	0.084881626
19	0x3da29136	0.07937853

action_model._discrete_distribution.branches.0.weight f4 [3, 20]
0	0xbd8aab1c	-0.06770918
1	0x3dbef0f5	0.09323303
2	0x3d59335f	0.053027507
3	0xbd5fdf77	-0.054656472
4	0xbbf53fa8	-0.007484395
5	0xbc23cc98	-0.009997509
6	0x3b3c4830	0.002872955
7	0x3db3faab	0.087880455
8	0x3d9cb6c9	0.07652051
9	0xbd5c271f	-0.053748246
10	0x3d24432b	0.04010312
11	0x3b674acb	0.0035292383
12	0xbd8c2a28	-0.06843978
13	0x3d6d7beb	0.057979506
14	0x3db425ca	0.0879627
15	0xbe2ea74a	-0.17056003
16	0xbaa9ee36	-0.0012964669
17	0x3d953283	0.07285025
18	0x3c8870bc	0.016655318
19	0xbd60cd5e	-0.054883353
20	0xbacada51	-0.001547644
21	0x3c0bbc02	0.008528711
22	0xbdb1b817	-0.086776905
23	0xbdcc120e	-0.09964381
24	0x3e082e18	0.13298833
25	0xbd8a57d1	-0.06755031
26	0x3e169a7b	0.14707367
27	0xbc2b0826	-0.010438954
28	0x3c7a60cf	0.01528187
29	0xbab54f6a	-0.0013832871
30	0xbd87518d	-0.066073515
31	0xbd1473c4	-0.036243215
32	0xbca5d731	-0.020244213
33	0x3d9541fd	0.07287977
34	0x3d31c79f	0.043403264
35	0x3dfac32e	0.12244259
36	0xbe43f607	-0.1913682
37	0x3e01c027	0.12670957
38	0x3bf8adc7	0.0075890752
39	0xbc9ea5eb	-0.019366225
40	0x3d976cfd	0.07393835
41	0xbddb727f	-0.10715198
42	0x3cf13266	0.029442977
43	0x3e04c5e4	0.12966114
44	0xbdf94fce	-0.12173425
45	0x3dba016c	0.090823025
46	0xbe191033	-0.14947586
47	0xbcfa26e4	-0.030536123
48	0xbd09bfdb	-0.033630233
49	0x3d49d49b	0.049275022
50	0xbcd26dc5	-0.025687108
51	0x3dd08155	0.10180918
52	0x3d992b81	0.07479001
53	0xbdd70299	-0.10498542
54	0xbde1b25b	-0.11020347
55	0x3d642b9c	0.05570565
56	0x3e22df0e	0.15905401
57	0xbdd0944c	-0.101845354
58	0xbc645df4	-0.013938416
59	0x3daf7042	0.08566333

action_model._discrete_distribution.branches.0.bias f4 [3]
0	0xbd3b6426	-0.045749806
1	0x3cb6a573	0.02229569
2	0x3cf485f8	0.029849038

action_model._discrete_distribution.branches.1.weight f4 [3, 20]
0	0x3ded03a7	0.11572962
1	0x3e37d17d	0.17951007
2	0x3e756b50	0.23966718
3	0x3e225760	0.15853643
4	0xbe8152ac	-0.25258386
5	0xb93edf65	-0.00018203033
6	0xbd0a0cdd	-0.033703674
7	0x3e78dc1d	0.24302717
8	0x3e327f66	0.17431411
9	0xbd3c59a8	-0.04598394
10	0x3d859fe3	0.065246366
11	0x3d45bfd2	0.048278637
12	0x3c191e8d	0.009345663
13	0x3c1a6861	0.0094243
14	0x3d2b4f2c	0.04182355
15	0xbedae1e6	-0.42750472
16	0x3e4140fc	0.18872446
17	0xbbbf5fff	-0.005840301
18	0xbe5332a6	-0.2062479
19	0xbdf96b4d	-0.12178669
20	0xbe0d9706	-0.13827142
21	0xbe9c394f	-0.30512473
22	0xbd31f4d9	-0.043446396
23	0xbda9ef11	-0.082975514
24	0x3e8899b2	0.2667976
25	0xbe5b7f5e	-0.21435305
26	0x3e46fe77	0.19433008
27	0xbe74fd2f	-0.23924707
28	0xbe172bf3	-0.14762859
29	0x3e336849	0.1752025
30	0xbe79f2f4	-0.24409086
31	0x3e3f8b21	0.18705417
32	0x3e3f8af7	0.18705355
33	0x3e5d3356	0.21601614
34	0xbe8464cb	-0.2585815
35	0x3e39a392	0.18128803
36	0x3c64e810	0.013971344
37	0xbe1acace	-0.15116426
38	0xbdb33a76	-0.08751385
39	0xbe3ec6cd	-0.18630524
40	0xbc29bbce	-0.0103597175
41	0x3cc6a7df	0.024249969
42	0xbe959ef6	-0.2922284
43	0xbdd9c45e	-0.10633157
44	0x3bbd7e6c	0.005782893
45	0x3e2a02c6	0.1660262
46	0xbe1139e1	-0.14182235
47	0xbd3e3119	-0.046433542
48	0xbd8d91ee	-0.069125995
49	0xbe1623e8	-0.14662135
50	0x3db23f59	0.08703489
51	0xbeaf8ba1	-0.34286216
52	0xbe22f37e	-0.15913197
53	0xbe841f5f	-0.25805184
54	0x3e29c07d	0.16577335
55	0x3e8fa45c	0.28055084
56	0xbe6ba4ff	-0.2301216
57	0x3dce6f97	0.10079878
58	0x3ea6c6f3	0.3257366
59	0x3ea6a4db	0.3254765

action_model._discrete_distribution.branches.1.bias f4 [3]
0	0xbcf1c7d5	-0.029514233
1	0x3ccef29d	0.025262171
2	0x3c1456fd	0.009053943

exp_avg f4 [20, 130]
0	0x38b7e13f	8.768075e-05
1	0x3539ac72	6.916881e-07
2	0xb85cd274	-5.2648087e-05
3	0x38558406	5.0906114e-05
4	0xb801d19c	-3.095121e-05
5	0xb8058a48	-3.1838455e-05
6	0x37c68149	2.3663642e-05
7	0x3539ac72	6.916881e-07
8	0xb81bc071	-3.7134105e-05
9	0x3894c42e	7.093731e-05
10	0x3539ac6c	6.916878e-07
11	0xb80541fa	-3.1771116e-05
12	0x39f5e1bc	0.00046898227
13	0x3713e1e9	8.814482e-06
14	0xb96b2314	-0.00022424414
15	0x389f19c3	7.586509e-05
16	0x3428fc4a	1.5738001e-07
17	0xb82c96dc	-4.1148494e-05
18	0x38d01774	9.9225814e-05
19	0x2a234a65	1.4503119e-13
20	0xb903072b	-0.00012495804
21	0xb95203ee	-0.00020028625
22	0x3406d997	1.2558881e-07
23	0x35f54e23	1.8276663e-06
24	0xb8a2282b	-7.732244e-05
25	0x2a01c681	1.1526371e-13
26	0xb8aa1489	-8.110057e-05
27	0x391b7630	0.0001482598
28	0x34bf34db	3.561498e-07
29	0xb949ff01	-0.0001926385
30	0xb8d7ca7f	-0.00010289717
31	0xb7a0fc2e	-1.9190917e-05
32	0xb89b1457	-7.3947645e-05
33	0xb970add5	-0.00022952941
34	0x2a15a4bd	1.3291014e-13
35	0xb8b39d84	-8.564725e-05
36	0xb8def00c	-0.00010630497
37	0xb7057213	-7.953978e-06
38	0xb88cae98	-6.708241e-05
39	0xb9869570	-0.0002566981
40	0x2a1142f0	1.2901811e-13
41	0xb888adf5	-6.5173874e-05
42	0xb923ab42	-0.0001560869
43	0x37acde23	2.0607438e-05
44	0xb7dabcd3	-2.6075553e-05
45	0xb965adb9	-0.00021903859
46	0x2945ea71	4.3946133e-14
47	0xb870f14b	-5.744518e-05
48	0xb93941b7	-0.00017667456
49	0x36d2ac77	6.2785653e-06
50	0x34f02e71	4.4737274e-07
51	0xb9643716	-0.00021764296
52	0x298dfaf3	6.3051906e-14
53	0xb7e57df4	-2.7357579e-05
54	0xb9258f86	-0.00015789093
55	0x3742df9a	1.1615362e-05
56	0xb6228c9f	-2.4221733e-06
57	0xb9387b81	-0.00017593616
58	0xa7c3bfb5	-5.433122e-15
59	0xb81ea576	-3.7824233e-05
60	0xb9249019	-0.0001569394
61	0x35bef841	1.4228355e-06
62	0x37c5aebe	2.35656e-05
63	0xb9570ada	-0.0002050804
64	0x25805d13	2.226753e-16
65	0xb7a6ac65	-1.986902e-05
66	0xb902d1c7	-0.00012475914
67	0x35bef841	1.4228355e-06
68	0x37b18e27	2.116624e-05
69	0xb95c8ca1	-0.00021033223
70	0x280f5564	7.956611e-15
71	0xb70dbaa6	-8.447712e-06
72	0xb8ebd039	-0.00011244458
73	0xb60ecdba	-2.1279398e-06
74	0x37aedc7d	2.084509e-05
75	0xb921a591	-0.00015415835
76	0x359f5b06	1.1872914e-06
77	0xb80c04a8	-3.3382938e-05
78	0xb8efebd6	-0.00011440336
79	0xb6ababc1	-5.116192e-06
80	0x381bac4c	3.7115344e-05
81	0xb924dbb9	-0.00015722112
82	0x359f5b06	1.1872914e-06
83	0xb7eb39fd	-2.8041186e-05
84	0xb8a7e463	-8.005721e-05
85	0xb815ff90	-3.576238e-05
86	0x37842e28	1.575712e-05
87	0xb9180be4	-0.00014500279
88	0x359e2971	1.1783978e-06
89	0xb7b88ac8	-2.1999134e-05
90	0xb8a85d24	-8.028213e-05
91	0xb817a184	-3.615163e-05
92	0x37f2195b	2.8860455e-05
93	0xb90c8454	-0.00013400736
94	0x28a9b316	1.8840435e-14
95	0xb7d547d9	-2.5425035e-05
96	0xb90c63a8	-0.00013388565
97	0xb8130ec6	-3.506129e-05
98	0x3893a7de	7.040774e-05
99	0xb914ecf9	-0.00014202659
100	0x28ab7709	1.9036437e-14
101	0xb7c6937b	-2.3672115e-05
102	0xb9012ab4	-0.00012318307
103	0xb81478fa	-3.5398618e-05
104	0x38b26905	8.507263e-05
105	0xb908fb50	-0.00013063592
106	0xa6d529e3	-1.4791197e-15
107	0xb8a6af60	-7.948163e-05
108	0xb8eaa4b5	-0.000111886686
109	0x3795e74f	1.7869896e-05
110	0x38eb3f7d	0.00011217499
111	0xb950af36	-0.00019901697
112	0xa8e3b0c5	-2.5278724e-14
113	0xb906fea7	-0.00012874101
114	0xb8e8c30a	-0.00011098951
115	0xb815ff73	-3.5762274e-05
116	0x39119d49	0.00013886871
117	0xb953e85c	-0.00020209089
118	0xa888463f	-1.5129498e-14
119	0xb963bcc5	-0.00021718729
120	0xb8bf2921	-9.1152506e-05
121	0xb8071af2	-3.2211603e-05
122	0x3922d36a	0.00015528282
123	0x3a5fd5f4	0.00085386564
124	0xba40deab	-0.0007357399
125	0xb970bddf	-0.00022958916
126	0xb96e1a47	-0.00022707238
127	0x3b05408d	0.0020332665
128	0xbb948ba0	-0.004533246
129	0xbc1cf02f	-0.009578749
130	0x3aa8796b	0.0012853568
131	0xb594d320	-1.1088305e-06
132	0x3aa43bc4	0.0012530019
133	0x3a78b6c5	0.0009487684
134	0x385df1d8	5.291574e-05
135	0x3aac6610	0.0013152976
136	0x3a8d77a3	0.0010793101
137	0xb594d320	-1.1088305e-06
138	0x3ab1c0ec	0.0013561524
139	0x3a7402e4	0.0009308292
140	0xb594d31e	-1.1088302e-06
141	0x3aadd094	0.0013261014
142	0x3a14bea4	0.00056741596
143	0xb7516d4c	-1.2482818e-05
144	0x3acad7d3	0.0015475698
145	0x3a1b2597	0.0005918382
146	0x361996ae	2.2886484e-06
147	0x3ac42249	0.0014963831
148	0x3a7bb5d8	0.0009601987
149	0xab56e59e	-7.634673e-13
150	0x3abfc1fa	0.0014629953
151	0x39e44ae2	0.0004354334
152	0xb80e9d3b	-3.400187e-05
153	0x3ad0d8a6	0.0015933707
154	0x3a1e9f3f	0.0006050951
155	0xabaa6035	-1.2105929e-12
156	0x3ad1d643	0.001600929
157	0xb9909447	-0.00027576296
158	0xb7add405	-2.0721936e-05
159	0x3b032b6e	0.00200149
160	0x3990831e	0.0002756351
161	0xb65305b2	-3.1444765e-06
162	0x3ada0f1a	0.0016636581
163	0xb8b92f81	-8.830336e-05
164	0x2aaecc6d	3.1050458e-13
165	0x3afd927a	0.0019346022
166	0x3845a221	4.7119454e-05
167	0x373849ec	1.0984466e-05
168	0x3adaa24d	0.001668045
169	0xb83b09c5	-4.4593373e-05
170	0x2a9d0f41	2.7899387e-13
171	0x3aef3398	0.0018249629
172	0x38898373	6.5571534e-05
173	0xb77262df	-1.4447344e-05
174	0x3ad41d04	0.0016182964
175	0xb857b53a	-5.1428775e-05
176	0x2a848720	2.3541672e-13
177	0x3af32ce9	0.0018552813
178	0xb93554d6	-0.00017293109
179	0x39851f83	0.00025391215
180	0x3ae45516	0.0017420377
181	0xb8e3d481	-0.000108637854
182	0x2ab42a35	3.200371e-13
183	0x3af2ae5f	0.0018515101
184	0xb9d05684	-0.0003973731
185	0x368a4851	4.121139e-06
186	0x3aefd9a7	0.0018299118
187	0xb9a72dd9	-0.0003188688
188	0x2a8d9ffd	2.5157646e-13
189	0x3aee429e	0.0018177812
190	0xb9f24677	-0.00046210337
191	0x36908948	4.307516e-06
192	0x3af372ed	0.0018573679
193	0xb99c73c2	-0.00029840885
194	0xa9c5db17	-8.7865635e-14
195	0x3ae3eed1	0.0017389898
196	0xba0b7f8c	-0.0005321435
197	0x36908948	4.307516e-06
198	0x3af4556f	0.0018641184
199	0xb87fbece	-6.097444e-05
200	0xaa5a17dc	-1.9370567e-13
201	0x3ac76687	0.0015213051
202	0xb9863ebc	-0.00025605212
203	0x36d48eb4	6.334705e-06
204	0x3add2bde	0.0016874035
205	0xb7aa0735	-2.0268935e-05
206	0x377fbc2f	1.5242999e-05
207	0x3ab85ab2	0.0014065115
208	0xb9a372e1	-0.00031175374
209	0x36091b55	2.04305e-06
210	0x3adb56b3	0.0016734212
211	0x360f2826	2.133203e-06
212	0x377fbc31	1.5243001e-05
213	0x3ab31260	0.0013662092
214	0xb8ca5e0f	-9.6496304e-05
215	0x36e26060	6.7465444e-06
216	0x3ac53604	0.0015046005
217	0x364d0632	3.0550987e-06
218	0x36fc5587	7.520142e-06
219	0x3aba3e21	0.001420919
220	0xb8dc2211	-0.00010496763
221	0x36ce8ca6	6.155652e-06
222	0x3ac3bcdf	0.0014933607
223	0x371327b6	8.771129e-06
224	0x285e9219	1.23551555e-14
225	0x3ac1a586	0.0014774061
226	0xb8c6a58b	-9.4722105e-05
227	0xb8bfd48d	-9.1471804e-05
228	0x3ab8486c	0.0014059669
229	0x374aa0bc	1.2077562e-05
230	0x285fc643	1.2421978e-14
231	0x3abae61d	0.0014259253
232	0xb8e81181	-0.000110658824
233	0xb72fd3a7	-1.0480092e-05
234	0x3abacf28	0.0014252411
235	0x37cabdb1	2.4168608e-05
236	0xa983f7df	-5.8605674e-14
237	0x3ac14fb1	0.0014748481
238	0xb88c0215	-6.676108e-05
239	0x35ac7178	1.2848022e-06
240	0x3abdf242	0.0014491754
241	0x38222e5c	3.8666985e-05
242	0xaa689aec	-2.0659489e-13
243	0x3ab992e7	0.001415816
244	0x37bc8f4a	2.247807e-05
245	0x36e26631	6.7472215e-06
246	0x3ab99c0a	0.0014160883
247	0x37b3993c	2.1409818e-05
248	0xa999f180	-6.8364585e-14
249	0x3ac9535a	0.0015359924
250	0x3829d3bd	4.0489937e-05
251	0x369e5afc	4.719359e-06
252	0x3ab4221f	0.0013743079
253	0xb9eca20d	-0.00045134165
254	0x3a655790	0.00087487046
255	0x3b139eea	0.002252514

exp_avg_sq f4 [20, 130]
0	0x372438d3	9.788392e-06
1	0x34893e66	2.556364e-07
2	0x3668fc81	3.471767e-06
3	0x3730abc2	1.0530408e-05
4	0x3437a2d9	1.7102447e-07
5	0x3651e610	3.127734e-06
6	0x36f0a7dc	7.172099e-06
7	0x35b93dd4	1.3801568e-06
8	0x369c2e48	4.65455e-06
9	0x372ecf14	1.0419422e-05
10	0x343a3439	1.7341598e-07
11	0x364b0c43	3.0256494e-06
12	0x36b4a548	5.3836593e-06
13	0x35dcea35	1.645944e-06
14	0x36bc3656	5.609162e-06
15	0x37212364	9.604588e-06
16	0x352defe7	6.4796626e-07
17	0x3662898d	3.375669e-06
18	0x36230c24	2.429596e-06
19	0x36103782	2.1489982e-06
20	0x36ef2c2b	7.127897e-06
21	0x36d23fee	6.26593e-06
22	0x358e0b65	1.0583141e-06
23	0x36a117ea	4.800958e-06
24	0x3591b2ab	1.0855341e-06
25	0x361be16c	2.3228013e-06
26	0x3701fb72	7.747543e-06
27	0x368fd469	4.28646e-06
28	0x35971558	1.1256589e-06
29	0x36bc171c	5.605527e-06
30	0x3517186c	5.628742e-07
31	0x3628f32e	2.51755e-06
32	0x37062ca0	7.9974125e-06
33	0x364e0963	3.0701856e-06
34	0x35976eb2	1.1282593e-06
35	0x36c92fda	5.9958375e-06
36	0x34f56302	4.5706844e-07
37	0x36206e53	2.3906075e-06
38	0x37066dcf	8.012589e-06
39	0x36213202	2.4019978e-06
40	0x35a724e7	1.245321e-06
41	0x36d003ad	6.199311e-06
42	0x34c7b68e	3.7199464e-07
43	0x3601896b	1.9302486e-06
44	0x37056a14	7.952116e-06
45	0x360fd72a	2.1433902e-06
46	0x357637e7	9.172349e-07
47	0x36d50be9	6.349281e-06
48	0x34ac759c	3.212307e-07
49	0x36045838	1.9720883e-06
50	0x3704ad39	7.908145e-06
51	0x35e8fb45	1.7358476e-06
52	0x35485f9a	7.4644925e-07
53	0x36d15312	6.238356e-06
54	0x34932fd2	2.7415678e-07
55	0x360d34d1	2.104138e-06
56	0x370453ae	7.887296e-06
57	0x35b86df6	1.3741071e-06
58	0x3582f016	9.755629e-07
59	0x36d64884	6.386139e-06
60	0x348689ee	2.5059802e-07
61	0x3609169c	2.0427751e-06
62	0x37027aac	7.777166e-06
63	0x35a0e6f2	1.1988143e-06
64	0x359a042d	1.1475109e-06
65	0x36d5adf9	6.3681478e-06
66	0x3438dc0e	1.7216391e-07
67	0x35e42620	1.699842e-06
68	0x36fb0c20	7.4817945e-06
69	0x3592a33c	1.0925355e-06
70	0x3589b5f6	1.0260253e-06
71	0x36d2df64	6.284494e-06
72	0x33d84b74	1.0072009e-07
73	0x35c4027d	1.4603862e-06
74	0x36f6e430	7.357936e-06
75	0x3587427a	1.0077631e-06
76	0x35809ddd	9.582687e-07
77	0x36d0b3d8	6.2198196e-06
78	0x33a788eb	7.801449e-08
79	0x35bf894a	1.4270565e-06
80	0x36f4d058	7.296021e-06
81	0x3515a93a	5.575308e-07
82	0x35731aa9	9.056335e-07
83	0x36d07113	6.2120466e-06
84	0x337c6c75	5.8771963e-08
85	0x35c8dbc9	1.4965127e-06
86	0x36f1c99a	7.205829e-06
87	0x350c4bdd	5.226446e-07
88	0x3546a870	7.4005857e-07
89	0x36cdc513	6.1324185e-06
90	0x335d03c6	5.1459004e-08
91	0x35b9b47b	1.3836101e-06
92	0x36ee3f3f	7.1003155e-06
93	0x35031578	4.8832544e-07
94	0x35399899	6.913993e-07
95	0x36ca8778	6.0358398e-06
96	0x3300bdec	2.9975055e-08
97	0x35982c4a	1.1337772e-06
98	0x36eb7c6b	7.01803e-06
99	0x34eab2c1	4.3715957e-07
100	0x35139548	5.4979e-07
101	0x36c77956	5.9447875e-06
102	0x32f2b4c6	2.8254714e-08
103	0x35830ffc	9.764913e-07
104	0x36e738c6	6.8909458e-06
105	0x34c6a137	3.6997673e-07
106	0x34dabaaa	4.074148e-07
107	0x36c23039	5.7872644e-06
108	0x32fb23ba	2.9236492e-08
109	0x35800c7d	9.540378e-07
110	0x36e4638e	6.806519e-06
111	0x34bc9578	3.5126482e-07
112	0x34e7c044	4.3166995e-07
113	0x36bc21a8	5.6067547e-06
114	0x33073b61	3.148614e-08
115	0x3580ac2f	9.586855e-07
116	0x36e4e845	6.8219692e-06
117	0x34af3ec4	3.2641958e-07
118	0x352ba163	6.393731e-07
119	0x36b7e9c2	5.481038e-06
120	0x33176f4e	3.5258658e-08
121	0x359b4cc8	1.1570746e-06
122	0x36e3b864	6.786593e-06
123	0x392c93b8	0.00016458228
124	0x393b6b1d	0.00017873613
125	0x3660dd03	3.3507247e-06
126	0x364c38eb	3.04315e-06
127	0x39e9a2a6	0.00044562406
128	0x39f61d24	0.00046942488
129	0x3b0b642d	0.0021269426
130	0x38390d44	4.411979e-05
131	0x36a85758	5.0169583e-06
132	0x37c4c0cd	2.34548e-05
133	0x382746b2	3.9881743e-05
134	0x36bdfc74	5.6620283e-06
135	0x37d48e63	2.5338673e-05
136	0x38220ff4	3.8638667e-05
137	0x36fc994b	7.528031e-06
138	0x37d96053	2.591327e-05
139	0x381637a4	3.5814606e-05
140	0x36cbaebf	6.0702146e-06
141	0x37e2519f	2.6979307e-05
142	0x380fc7a0	3.4279772e-05
143	0x37096a28	8.190553e-06
144	0x37ea68a3	2.7943699e-05
145	0x37ece026	2.823777e-05
146	0x371235ee	8.714835e-06
147	0x37fc9d90	3.0114112e-05
148	0x37e1ec2f	2.6932072e-05
149	0x371b38bd	9.25193e-06
150	0x380437e1	3.1523294e-05
151	0x379b9b52	1.8549767e-05
152	0x372622c6	9.902467e-06
153	0x380ec382	3.403752e-05
154	0x37a1f9e4	1.930906e-05
155	0x372b42bb	1.0207931e-05
156	0x381284c0	3.4932746e-05
157	0x37559cde	1.2732313e-05
158	0x371fc5e1	9.523211e-06
159	0x38180e29	3.625281e-05
160	0x3761d1c8	1.3459889e-05
161	0x373f8d1c	1.1417342e-05
162	0x381efc37	3.790503e-05
163	0x370c6e47	8.370326e-06
164	0x3724d6c8	9.825169e-06
165	0x381ffc72	3.8143662e-05
166	0x37174ce6	9.018206e-06
167	0x3736cd8f	1.0895906e-05
168	0x38266eac	3.9680555e-05
169	0x36dacb8f	6.5206036e-06
170	0x372cc487	1.02977565e-05
171	0x38209009	3.8281116e-05
172	0x370f7ac7	8.5520505e-06
173	0x371ed554	9.467203e-06
174	0x3826e86a	3.9793937e-05
175	0x36ad5959	5.166203e-06
176	0x372d8a65	1.0343826e-05
177	0x38207a6a	3.826098e-05
178	0x36d44eb2	6.3272537e-06
179	0x37243b24	9.7889315e-06
180	0x382af00c	4.075472e-05
181	0x368203e2	3.874754e-06
182	0x370fc66d	8.569664e-06
183	0x381a278c	3.6753292e-05
184	0x36a34e6d	4.8669085e-06
185	0x372e4a69	1.0388533e-05
186	0x382ae3e1	4.0743387e-05
187	0x36562f92	3.1916175e-06
188	0x370c6316	8.3677205e-06
189	0x3819dcdb	3.668373e-05
190	0x36733777	3.6242106e-06
191	0x3733e026	1.072142e-05
192	0x382cb2fe	4.1174695e-05
193	0x36351bf5	2.6987375e-06
194	0x371a7d60	9.208306e-06
195	0x3818b24a	3.640567e-05
196	0x36464586	2.9544767e-06
197	0x370520f9	7.935095e-06
198	0x3824f589	3.932932e-05
199	0x360541c3	1.9856823e-06
200	0x37083894	8.119405e-06
201	0x38153b27	3.557946e-05
202	0x361c850f	2.3323262e-06
203	0x37005bdb	7.650781e-06
204	0x3824d92d	3.9302908e-05
205	0x35dcfd4f	1.6465e-06
206	0x36fa19fb	7.453605e-06
207	0x3812a38e	3.4961435e-05
208	0x36089928	2.0354728e-06
209	0x36e6931b	6.8716595e-06
210	0x3821848a	3.8508828e-05
211	0x35739a23	9.074885e-07
212	0x36ef1024	7.124634e-06
213	0x3810ccd0	3.4523022e-05
214	0x35f15048	1.7979264e-06
215	0x36edaf69	7.083571e-06
216	0x381de73e	3.7647078e-05
217	0x3542313d	7.2342283e-07
218	0x36dd7956	6.6004386e-06
219	0x380f5079	3.4168803e-05
220	0x35ee790e	1.7767613e-06
221	0x36de497d	6.6246707e-06
222	0x381bd0f9	3.71495e-05
223	0x3521c58f	6.026466e-07
224	0x36d501a4	6.3480857e-06
225	0x380d7eb4	3.373502e-05
226	0x35df0d26	1.6618621e-06
227	0x36d38365	6.3035864e-06
228	0x381afefd	3.6953938e-05
229	0x35132f18	5.48303e-07
230	0x36cdbdf2	6.1315886e-06
231	0x380b2a11	3.317936e-05
232	0x35de3f71	1.6558753e-06
233	0x36c044ce	5.730056e-06
234	0x3817f8e9	3.623302e-05
235	0x3512e2bf	5.47192e-07
236	0x36d11170	6.2307154e-06
237	0x3809d37f	3.2860316e-05
238	0x35ea0914	1.7437001e-06
239	0x36bf14be	5.6946583e-06
240	0x3815c4f4	3.5707795e-05
241	0x35179b1b	5.647759e-07
242	0x36c8996a	5.978324e-06
243	0x3807c51f	3.237009e-05
244	0x35f24b9a	1.8052408e-06
245	0x36d9ffc1	6.4968776e-06
246	0x38157db9	3.5641457e-05
247	0x35079441	5.0507157e-07
248	0x36d54670	6.3560947e-06
249	0x38052d63	3.175194e-05
250	0x3604a090	1.9762992e-06
251	0x36e36917	6.7773612e-06
252	0x3813d6ef	3.5247704e-05
253	0x3a8c52b7	0.0010705803
254	0x3a96b6dd	0.0011498589
255	0x37d53dfc	2.5420442e-05

exp_avg f4 [20]
0	0xb83e68d3	-4.5397155e-05
1	0x3b25cc79	0.0025298877
2	0x3a6ea400	0.00091034174
3	0xba57a338	-0.00082259206
4	0xba8e9775	-0.0010878878
5	0x3a861e00	0.0010232329
6	0x3a3d4110	0.0007219473
7	0x3b141a12	0.0022598547
8	0x3aa9aa1f	0.0012944377
9	0xbab39712	-0.0013701639
10	0x3aa51415	0.0012594486
11	0xbaba65da	-0.0014221028
12	0xbaad2362	-0.0013209397
13	0x398e51f4	0.0002714541
14	0x3ae9f22b	0.0017848661
15	0xbb5af9b2	-0.003341299
16	0xb932ccf4	-0.00017051754
17	0x3abe3ba9	0.001451363
18	0x39a2b4e8	0.00031033834
19	0x3a125d72	0.00055833824

exp_avg_sq f4 [20]
0	0x375de4a4	1.3225861e-05
1	0x38913338	6.923679e-05
2	0x3889c2a1	6.5689215e-05
3	0x3882e9ec	6.2424544e-05
4	0x38c19224	9.230178e-05
5	0x3822471f	3.8690046e-05
6	0x389cd30b	7.4779695e-05
7	0x38667c13	5.4951826e-05
8	0x37bfc828	2.286218e-05
9	0x379f3b92	1.8982017e-05
10	0x37bffa21	2.288545e-05
11	0x38544a62	5.0614013e-05
12	0x37e32284	2.7076581e-05
13	0x3869a555	5.5705506e-05
14	0x386169b3	5.374262e-05
15	0x39518a10	0.00019983226
16	0x38ea08d2	0.000111596324
17	0x3832ca20	4.262675e-05
18	0x385dfa60	5.2923686e-05
19	0x3883bb67	6.281473e-05

exp_avg f4 [3, 20]
0	0x3c458335	0.012055208
1	0x3b02743c	0.0019905707
2	0x3c8a4730	0.016879648
3	0x3c98ae39	0.018637763
4	0x3a574404	0.0008211734
5	0x3cc88968	0.024479583
6	0xba5953e5	-0.00082903943
7	0x3cb2f26d	0.021844113
8	0x3bceed5f	0.006314918
9	0x3bb7754c	0.0055986997
10	0x3c8acaee	0.016942468
11	0x3c68818f	0.014191045
12	0x3c4b0b92	0.012392895
13	0x3c1a7b40	0.009428799
14	0x3bb88ad4	0.005631784
15	0x3c4d3ef2	0.012527214
16	0x3ce10779	0.027469384
17	0xbb9b2cc5	-0.0047355616
18	0x3c0a89b5	0.0084556835
19	0x38e35788	0.000108405075
20	0x3d000e75	0.031263787
21	0x3bdd753b	0.0067583597
22	0x3bce82e4	0.0063022245
23	0x3c8a04fa	0.016848076
24	0x3caba36d	0.02095195
25	0xba8d8534	-0.0010797144
26	0x3cf5304d	0.029930258
27	0xbd2ef345	-0.04271247
28	0x3cc4526b	0.023965081
29	0xbccd48fe	-0.02505922
30	0x3bf976c6	0.007613036
31	0x3bd4cef2	0.0064943964
32	0xbd46d998	-0.048547357
33	0x3c827fcf	0.015930085
34	0x38c12224	9.209316e-05
35	0xba7d61ed	-0.0009665776
36	0xbba13e3b	-0.0049207485
37	0x3c8411d6	0.016121786
38	0xbca303bd	-0.019899243
39	0x3bc54a1b	0.006020797
40	0xbd31718b	-0.043321174
41	0xbc0f411f	-0.008743553
42	0xbcbde41d	-0.023180062
43	0xbd115979	-0.03548572
44	0xbcb26fdc	-0.021781854
45	0xbcbfac79	-0.023397671
46	0xbcee75fd	-0.029108996
47	0x3caafc45	0.020872245
48	0xbcf808a0	-0.03027755
49	0x3c9f5ecf	0.019454388
50	0xbcc920c4	-0.024551757
51	0xbca97c4d	-0.020689154
52	0x3d140feb	0.036147993
53	0xbccfc8f2	-0.025364373
54	0xbbbb7a21	-0.005721346
55	0xbc3d8f79	-0.011569851
56	0xbcb8b51f	-0.022547303
57	0xbc3a8732	-0.011384772
58	0x3c3b7aba	0.0114428345
59	0xbbc8c784	-0.0061272997

exp_avg_sq f4 [3, 20]
0	0x3c48d48b	0.012257705
1	0x3c491415	0.012272854
2	0x3c3fa3cb	0.011696766
3	0x3c865844	0.01639951
4	0x3bfbb8f1	0.007681959
5	0x3c70b594	0.014691729
6	0x3c198ebf	0.009372412
7	0x3c802d77	0.01564668
8	0x3c7ea544	0.015542332
9	0x3b88d7c8	0.0041761138
10	0x3c6c57b3	0.014425206
11	0x3c1afa24	0.009459052
12	0x3c056224	0.008141074
13	0x3bd674cd	0.0065446855
14	0x3bcce19e	0.0062524816
15	0x3beffbce	0.0073237186
16	0x3c849141	0.016182544
17	0x3c25d65e	0.01012191
18	0x3b5adee7	0.003339702
19	0x3bada052	0.0052986527
20	0x3c772671	0.015084849
21	0x3bf26f76	0.007398541
22	0x3baeef4a	0.005338584
23	0x3c1307a0	0.008973986
24	0x3c12e308	0.008965261
25	0x3c0a4400	0.008439064
26	0x3c1e1fb8	0.009651117
27	0x3c01bce1	0.007918567
28	0x3c40d25b	0.011768903
29	0x3ba4fc60	0.0050349683
30	0x3c092c8b	0.008372436
31	0x3bf95621	0.0076091443
32	0x3c017891	0.00790228
33	0x3bc6d4bd	0.006067841
34	0x3b8e4d60	0.00434272
35	0x3c206531	0.009789751
36	0x3bfcfe08	0.0077207126
37	0x3c036356	0.008019289
38	0x3b8262f1	0.00397908
39	0x3ba2f816	0.004973422
40	0x3c8958f3	0.016766047
41	0x3c0b775e	0.008512346
42	0x3c1d42ec	0.009598475
43	0x3c81d4e8	0.015848592
44	0x3bf5f68b	0.007506197
45	0x3c67d142	0.014149012
46	0x3c0627d4	0.008188207
47	0x3c789f51	0.015174703
48	0x3c65916d	0.014011723
49	0x3bd7a1c2	0.0065805623
50	0x3c388a5f	0.011263459
51	0x3c353009	0.011058816
52	0x3c4bc4c9	0.012437054
53	0x3bcf86cc	0.0063332077
54	0x3b96540e	0.004587657
55	0x3c1a6a6a	0.009424785
56	0x3c8b370f	0.016994027
57	0x3bd02d7d	0.006353079
58	0x3b82a001	0.003986359
59	0x3baedc36	0.00533631

exp_avg f4 [3]
0	0x3b98259e	0.004643156
1	0xbab62480	-0.0013896376
2	0xbb5538ff	-0.0032535193

exp_avg_sq f4 [3]
0	0x3a9bb99f	0.0011880881
1	0x3a5d8d7f	0.00084515655
2	0x3a954641	0.0011388735

exp_avg f4 [3, 20]
0	0x3bd0c400	0.0063710213
1	0x3c048fc8	0.008090921
2	0x3c010f6f	0.007877215
3	0x3c2eadb2	0.010661529
4	0x3c08e330	0.008354947
5	0x3c3c5dd7	0.011496983
6	0x3bd4e59e	0.006497099
7	0x3b2673dc	0.0025398647
8	0x3c0262d1	0.00795813
9	0x3aa457d5	0.0012538383
10	0x3c292a59	0.010325038
11	0x3c16cda5	0.009204303
12	0xb98e7b04	-0.00027176004
13	0x3ba26fc0	0.0049571693
14	0x3bae40ef	0.0053177993
15	0x3bcd0bf5	0.006257529
16	0x3c3fae7b	0.011699314
17	0x3c111bea	0.008856753
18	0xbb1be267	-0.002378607
19	0x3b86621e	0.004101052
20	0xba9c0286	-0.0011902608
21	0xbb6bca64	-0.0035978789
22	0xbb9b1b86	-0.0047335057
23	0xbba17bea	-0.004928102
24	0xbbefc50e	-0.007317192
25	0xbb980329	-0.0046390486
26	0xbbac546e	-0.0052590882
27	0xbc917140	-0.017754197
28	0xbad7201b	-0.0016412766
29	0xbc5efbb2	-0.0136098135
30	0xbb12424b	-0.0022317346
31	0xbc02254a	-0.007943461
32	0xbc9b10e4	-0.018928953
33	0xbb99e1c6	-0.0046961037
34	0xbb8499bf	-0.0040466483
35	0xbc211363	-0.009831282
36	0xbbe230d4	-0.0069027934
37	0xbb662b9a	-0.0035121203
38	0xbc028462	-0.007966133
39	0xbb20d989	-0.0024543724
40	0xbba9c200	-0.0051805973
41	0xbb9341b8	-0.0044939183
42	0xbb4e3248	-0.0031463075
43	0xbbbbee7e	-0.0057352176
44	0xba886a3d	-0.0010407638
45	0xbbe0cd2c	-0.006860396
46	0xbaa28d9c	-0.0012401822
47	0x3c79180c	0.015203487
48	0xbbcf01e6	-0.006317365
49	0x3c4a583d	0.012350139
50	0xbc04a402	-0.008095743
51	0xbaa57766	-0.0012624084
52	0x3c9d33e4	0.019189782
53	0xb98a42bd	-0.00026371135
54	0xbaa6e66c	-0.0012733466
55	0x3b69e30e	0.0035688314
56	0xbb9d394a	-0.004798089
57	0xbbaf2c17	-0.005345832
58	0x3c296559	0.010339105
59	0xbad7dad5	-0.0016468415

exp_avg_sq f4 [3, 20]
0	0x3b78beea	0.003795559
1	0x3aeee190	0.0018225182
2	0x3ab68029	0.0013923693
3	0x3b6727de	0.0035271565
4	0x3aeb2eff	0.0017943083
5	0x3b613fb3	0.0034370243
6	0x3acf95b2	0.0015837459
7	0x3b6842aa	0.0035440126
8	0x3b3fcbf7	0.002926586
9	0x3af5f4e4	0.0018765
10	0x3b23413c	0.002491071
11	0x3b18aede	0.0023297588
12	0x3b83520c	0.0040075835
13	0x3a866f20	0.0010256507
14	0x3a9ca86d	0.001195205
15	0x3b1068f5	0.0022035216
16	0x3b83cefe	0.004022478
17	0x3af7cd20	0.0018905737
18	0x3aa22c88	0.001237289
19	0x3ac3b522	0.0014931301
20	0x39d5bbbd	0.00040766402
21	0x3a19b808	0.00058639096
22	0x3a6b0c88	0.0008966406
23	0x3ae9ac44	0.0017827828
24	0x3ad3cb60	0.0016158633
25	0x3abeb0b3	0.001454851
26	0x3a8e32f2	0.0010848923
27	0x3b2b3e0e	0.0026129517
28	0x39cbfda1	0.00038908146
29	0x3b030c5c	0.001999638
30	0x3a17395b	0.00057687395
31	0x3b1d3219	0.002398616
32	0x3b86c862	0.004113243
33	0x3a59a46b	0.0008302393
34	0x399efced	0.00030324553
35	0x3aebf072	0.0018000735
36	0x3b59c973	0.0033231645
37	0x3a0faf18	0.0005481108
38	0x3a6a073c	0.00089274696
39	0x3a38f345	0.0007055293
40	0x3b6150b3	0.0034380376
41	0x3ada8f53	0.0016674794
42	0x3a50360b	0.00079426233
43	0x3b21384c	0.0024600206
44	0x3aa2f494	0.0012432509
45	0x3b4261b4	0.0029660286
46	0x3a99dc84	0.0011738692
47	0x3b2a3d19	0.0025976358
48	0x3b2d6b30	0.0026461594
49	0x3a57ac63	0.0008227287
50	0x3b19db46	0.0023476644
51	0x3a5ee333	0.0008502483
52	0x3b0e7a4a	0.002174037
53	0x3a2c3d6e	0.0006570433
54	0x3a97d658	0.0011584265
55	0x3afaa8dd	0.0019123812
56	0x3afd9b1e	0.0019348597
57	0x3ae6d107	0.0017609902
58	0x3aac9745	0.001316764
59	0x3ac1878e	0.001476513

exp_avg f4 [3]
0	0x3b406feb	0.0029363583
1	0xbb949f5e	-0.0045355996
2	0x3ad19da1	0.0015992412

exp_avg_sq f4 [3]
0	0x3997973f	0.00028913651
1	0x3950488a	0.00019863449
2	0x39608aea	0.00021414054

exp_avg f4 [20, 130]
0	0x3c5c92cb	0.013462733
1	0xb65e1718	-3.309402e-06
2	0x3b1ca9b9	0.0023904874
3	0x3c777e37	0.015105776
4	0x3ac02ea3	0.0014662336
5	0x3aaaff8b	0.0013046128
6	0x3c7c4fa6	0.015399849
7	0xb65e170b	-3.309399e-06
8	0x3ac71b41	0.0015190617
9	0x3ca48693	0.020083701
10	0xb65e16df	-3.309389e-06
11	0xba9cd5e7	-0.0011965603
12	0x3b011c95	0.0019700874
13	0x39b5a743	0.0003464763
14	0x3bd91b9c	0.0066256057
15	0x3c8ac585	0.016939888
16	0x3964f76a	0.00021835943
17	0xba6d9b70	-0.00090639945
18	0x3bcaa628	0.006184358
19	0xad90e9f7	-1.6474806e-11
20	0x3bb7dfb8	0.005611386
21	0x3c1809c8	0.009279676
22	0x38ce1ee2	9.828598e-05
23	0x3a407569	0.0007341714
24	0x3ad0a51a	0.0015918345
25	0xadcfc174	-2.3619086e-11
26	0x3bd7aeb1	0.006582104
27	0x3bdd4146	0.006752166
28	0x392de741	0.00016584714
29	0x3b8299a0	0.0039855987
30	0xba8c09d7	-0.0010684085
31	0x3a08945c	0.00052100956
32	0x3bf4e5b3	0.0074736713
33	0x3bc73759	0.006079596
34	0x2bd94b17	1.5439619e-12
35	0x3b68c0ba	0.0035515265
36	0xbb974280	-0.0046160817
37	0x3a9ec286	0.0012112416
38	0x3c0cf475	0.008603205
39	0x3baad550	0.005213417
40	0xaa74ba95	-2.1736287e-13
41	0x3b807ef2	0.003921383
42	0xbbaca463	-0.00526862
43	0x3a76d884	0.00094164186
44	0x3c1088d5	0.008821686
45	0x3b050d7b	0.0020302224
46	0xabc52a58	-1.4009445e-12
47	0x3ba12775	0.0049180337
48	0xbbec4035	-0.0072098025
49	0x3ab30f4e	0.0013661177
50	0x3c286bc2	0.010279598
51	0x3aa70bc2	0.0012744593
52	0xaacd3a6b	-3.645585e-13
53	0x3bbf65b0	0.0058409795
54	0xbb9edc31	-0.004848026
55	0x3922d46d	0.00015528659
56	0x3c0fc608	0.008775242
57	0x3a5016c2	0.00079379615
58	0x29d48b90	9.4389015e-14
59	0x3be6e372	0.0070461566
60	0xbb81991d	-0.00395502
61	0x35c4703e	1.4635805e-06
62	0x3bfe1e85	0.007755103
63	0x3a4b98ec	0.00077666226
64	0xaade8b45	-3.953176e-13
65	0x3bf764b9	0.007549849
66	0xbb410beb	-0.0029456567
67	0x35c4703e	1.4635805e-06
68	0x3be8418c	0.007087892
69	0x39c9efd3	0.0003851639
70	0xabc162a2	-1.3740851e-12
71	0x3bfd6c94	0.007733891
72	0xb8b5a181	-8.660835e-05
73	0x39290af2	0.00016121173
74	0x3bb735ea	0.005591144
75	0xbab3b837	-0.0013711517
76	0x39999208	0.00029291236
77	0x3c191066	0.009342289
78	0x3acd0d3f	0.0015644206
79	0x399cd018	0.0002990968
80	0x3ba530c5	0.005041214
81	0xbafd62e5	-0.0019331841
82	0x39999208	0.00029291236
83	0x3c1e2583	0.009652498
84	0x3acbddfa	0.0015553825
85	0x39a4c172	0.00031424646
86	0x3ba778d1	0.005110838
87	0xbb225555	-0.00247701
88	0x399092ee	0.00027575291
89	0x3c25e628	0.010125674
90	0x3aac47b3	0.0013143927
91	0x39adc811	0.00033146192
92	0x3ba78e34	0.0051133875
93	0xbb89c04c	-0.004203832
94	0xac5ce5fc	-3.1391547e-12
95	0x3c2e63d9	0.010643923
96	0x3ac74e6f	0.001520587
97	0x384b6a6c	4.8498085e-05
98	0x3ba64e0d	0.0050752223
99	0xbb77e1d6	-0.0037823818
100	0xac5bc1f7	-3.1229444e-12
101	0x3c0a6ae4	0.008448336
102	0x3ab207c4	0.0013582637
103	0x39a60a49	0.0003166965
104	0x3ba33407	0.0049805674
105	0xbb729a64	-0.0037018294
106	0xac8031bf	-3.6435017e-12
107	0x3be1b5d8	0.0068881325
108	0x3ae5f1d1	0.001754338
109	0x39039cc3	0.00012551532
110	0x3b91609a	0.0044365646
111	0xbb68e5fe	-0.0035537477
112	0xab5f4a56	-7.9328677e-13
113	0x3bbcfb1a	0.0057672383
114	0x3b0aeff1	0.0021200145
115	0x39a4c737	0.00031428944
116	0x3b94f6fd	0.004546045
117	0xbb72ec29	-0.0037067032
118	0x2add3ec1	3.930103e-13
119	0x3c0b1fbc	0.008491453
120	0x3b0219eb	0.0019851874
121	0x392200d4	0.00015449832
122	0x3b9490e8	0.0045338757
123	0xbc8cd968	-0.017193511
124	0xbca59d5d	-0.020216638
125	0xbba2ccad	-0.004968247
126	0xbc0458ae	-0.0080777835
127	0x3c58bc4b	0.013228486
128	0x3d260f01	0.040541653
129	0xbea43d22	-0.3207789
130	0x3be10048	0.0068664886
131	0xb6baa8df	-5.562891e-06
132	0x3abd164a	0.0014426198
133	0x3c004caf	0.007830783
134	0x3a8239b8	0.0009935414
135	0x3a648325	0.0008717052
136	0x3bd8924f	0.006609238
137	0xb6baa8da	-5.562889e-06
138	0x3acce00c	0.0015630736
139	0x3c34870b	0.011018525
140	0xb6baa8d0	-5.5628843e-06
141	0xba510653	-0.00079736597
142	0xba1439bb	-0.00056543545
143	0x393b9246	0.00017888201
144	0x3b8c10d3	0.0042744665
145	0x3c1a5e7d	0.009421942
146	0x38f535af	0.0001169251
147	0xba4021cb	-0.00073292543
148	0x3addbd2c	0.001691734
149	0xad191df6	-8.703696e-12
150	0x3b72bb7e	0.0037038024
151	0x3bb1efdd	0.0054302053
152	0x3858a79f	5.1654522e-05
153	0x38de019e	0.00010586086
154	0xba58cfbf	-0.00082707027
155	0xad5b0247	-1.2449214e-11
156	0x3b8b99ab	0.004260262
157	0x3b8403d0	0.004028775
158	0x38b9c268	8.8576984e-05
159	0x3ae8510d	0.001772435
160	0xbb01ad9d	-0.001978732
161	0x399c5b3c	0.00029822614
162	0x3b980fdf	0.004640564
163	0x3b6e8a3a	0.0036398307
164	0x2b8b5d6c	9.902474e-13
165	0x3acc7fbb	0.0015602031
166	0xbb835459	-0.0040078578
167	0x3a216165	0.00061561755
168	0x3badb568	0.0053011663
169	0x3b5314cf	0.0032208448
170	0x28314cfe	9.842169e-15
171	0x3ae32eb8	0.0017332649
172	0xbb8ab02e	-0.004232428
173	0x39ebc94e	0.00044972677
174	0x3bae8ce8	0.005326856
175	0x3ad921dc	0.0016565877
176	0xab52dc6d	-7.491289e-13
177	0x3b0ed38c	0.0021793572
178	0xbb95dfd0	-0.0045737997
179	0x3a248016	0.000627519
180	0x3bb7f0ec	0.005613437
181	0x3aad535e	0.0013223698
182	0xaa80bb59	-2.2867366e-13
183	0x3b2fccdc	0.0026824987
184	0xbb589c9f	-0.0033052338
185	0x38a53819	7.878262e-05
186	0x3b9c8cc3	0.0047775223
187	0x3a6f6204	0.0009131732
188	0xa8c3ecc6	-2.1752033e-14
189	0x3b602f34	0.0034207823
190	0xbb40ade5	-0.0029400524
191	0xb568ba1a	-8.669755e-07
192	0x3b8b65e1	0.0042540883
193	0x3a6cb3f8	0.0009029503
194	0xaaa55888	-2.937132e-13
195	0x3b72da62	0.0037056436
196	0xbb0ce33f	-0.0021497754
197	0xb568ba3c	-8.669774e-07
198	0x3b78c762	0.0037960638
199	0x3a3b9fa2	0.0007157271
200	0xab13262c	-5.2277865e-13
201	0x3b79f0b6	0.003813786
202	0xba036766	-0.0005012661
203	0x38ae2b26	8.3050036e-05
204	0x3b441677	0.0029920617
205	0xb9d5236a	-0.0004065291
206	0x3961ba2b	0.00021527025
207	0x3b9d1c5d	0.004794641
208	0x39d6c5ad	0.0004096454
209	0x3922ff09	0.00015544532
210	0x3b314a05	0.0027052176
211	0xba5e5b69	-0.0008482249
212	0x3961ba2b	0.00021527025
213	0x3ba426d5	0.005009512
214	0x39ec17b4	0.00045031088
215	0x392ca7aa	0.00016465658
216	0x3b31d89c	0.0027137166
217	0xba8e6393	-0.0010863416
218	0x3957f4ee	0.00020595241
219	0x3bac8077	0.0052643376
220	0x39a98c0f	0.00032338544
221	0x39308def	0.00016837542
222	0x3b32076c	0.0027165068
223	0xbb111598	-0.0022138115
224	0xabbb6b3e	-1.3316915e-12
225	0x3bb97d3e	0.005660682
226	0x39e5cb98	0.00043829973
227	0x377fcb36	1.5246498e-05
228	0x3b325713	0.0027212545
229	0xbafc05ec	-0.0019227839
230	0xabba3ab1	-1.3232385e-12
231	0x3b94023e	0.004516869
232	0x39a7f8af	0.00032038006
233	0x392e4f72	0.00016623529
234	0x3b2f4b1f	0.0026747657
235	0xbaf166c0	-0.0018417463
236	0xac089867	-1.9411363e-12
237	0x3b7033ff	0.0036652086
238	0x3a09cedb	0.0005256959
239	0x388f1a5f	6.823683e-05
240	0x3b18befa	0.002330719
241	0xbae77f9c	-0.0017661932
242	0xaae43805	-4.0539807e-13
243	0x3b49167a	0.0030683563
244	0x3a5e439c	0.00084787025
245	0x392cae0e	0.00016468039
246	0x3b1979c6	0.002341853
247	0xbaf75bf4	-0.0018872009
248	0x2a5b24e0	1.9463901e-13
249	0x3b929f42	0.0044745514
250	0x3a3fdb75	0.00073187734
251	0x38a952be	8.07396e-05
252	0x3b19c234	0.0023461701
253	0xbbe30bff	-0.0069289203
254	0xbc323401	-0.0108766565
255	0xbb4ed81f	-0.0031561924

exp_avg_sq f4 [20, 130]
0	0x3b9a1b56	0.0047029657
1	0x3a0bc2f9	0.00053314824
2	0x3b3053fd	0.002690553
3	0x3b96c7fb	0.0046014762
4	0x3a207210	0.0006120512
5	0x3b2ea1f5	0.0026646827
6	0x3b8d6c4b	0.004315888
7	0x3a197214	0.0005853486
8	0x3b372aee	0.0027949172
9	0x3b8cb81b	0.004294408
10	0x3a2f6b6a	0.0006691726
11	0x3b3a69da	0.002844444
12	0x3b705fc7	0.0036678181
13	0x3a3766d2	0.00069962174
14	0x3b4be633	0.0031112551
15	0x3b6042d4	0.003421952
16	0x3a3e5210	0.0007260153
17	0x3b4e5546	0.0031483932
18	0x3b2757da	0.0025534541
19	0x3a765183	0.00093963015
20	0x3b7346f1	0.0037121142
21	0x3b1a4601	0.002354026
22	0x3a6512bf	0.000873845
23	0x3b73484f	0.0037121957
24	0x3ad850df	0.0016503594
25	0x3a891616	0.0010458853
26	0x3b845f2c	0.0040396657
27	0x3ac884b0	0.0015298333
28	0x3a59a48f	0.0008302414
29	0x3b82c2a8	0.00399049
30	0x3a94668d	0.0011322066
31	0x3a8e67ec	0.0010864711
32	0x3b899f64	0.004199909
33	0x3a986f60	0.0011629872
34	0x3a5dc6f6	0.00084601284
35	0x3b87c529	0.0041433764
36	0x3a8282cc	0.0009957193
37	0x3a80bc51	0.0009821748
38	0x3b8c02e3	0.004272805
39	0x3a603ef1	0.0008554301
40	0x3a621526	0.0008624367
41	0x3b8a830c	0.004227048
42	0x3a72bb43	0.00092594716
43	0x3a3f6143	0.0007300565
44	0x3b8b7b67	0.004256654
45	0x3a2bf9a2	0.00065603305
46	0x3a4daaca	0.0007845579
47	0x3b8b6f68	0.004255224
48	0x3a4fd20c	0.0007927723
49	0x3a4224d2	0.00074059993
50	0x3b8c9272	0.0042899186
51	0x3a0197af	0.0004943562
52	0x3a3ff585	0.0007322657
53	0x3b8be151	0.004268803
54	0x3a30ca51	0.00067440147
55	0x3a475120	0.0007603336
56	0x3b8df31c	0.0043319594
57	0x39d9e7b5	0.000415621
58	0x3a39dc84	0.00070900493
59	0x3b8bf211	0.0042708
60	0x39f258d4	0.0004622402
61	0x3a4907c8	0.0007668701
62	0x3b9000d4	0.00439463
63	0x39ae37e7	0.00033229517
64	0x3a57b0a4	0.00082279206
65	0x3b8b4833	0.00425055
66	0x399bf77b	0.0002974829
67	0x3a408e7c	0.00073454506
68	0x3b9047cd	0.0044030906
69	0x399b0010	0.0002956395
70	0x3a5265e0	0.0008026045
71	0x3b89bcdb	0.0042034215
72	0x395706ee	0.0002050658
73	0x3a36b9eb	0.0006970453
74	0x3b8facd1	0.004384615
75	0x3984c7ff	0.0002532601
76	0x3a37c7b9	0.0007010657
77	0x3b874929	0.0041285944
78	0x3935a005	0.00017321117
79	0x3a39409f	0.0007066819
80	0x3b8e8af4	0.0043500606
81	0x394e58f2	0.00019678826
82	0x3a2bb719	0.0006550416
83	0x3b85887f	0.0040751095
84	0x391216b3	0.00013932101
85	0x3a325151	0.0006802278
86	0x3b8cf660	0.004301831
87	0x39337392	0.00017113824
88	0x3a1fc357	0.00060944766
89	0x3b832d78	0.004003223
90	0x39015d4e	0.00012337157
91	0x3a1e786c	0.0006045166
92	0x3b8b623c	0.004253654
93	0x39264ef6	0.00015860409
94	0x3a0bf405	0.0005338791
95	0x3b817e37	0.0039518136
96	0x38e828a3	0.00011070191
97	0x3a1abee1	0.0005903077
98	0x3b8a5744	0.0042218287
99	0x39304697	0.00016810965
100	0x39f4a539	0.00046662407
101	0x3b7a2803	0.0038170821
102	0x38e96e87	0.00011130893
103	0x3a104442	0.0005503335
104	0x3b8806ed	0.0041512162
105	0x39306280	0.00016821362
106	0x39f1623f	0.000460403
107	0x3b737030	0.0037145726
108	0x3901050e	0.00012304282
109	0x3a0db584	0.0005405771
110	0x3b867e54	0.004104415
111	0x39321567	0.00016983376
112	0x39de1668	0.00042359834
113	0x3b6ead4d	0.0036419213
114	0x3900aeb3	0.00012272112
115	0x3a1cf1ef	0.00059869786
116	0x3b864209	0.0040972275
117	0x392ada6a	0.00016293829
118	0x39f5f788	0.00046914467
119	0x3b69b410	0.0035660304
120	0x38d8ead4	0.00010343423
121	0x3a203e63	0.0006112812
122	0x3b836eda	0.0040110173
123	0x3dda3282	0.10654165
124	0x3dc40e9f	0.09573101
125	0x3b454fa9	0.0030107296
126	0x3ad36451	0.0016127919
127	0x3e80d792	0.25164467
128	0x3e7f6b75	0.24943335
129	0x3f7d72cf	0.9900331
130	0x3aa6ac53	0.0012716152
131	0x391bb6c5	0.00014850039
132	0x3a4ed53b	0.000789005
133	0x3aa42df1	0.0012525899
134	0x393481d1	0.00017214498
135	0x3a4b674d	0.00077592285
136	0x3a99d0f3	0.0011735245
137	0x392b13f1	0.0001631526
138	0x3a5574d3	0.00081427133
139	0x3a9a055a	0.0011750862
140	0x3945d344	0.00018866087
141	0x3a57a4c7	0.0008226153
142	0x3a849fee	0.0010118464
143	0x394cafa4	0.00019520387
144	0x3a6b448b	0.0008974752
145	0x3a770b3f	0.0009423978
146	0x3956dceb	0.00020490929
147	0x3a6cf9eb	0.0009039926
148	0x3a3c4f40	0.000718344
149	0x39894188	0.000261795
150	0x3a8a9588	0.0010573128
151	0x3a2ae2b0	0.00065187644
152	0x398090f6	0.00024522067
153	0x3a8ab4e1	0.001058247
154	0x39f961cd	0.00047565848
155	0x399816ea	0.00029008772
156	0x3a95a211	0.0011416097
157	0x39e16695	0.00042991774
158	0x3974694a	0.00023308877
159	0x3a94527b	0.0011316085
160	0x39afcc31	0.00033530736
161	0x399e1d3d	0.00030157893
162	0x3a9b10d8	0.0011830581
163	0x39aeae7f	0.00033317876
164	0x3979408c	0.00023770536
165	0x3a9977a5	0.001170863
166	0x399f80b1	0.00030422726
167	0x398e7c8f	0.00027177154
168	0x3a9dbf50	0.0012035165
169	0x3984477d	0.00025230265
170	0x397d9dc5	0.00024186734
171	0x3a9c616e	0.0011930892
172	0x3995b1a2	0.0002855184
173	0x39545b0c	0.00020251813
174	0x3a9d1da6	0.0011986985
175	0x39509c61	0.00019894681
176	0x3966e62d	0.00022020256
177	0x3a9d55c9	0.0012003715
178	0x3982196d	0.00024814476
179	0x39577428	0.0002054727
180	0x3a9e486e	0.0012076029
181	0x39200714	0.00015261426
182	0x39572e89	0.00020521333
183	0x3a9dbad3	0.0012033827
184	0x3960a3a5	0.00021423267
185	0x395cebfd	0.00021068747
186	0x3a9fd190	0.0012193192
187	0x390765e3	0.00012912559
188	0x394f2ed9	0.0001975851
189	0x3a9dbff2	0.0012035354
190	0x3921d8c8	0.00015434914
191	0x395d9cb7	0.00021134583
192	0x3aa202ab	0.0012360414
193	0x38d9f48b	0.00010392916
194	0x3970483e	0.00022915096
195	0x3a9d0150	0.001197854
196	0x38dd3ff3	0.00010550013
197	0x39534002	0.00020146373
198	0x3aa26739	0.0012390382
199	0x38c25c82	9.267872e-05
200	0x396b5b50	0.00022445363
201	0x3a9b5d6a	0.0011853401
202	0x389bfefd	7.438471e-05
203	0x3948c3d6	0.00019146441
204	0x3aa2421f	0.0012379325
205	0x38a54089	7.879834e-05
206	0x394e53ad	0.00019676863
207	0x3a98d1b3	0.0011659175
208	0x3886bd30	6.424857e-05
209	0x394b1f4f	0.00019371252
210	0x3aa10912	0.0012286028
211	0x3879babe	5.9540143e-05
212	0x39420eee	0.00018506843
213	0x3a972bbc	0.001153342
214	0x38665643	5.491661e-05
215	0x39431ba4	0.00018606946
216	0x3a9f7b28	0.0012167441
217	0x38589fae	5.1647126e-05
218	0x3934fe85	0.00017260954
219	0x3a94cc0c	0.0011352315
220	0x384e2cfc	4.9156122e-05
221	0x392dd78a	0.0001657886
222	0x3a9df86d	0.0012052186
223	0x38472ab1	4.7485057e-05
224	0x391efc74	0.000151621
225	0x3a9300b6	0.0011215422
226	0x383c3e05	4.4880453e-05
227	0x3929f6f5	0.00016209095
228	0x3a9cef0e	0.0011973099
229	0x385129c4	4.986838e-05
230	0x390b0e98	0.0001326151
231	0x3a8e2eaa	0.0010847647
232	0x383b61e7	4.4675453e-05
233	0x39221807	0.00015458475
234	0x3a9a84c8	0.001178884
235	0x38559721	5.0923907e-05
236	0x390901db	0.0001306603
237	0x3a8a63e5	0.0010558335
238	0x38419b1e	4.615925e-05
239	0x391f2a49	0.00015179174
240	0x3a98e7fb	0.0011665815
241	0x385ac6b0	5.2160292e-05
242	0x38fc7966	0.000120389086
243	0x3a879e09	0.0010346781
244	0x383f15d4	4.5558278e-05
245	0x393097a9	0.00016841166
246	0x3a98d6ea	0.0011660729
247	0x3850f8eb	4.9822887e-05
248	0x390a943d	0.00013215929
249	0x3a84bbaa	0.0010126729
250	0x3828d46b	4.025215e-05
251	0x3930c228	0.00016856997
252	0x3a95adeb	0.001141963
253	0x3cf3150d	0.029673124
254	0x3cdcc282	0.026948217
255	0x3a694a6c	0.00088993344

exp_avg f4 [20]
0	0x3be5cf60	0.0070132464
1	0x3b4b6cf5	0.0031040285
2	0xbb7ba8dd	-0.003840021
3	0xbaa6f3e3	-0.0012737479
4	0x3b3fc4e6	0.0029261648
5	0x3bb0dfcd	0.005397773
6	0xbad9367a	-0.0016572021
7	0xb9ed4d90	-0.0004526195
8	0x3b7f4590	0.0038951375
9	0x3be2dde6	0.006923425
10	0xbbd6b23d	-0.0065520094
11	0x3b04e815	0.0020279933
12	0x3c1c1a22	0.009527715
13	0x3b4a54ea	0.0030873367
14	0x3b832e51	0.004003324
15	0xbb773d0e	-0.00377256
16	0x3b069f4c	0.0020541726
17	0x3c6d8c51	0.014498786
18	0xbba5b80c	-0.0050573405
19	0x3b2484e9	0.0025103635

exp_avg_sq f4 [20]
0	0x3bf25c1b	0.0073962337
1	0x3b0b15e4	0.0021222765
2	0x3a83d67f	0.0010058432
3	0x3aa37eac	0.0012473664
4	0x3a986b71	0.00116287
5	0x3b654910	0.0034986176
6	0x3b43dfed	0.002988811
7	0x3a8839cb	0.00103932
8	0x3b55e263	0.0032636158
9	0x3b5d0d02	0.0033729677
10	0x3b44a454	0.0030005174
11	0x3adf9591	0.0017058124
12	0x3c0275a5	0.007962619
13	0x3ae04784	0.0017111157
14	0x3ba30fa4	0.0049762297
15	0x39ed8cb8	0.00045309006
16	0x3ac5de72	0.0015096201
17	0x3bb5229d	0.005527808
18	0x3bb172c0	0.0054152906
19	0x3a8b22da	0.0010615245

exp_avg f4 [1, 20]
0	0xbbf22af7	-0.0073903757
1	0xbd26bfa2	-0.0407101
2	0xbd12a623	-0.03580297
3	0x3c05da08	0.0081696585
4	0x3d8dc992	0.06923212
5	0x3db40f47	0.087919764
6	0xbe22a89d	-0.15884633
7	0xbc868e4f	-0.01642528
8	0x3ba61ee7	0.005069602
9	0x3d484832	0.048896976
10	0x3d096b32	0.033549495
11	0xbcbb03bd	-0.022828931
12	0xbc4e8c0a	-0.01260663
13	0x3d24d956	0.04024633
14	0x3bb80875	0.0056162425
15	0xbd3d7299	-0.046251867
16	0xbcec3ee3	-0.02883858
17	0x3d4471cf	0.0479601
18	0xbdae42fb	-0.08508869
19	0xbcea5775	-0.028606156

exp_avg_sq f4 [1, 20]
0	0x3ea0692e	0.31330246
1	0x3ee94ae7	0.45564958
2	0x3ca8663e	0.020556565
3	0x3d450e3f	0.04810929
4	0x3ea4356f	0.32072017
5	0x3ef5ce9f	0.48009202
6	0x3e44da69	0.19223942
7	0x3d4837e9	0.048881445
8	0x3e891d66	0.26780242
9	0x3dab7002	0.08370973
10	0x3de5a6c6	0.1121345
11	0x3e2c8966	0.16849288
12	0x3d2e3de6	0.0425395
13	0x3e63ae4a	0.22234455
14	0x3d0b571e	0.03401863
15	0x3ce46395	0.027879516
16	0x3eb630e8	0.35584188
17	0x3e0f414c	0.13989753
18	0x3d3519f6	0.04421421
19	0x3e2ec4b5	0.17067225
