config/ppo/results/RayShoot0608/Shooting/Shooting-190437.onnx (onnx, 14918 bytes, 9 tensors)

action_model._discrete_distribution.branches.0.bias f4 [6]
000000 25 77 d9 3d d7 9c b5 bc 52 77 aa bd 1b 8b b8 bc
       0.10618428 -0.022169514 -0.0832354 -0.022527268
000010 de 30 78 bd d8 cf 55 3d
       -0.06059348 0.05220017

action_model._discrete_distribution.branches.0.weight f4 [6, 20]
000000 48 49 ae 3c 53 c0 b4 3c 89 fb 0b 3c e3 cd 0f 3b
       0.021275178 0.022064364 0.008543857 0.0021942786
000010 a2 3b 32 bd 17 99 11 bd 58 53 ae bd b4 15 3f 3e
       -0.0435139 -0.03554639 -0.0851199 0.18660623
000020 c5 bb 88 bd e9 0b fa 3d 5e dc 4a bd fa 92 9c 3c
       -0.06676439 0.12209303 -0.049526565 0.019113053
000030 94 83 79 bd d5 73 a0 3d 6b bd 00 3e 45 24 a4 3d
       -0.0609165 0.07834593 0.12572257 0.0801473
000040 d6 da 09 3c 15 07 09 3e 23 db 8e bc 3a 3a 19 3e
       0.008413991 0.13381608 -0.017438477 0.14963618
000050 b1 67 94 3c 5c 0e ef 3c d2 ee af 3c b4 71 a0 3d
       0.01811585 0.029181652 0.021476183 0.07834187
000060 43 30 16 bd 28 9d 17 3d 0e 0b a9 bd 2f 5f c6 bd
       -0.03666712 0.03701511 -0.08254062 -0.096861236
000070 c7 c8 58 bd db 6b ea bc ab 2e ae bb 5a e9 96 bc
       -0.05292585 -0.028615883 -0.005315622 -0.018421818
000080 bd 02 9f 3c 44 46 dc 3c 35 ef 68 3b 69 37 f3 bc
       0.019410485 0.026888974 0.003554297 -0.029689508
000090 d5 ed be 3c 14 15 2d bd c8 bc 5e 3d ce d8 8a bd
       0.023306767 -0.04225643 0.054379255 -0.067796335
0000a0 4e 73 2b bd d1 18 13 3c a7 a6 d5 3c e8 fc 56 bd
       -0.04185801 0.008978085 0.026080443 -0.052487284
0000b0 7d cc 2a 3d d7 f8 72 3d 10 ea dd 3c 7f 75 23 be
       0.04169892 0.059319343 0.027089149 -0.1596279
0000c0 88 e2 13 bc 79 68 aa bd 8a 80 8a bb 31 91 86 bd
       -0.009026177 -0.08320708 -0.004226749 -0.06570662
0000d0 0a a7 cf 3d f1 f3 ae 3c b2 a4 c0 bc f0 04 74 3d
       0.10139282 0.021356555 -0.023516033 0.05957502
0000e0 e4 93 82 bc 28 d5 a7 3a 70 01 7b 3d 83 d2 d9 bd
       -0.01593966 0.0012804614 0.061280668 -0.10635855
0000f0 55 a1 3c ba 3a 27 bd 3c ba 18 44 3c 97 eb 03 3d
       -0.0007195671 0.023089994 0.011968786 0.032207098
000100 f1 40 bf bb db 75 a7 3d 67 92 9e 3d e6 e2 3b bd
       -0.005836599 0.08176776 0.07742768 -0.045870684
000110 33 98 92 3d 2a 47 71 3c 43 67 e0 3d 59 63 94 3d
       0.07157936 0.0147264395 0.109571956 0.072455116
000120 d2 04 55 3c 32 ac 90 3c 65 80 83 bd 9b 3f cf 3c
       0.0130016375 0.017660234 -0.06420974 0.025298884
000130 c0 73 93 bd bd ca 6f bd 43 66 80 bc 4c be d2 bd
       -0.07199812 -0.058542956 -0.015673762 -0.102902025
000140 f2 4c 1c bb 82 19 11 bd 25 c7 a1 bc 81 b0 d8 3d
       -0.0023849574 -0.035424717 -0.01974828 0.105805404
000150 fa e8 48 3d 4c b4 bf 3a 63 e0 c3 3d 61 5f 76 bd
       0.04905031 0.0014625876 0.09564283 -0.060149554
000160 de de 02 3d 61 f6 c3 bb c5 4f 6a 3d d6 e2 2e 3d
       0.031950824 -0.0059802984 0.05720498 0.042696796
000170 fd 4a 53 3c c4 3b 77 bd 09 96 7e bd 29 24 30 3d
       0.012896297 -0.06035973 -0.062154803 0.043003235
000180 1a c6 38 3c 1c ce 02 bd 11 12 f4 bd 4f 50 17 3d
       0.0112777 -0.031934842 -0.119175084 0.036941823
000190 35 e3 5c bd d3 43 47 bd 44 0a 55 3c ad bf a3 3b
       -0.05392762 -0.048648667 0.013002936 0.004997215
0001a0 ad 61 84 3d d4 d7 b8 bd 8f 9c 93 bd 2c 35 36 3d
       0.06463943 -0.09025541 -0.072075956 0.044484302
0001b0 59 cb 35 bd 8f 17 0a bc 74 67 dc 3c a4 9c 34 bd
       -0.04438338 -0.008428468 0.026904799 -0.044094697
0001c0 3d 2a fa ba ef 24 60 bd 96 31 3e 3a e9 65 97 bd
       -0.0019086074 -0.054722723 0.00072553137 -0.07392485
0001d0 e2 0f 58 3d a9 e0 ab 3d e8 9d 69 3d d3 d7 d1 bc
       0.052749522 0.0839246 0.057035357 -0.025615608

action_model._discrete_distribution.branches.1.bias f4 [3]
000000 6f 1f 97 3d e4 b3 51 bd ec e4 11 bd
       0.07379042 -0.051196948 -0.035618708

action_model._discrete_distribution.branches.1.weight f4 [3, 20]
000000 e1 11 34 3d a3 29 97 bd fb 2b 93 3b f8 ac 6c 3d
       0.043962363 -0.073809884 0.004491327 0.057782143
000010 e4 fb 3f be 7c 32 f6 bd ae af 0a be eb ba 2d 3e
       -0.18748432 -0.12021348 -0.13543579 0.16965835
000020 9f 47 2e be 70 ca 3b 3e dd 42 bd be 7c 75 43 be
       -0.17019509 0.18338943 -0.36965075 -0.19087785
000030 57 52 03 be ec 04 07 3c df a1 54 3e 5d 48 02 3e
       -0.12824379 0.00824092 0.20764874 0.12722917
000040 65 df 65 bd 45 20 7f 3e a0 39 12 3e 46 23 80 3e
       -0.05612125 0.24914654 0.14279795 0.25026911
000050 4a d2 38 be a9 a1 59 be ca bc 9b 3e a0 77 d2 bc
       -0.18048969 -0.21253075 0.30417472 -0.025691807
000060 8b f9 c2 3e 89 29 a5 3d cb d1 81 3e a9 ac 3a bc
       0.3808101 0.08064563 0.25355372 -0.011393704
000070 3f 13 ad 3e d0 4c e0 be 1f be c2 3e 74 a0 4f be
       0.33803746 -0.43808603 0.38035676 -0.20276052
000080 b5 b3 c5 3d fe 89 95 be 45 46 84 3d 8d 34 c7 3d
       0.09653417 -0.29206842 0.06458715 0.0972682
000090 54 95 d9 3d bc f5 8b 3d 44 f2 1e bc f0 83 0f be
       0.10624185 0.068339795 -0.009701315 -0.14015174
0000a0 1f 74 89 3d 10 5e 86 3e 82 6c c3 be c0 ea 58 3d
       0.067116015 0.2624364 -0.38168722 0.05295825
0000b0 03 48 80 be 51 d6 b2 3d 90 24 d1 bd 5b a0 7f be
       -0.2505494 0.08732284 -0.10212052 -0.24963515
0000c0 48 65 4f be 3c 6f 48 3e 61 20 61 bd 1d 52 c1 3e
       -0.2025348 0.19573683 -0.05496252 0.3775796
0000d0 9d c4 95 3d f6 c4 7f 3e eb 2e a7 be b8 29 64 be
       0.07312892 0.24977478 -0.32652983 -0.2228154
0000e0 9a 9e be bb d2 22 e9 be bb 70 01 be 09 15 23 be
       -0.0058172466 -0.45534378 -0.1264066 -0.15925993

action_model._discrete_distribution.branches.2.bias f4 [3]
000000 dc 55 9b bd 54 a8 5b 3b 26 1c 9b 3d
       -0.07584736 0.003351708 0.07573728

action_model._discrete_distribution.branches.2.weight f4 [3, 20]
000000 8f 57 7e bc 93 6b a3 bc 39 5a 8b 3c de 99 24 3d
       -0.015523805 -0.019948756 0.017010795 0.0401858
000010 c3 93 49 3d 34 e1 13 3d 37 3a 5e bd 9a ae b4 bd
       0.049213182 0.036103442 -0.054254737 -0.08822365
000020 b4 ed 3d bd 64 0e 2a bd 61 1f 20 3d 4d 35 18 bc
       -0.04636927 -0.04151763 0.039092425 -0.009290052
000030 4c 07 76 bd ec b7 ca 3a 75 63 80 bd 59 19 38 bd
       -0.060065553 0.001546619 -0.0626897 -0.04494605
000040 0e 50 fd bc 02 15 4d bc f3 5d 15 bc 7d 7f 06 bd
       -0.030921962 -0.012517216 -0.0091166375 -0.032836426
000050 bb 7b 0c 3d 64 fc bf 3d 2d a3 9e bd 8d 0d be 3c
       0.034297686 0.093743116 -0.07745967 0.02319982
000060 87 d0 42 bd f4 56 c9 bb 31 05 77 bb a7 55 05 bd
       -0.04756215 -0.006144399 -0.0037692303 -0.032552388
000070 25 a4 8e 3b b5 bb 80 3d 17 d4 34 bb 27 c7 79 3d
       0.0043530636 0.06285802 -0.0027592236 0.060980942
000080 64 d4 72 3d f0 b0 21 3d c0 7f c7 3c ef f6 f2 bb
       0.059284583 0.03947538 0.024352908 -0.0074146907
000090 02 ef 71 3c cf fb c2 bc 75 a6 9f 3d f7 5d 42 bd
       0.014766457 -0.023801712 0.07795421 -0.047452893
0000a0 fa a6 ab 3c 9b 9f ea bc a3 91 13 3d 74 30 34 3d
       0.020953644 -0.028640559 0.036027562 0.04399152
0000b0 f1 e4 a1 3c 4f 9d ba bd 0f 01 f6 3c 73 2a c6 3d
       0.019762488 -0.091120355 0.030029802 0.09676065
0000c0 27 dd 92 3d 12 7c 3e bd 4c c3 9b 3c ac 4d 4d 3c
       0.07171088 -0.04650504 0.019014023 0.012530725
0000d0 6e 9e 63 bb 99 e1 49 bd 8d 7c 0c bc e1 9d 84 bd
       -0.0034731883 -0.049287412 -0.008574617 -0.064754255
0000e0 39 be 49 3d fa 80 48 3b b2 a9 76 bd 7f cd 97 3d
       0.049253676 0.0030594454 -0.060220428 0.07412242

discrete_action_output_shape f4 [1, 3]
000000 00 00 c0 40 00 00 40 40 00 00 40 40
       6.0 3.0 3.0

network_body._body_endoder.seq_layers.0.bias f4 [20]
000000 04 a8 dc 3c 0c 98 79 3d 9c 82 1c 3e 10 42 b6 bc
       0.026935585 0.06093602 0.15284199 -0.022248298
000010 f5 1b 1a 3e be 56 06 bd 1a 38 0a 3e ce e5 5d 3e
       0.15049727 -0.032797568 0.13497964 0.21669695
000020 04 7c 09 3e be 95 f4 3d 0f ed 1f 3e 58 bc ea 3d
       0.13426214 0.119426236 0.15617774 0.11461705
000030 83 b7 7d 3d 8a 15 af 3d de 59 66 3e 0f 71 15 3e
       0.06194259 0.0854903 0.22495219 0.1459391
000040 f9 89 3e 3d af d9 5a 3e 86 e5 bd 3d 90 76 2a 3e
       0.0465183 0.21372102 0.09272294 0.1664679

network_body._body_endoder.seq_layers.0.weight f4 [20, 128]
000000 15 73 a6 3e 5d 49 3e 3d 28 0e 84 bc 65 ee ee 3d
       0.32509676 0.046456683 -0.016120031 0.11666564
000010 fd 29 3e 3c ae c3 06 be 26 08 2c 3d 48 48 91 3d
       0.0116066905 -0.13160583 0.04199996 0.07093865
000020 b0 1e ed 3d 11 37 a1 3e 9f 59 a7 3d ab a1 2a 3d
       0.11578119 0.31487325 0.08171391 0.041658085
000030 92 10 34 bd 40 02 07 3d de 25 0f 3e d4 0f c1 3e
       -0.043961115 0.03296113 0.13979289 0.37707388
000040 53 57 0d 3d 8a 07 ab bc 2d e9 4f be f4 5d 79 3e
       0.034507107 -0.020877618 -0.20303793 0.24352247
000050 42 4a 25 3e bd b1 b7 3d 29 47 32 3d d0 0f ee 3d
       0.16141608 0.08969448 0.043524895 0.1162411
000060 fd 50 4d bd ec cc 50 3d 1c 07 03 3e 37 05 95 3e
       -0.050126065 0.05097668 0.12795681 0.2910554
000070 8b 49 dd 3d be 44 92 bd b0 f2 4d be ad cf d2 bc
       0.10805043 -0.07142018 -0.20112109 -0.025733793
000080 0f 36 1f 3d 46 a6 91 3e 60 42 60 3d 3a 40 4c 3e
       0.038869914 0.2844717 0.0547508 0.19946375
000090 e1 33 82 be 6e 27 eb bd 56 f3 e6 3c b7 17 87 3e
       -0.25430205 -0.1148213 0.028192203 0.2638528
0000a0 e8 2a da 3c cf 24 34 3e 0d 53 e1 bd 62 23 64 bc
       0.026631787 0.17592166 -0.11002169 -0.013924452
0000b0 70 b7 d3 3d 20 c2 c5 3d 5f 4f d0 3c 17 8c ed 3d
       0.10337722 0.09656167 0.025428472 0.11598986
0000c0 b0 52 0e be d5 d7 83 bd ee 7a 8c 3d a1 37 13 3e
       -0.1389873 -0.06437651 0.068593845 0.1437669
0000d0 a8 68 09 bd a4 69 bf bd 1a b6 38 be 7c b2 c8 bd
       -0.033547074 -0.09346321 -0.18038216 -0.09799668
0000e0 f5 55 31 3c 98 ef 32 3d 4c 90 97 3b e1 e0 97 3d
       0.010823716 0.043685526 0.004625356 0.07415939
0000f0 05 e6 b1 bd 3a 56 96 3d 33 54 a4 3b 99 9c 20 3e
       -0.08686451 0.07340665 0.00501492 0.15684737
000100 d8 52 67 bd db 5e 12 3e f8 2f 51 bc 2e ea 62 be
       -0.05647549 0.14293997 -0.012767784 -0.22159645
000110 e7 fe 9e 3d 3a 2f 19 3e 41 3b 91 bd 70 f3 b7 3d
       0.077634625 0.14959422 -0.0709138 0.08981979
000120 65 d2 88 3d 86 6c 0a bd 6c 7f ef bd 54 b6 44 3e
       0.066807546 -0.033794902 -0.11694226 0.19210178
000130 16 b5 a9 bd 42 b2 f3 bb 2e 17 10 3e a0 08 f7 3c
       -0.082864925 -0.0074370215 0.14071342 0.03015548
000140 5a 49 86 3b e4 a2 00 3d fe e8 e3 3d 2f 00 d5 3d
       0.0040980997 0.031405345 0.11128424 0.10400426
000150 79 c5 d2 3d 27 20 15 3e 47 68 3b bd 56 c3 9d 3d
       0.10291571 0.14563046 -0.045753743 0.07703273
000160 6f ca be bd 4f 3a 0f 3e f7 07 db bc 5f ed 71 3d
       -0.09315955 0.13987087 -0.026737196 0.059064265
000170 13 15 8d bd 31 bb e4 3d bb f1 f4 bd 07 a5 66 3e
       -0.06888785 0.111685164 -0.11960169 0.2252389
000180 df 91 69 3e 2e 11 15 3e 1e 8e 0b bd d8 15 28 3e
       0.22809552 0.14557335 -0.03407108 0.16414583
000190 66 c3 eb bb 0d 4d 25 3e 08 c8 f5 3a 3a 96 93 3d
       -0.007194924 0.16142674 0.001875163 0.07206388
0001a0 bd 2e 3b 3e db de 87 3d b8 2a 31 3d 5d 73 3b 3e
       0.18279548 0.06634303 0.04325363 0.18305726
0001b0 3e 33 62 be c0 ea cb bc 9c 58 9f 3b cf b8 84 bd
       -0.2208986 -0.024892211 0.004862858 -0.06480562
0001c0 49 4b ea 3c 18 ec a3 3c 89 a0 16 be 19 0a d2 3d
       0.028600352 0.02001004 -0.14709677 0.10255832
0001d0 8f 70 ef 3d ab 1e 30 be 0c 4f 37 be e8 25 ba bb
       0.11691391 -0.17199199 -0.17901248 -0.0056807883
0001e0 c2 c3 d1 3d d6 dd 36 bd 9c b4 c8 bd f5 42 89 3e
       0.10242416 -0.044645153 -0.098000735 0.26808897
0001f0 c9 00 22 3c 8e ad 25 be e7 e2 14 bd 65 dc 8b 3e
       0.0098878825 -0.16179487 -0.036349203 0.27316585
000200 53 b1 81 be d6 92 59 3e 81 bb 16 3d fd 1c 85 3e
       -0.253306 0.2124742 0.03679991 0.2599868
000210 11 90 01 be 3d d9 00 bd 5e 48 63 be b3 23 c4 bc
       -0.12652613 -0.031457175 -0.22195575 -0.023942804
000220 54 2c aa 3c 83 7f 9c 3e d1 26 c8 3c 84 99 e4 3d
       0.02077309 0.30566034 0.024432572 0.11162093
000230 43 e5 9f be 24 1d a2 bd 9d 4a 7b 3d 99 84 e3 3e
       -0.312296 -0.079157144 0.061350454 0.444371
000240 4a b4 16 3e 5a a0 2b bd 4d f6 77 be bb 1d da 3d
       0.14717212 -0.04190097 -0.2421505 0.10650202
000250 fb af 8c 3e cf ac e1 3e 79 ad 8c 3d 18 3e c5 bd
       0.27478012 0.44077155 0.06869025 -0.09630984
000260 46 30 09 bf 2a 77 5a 3d 91 a5 c4 3c 34 5c 03 3f
       -0.53589284 0.0533363 0.02400473 0.51312566
000270 b3 0a eb bd a5 71 6a 3e 29 62 d5 be ab c7 e9 3d
       -0.1147665 0.22894914 -0.41676453 0.11415037
000280 80 ba eb 3d 94 66 88 3e 42 e2 a4 3d 89 cd 38 3d
       0.115101814 0.2664076 0.08050968 0.04511789
000290 95 fe 07 bf 55 84 5b 3e 49 39 6f 3d 0f 07 58 3e
       -0.53122836 0.214372 0.05840424 0.21096443
0002a0 b2 80 c4 3c ba 79 1d 3e 81 41 70 be 5c ed 9e bd
       0.023987148 0.15378466 -0.23462488 -0.077601165
0002b0 0b f3 b7 3d 19 cb 92 3e c9 55 97 3d 9e 5f de 3d
       0.08981904 0.28670576 0.07389409 0.10858081
0002c0 60 58 af be 05 fa 85 3d 59 fe 89 3d af ff ac 3e
       -0.34247112 0.06541828 0.06737966 0.3378882
0002d0 98 cb c4 3d 32 48 5e 3e 10 cc 00 be 86 5d 3b 3e
       0.09609145 0.21707228 -0.12577844 0.18297395
0002e0 16 9e 14 3d 09 ad 6d 3e 14 8b 85 3d aa e4 b9 3d
       0.036283575 0.23210539 0.06520668 0.09076817
0002f0 ba 0d b4 be 16 f7 af bd a8 2e 20 3e b4 aa c6 3e
       -0.35166723 -0.0859205 0.15642798 0.3880211
000300 ed 7b b1 3d 01 b1 04 3e 33 44 8e be ae 1d be bc
       0.08666215 0.12958147 -0.27786407 -0.023207512
000310 61 93 5d 3e 36 d4 69 3e 61 f9 ec bc 47 4b 08 3e
       0.21638252 0.22834858 -0.028927507 0.13309966
000320 d4 73 3d be 09 8b 39 3c 87 2c 9b bc 04 1a 07 3e
       -0.18501216 0.0113246525 -0.01894213 0.13193518
000330 51 89 95 3d f0 23 4b 3e 98 f3 d3 be a0 e5 0a 3d
       0.07301582 0.19837928 -0.41396785 0.033910394
000340 88 5b b1 3d 10 b5 c0 3d a4 96 49 3e 48 8f 42 3e
       0.08660036 0.09409535 0.19686371 0.1899997
000350 77 aa 56 be bc eb 60 3d 2a a0 92 3e f9 9f e2 3d
       -0.20963465 0.054912314 0.2863782 0.110656686
000360 15 4e 00 3e ab 5e 3b 3e 49 84 be be c8 c0 e2 3d
       0.12529786 0.18297832 -0.372103 0.11071926
000370 53 c9 f5 3d 85 a6 bd 3b 64 e8 ee 3d 85 2e 5e 3d
       0.1200129 0.005787673 0.11665419 0.054243583
000380 c0 fb 7a be 1a 06 b2 3d 54 c5 4c 3e 98 65 33 3e
       -0.24510098 0.0869257 0.1999715 0.17519224
000390 35 eb a5 3d 07 9d 07 3e d7 14 13 be 88 3c 5d 3d
       0.08101503 0.13243495 -0.14363419 0.054012805
0003a0 12 82 99 bd 8b ce de 3d 28 a5 e9 3d 42 f8 d1 3d
       -0.07495512 0.10879239 0.11408454 0.102524295
0003b0 ba a0 75 be 5c c7 c6 bd 80 45 eb 3d 60 0e 96 3b
       -0.23987094 -0.097059935 0.114878654 0.0045793504
0003c0 28 2b 30 bc 85 86 8d 3d 79 ea 43 be dd e4 07 be
       -0.010752477 0.06910423 -0.19132413 -0.13270898
0003d0 1c 44 f4 3d f9 60 6c bd 44 19 80 3c d3 79 00 3b
       0.11927053 -0.057709668 0.015637048 0.0019603863
0003e0 6e 42 4b be 52 a0 73 bd 91 39 ea 3d c1 a3 84 bd
       -0.1984956 -0.059479065 0.11436761 -0.06476546
0003f0 2a 9e 8f 3c 5a de ca 3c 3b 5a 92 bd a1 f5 ea bd
       0.017531473 0.024764229 -0.07146116 -0.11472631
