config/ppo/results/RayShoot0608/Shooting/Shooting-190437.pt (torch, 80583 bytes, 34 tensors)

discrete_act_size_vector f4 [1, 3]
00000000: 0000 c040 0000 4040 0000 4040
6.0 3.0 3.0

network_body._body_endoder.seq_layers.0.weight f4 [20, 128]
00000000: 1573 a63e 5d49 3e3d 280e 84bc 65ee ee3d
00000010: fd29 3e3c aec3 06be 2608 2c3d 4848 913d
00000020: b01e ed3d 1137 a13e 9f59 a73d aba1 2a3d
00000030: 9210 34bd 4002 073d de25 0f3e d40f c13e
00000040: 5357 0d3d 8a07 abbc 2de9 4fbe f45d 793e
00000050: 424a 253e bdb1 b73d 2947 323d d00f ee3d
00000060: fd50 4dbd eccc 503d 1c07 033e 3705 953e
00000070: 8b49 dd3d be44 92bd b0f2 4dbe adcf d2bc
00000080: 0f36 1f3d 46a6 913e 6042 603d 3a40 4c3e
00000090: e133 82be 6e27 ebbd 56f3 e63c b717 873e
000000a0: e82a da3c cf24 343e 0d53 e1bd 6223 64bc
000000b0: 70b7 d33d 20c2 c53d 5f4f d03c 178c ed3d
000000c0: b052 0ebe d5d7 83bd ee7a 8c3d a137 133e
000000d0: a868 09bd a469 bfbd 1ab6 38be 7cb2 c8bd
000000e0: f555 313c 98ef 323d 4c90 973b e1e0 973d
000000f0: 05e6 b1bd 3a56 963d 3354 a43b 999c 203e
00000100: d852 67bd db5e 123e f82f 51bc 2eea 62be
00000110: e7fe 9e3d 3a2f 193e 413b 91bd 70f3 b73d
00000120: 65d2 883d 866c 0abd 6c7f efbd 54b6 443e
00000130: 16b5 a9bd 42b2 f3bb 2e17 103e a008 f73c
00000140: 5a49 863b e4a2 003d fee8 e33d 2f00 d53d
00000150: 79c5 d23d 2720 153e 4768 3bbd 56c3 9d3d
00000160: 6fca bebd 4f3a 0f3e f707 dbbc 5fed 713d
00000170: 1315 8dbd 31bb e43d bbf1 f4bd 07a5 663e
00000180: df91 693e 2e11 153e 1e8e 0bbd d815 283e
00000190: 66c3 ebbb 0d4d 253e 08c8 f53a 3a96 933d
000001a0: bd2e 3b3e dbde 873d b82a 313d 5d73 3b3e
000001b0: 3e33 62be c0ea cbbc 9c58 9f3b cfb8 84bd
000001c0: 494b ea3c 18ec a33c 89a0 16be 190a d23d
000001d0: 8f70 ef3d ab1e 30be 0c4f 37be e825 babb
000001e0: c2c3 d13d d6dd 36bd 9cb4 c8bd f542 893e
000001f0: c900 223c 8ead 25be e7e2 14bd 65dc 8b3e
00000200: 53b1 81be d692 593e 81bb 163d fd1c 853e
00000210: 1190 01be 3dd9 00bd 5e48 63be b323 c4bc
00000220: 542c aa3c 837f 9c3e d126 c83c 8499 e43d
00000230: 43e5 9fbe 241d a2bd 9d4a 7b3d 9984 e33e
00000240: 4ab4 163e 5aa0 2bbd 4df6 77be bb1d da3d
00000250: fbaf 8c3e cfac e13e 79ad 8c3d 183e c5bd
00000260: 4630 09bf 2a77 5a3d 91a5 c43c 345c 033f
00000270: b30a ebbd a571 6a3e 2962 d5be abc7 e93d
00000280: 80ba eb3d 9466 883e 42e2 a43d 89cd 383d
00000290: 95fe 07bf 5584 5b3e 4939 6f3d 0f07 583e
000002a0: b280 c43c ba79 1d3e 8141 70be 5ced 9ebd
000002b0: 0bf3 b73d 19cb 923e c955 973d 9e5f de3d
000002c0: 6058 afbe 05fa 853d 59fe 893d afff ac3e
000002d0: 98cb c43d 3248 5e3e 10cc 00be 865d 3b3e
000002e0: 169e 143d 09ad 6d3e 148b 853d aae4 b93d
000002f0: ba0d b4be 16f7 afbd a82e 203e b4aa c63e
00000300: ed7b b13d 01b1 043e 3344 8ebe ae1d bebc
00000310: 6193 5d3e 36d4 693e 61f9 ecbc 474b 083e
00000320: d473 3dbe 098b 393c 872c 9bbc 041a 073e
00000330: 5189 953d f023 4b3e 98f3 d3be a0e5 0a3d
00000340: 885b b13d 10b5 c03d a496 493e 488f 423e
00000350: 77aa 56be bceb 603d 2aa0 923e f99f e23d
00000360: 154e 003e ab5e 3b3e 4984 bebe c8c0 e23d
00000370: 53c9 f53d 85a6 bd3b 64e8 ee3d 852e 5e3d
00000380: c0fb 7abe 1a06 b23d 54c5 4c3e 9865 333e
00000390: 35eb a53d 079d 073e d714 13be 883c 5d3d
000003a0: 1282 99bd 8bce de3d 28a5 e93d 42f8 d13d
000003b0: baa0 75be 5cc7 c6bd 8045 eb3d 600e 963b
000003c0: 282b 30bc 8586 8d3d 79ea 43be dde4 07be
000003d0: 1c44 f43d f960 6cbd 4419 803c d379 003b
000003e0: 6e42 4bbe 52a0 73bd 9139 ea3d c1a3 84bd
000003f0: 2a9e 8f3c 5ade ca3c 3b5a 92bd a1f5 eabd
0.32509676 0.046456683 -0.016120031 0.11666564 0.0116066905 -0.13160583 0.04199996 0.07093865
0.11578119 0.31487325 0.08171391 0.041658085 -0.043961115 0.03296113 0.13979289 0.37707388
0.034507107 -0.020877618 -0.20303793 0.24352247 0.16141608 0.08969448 0.043524895 0.1162411
-0.050126065 0.05097668 0.12795681 0.2910554 0.10805043 -0.07142018 -0.20112109 -0.025733793
0.038869914 0.2844717 0.0547508 0.19946375 -0.25430205 -0.1148213 0.028192203 0.2638528
0.026631787 0.17592166 -0.11002169 -0.013924452 0.10337722 0.09656167 0.025428472 0.11598986
-0.1389873 -0.06437651 0.068593845 0.1437669 -0.033547074 -0.09346321 -0.18038216 -0.09799668
0.010823716 0.043685526 0.004625356 0.07415939 -0.08686451 0.07340665 0.00501492 0.15684737
-0.05647549 0.14293997 -0.012767784 -0.22159645 0.077634625 0.14959422 -0.0709138 0.08981979
0.066807546 -0.033794902 -0.11694226 0.19210178 -0.082864925 -0.0074370215 0.14071342 0.03015548
0.0040980997 0.031405345 0.11128424 0.10400426 0.10291571 0.14563046 -0.045753743 0.07703273
-0.09315955 0.13987087 -0.026737196 0.059064265 -0.06888785 0.111685164 -0.11960169 0.2252389
0.22809552 0.14557335 -0.03407108 0.16414583 -0.007194924 0.16142674 0.001875163 0.07206388
0.18279548 0.06634303 0.04325363 0.18305726 -0.2208986 -0.024892211 0.004862858 -0.06480562
0.028600352 0.02001004 -0.14709677 0.10255832 0.11691391 -0.17199199 -0.17901248 -0.0056807883
0.10242416 -0.044645153 -0.098000735 0.26808897 0.0098878825 -0.16179487 -0.036349203 0.27316585
-0.253306 0.2124742 0.03679991 0.2599868 -0.12652613 -0.031457175 -0.22195575 -0.023942804
0.02077309 0.30566034 0.024432572 0.11162093 -0.312296 -0.079157144 0.061350454 0.444371
0.14717212 -0.04190097 -0.2421505 0.10650202 0.27478012 0.44077155 0.06869025 -0.09630984
-0.53589284 0.0533363 0.02400473 0.51312566 -0.1147665 0.22894914 -0.41676453 0.11415037
0.115101814 0.2664076 0.08050968 0.04511789 -0.53122836 0.214372 0.05840424 0.21096443
0.023987148 0.15378466 -0.23462488 -0.077601165 0.08981904 0.28670576 0.07389409 0.10858081
-0.34247112 0.06541828 0.06737966 0.3378882 0.09609145 0.21707228 -0.12577844 0.18297395
0.036283575 0.23210539 0.06520668 0.09076817 -0.35166723 -0.0859205 0.15642798 0.3880211
0.08666215 0.12958147 -0.27786407 -0.023207512 0.21638252 0.22834858 -0.028927507 0.13309966
-0.18501216 0.0113246525 -0.01894213 0.13193518 0.07301582 0.19837928 -0.41396785 0.033910394
0.08660036 0.09409535 0.19686371 0.1899997 -0.20963465 0.054912314 0.2863782 0.110656686
0.12529786 0.18297832 -0.372103 0.11071926 0.1200129 0.005787673 0.11665419 0.054243583
-0.24510098 0.0869257 0.1999715 0.17519224 0.08101503 0.13243495 -0.14363419 0.054012805
-0.07495512 0.10879239 0.11408454 0.102524295 -0.23987094 -0.097059935 0.114878654 0.0045793504
-0.010752477 0.06910423 -0.19132413 -0.13270898 0.11927053 -0.057709668 0.015637048 0.0019603863
-0.1984956 -0.059479065 0.11436761 -0.06476546 0.017531473 0.024764229 -0.07146116 -0.11472631

network_body._body_endoder.seq_layers.0.bias f4 [20]
00000000: 04a8 dc3c 0c98 793d 9c82 1c3e 1042 b6bc
00000010: f51b 1a3e be56 06bd 1a38 0a3e cee5 5d3e
00000020: 047c 093e be95 f43d 0fed 1f3e 58bc ea3d
00000030: 83b7 7d3d 8a15 af3d de59 663e 0f71 153e
00000040: f989 3e3d afd9 5a3e 86e5 bd3d 9076 2a3e
0.026935585 0.06093602 0.15284199 -0.022248298 0.15049727 -0.032797568 0.13497964 0.21669695
0.13426214 0.119426236 0.15617774 0.11461705 0.06194259 0.0854903 0.22495219 0.1459391
0.0465183 0.21372102 0.09272294 0.1664679

action_model._discrete_distribution.branches.0.weight f4 [6, 20]
00000000: 4849 ae3c 53c0 b43c 89fb 0b3c e3cd 0f3b
00000010: a23b 32bd 1799 11bd 5853 aebd b415 3f3e
00000020: c5bb 88bd e90b fa3d 5edc 4abd fa92 9c3c
00000030: 9483 79bd d573 a03d 6bbd 003e 4524 a43d
00000040: d6da 093c 1507 093e 23db 8ebc 3a3a 193e
00000050: b167 943c 5c0e ef3c d2ee af3c b471 a03d
00000060: 4330 16bd 289d 173d 0e0b a9bd 2f5f c6bd
00000070: c7c8 58bd db6b eabc ab2e aebb 5ae9 96bc
00000080: bd02 9f3c 4446 dc3c 35ef 683b 6937 f3bc
00000090: d5ed be3c 1415 2dbd c8bc 5e3d ced8 8abd
000000a0: 4e73 2bbd d118 133c a7a6 d53c e8fc 56bd
000000b0: 7dcc 2a3d d7f8 723d 10ea dd3c 7f75 23be
000000c0: 88e2 13bc 7968 aabd 8a80 8abb 3191 86bd
000000d0: 0aa7 cf3d f1f3 ae3c b2a4 c0bc f004 743d
000000e0: e493 82bc 28d5 a73a 7001 7b3d 83d2 d9bd
000000f0: 55a1 3cba 3a27 bd3c ba18 443c 97eb 033d
00000100: f140 bfbb db75 a73d 6792 9e3d e6e2 3bbd
00000110: 3398 923d 2a47 713c 4367 e03d 5963 943d
00000120: d204 553c 32ac 903c 6580 83bd 9b3f cf3c
00000130: c073 93bd bdca 6fbd 4366 80bc 4cbe d2bd
00000140: f24c 1cbb 8219 11bd 25c7 a1bc 81b0 d83d
00000150: fae8 483d 4cb4 bf3a 63e0 c33d 615f 76bd
00000160: dede 023d 61f6 c3bb c54f 6a3d d6e2 2e3d
00000170: fd4a 533c c43b 77bd 0996 7ebd 2924 303d
00000180: 1ac6 383c 1cce 02bd 1112 f4bd 4f50 173d
00000190: 35e3 5cbd d343 47bd 440a 553c adbf a33b
000001a0: ad61 843d d4d7 b8bd 8f9c 93bd 2c35 363d
000001b0: 59cb 35bd 8f17 0abc 7467 dc3c a49c 34bd
000001c0: 3d2a faba ef24 60bd 9631 3e3a e965 97bd
000001d0: e20f 583d a9e0 ab3d e89d 693d d3d7 d1bc
0.021275178 0.022064364 0.008543857 0.0021942786 -0.0435139 -0.03554639 -0.0851199 0.18660623
-0.06676439 0.12209303 -0.049526565 0.019113053 -0.0609165 0.07834593 0.12572257 0.0801473
0.008413991 0.13381608 -0.017438477 0.14963618 0.01811585 0.029181652 0.021476183 0.07834187
-0.03666712 0.03701511 -0.08254062 -0.096861236 -0.05292585 -0.028615883 -0.005315622 -0.018421818
0.019410485 0.026888974 0.003554297 -0.029689508 0.023306767 -0.04225643 0.054379255 -0.067796335
-0.04185801 0.008978085 0.026080443 -0.052487284 0.04169892 0.059319343 0.027089149 -0.1596279
-0.009026177 -0.08320708 -0.004226749 -0.06570662 0.10139282 0.021356555 -0.023516033 0.05957502
-0.01593966 0.0012804614 0.061280668 -0.10635855 -0.0007195671 0.023089994 0.011968786 0.032207098
-0.005836599 0.08176776 0.07742768 -0.045870684 0.07157936 0.0147264395 0.109571956 0.072455116
0.0130016375 0.017660234 -0.06420974 0.025298884 -0.07199812 -0.058542956 -0.015673762 -0.102902025
-0.0023849574 -0.035424717 -0.01974828 0.105805404 0.04905031 0.0014625876 0.09564283 -0.060149554
0.031950824 -0.0059802984 0.05720498 0.042696796 0.012896297 -0.06035973 -0.062154803 0.043003235
0.0112777 -0.031934842 -0.119175084 0.036941823 -0.05392762 -0.048648667 0.013002936 0.004997215
0.06463943 -0.09025541 -0.072075956 0.044484302 -0.04438338 -0.008428468 0.026904799 -0.044094697
-0.0019086074 -0.054722723 0.00072553137 -0.07392485 0.052749522 0.0839246 0.057035357 -0.025615608

action_model._discrete_distribution.branches.0.bias f4 [6]
00000000: 2577 d93d d79c b5bc 5277 aabd 1b8b b8bc
00000010: de30 78bd d8cf 553d
0.10618428 -0.022169514 -0.0832354 -0.022527268 -0.06059348 0.05220017

action_model._discrete_distribution.branches.1.weight f4 [3, 20]
00000000: e111 343d a329 97bd fb2b 933b f8ac 6c3d
00000010: e4fb 3fbe 7c32 f6bd aeaf 0abe ebba 2d3e
00000020: 9f47 2ebe 70ca 3b3e dd42 bdbe 7c75 43be
00000030: 5752 03be ec04 073c dfa1 543e 5d48 023e
00000040: 65df 65bd 4520 7f3e a039 123e 4623 803e
00000050: 4ad2 38be a9a1 59be cabc 9b3e a077 d2bc
00000060: 8bf9 c23e 8929 a53d cbd1 813e a9ac 3abc
00000070: 3f13 ad3e d04c e0be 1fbe c23e 74a0 4fbe
00000080: b5b3 c53d fe89 95be 4546 843d 8d34 c73d
00000090: 5495 d93d bcf5 8b3d 44f2 1ebc f083 0fbe
000000a0: 1f74 893d 105e 863e 826c c3be c0ea 583d
000000b0: 0348 80be 51d6 b23d 9024 d1bd 5ba0 7fbe
000000c0: 4865 4fbe 3c6f 483e 6120 61bd 1d52 c13e
000000d0: 9dc4 953d f6c4 7f3e eb2e a7be b829 64be
000000e0: 9a9e bebb d222 e9be bb70 01be 0915 23be
0.043962363 -0.073809884 0.004491327 0.057782143 -0.18748432 -0.12021348 -0.13543579 0.16965835
-0.17019509 0.18338943 -0.36965075 -0.19087785 -0.12824379 0.00824092 0.20764874 0.12722917
-0.05612125 0.24914654 0.14279795 0.25026911 -0.18048969 -0.21253075 0.30417472 -0.025691807
0.3808101 0.08064563 0.25355372 -0.011393704 0.33803746 -0.43808603 0.38035676 -0.20276052
0.09653417 -0.29206842 0.06458715 0.0972682 0.10624185 0.068339795 -0.009701315 -0.14015174
0.067116015 0.2624364 -0.38168722 0.05295825 -0.2505494 0.08732284 -0.10212052 -0.24963515
-0.2025348 0.19573683 -0.05496252 0.3775796 0.07312892 0.24977478 -0.32652983 -0.2228154
-0.0058172466 -0.45534378 -0.1264066 -0.15925993

action_model._discrete_distribution.branches.1.bias f4 [3]
00000000: 6f1f 973d e4b3 51bd ece4 11bd
0.07379042 -0.051196948 -0.035618708

action_model._discrete_distribution.branches.2.weight f4 [3, 20]
00000000: 8f57 7ebc 936b a3bc 395a 8b3c de99 243d
00000010: c393 493d 34e1 133d 373a 5ebd 9aae b4bd
00000020: b4ed 3dbd 640e 2abd 611f 203d 4d35 18bc
00000030: 4c07 76bd ecb7 ca3a 7563 80bd 5919 38bd
00000040: 0e50 fdbc 0215 4dbc f35d 15bc 7d7f 06bd
00000050: bb7b 0c3d 64fc bf3d 2da3 9ebd 8d0d be3c
00000060: 87d0 42bd f456 c9bb 3105 77bb a755 05bd
00000070: 25a4 8e3b b5bb 803d 17d4 34bb 27c7 793d
00000080: 64d4 723d f0b0 213d c07f c73c eff6 f2bb
00000090: 02ef 713c cffb c2bc 75a6 9f3d f75d 42bd
000000a0: faa6 ab3c 9b9f eabc a391 133d 7430 343d
000000b0: f1e4 a13c 4f9d babd 0f01 f63c 732a c63d
000000c0: 27dd 923d 127c 3ebd 4cc3 9b3c ac4d 4d3c
000000d0: 6e9e 63bb 99e1 49bd 8d7c 0cbc e19d 84bd
000000e0: 39be 493d fa80 483b b2a9 76bd 7fcd 973d
-0.015523805 -0.019948756 0.017010795 0.0401858 0.049213182 0.036103442 -0.054254737 -0.08822365
-0.04636927 -0.04151763 0.039092425 -0.009290052 -0.060065553 0.001546619 -0.0626897 -0.04494605
-0.030921962 -0.012517216 -0.0091166375 -0.032836426 0.034297686 0.093743116 -0.07745967 0.02319982
-0.04756215 -0.006144399 -0.0037692303 -0.032552388 0.0043530636 0.06285802 -0.0027592236 0.060980942
0.059284583 0.03947538 0.024352908 -0.0074146907 0.014766457 -0.023801712 0.07795421 -0.047452893
0.020953644 -0.028640559 0.036027562 0.04399152 0.019762488 -0.091120355 0.030029802 0.09676065
0.07171088 -0.04650504 0.019014023 0.012530725 -0.0034731883 -0.049287412 -0.008574617 -0.064754255
0.049253676 0.0030594454 -0.060220428 0.07412242

action_model._discrete_distribution.branches.2.bias f4 [3]
00000000: dc55 9bbd 54a8 5b3b 261c 9b3d
-0.07584736 0.003351708 0.07573728

exp_avg f4 [20, 128]
00000000: ccad a3b9 035e e8b8 5c50 03ba b49e 3aba
00000010: 2b79 15b9 0db2 c3b9 18c3 3739 5b94 1cb9
00000020: f5e4 ddb9 1bec acb6 bcad 0bb9 9d3c 0aba
00000030: 41eb 2f39 e0be adb8 b73a d5b9 33b6 81b6
00000040: b580 f8b8 40f7 04ba 792a 3839 45eb 11b9
00000050: b3d1 f0b9 77bf 9db7 941f d6b8 f42a edb9
00000060: 2c08 de38 d35d 12b9 0df7 e1b9 1f92 8d38
00000070: cf1c b7b8 5fa0 01ba ff95 b238 679a 0fb9
00000080: 4055 e4b9 d81c 7a37 c701 c6b8 c0d3 0dba
00000090: 28b8 7438 a581 0eb9 35a7 dab9 664f 2038
000000a0: 9ef9 e6b8 27cd 01ba 68d6 4b38 6e3d f3b8
000000b0: d2ff adb9 184d ac37 1468 e9b8 a184 f5b9
000000c0: da4a 2638 acf3 e2b8 4320 a7b9 a4d2 4538
000000d0: d254 e6b8 7e11 f5b9 9ef6 e034 7e34 e6b8
000000e0: ebef afb9 2163 1fa8 247d d0b8 ea6c d0b9
000000f0: 2c8b b035 b4e0 00b9 d255 afb9 2163 1fa8
00000100: 1c5d ddb8 e467 cfb9 fe32 e12e 9e74 c1b8
00000110: ad64 adb9 8d12 3b22 66b6 01b9 1533 e9b9
00000120: 39c5 e42e 4ea1 e2b8 6f2d 5fb9 8d12 3b22
00000130: 484c c6b8 92da c8b9 39c5 e42e 0506 bcb8
00000140: deb7 1ab9 34ee 4500 359b cfb8 dafd b6b9
00000150: 4ba3 9336 a31f c6b8 ddfc 24b9 0400 0080
00000160: 47d0 c7b8 ef23 a6b9 4ba3 9336 f31b bab8
00000170: 7cfc 14b9 0400 0080 63eb ffb8 f13c abb9
00000180: 0400 0080 3a26 af37 7337 0db9 0400 0000
00000190: 661c 01b9 1e04 9fb9 151f 56b1 dc26 af37
000001a0: 47c8 06b9 0400 0000 779e 08b9 6c33 9ab9
000001b0: e088 9a2f b024 bd37 c2b0 02b9 d2aa 5f0a
000001c0: 73ff fdb8 d157 88b9 6169 7538 7395 c237
000001d0: 7a2a 10b9 d2aa 5f0a 4856 fcb8 17d7 5f39
000001e0: 6169 7538 184f 9637 54ef 00b9 c7af 883c
000001f0: 9f0b 00bd 68a6 0db9 fa36 5eba ccad a3b9
00000200: 71b5 a1ba 29af afb8 2237 5fba 2995 d1ba
00000210: 83cf 4638 603a 1dba 37f4 e4b7 d17f 34b9
00000220: 2bdc 49ba 23ac 26ba e937 5038 6ad5 55ba
00000230: dc7d 8339 8607 d0b8 88c8 44ba 7f99 4dba
00000240: aea6 8937 950c 48ba 0069 9139 3f85 a2b9
00000250: cc8c 7bba d8ed 3fba 12b4 9538 168e 40ba
00000260: 5119 b337 ad71 91b9 e121 51ba 6a51 8bb7
00000270: c08c 9ab5 bd66 74ba e893 72b8 5315 99b9
00000280: eb0d 4bba 0bdb 34b9 69ce 0739 890b 99ba
00000290: 2971 7fb7 012d 9db9 cf11 6fba 67fd 13b8
000002a0: a1ef 6838 cfe4 a2ba 0e21 a138 474b 3cb9
000002b0: 4443 65ba 1691 d3b8 25a5 3838 39b2 a3ba
000002c0: 4958 8138 4c35 8fb9 8beb 74ba a765 7738
000002d0: ec49 5e38 896a a8ba 7b79 b237 8d1f 8fb9
000002e0: ccd9 68ba 8eb2 2caa 56df 3738 5397 a4ba
000002f0: cee6 c736 d31d acb9 2e50 6eba 8eb2 2caa
00000300: 6f7d cab8 24a2 afba ca9b 09b1 f705 92b9
00000310: a948 77ba f7a3 2221 af6e ccb8 98dc b2ba
00000320: 4831 0eb1 1720 4eb9 c281 37ba f7a3 2221
00000330: 282b 2437 2a37 a8ba 4831 0eb1 9bd2 0fb9
00000340: b998 15ba 8180 e580 6e3f 2837 b3ee 90ba
00000350: dee3 3037 2cd5 85b9 871d 26ba 0400 0000
00000360: ad37 0638 a93e 86ba dee3 3037 e7b6 0ab9
00000370: ca81 19ba 0400 0000 ccac 0038 e551 87ba
00000380: 0400 0080 fa66 0339 d417 0cba 0400 0080
00000390: 38b6 14b9 42db 85ba debb 59b1 4f67 0339
000003a0: bd9d 04ba 0400 0080 b5c1 02b9 442b 81ba
000003b0: 5d5c 4baf 304f 0d39 2462 02ba 4047 c30a
000003c0: b467 9ab8 9689 7fba d484 4038 9b12 0d39
000003d0: dcb9 01ba 4047 c30a a671 36b9 4e40 8eba
000003e0: d484 4038 bfb5 f938 5306 d3b9 793e 353b
000003f0: 6102 5fbc 576e 4838 dbd7 ba3a 71b5 a1ba
-0.00031219271 -0.00011080133 -0.0005009228 -0.00071189855 -0.00014254886 -0.00037325957 0.00017524918 -0.00014932586
-0.0004232299 -5.1534857e-06 -0.00013320794 -0.00052733143 0.0001677694 -8.284836e-05 -0.00040670272 -3.8657104e-06
-0.00011849535 -0.00050722435 0.0001756343 -0.00013915922 -0.00045932605 -1.8805016e-05 -0.00010210197 -0.00045236165
0.00010587307 -0.00013958597 -0.0004309941 6.750621e-05 -8.731486e-05 -0.00049448566 8.5156404e-05 -0.00013695062
-0.00043551065 1.4907877e-05 -9.441707e-05 -0.00054102764 5.8345642e-05 -0.00013590472 -0.0004170478 3.822092e-05
-0.000110137495 -0.00049515296 4.8598653e-05 -0.00011598585 -0.00033187732 2.0539897e-05 -0.00011129692 -0.00046828858
3.9647195e-05 -0.00010821907 -0.0003187676 4.7164634e-05 -0.00010983054 -0.00046743074 4.190269e-07 -0.00010977032
-0.00033557354 -8.847768e-15 -9.941522e-05 -0.00039754 1.3153526e-06 -0.0001229074 -0.00033442542 -8.847768e-15
-0.00010555444 -0.0003955952 1.02408734e-10 -9.224679e-05 -0.0003307214 2.5353046e-18 -0.00012370347 -0.00044479282
1.04032734e-10 -0.00010806565 -0.00021283863 2.5353046e-18 -9.455584e-05 -0.0003830982 1.04032734e-10 -8.96566e-05
-0.0001475508 6.4221e-39 -9.899439e-05 -0.0003490288 4.399951e-06 -9.4472685e-05 -0.00015734458 -6e-45
-9.527854e-05 -0.0003168876 4.399951e-06 -8.874377e-05 -0.00014208438 -6e-45 -0.00012203192 -0.00032661067
-6e-45 2.0879426e-05 -0.00013467464 6e-45 -0.00012312978 -0.0003032991 -3.1158767e-09 2.0879721e-05
-0.00012853845 6e-45 -0.00013029003 -0.0002941148 2.8109692e-10 2.254764e-05 -0.00012463614 1.0769187e-32
-0.00012111561 -0.0002600537 5.8510694e-05 2.3196195e-05 -0.00013748734 1.0769187e-32 -0.000120323675 0.00021347064
5.8510694e-05 1.7918224e-05 -0.00012296188 0.01668538 -0.031261083 -0.00013508799 -0.000847682 -0.00031219271
-0.0012337399 -8.3772764e-05 -0.00085149903 -0.0015989888 4.740014e-05 -0.0005997773 -2.729344e-05 -0.00017213753
-0.0007700349 -0.0006358048 4.9643135e-05 -0.00081571063 0.0002508004 -9.919614e-05 -0.0007506688 -0.0007843002
1.6409289e-05 -0.00076312694 0.00027734786 -0.00030998324 -0.00095958705 -0.0007321513 7.1384144e-05 -0.0007345391
2.1350252e-05 -0.0002774125 -0.00079777656 -1.6608003e-05 -1.1514858e-06 -0.00093231705 -5.7835045e-05 -0.00029198322
-0.00077459094 -0.00017247738 0.00012951497 -0.0011676411 -1.5225532e-05 -0.00029978904 -0.000911978 -3.528353e-05
5.5536282e-05 -0.0012427809 7.683235e-05 -0.0001795712 -0.000874568 -0.000100882884 4.402282e-05 -0.0012489028
6.167644e-05 -0.00027314795 -0.000934296 5.898406e-05 5.299777e-05 -0.0012849133 2.1275822e-05 -0.00027298593
-0.0008882552 -1.5338617e-13 4.3838598e-05 -0.0012557305 5.9575314e-06 -0.00032828617 -0.0009090927 -1.5338617e-13
-9.6554744e-05 -0.0013399762 -2.002468e-09 -0.00027851734 -0.00094331295 5.510474e-19 -9.7480945e-05 -0.0013646064
-2.0691733e-09 -0.00019657645 -0.00070002314 5.510474e-19 9.78521e-06 -0.0012833823 -2.0691733e-09 -0.00013716
-0.00057066564 -2.1076427e-38 1.0028349e-05 -0.0011057466 1.0543472e-05 -0.00025526562 -0.00063367974 6e-45
3.199994e-05 -0.0010242063 1.0543472e-05 -0.00013228842 -0.0005855827 6e-45 3.0678508e-05 -0.0010324089
-6e-45 0.00012531495 -0.0005344127 -6e-45 -0.00014182262 -0.0010212439 -3.1684446e-09 0.00012531619
-0.0005058905 -6e-45 -0.00012469928 -0.0009854813 -1.8495556e-10 0.00013476308 -0.00049737305 1.8804618e-32
-7.3626084e-05 -0.000974798 4.5900073e-05 0.00013453739 -0.00049486547 1.8804618e-32 -0.0001739921 -0.0010852905
4.5900073e-05 0.00011907098 -0.00040249768 0.0027655645 -0.013611407 4.7786478e-05 0.0014255004 -0.0012337399

exp_avg_sq f4 [20, 128]
00000000: 71f3 0736 58af 0835 ffb8 e835 cdfe fd35
00000010: 4854 3e35 cb2e 0236 ca13 e435 edf7 0535
00000020: 71ac e935 3b79 9735 4632 5535 c717 0e36
00000030: a6b9 a435 ddfd 1635 3f07 0136 d080 2a35
00000040: 8b47 4c35 e35e 1736 e39c 7c35 df98 4b35
00000050: f931 0336 878e 0b35 8f2e 2135 c57d 1736
00000060: e91e 5635 5d9b 4a35 23c7 0336 e96f da34
00000070: 6391 1635 2cbc 1736 5e8d 1b35 a592 3135
00000080: cc19 0236 745e 8834 c0ca 5635 ad8c 1b36
00000090: 9f98 f434 6d4e 3935 c498 0436 3737 4034
000000a0: d348 2f35 4cd0 1a36 767f a134 d1a4 3735
000000b0: bd7c 0836 5776 fa33 f883 2635 2237 1d36
000000c0: 3f33 1534 8a86 3035 1895 0b36 e398 8733
000000d0: ef14 1f35 2f55 1a36 365f a833 37cd 4735
000000e0: a6d9 0836 4d8d 2333 6b97 2035 cd44 1736
000000f0: 452e 4d33 61f3 4035 2f32 0636 f7aa bd32
00000100: f28d 3d35 d6a0 1836 bbe2 4e33 7660 3335
00000110: cad4 0136 f9c8 6a32 41b2 2d35 5229 1136
00000120: 3c67 2a33 f1ad 0d35 d3c9 f235 0f23 6732
00000130: c4ea 2e35 536a 1036 f2d1 0233 519d 0635
00000140: 9d7e e635 01d4 0032 926a 2d35 e96a 0c36
00000150: a3cc d033 be3f 0435 a305 db35 72ed ab31
00000160: 2046 3e35 cabe 0336 dcb1 ca33 75b7 0835
00000170: edfe d935 59c7 be31 c469 3935 2b4b 0036
00000180: 8dc3 ad32 a33a 0635 38d3 d035 6f17 a131
00000190: 4bca 5135 08ef fe35 f03e 0033 d0c1 0735
000001a0: 51d5 c235 c76b 9f31 74e8 4135 5f28 f735
000001b0: 5783 0733 0284 0535 fb71 b335 fa5e 5d32
000001c0: e705 4135 ea10 f435 76fe ca33 ab86 0135
000001d0: 920d ad35 eef0 5832 1fc9 3a35 034e 0736
000001e0: 2859 b233 909b 0335 9cea a835 99ab 723a
000001f0: 0e97 d13b bab3 c534 20f2 7d36 71f3 0736
00000200: 7fc6 6337 ceb1 5536 4a5c 1837 29d5 8037
00000210: 7c21 4e36 7741 1337 9f15 1537 a39c 3a36
00000220: e440 1837 befa 5137 b869 8536 cc4c 2637
00000230: 4eee c936 4b27 5036 ba9e 2937 5fa8 1337
00000240: 6b79 8536 7064 3b37 8c47 9636 8299 5a36
00000250: c8fb 2637 706b e436 83fb 8436 eef8 4637
00000260: 7b8b 5f36 497c 5d36 f303 2737 2e3e b636
00000270: 7828 9436 decf 4d37 ef59 ef35 0c2b 7236
00000280: da26 2d37 1659 2836 b91d ad36 0dcf 6037
00000290: 417b aa35 ee01 7a36 54af 2c37 6224 dc35
000002a0: b7df a536 de79 6437 01f6 b534 aaf2 6c36
000002b0: 12d0 2937 0bf2 9335 5820 a736 c97e 5f37
000002c0: 23e7 5734 6630 6c36 d78c 3037 260b e534
000002d0: 86f2 9e36 ad9d 5937 668b 0b34 1fb9 7536
000002e0: 1518 2337 9d1d 9c35 89d0 9436 e824 5837
000002f0: 58ec 0d34 93ab 5f36 26d7 1f37 96f9 8435
00000300: 31ce 8c36 9758 4f37 c8ac a933 bf00 4436
00000310: 50a1 1637 f944 f533 0169 8836 1d42 4837
00000320: c47b 7733 8479 2836 cada 0e37 b590 0434
00000330: e641 8e36 b0ed 4837 7b80 3933 1bcb 2036
00000340: 7ec3 0837 75a3 e933 f0a5 9b36 c681 4537
00000350: 9893 7a34 9064 1d36 3a4a 0637 4606 8633
00000360: 02cb 8d36 2c0c 3b37 267c 6534 d534 1d36
00000370: e2d5 0637 d4ab 6c33 5237 7336 8942 3037
00000380: 5c6f 8632 5d5d 2036 2a24 f536 05a2 4c33
00000390: 537e 7436 3e41 2e37 e94f d632 6aad 2536
000003a0: aac4 ee36 7549 0133 1fb9 6236 8a60 2c37
000003b0: b5fb 3d33 3ad8 2136 6254 cc36 3868 7333
000003c0: 9b6f 6d36 a304 2c37 f110 fc33 a8ef 1c36
000003d0: c44d c936 1a86 7133 054d 8336 542b 2c37
000003e0: 56a7 f933 1f74 2136 7de9 c436 8cb2 f83b
000003f0: 5ab6 883c 3660 7e35 0b69 8637 7fc6 6337
2.025827e-06 5.0919107e-07 1.7339188e-06 1.8924126e-06 7.090316e-07 1.9398747e-06 1.6993083e-06 4.990714e-07
1.741004e-06 1.1285659e-06 7.942184e-07 2.117349e-06 1.2272983e-06 5.6248774e-07 1.9226716e-06 6.351738e-07
7.610003e-07 2.2555985e-06 9.4105616e-07 7.584585e-07 1.954961e-06 5.198894e-07 6.0044925e-07 2.257396e-06
7.976619e-07 7.547695e-07 1.9636434e-06 4.068709e-07 5.609092e-07 2.2610284e-06 5.7947716e-07 6.6151034e-07
1.9386525e-06 2.5400698e-07 8.001625e-07 2.3178684e-06 4.5559588e-07 6.9031995e-07 1.9758454e-06 1.790148e-07
6.5298553e-07 2.3069033e-06 3.0081327e-07 6.841265e-07 2.0338186e-06 1.1663058e-07 6.203186e-07 2.3426915e-06
1.389535e-07 6.576089e-07 2.0799398e-06 6.314237e-08 5.926258e-07 2.2997372e-06 7.8404284e-08 7.4431904e-07
2.0392267e-06 3.8079907e-08 5.9824987e-07 2.25408e-06 4.7772364e-08 7.1879737e-07 1.9996767e-06 2.2080242e-08
7.0614544e-07 2.2743384e-06 4.8169323e-08 6.6823065e-07 1.9346357e-06 1.36662885e-08 6.4706916e-07 2.1630735e-06
3.96751e-08 5.277971e-07 1.8089144e-06 1.3453941e-08 6.516168e-07 2.151956e-06 3.0458928e-08 5.0147816e-07
1.7173185e-06 7.498785e-09 6.46026e-07 2.0923856e-06 9.722978e-08 4.926659e-07 1.6318412e-06 5.0037494e-09
7.088256e-07 1.9631575e-06 9.4387104e-08 5.0930913e-07 1.6241953e-06 5.552391e-09 6.907178e-07 1.911724e-06
2.0228777e-08 5.000422e-07 1.555868e-06 4.688381e-09 7.815294e-07 1.8994042e-06 2.9859564e-08 5.0573453e-07
1.451621e-06 4.639762e-09 7.2236367e-07 1.8414684e-06 3.155159e-08 4.973846e-07 1.3369712e-06 1.2885488e-08
7.190669e-07 1.8184339e-06 9.452644e-08 4.825221e-07 1.2893454e-06 1.2627636e-08 6.958307e-07 2.0161976e-06
8.304988e-08 4.9027676e-07 1.2585256e-06 0.00092571374 0.006396181 3.6824878e-07 3.7840873e-06 2.025827e-06
1.357647e-05 3.184297e-06 9.081394e-06 1.535805e-05 3.0715883e-06 8.777125e-06 8.886126e-06 2.7807334e-06
9.0750145e-06 1.2515751e-05 3.976016e-06 9.912252e-06 6.018009e-06 3.1017287e-06 1.0110141e-05 8.801085e-06
3.977844e-06 1.11694535e-05 4.4786775e-06 3.2573885e-06 9.952993e-06 6.807437e-06 3.9631864e-06 1.1859678e-05
3.3310778e-06 3.300391e-06 9.954895e-06 5.4312613e-06 4.415455e-06 1.226735e-05 1.7833062e-06 3.6085867e-06
1.0320649e-05 2.5085806e-06 5.159262e-06 1.3399648e-05 1.2701859e-06 3.7254026e-06 1.0292821e-05 1.6401866e-06
4.943427e-06 1.3618233e-05 3.389287e-07 3.530799e-06 1.012163e-05 1.1022797e-06 4.980753e-06 1.3321355e-05
2.0107522e-07 3.5194912e-06 1.0523209e-05 4.2662685e-07 4.7370004e-06 1.297092e-05 1.2996097e-07 3.66156e-06
9.721164e-06 1.1631524e-06 4.4350204e-06 1.2883196e-05 1.321763e-07 3.3329459e-06 9.527232e-06 9.907405e-07
4.196329e-06 1.2358788e-05 7.9011045e-08 2.920671e-06 8.978255e-06 1.14212476e-07 4.06534e-06 1.1936322e-05
5.7621733e-08 2.5104682e-06 8.5148e-06 1.2346102e-07 4.2396014e-06 1.197627e-05 4.319052e-08 2.396008e-06
8.151748e-06 1.0879641e-07 4.6386776e-06 1.177233e-05 2.3336759e-07 2.3453358e-06 8.004305e-06 6.2410024e-08
4.2257607e-06 1.1148903e-05 2.1372452e-07 2.3425575e-06 8.036821e-06 5.510431e-08 3.6242022e-06 1.0505909e-05
1.5650294e-08 2.3896202e-06 7.305779e-06 4.7644807e-08 3.6432364e-06 1.0386399e-05 2.4949218e-08 2.4687856e-06
7.1158474e-06 3.0101962e-08 3.378438e-06 1.0274476e-05 4.4233918e-08 2.411673e-06 6.089497e-06 5.6672633e-08
3.5380715e-06 1.02530785e-05 1.1737746e-07 2.338531e-06 5.99932e-06 5.623415e-08 3.9130705e-06 1.0262087e-05
1.1625404e-07 2.405846e-06 5.868437e-06 0.007589644 0.016688515 9.476238e-07 1.602296e-05 1.357647e-05

exp_avg f4 [20]
00000000: fed3 803a dd9a ceba 1a98 f2b9 380f 553a
00000010: 5618 92ba 41b5 1eba dbba 94ba bcfa e43a
00000020: 3146 96ba b56e 6b3a 2390 cdba afbb 39ba
00000030: 4010 74b8 3c26 96ba 141d 8239 494f 02b9
00000040: 7ba5 013a ee66 b53a 33eb 1a39 f85c 1e3b
0.0009828804 -0.0015762706 -0.0004627116 0.0008127573 -0.0011146169 -0.00060542306 -0.0011347191 0.0017469744
-0.001146501 0.0008981035 -0.0015683215 -0.0007085157 -5.8189267e-05 -0.0011455487 0.00024817197 -0.00012427302
0.0004945618 0.001383988 0.00014774203 0.00241643

exp_avg_sq f4 [20]
00000000: cdf7 f436 68ef 0a38 f16f 2b38 7a33 1336
00000010: b9a4 5738 98a2 3e37 7490 ef37 b163 8f38
00000020: 9a0e 3038 68c1 a438 136d a338 ef67 5638
00000030: f471 1537 9314 1e38 b003 3d38 bbf0 9837
00000040: 1094 6f36 5ebf 9038 6ec3 a737 4a02 8238
7.3006145e-06 3.312473e-05 4.087383e-05 2.193467e-06 5.1413404e-05 1.1362739e-05 2.8558286e-05 6.83734e-05
4.197527e-05 7.856154e-05 7.792762e-05 5.111837e-05 8.907624e-06 3.7689297e-05 4.5064546e-05 1.823191e-05
3.569996e-06 6.9021e-05 1.9998955e-05 6.1993094e-05

exp_avg f4 [6, 20]
00000000: 2e8e c13c 46d1 e5ba 1dea cb3a 53bb 1e3a
00000010: 569b 773b 8c52 c63b 8f93 0f3c 4775 b53b
00000020: ea87 343c 4ab9 a0bb c3cd b93b 195f 4a3b
00000030: 9c72 2a3b 8255 a4bb e065 53ba 2153 393b
00000040: 2307 e73b 88a5 de3a 5a2f 393b 6c60 253b
00000050: 8176 83bb dc99 6cbb a9a5 a73a 6b97 d3ba
00000060: fccf c93a 1008 29bb 92fd aa3a 695b e23a
00000070: cb7c 0d3b 6df9 d9bb aa19 023a 19e5 c5bb
00000080: c0ac 0739 ee39 a9bb 6b00 e239 1cda 8039
00000090: 8800 3d3a 4f29 c53a 0331 8a39 b66f 6f3a
000000a0: 75df 0937 3fa5 14bb c707 baba f83c 003a
000000b0: 5f7c e7ba caeb 0cbb 88e7 38bb a11f faba
000000c0: 8c9a 49bb 1976 3bbb 2bcb 52bb 6e61 32bb
000000d0: e45b 8fb9 84e8 14bb cc8b d0ba 906c 5f39
000000e0: 5267 19ba 5fad feba e9ed 1439 81de c0ba
000000f0: 48fe 41bc fe9c 62bb da8b bbbb 6661 28ba
00000100: 3706 15bb 9ddf 13bb b01e a1bb c900 68bc
00000110: d288 edbb 53d3 4bbc b043 53bb fa6e b9bb
00000120: cdb5 f7b9 e4d7 cdbb 5d8a 3bbc 5f15 05bc
00000130: 73dd d4bb ee21 4ebc acc8 01bb b246 77bc
00000140: 4d90 f2ba b910 c43b f44e 03bb 77f7 963a
00000150: 872a 0cbb f3d3 013b e303 0a3a 5ba9 1dbb
00000160: b9fd 15bb acdf 1e3c 2124 833a 6ce9 0e3c
00000170: 979d cebb eccc fc3b 9ade a93a 1f21 453b
00000180: f1e9 f4bb 90a6 25bb a01d 97bb d275 1bba
00000190: 3067 c2bb e961 a73b d9c4 ce3b 8216 3437
000001a0: 3955 613a fd1f 89ba 7539 3bbb 8aaa 373c
000001b0: 1215 14ba cb96 8c3c 81db 3eba 3018 2b3b
000001c0: cdaa 8d3b 198e 343c 9a7f 463c 3660 ef3a
000001d0: bc64 de3b 80e0 623c ab41 5c3b 3bcb 603c
0.023627367 -0.0017533682 0.0015557442 0.0006055135 0.0037781796 0.006052321 0.008763208 0.005537662
0.011018733 -0.0049049007 0.0056702807 0.0030879437 0.0026008254 -0.005015076 -0.0008064192 0.0028278308
0.0070504113 0.0016986588 0.0028256983 0.0025234474 -0.0040119295 -0.003610245 0.001279046 -0.0016143149
0.0015397067 -0.002579216 0.001304554 0.0017269674 0.0021589275 -0.0066520483 0.00049629307 -0.0060392735
0.00012938958 -0.0051643765 0.0004310639 0.00024576567 0.0007209857 0.0015042218 0.00026357928 0.00091337727
8.217864e-06 -0.0022681502 -0.0014192992 0.00048918976 -0.0017660967 -0.0021502846 -0.0028214175 -0.0019082912
-0.0030762283 -0.0028604327 -0.0032164555 -0.0027218717 -0.0002734355 -0.0022721598 -0.0015910803 0.0002130738
-0.0005851883 -0.0019430331 0.00014203008 -0.0014714749 -0.0118404105 -0.0034578438 -0.0057234587 -0.0006423205
-0.00227393 -0.0022563704 -0.0049169883 -0.014160343 -0.0072489763 -0.01244052 -0.003223639 -0.0056589814
-0.00047246963 -0.0062818397 -0.011446563 -0.008122771 -0.0064961254 -0.012581332 -0.0019803448 -0.015092539
-0.001850614 0.005983439 -0.0020036073 0.0011517842 -0.0021387653 0.001981017 0.00052648614 -0.0024057243
-0.0022886826 0.009696882 0.0010005274 0.008722644 -0.0063054073 0.0077148583 0.0012960017 0.0030079556
-0.007474177 -0.002527628 -0.004611686 -0.00059303374 -0.005932711 0.0051081073 0.006310087 1.0734077e-05
0.0008595768 -0.0010461804 -0.0028568183 0.011210093 -0.00056488917 0.017161747 -0.00072806334 0.0026106946
0.0043233396 0.011020207 0.0121153835 0.0018262926 0.006786911 0.01384747 0.0033608477 0.013720329

exp_avg_sq f4 [6, 20]
00000000: 7476 233c 322a d23b fc0c 4f3b 7f20 0a3b
00000010: 9904 f23a 3448 b43b 3423 1e3b f734 4b3c
00000020: 70ec 2b3b 83a4 953c 4055 493b f6af b73b
00000030: 602e 003c 6b45 0e3c f009 0b3c bc1f f13b
00000040: c529 e53b 33b4 073c 96d5 f53b bee8 eb3b
00000050: 7284 d83a 8a03 403b e01d 4c3a 6015 6339
00000060: 8c90 053a 3273 0b3b 3ce9 263a c2bf 693b
00000070: d64f 243a be7a ca3b dd09 763a 65fa 033b
00000080: a2d1 983b 3d77 6f3b feef 003b c3d0 ba3a
00000090: 28b7 543b 0581 f23a 34eb 743b 80ec d53a
000000a0: 89b3 b439 2892 203b 37db 403a 4619 2639
000000b0: 7feb f839 d343 073b 8937 8739 a197 3c3b
000000c0: aa55 c439 22b8 453b 7d5d 2c3a 1906 533a
000000d0: 8e48 cb3b b460 1c3b 83e4 ad3a 28d9 233a
000000e0: 905a 7b3b a702 b83a d498 8d3b 600c 593a
000000f0: 54a5 393b 252d 1f3b 0be4 ab3a 86bb de3a
00000100: e433 8a3a febd 5f3b 3383 c43a 0f21 373b
00000110: f218 c03a 5fe5 dd3b bdfb 003b 0d46 463b
00000120: 16ee b63a 702d 593b 8680 3b3b 9db2 803b
00000130: d684 b63a f559 0f3b badc c13a 608b cd3a
00000140: 5fd2 e93b 202e a03a aa9d a93a 1a50 f43a
00000150: eee0 773a e5f6 083b 8634 bf3a 2429 583b
00000160: 1c8f de3a 8311 963b cc94 ca3a bd69 063b
00000170: 2411 c23a afa7 ef3a 68e0 2f3b 2360 823b
00000180: e654 f93a ed78 1d3b 2b24 be3a e2f8 0d3b
00000190: 1f2b e83a 77f1 fd3a 4ed9 913a 7161 0e39
000001a0: 5b8c ff39 f747 743a 778b d039 c259 cc3b
000001b0: 5d68 2a3a e1ca c73b 3433 1e3a cd8b 933a
000001c0: 0147 903b 9aaf 2a3b d60e 593b 844f ef3a
000001d0: 1f3d 8b3b 69b5 823b ac92 5b3b 955f 663b
0.009976972 0.0064137215 0.0031593433 0.0021076498 0.0018464505 0.0055017713 0.002412987 0.0124027645
0.0026233457 0.018266922 0.003072098 0.005605693 0.007823557 0.008683543 0.008486256 0.0073585194
0.0069935047 0.008282709 0.007502268 0.007199376 0.0016518964 0.0029298984 0.0007786434 0.0002165637
0.00050950865 0.0021278379 0.0006367152 0.0035667275 0.0006268 0.006179183 0.0009385625 0.002013826
0.004663662 0.0036539577 0.0019674296 0.001425289 0.0032457802 0.0018501586 0.0037371637 0.0016321093
0.0003446604 0.0024501178 0.00073568843 0.00015840409 0.00047477704 0.0020639792 0.00025790583 0.0028776901
0.00037447858 0.0030169566 0.000657521 0.000804992 0.0062037176 0.002386135 0.0013266954 0.00062503153
0.003835354 0.0014038876 0.004321197 0.0008279737 0.0028327303 0.0024288383 0.0013114227 0.0016993142
0.0010544029 0.0034140344 0.0014992714 0.0027943288 0.0014655872 0.006771728 0.0019681298 0.0030254156
0.0013956453 0.0033138655 0.0028610541 0.0039275424 0.0013925086 0.0021873687 0.0014790513 0.0015681796
0.007135674 0.0012220778 0.0012940664 0.0018639595 0.00094558194 0.0020899114 0.0014587797 0.0032983506
0.0016979906 0.0045797243 0.0015455722 0.0020509802 0.0014806134 0.0018284227 0.0026836637 0.0039787455
0.0019022494 0.0024028376 0.0014506629 0.0021663238 0.0017713046 0.001937433 0.0011127384 0.00013578475
0.00048741963 0.0009318585 0.0003977676 0.006236286 0.00065005367 0.006097183 0.00060348515 0.0011256874
0.0044029956 0.0026044608 0.0033120415 0.001825795 0.0042492296 0.003988911 0.0033504171 0.0035152186

exp_avg f4 [6]
00000000: 8663 8a3a 2bf6 553a f1a0 d638 4358 18bb
00000010: fa5c 413b 0f69 2abb
0.0010558225 0.0008161987 0.00010234293 -0.0023245967 0.0029504881 -0.0026002561

exp_avg_sq f4 [6]
00000000: 1a3c 493a 1ff5 8b39 1b38 2d39 cb39 8f39
00000010: 0824 8339 9d2c c239
0.00076764973 0.00026694775 0.00016519467 0.00027318145 0.00025013112 0.00037035803

exp_avg f4 [3, 20]
00000000: 3dd3 303c a462 ba3b 2392 6a3b c952 003c
00000010: 747c b93a 1ed3 c83b 5dd9 ab3a 8b46 b53b
00000020: 5763 7bb9 4677 523c 7126 ae38 5005 b23b
00000030: 4360 c73b 39e4 df3b be7d c63b ce3d 523c
00000040: 32bd a73b bae2 623b 44e1 b03b 647b 833b
00000050: c287 01bc 0dbc 983b 78b5 65bb d55c 10bc
00000060: 0b0c 40ba 4dba afbb 6c0c 603a 6a74 4a3b
00000070: a329 1b3b bc97 06b9 e6c9 9a3a 4e7d 0a3b
00000080: 2c8a c73a d0d9 6a3b a94a 94bb ef97 4dbc
00000090: 45c9 463b ce48 3e38 49e2 dcba 6b81 353b
000000a0: 0e5b 3dbb 748e 29bc a7da 9cb8 892b 803a
000000b0: c21a 33ba c9c1 48ba ea0f 0ebb 2840 0dbc
000000c0: 188a 0bbb 385d 50bc decf a5ba 9547 f7bb
000000d0: db40 f9bb 92a6 2abc 07df c8ba 7af8 95b9
000000e0: 4293 05bc 42e1 65bb e240 73bb be3e debb
0.010792551 0.0056880284 0.003579267 0.0078322375 0.001415147 0.0061286828 0.0013111044 0.005532091
-0.00023974232 0.01284582 8.304127e-05 0.005432762 0.0060844733 0.006832626 0.00605747 0.012832118
0.0051189894 0.0034620003 0.0053979475 0.004012512 -0.007905902 0.0046610893 -0.003505079 -0.008811195
-0.00073260133 -0.005362785 0.0008546773 0.0030892142 0.002367594 -0.00012835761 0.0011809438 0.0021131816
0.0015223674 0.0035835393 -0.0045255017 -0.012548431 0.0030332368 4.5367335e-05 -0.0016852106 0.0027695547
-0.0028893384 -0.010348905 -7.479387e-05 0.00097786 -0.00068322953 -0.0007658271 -0.0021676966 -0.008621253
-0.0021292027 -0.012717538 -0.001265045 -0.007546375 -0.0076066083 -0.01041569 -0.0015325256 -0.00028604624
-0.008152785 -0.003507689 -0.003711753 -0.006782382

exp_avg_sq f4 [3, 20]
00000000: 13c3 323b a2b6 d63a 5977 4e3a 71b9 5b3a
00000010: d0ad e339 9839 fb3a 734d 223a 87bf 243b
00000020: 5253 2a3a fe7d 893b f641 413a 1b38 c63a
00000030: 8731 f03a 1a03 0e3b cf58 fb3a 4027 0b3b
00000040: 79b0 c53a 135f d43a 25ee f33a 0c66 b53a
00000050: 6154 d03a f2b1 833a 810c 423a f2de 4a3a
00000060: 64fe dd39 0ad8 c93a 9a2c 1f3a 5ddf 043b
00000070: 99eb 2d3a e258 0b3b 18c2 3d3a 6bf4 6f3a
00000080: 4675 ce3a 2f30 963a 3122 cc3a 15b6 ee3a
00000090: c282 b03a f33d bd3a 3f97 c63a ac29 783a
000000a0: 2bca fc3a 90d9 c53a fd4e 4139 7934 ce38
000000b0: cb89 3239 57ee 8c3a 089c b839 2f32 b03a
000000c0: cf0c b139 e51d 453b 7783 f839 56c1 9b3a
000000d0: 22de e93a dde8 f23a 6e29 133a 0b6a ff39
000000e0: 0c63 ac3a 330e ef39 29c2 a83a 8248 563a
0.0027276918 0.0016381333 0.00078760606 0.000838182 0.00043426314 0.0019166945 0.00061913504 0.0025138573
0.0006497401 0.0041959276 0.00073721947 0.0015122922 0.0018325307 0.002166933 0.0019176247 0.0021233112
0.00150825 0.0016202651 0.0018610401 0.0013839616 0.0015894287 0.0010047539 0.0007402376 0.000773891
0.0004234194 0.0015399468 0.0006072015 0.0020274736 0.0006634533 0.0021262695 0.00072387 0.00091535476
0.0015751503 0.0011458452 0.0015574155 0.0018212224 0.0013466703 0.0014438018 0.0015151276 0.0009466659
0.0019286325 0.0015094746 0.0001843534 9.832619e-05 0.00017026735 0.0010752183 0.00035211467 0.001344269
0.00033769614 0.0030077633 0.00047400195 0.001188318 0.001784269 0.0018532533 0.00056137785 0.00048716398
0.0013152077 0.00045596212 0.0012875247 0.00081742567

exp_avg f4 [3]
00000000: 4744 963b b6d3 93bb 5324 9cb8
0.004585776 -0.004511322 -7.4454256e-05

exp_avg_sq f4 [3]
00000000: 903c 6c39 a745 2439 5ea8 0439
0.00022529275 0.00015666206 0.00012651223

exp_avg f4 [3, 20]
00000000: 1c6b b9bb d83e 8cba 7a8e b0bb 92b6 2dbb
00000010: 5a1a d9ba d41b a0bb 4a53 39bb dcd4 1ebc
00000020: 95ab 8dba b314 2bbc 611f 70ba 0ea9 52ba
00000030: 7b3b 9b39 d6fb 23bb 9582 44bc bb4c 2abc
00000040: af98 34b9 83e8 2dbc 552c afbb f27e 03bc
00000050: 2ed8 e1bb 1306 94bb 95b5 d7bb be03 c2bb
00000060: be79 ce3a 805d ec3a c304 a43b f14f 80bc
00000070: 2a63 2f3b 589a 96bc 01fd a63b 3d97 7bbb
00000080: d646 f7ba 9ff5 13bc 6198 85bc a70d 51bc
00000090: 377e ffbb 8979 66bc e0ff 46bb c2de 5bbc
000000a0: d9a4 4d3c 1c08 b73b 7c1c 443c e672 0c3c
000000b0: a634 a938 32fb 493b 35bd 0ebb f9af cf3c
000000c0: bf18 d1ba 5d1a ec3c a9fd 88bb 8119 983b
000000d0: 0469 d03a 85e9 3c3c b2d2 e73c 4fa9 bd3c
000000e0: 4a91 023c 0328 ca3c a14d 093c 70a8 af3c
-0.0056585204 -0.0010699881 -0.0053880783 -0.0026506525 -0.001656364 -0.00488613 -0.0028278404 -0.009694304
-0.0010808582 -0.010441947 -0.0009159949 -0.00080360554 0.0002960822 -0.0025021932 -0.011994024 -0.0103942705
-0.00017223017 -0.010614517 -0.005345861 -0.008025872 -0.0068922257 -0.0045173257 -0.0065829256 -0.0059208563
0.0015752835 0.0018033236 0.0050054505 -0.015663119 0.0026761987 -0.018384144 0.0050960784 -0.0038389706
-0.0018865715 -0.009030729 -0.016308011 -0.012759603 -0.0077970284 -0.014067062 -0.0030364916 -0.013419809
0.01255151 0.0055856835 0.011969682 0.008572316 8.0683545e-05 0.003081989 -0.0021780257 0.025352465
-0.001595281 0.028821165 -0.0041806293 0.004641712 0.0015900438 0.011530285 0.02829871 0.023152022
0.00796921 0.024677282 0.008380325 0.021442622

exp_avg_sq f4 [3, 20]
00000000: 1227 c13a a52e bb3a 859a 8f3a 7f92 cb39
00000010: 71b1 213a 9f53 de3a afd9 fc39 988b 493b
00000020: 85b5 213a 94c9 bf3b 4f0f 533a 8a75 d13a
00000030: cf10 4f3a 6620 273b 6de4 3d3b c03a fc3a
00000040: ae37 6b3a 1638 2d3b 9a70 d33a 3352 d23a
00000050: 2154 c43b dc1c 873b acce 2b3b 06fd 063a
00000060: eb69 b43a 3f6c 3d3b 54e0 f23a e186 293c
00000070: 29b7 063b 56fc 7e3c e44d 0f3b eafa 903b
00000080: bf0b 8e3b 6100 d13b d2ba f43b 7787 ba3b
00000090: 3f81 ad3b 8515 f63b b302 963b 7451 c23b
000000a0: 8c4c bd3b bc28 603b 09da 2e3b b920 a039
000000b0: cfd9 ba3a a5da 003b 078c f93a 35b4 293c
000000c0: 7c7e 113b fa31 5f3c 3c35 0d3b 2199 773b
000000d0: e982 7d3b e3ab ad3b 2519 f23b b18f b53b
000000e0: 2417 a43b 622a fb3b c3c1 863b 7b3b c23b
0.0014736375 0.0014280869 0.0010956085 0.00038828325 0.00061681034 0.0016962177 0.00048227372 0.003075337
0.0006168711 0.0058528874 0.00080512924 0.0015980464 0.0007898928 0.0025501489 0.0028975264 0.0019243583
0.00089728355 0.0026431135 0.001613158 0.0016046226 0.0059914743 0.0041233134 0.0026215715 0.0005149398
0.0013764476 0.002890363 0.001852999 0.010347099 0.002055595 0.015563091 0.0021866495 0.0044244425
0.0043348963 0.006378219 0.00746856 0.005692418 0.0052949484 0.0075098895 0.0045779585 0.00593012
0.0057769474 0.0034203967 0.0026680252 0.00030541958 0.0014255586 0.0019661572 0.0019038924 0.010357906
0.0022200635 0.013622755 0.0021546623 0.003778048 0.0038682765 0.0053000315 0.0073882514 0.005540811
0.0050076414 0.0076649645 0.0041124537 0.005927501

exp_avg f4 [3]
00000000: a3a9 5f39 0f16 12bc 6a97 0e3c
0.00021330132 -0.008916392 0.008703092

exp_avg_sq f4 [3]
00000000: 7684 9c39 25b0 383a 4287 273a
0.0002985333 0.00070452905 0.00063906994

exp_avg f4 [20, 128]
00000000: 472d 8dba ddbf e438 0dac 7bbc 5a18 5ebc
00000010: bb3f 6038 9d5c 62bc b01e 8bbb a3bf f3b8
00000020: 5c41 18bc 782b 393c af1f 6439 3bf8 a6bc
00000030: 7782 94bb 56a8 923b f050 c0bb 89f3 0e3c
00000040: a264 e7ba d320 a4bc 145f a9bb 59fa 3d3b
00000050: 091f fcbb 7aca 383b 4209 983b 18d7 84bc
00000060: 84b4 bd3b 6396 4a3b 063a 37bc e75b e9b9
00000070: 829b 6a39 76d4 90bc e51e a03b ed07 623b
00000080: 6f65 2bbc 7229 7e38 5432 3abb 2049 45bc
00000090: 4e52 823a 18cb 8a3b b60d 1cbb ad76 8d38
000000a0: 8fd4 c2b9 5415 36bc 7d06 0bb6 48ba 853b
000000b0: ea62 f7ba cb2c 1138 78d9 04ba 5e88 2abc
000000c0: eef3 c4b5 2195 963b a5b2 91ba cf57 0b37
000000d0: 9210 10bb 4acf 47bc 6b96 fb39 1731 8f3b
000000e0: ad9b cabb ad9f a32b 3c85 e2ba 09c3 32bc
000000f0: cb68 fb39 a5fd 773b 7342 d1bb ad9f a32b
00000100: 3d95 dfb8 f97a 3bbc abaa 68b4 eb94 1f3b
00000110: c1b8 edbb 8c1b 6ca5 cf5c e7b9 3b76 3ebc
00000120: c5e8 62b4 c71b ca3a 0e2c c1bb 8c1b 6ca5
00000130: fcc9 33bb f80f 6cbc c5e8 62b4 3a5e 2bba
00000140: dbf2 0abc 3ed3 0b00 7aa2 a6ba 7880 7ebc
00000150: 4f07 343a 6aee 1fba 9c10 fabb 0400 0000
00000160: 2286 d3ba 7db5 85bc 4f07 343a b99f 88ba
00000170: 114c fcbb 0400 0000 1f35 f0ba d2e8 77bc
00000180: 3000 0000 cc1f 40bb b5d8 00bc 0400 0000
00000190: dc76 9ab9 1bcd 69bc 6d0a e433 5820 40bb
000001a0: a123 10bc 0400 0000 d0b7 e738 4af4 60bc
000001b0: 4da3 0b33 d410 43bb da81 1bbc 5de4 150c
000001c0: 2831 7739 f29e 50bc c0a5 ef3a 08c8 43bb
000001d0: 0e4e 30bc 5de4 150c 6f0e 4b3b 4f6c cdbb
000001e0: c0a5 ef3a 7c80 4bbb 0779 3abc bac3 6dbf
000001f0: 1555 3a40 6596 1fbc bbfd 3bbc 472d 8dba
00000200: 5fbb cbbb 26d8 f63a b91d 53bc 6376 b3bc
00000210: c6ec f93a 8a22 31bc 9301 f2bb 9e86 dc3a
00000220: 378a ecbb 19c4 7b3c efa3 083b c57e b2bc
00000230: aa5a 4ebb b4db c03b 65cb 9cbb 723f 383c
00000240: 8f10 65b9 8615 adbc bf9a 98bb 7931 663b
00000250: 3a1d ddbb 8dd9 f43b 05af b43b ddb1 93bc
00000260: 7f65 0c3c 3bd4 6f3b 7c43 46bc c12e a73b
00000270: a54d d839 aa61 a3bc ce8c ef3b 74bf 843b
00000280: 4a09 3cbc ee99 2db8 9bbc 2dbb cf6c 36bc
00000290: c10e 2a3a 8639 a13b d715 a8ba 5927 2138
000002a0: 7605 1fb9 0760 25bc 36cd 3a35 193e 9e3b
000002b0: 4eb6 e0ba f659 bb37 7b80 80b9 6a53 1abc
000002c0: 5d4b 6835 b772 a33b f9b4 dcba f1c2 4736
000002d0: 6f59 10bb 909f 41bc 70a3 0f3a f99b 9a3b
000002e0: 5a7b f4bb 9a29 d82b 77c1 e0ba 5551 2abc
000002f0: 5a46 0f3a 0a7f 853b 43ac fdbb 9a29 d82b
00000300: db1d 9cb9 ab25 38bc a8b5 92b4 16a3 273b
00000310: 7547 11bc 261c 8da5 6d4f 02ba d7fa 3bbc
00000320: e546 8fb4 8e4b 013b 05df d2bb 261c 8da5
00000330: 9f48 1fbb 8389 63bc e546 8fb4 c134 13ba
00000340: a4ad 17bc 9059 0100 f787 33ba 8c2a 77bc
00000350: 8f6a 4a3a 1135 04ba c0a0 febb 0400 0000
00000360: 030c afba a3a7 83bc 8f6a 4a3a 1997 82ba
00000370: a247 ffbb 0400 0000 1f39 a5ba 6cf3 6fbc
00000380: 3c00 0000 5c53 4dbb 3d33 02bc 0400 0080
00000390: 3342 403a df20 64bc b9a2 0434 f453 4dbb
000003a0: 0a37 13bc 0400 0080 3959 a33a b80a 5abc
000003b0: 29b7 2433 48b1 50bb 3e46 20bc 53b2 2d0c
000003c0: 7175 b43a d2e4 4dbc bc02 093b 387d 51bb
000003d0: ba15 38bc 53b2 2d0c 5f93 a83b cd63 eebb
000003e0: bc02 093b d84f 5abb ac06 45bc 4471 c03d
000003f0: 658d 9140 d91f 46bc a4d5 d4bb 5fbb cbbb
-0.001077094 0.000109076245 -0.015360844 -0.013555611 5.3465115e-05 -0.013816026 -0.0042456016 -0.00011622838
-0.009292927 0.011301868 0.00021755577 -0.020382037 -0.004532154 0.0044756336 -0.0058690235 0.0087250555
-0.0017653892 -0.020035183 -0.005168805 0.002898833 -0.0076941294 0.0028196857 0.0046397755 -0.016215846
0.0057893414 0.0030912391 -0.011183267 -0.00044509696 0.0002237391 -0.017679434 0.0048864954 0.0034489587
-0.010461195 6.0596918e-05 -0.0028411346 -0.01204136 0.0009942742 0.0042356364 -0.0023811883 6.745509e-05
-0.00037160932 -0.011113483 -2.071639e-06 0.0040810443 -0.0018874083 3.461241e-05 -0.0005067806 -0.010408489
-1.4674131e-06 0.0045954143 -0.0011115862 8.30549e-06 -0.0021982533 -0.012195418 0.0004798652 0.0043698656
-0.006183109 1.1626166e-12 -0.0017282139 -0.010910758 0.00047952528 0.0037840393 -0.006386095 1.1626166e-12
-0.000106612664 -0.011442893 -2.1668772e-07 0.0024350237 -0.0072546904 -2.047907e-16 -0.000441289 -0.011624868
-2.1132571e-07 0.0015419655 -0.0058951443 -2.047907e-16 -0.0027433624 -0.014408104 -2.1132571e-07 -0.0006537173
-0.008480753 1.08597e-39 -0.0012713217 -0.015533559 0.0006867544 -0.0006100895 -0.0076313745 6e-45
-0.0016137997 -0.016321892 0.0006867544 -0.0010423578 -0.0076994975 6e-45 -0.0018326378 -0.015131192
6.7e-44 -0.0029315827 -0.007864167 6e-45 -0.00029461726 -0.014270092 1.0618974e-07 -0.0029316153
-0.008797557 6e-45 0.00011049176 -0.013730118 3.251198e-08 -0.002976467 -0.009491408 1.1547263e-31
0.00023574068 -0.012733208 0.001828365 -0.0029873867 -0.010760797 1.1547263e-31 0.0030983945 -0.006269015
0.001828365 -0.0031051924 -0.011381394 -0.9287678 2.911443 -0.009740447 -0.011474068 -0.001077094
-0.0062174047 0.0018832728 -0.012885504 -0.021907037 0.0019067756 -0.010811457 -0.0073854416 0.0016824787
-0.007218625 0.015366578 0.0020849665 -0.021788964 -0.0031487145 0.0058855657 -0.0047849887 0.011245595
-0.0002184531 -0.021128427 -0.004657119 0.0035124703 -0.006747869 0.007472223 0.005514028 -0.018029148
0.00856912 0.0036595005 -0.0121010505 0.005102009 0.0004125658 -0.01994403 0.0073104864 0.0040511433
-0.011476824 -4.1389772e-05 -0.0026510123 -0.01113434 0.0006487184 0.0049201874 -0.0012823892 3.8422037e-05
-0.00015165456 -0.0100936955 6.958902e-07 0.00482918 -0.0017144175 2.2334028e-05 -0.00024509788 -0.0094193015
8.6536403e-07 0.0049880403 -0.0016838602 2.9766782e-06 -0.0022025963 -0.011817828 0.0005479371 0.0047183004
-0.0074609937 1.535927e-12 -0.0017147501 -0.010395368 0.00054655 0.004073982 -0.0077414825 1.535927e-12
-0.00029776883 -0.0112394495 -2.7326791e-07 0.0025579385 -0.008867134 -2.4478675e-16 -0.0004970942 -0.011473379
-2.6687408e-07 0.0019728872 -0.0064352774 -2.4478675e-16 -0.002430476 -0.013887766 -2.6687408e-07 -0.0005615466
-0.009257708 1.23964e-40 -0.00068485684 -0.015085828 0.0007721567 -0.0005043308 -0.0077706277 6e-45
-0.001335502 -0.016071146 0.0007721567 -0.0009963244 -0.0077905217 6e-45 -0.0012605524 -0.014645439
8.4e-44 -0.0031330204 -0.0079467865 -6e-45 0.0007334083 -0.013923853 1.2352656e-07 -0.0031330558
-0.00898529 -6e-45 0.0012462504 -0.01330822 3.835081e-08 -0.003184395 -0.009782372 1.3381098e-31
0.001376791 -0.012566762 0.002090617 -0.0031965505 -0.011235649 1.3381098e-31 0.005144521 -0.007275081
0.002090617 -0.003331175 -0.0120255165 0.09396604 4.54851 -0.012092554 -0.0064951945 -0.0062174047
