config/ppo/results/RayShoot0610_92만번/Shooting/checkpoint.pt (torch, 80967 bytes, 34 tensors)

discrete_act_size_vector f4 [1, 3]
0	0x40c00000	6.0
1	0x40800000	4.0
2	0x40400000	3.0

network_body._body_endoder.seq_layers.0.weight f4 [20, 128]
0	0x3f30291f	0.68812746
1	0x3cac6086	0.02104212
2	0xbdfb16f9	-0.12260241
3	0x3f1c0109	0.6093908
4	0x3d3514fb	0.04420946
5	0x3b309f65	0.0026950475
6	0x3cfc7956	0.030819576
7	0xbdeac2f2	-0.11462964
8	0x3e1df55a	0.15425625
9	0x3f01bc91	0.50678355
10	0x3c0a07c2	0.008424701
11	0x3dc60451	0.09668792
12	0xbed91e39	-0.4240587
13	0xbddd13a8	-0.10794765
14	0x3cbb03ef	0.022829024
15	0x3efa652e	0.4890532
16	0xbbe1f88c	-0.006896084
17	0x3d84cdcc	0.06484565
18	0xbeefbd31	-0.4682403
19	0xbdcba378	-0.099432886
20	0x3e1329e5	0.1437145
21	0x3f119517	0.5686812
22	0xbc4f2c0d	-0.01264478
23	0x3e1db9ff	0.15402983
24	0xbef683f5	-0.4814755
25	0xbe24f27f	-0.1610813
26	0xbde12f6b	-0.109953724
27	0x3f1992eb	0.59989804
28	0xbe2f2aba	-0.17106143
29	0x3e8c8986	0.27448672
30	0xbf115f39	-0.56785923
31	0xbeb829e1	-0.3596945
32	0xbd296865	-0.041359324
33	0x3ed3eb6c	0.4139055
34	0xbda58124	-0.08081272
35	0xbc188db3	-0.0093111275
36	0xbeebd39d	-0.46059886
37	0xbe66de17	-0.22545658
38	0x3d9f5d9f	0.07781529
39	0x3e9d1ea3	0.30687436
40	0xbe0c2549	-0.13686098
41	0x3de67074	0.112519175
42	0xbef77185	-0.48328796
43	0xbef43d59	-0.47703055
44	0x3e315c7b	0.17320435
45	0x3ee905c7	0.4551222
46	0xbc7e7696	-0.015531203
47	0x3d8e95cb	0.069621645
48	0xbc222d08	-0.009898432
49	0xbe24d565	-0.16097029
50	0x3dacf116	0.08444421
51	0x3e946ce6	0.28989333
52	0xbe80988b	-0.2511638
53	0x3d96fce0	0.07372451
54	0xbe061a9a	-0.13096085
55	0x3ab2c5b9	0.0013639248
56	0x3e00e854	0.12588626
57	0x3eee38b2	0.4652763
58	0xbccbfee6	-0.024901818
59	0x3d6c0e16	0.05763062
60	0xbe961eec	-0.29320467
61	0xbd291d60	-0.04128778
62	0xbda3b67a	-0.07993789
63	0x3e7ac1f3	0.24488048
64	0xbcab9194	-0.02094344
65	0x3e254ce7	0.16142617
66	0xbddba2cd	-0.10724411
67	0xbd916819	-0.07099933
68	0x3de9432a	0.11389764
69	0x3ddaa18b	0.10675343
70	0xbb194efa	-0.002339302
71	0x3dee7814	0.11643997
72	0xbdf64bbd	-0.12026165
73	0xbccb5a55	-0.024823347
74	0x3dd1f37e	0.102515206
75	0x3d65920e	0.05604749
76	0xbc96df70	-0.01841709
77	0x3e2ea197	0.17053829
78	0xbe31d341	-0.17365743
79	0xbdeec59f	-0.11658787
80	0xbb914c0f	-0.0044341157
81	0x3e2f13a4	0.17097336
82	0x3e3e8f0b	0.18609254
83	0xbc995179	-0.018715607
84	0xbdc827d6	-0.09773223
85	0xbe501386	-0.20319948
86	0xbdbf902f	-0.09353673
87	0x3e41449e	0.18873832
88	0xbdc34884	-0.09535316
89	0x3bf0b011	0.0073452075
90	0xbe763926	-0.24045238
91	0xbe028a06	-0.12747964
92	0x3c97f975	0.018551568
93	0x3e1b1338	0.1514405
94	0xbd5334db	-0.05156408
95	0x3cb879a7	0.022518946
96	0xbebd1310	-0.36928606
97	0xbe0bf20c	-0.13666552
98	0x3e2e9588	0.17049229
99	0x3d625baf	0.055263218
100	0x3d0c7546	0.03429153
101	0xbd280371	-0.041018907
102	0xbe3d2b24	-0.18473488
103	0xbd96caf8	-0.07362932
104	0x3de6df9b	0.11273118
105	0x3d9ab3da	0.07553835
106	0x3d8a2456	0.06745212
107	0x3ce12dd1	0.027487667
108	0xbe12ae25	-0.14324243
109	0xbd1aaba6	-0.037761353
110	0x3e6228ee	0.22085926
111	0x3e7336e7	0.23751412
112	0x3d405c97	0.0469633
113	0x3dd31c96	0.10308187
114	0xbdc650d9	-0.09683389
115	0xbd083a21	-0.03325856
116	0x3c940409	0.01806833
117	0x3f099a6e	0.53751266
118	0xbd92ccd8	-0.07167977
119	0x3d519b7b	0.05117367
120	0xbe8e769c	-0.27824867
121	0xbdabc35d	-0.08386872
122	0x3d0483ce	0.03235226
123	0x3d2fa3f2	0.04288096
124	0x3d4309e2	0.047616847
125	0x3dbc69ff	0.09199905
126	0xbd8c1cc6	-0.068414256
127	0x3f43d23f	0.76492685
128	0x3f0d6b71	0.5524207
129	0xbe53bb58	-0.20676935
130	0xbd90d567	-0.07071953
131	0x3edc0f7b	0.4298056
132	0x3dd6f88a	0.10496624
133	0x3d20348d	0.039112616
134	0xbe76a34b	-0.24085729
135	0x3dce43ba	0.100715116
136	0x3d504242	0.05084444
137	0x3ef644c0	0.48099327
138	0x3e081bce	0.13291857
139	0xbdaf49c5	-0.08558992
140	0xbe93903e	-0.28820986
141	0xba8bf02e	-0.0010676438
142	0x3db8fb21	0.09032274
143	0x3ed44878	0.4146154
144	0x3e8a21aa	0.2697881
145	0x3e75b6ae	0.23995468
146	0xbed8d4ee	-0.42349952
147	0x3d03fa9a	0.032221414
148	0x3d29e353	0.04147656
149	0x3f0b923e	0.5452002
150	0xbd203b6a	-0.03911916
151	0x3d4887ef	0.04895776
152	0xbea4409b	-0.3208054
153	0xbe43583d	-0.19076629
154	0x3c933dd7	0.017973823
155	0x3f38a915	0.72133
156	0xbd50e04a	-0.05099515
157	0x3e11f40b	0.14253251
158	0xbe6ca825	-0.23111017
159	0xbdc810eb	-0.09768852
160	0xbe184654	-0.14870578
161	0x3ee67e16	0.4501807
162	0x3d58ec8e	0.05295997
163	0x3e82d9a0	0.2555666
164	0xbf12d430	-0.5735502
165	0xbddc6f09	-0.10763366
166	0x3bd3f621	0.00646855
167	0x3f219c2a	0.6312891
168	0x3d82c90f	0.06386005
169	0x3d6a81e4	0.05725278
170	0xbf008607	-0.5020451
171	0xbe07e933	-0.13272552
172	0xbd84ea6b	-0.06490024
173	0x3ed5c661	0.41752914
174	0x3d869d1f	0.06572937
175	0x3d3c1dde	0.04592692
176	0xbdfc4ee9	-0.123197384
177	0x3c8fa02d	0.017532432
178	0xbe1ea196	-0.15491328
179	0x3e3978e3	0.18112521
180	0x3b1bf127	0.002379486
181	0x3c5ecfca	0.013599345
182	0xbdfbc96d	-0.12294278
183	0xbe162b08	-0.14664853
184	0x3e20a23b	0.15686886
185	0x3e681eff	0.22668074
186	0x3c8cf47c	0.017206423
187	0x3e93a874	0.28839457
188	0xbe9487e5	-0.2900993
189	0xbe94326c	-0.2894472
190	0xbce33e71	-0.027739735
191	0x3e4e7c71	0.20164658
192	0x3cb262d8	0.021775648
193	0x3e5e0ca9	0.21684517
194	0xbe7bedce	-0.24602434
195	0xbe8faa8b	-0.280598
196	0xbe5acb62	-0.21366647
197	0x3e030e0d	0.12798329
198	0xbdbd2b00	-0.09236717
199	0x3da344d1	0.0797211
200	0xbdb0eb0c	-0.08638582
201	0xbeac25c9	-0.33622578
202	0xbdb99d2c	-0.09063181
203	0x3e89f07c	0.26941288
204	0xbd3efc3d	-0.046627272
205	0x3ea3ce0b	0.31993136
206	0xbe7a4d6f	-0.24443601
207	0xbda7c163	-0.081911825
208	0xbe1ce994	-0.15323478
209	0x3e886d49	0.26645878
210	0xbe4f29c4	-0.20230776
211	0x3dd4fb8e	0.10399543
212	0xbe4737f1	-0.19454934
213	0xbe24577f	-0.16049002
214	0x3db84a4b	0.08998545
215	0x3e195c99	0.1497673
216	0xbe5a208a	-0.21301475
217	0x3cddb3c4	0.027063258
218	0xbec029ac	-0.37531793
219	0xbd12324c	-0.035692498
220	0xbe15c0d4	-0.1462434
221	0x3e8f882b	0.28033575
222	0xbe59673c	-0.21230787
223	0x3c4c644f	0.012475087
224	0xbee52ccf	-0.4476075
225	0x3db82ca2	0.08992888
226	0xbd551058	-0.05201754
227	0x3e007d0c	0.12547702
228	0x3dc52d84	0.09627822
229	0x3d66873e	0.05628132
230	0xbe6a1010	-0.2285769
231	0xbc0a0c02	-0.008425714
232	0x3d013cea	0.031552233
233	0x3d76df55	0.06027158
234	0x3c2c897b	0.010530825
235	0x3e240f2f	0.16021417
236	0xbead93f3	-0.3390194
237	0xbc6c0f5b	-0.014407958
238	0xbbd8382e	-0.006598494
239	0x3da2b16b	0.07943996
240	0x3d634e4a	0.055494584
241	0x3cea7bc7	0.028623475
242	0xbe8e43ca	-0.27786094
243	0xbe5c66c3	-0.21523575
244	0x3d0b4b6f	0.034007486
245	0x3ed97d3a	0.42478353
246	0xbe226ba4	-0.15861374
247	0x3dbc714c	0.09201297
248	0xbf0b916e	-0.54518783
249	0xbe72304d	-0.23651238
250	0xbc841c46	-0.016126763
251	0x3b37a7be	0.0028023566
252	0xbd9f2912	-0.077715054
253	0x3d551913	0.052025866
254	0xbdcf33cb	-0.101173006
255	0x3e69b72b	0.2282378

network_body._body_endoder.seq_layers.0.bias f4 [20]
0	0x3e4ce36d	0.20008631
1	0x3e1521e7	0.14563714
2	0x3d297c0f	0.041378077
3	0x3e092447	0.13392745
4	0x3dbe3988	0.09288317
5	0x3e1538bc	0.14572424
6	0x3de05486	0.109536216
7	0x3bac9f8a	0.005268042
8	0xbd077eba	-0.03307984
9	0x3cb0afdf	0.021568237
10	0x3e550302	0.20801929
11	0x3dfba0d3	0.12286534
12	0x3e22d1aa	0.15900293
13	0x3d7acfd8	0.06123337
14	0x3d90cae7	0.070699506
15	0x3e1ed5e3	0.15511279
16	0xbcde3cbf	-0.027128575
17	0x3bad1fc6	0.0052833287
18	0x3e08f308	0.13373959
19	0x3e29b98f	0.16574691

action_model._discrete_distribution.branches.0.weight f4 [6, 20]
0	0x3e290a80	0.16507912
1	0x3da5676e	0.08076368
2	0x3ef4808c	0.47754323
3	0xbeda5a0f	-0.42646834
4	0xbdeefb7e	-0.11669062
5	0xbe0420b1	-0.12903096
6	0xbec48dfa	-0.3838957
7	0xbd376fef	-0.044784483
8	0x3e059ecd	0.13048859
9	0xbe0ed404	-0.13948065
10	0x3c27c8fd	0.01024079
11	0xbe8df70a	-0.27727538
12	0x3e40fdf9	0.18846883
13	0x3d23f035	0.040024
14	0x3eb3de1a	0.35130388
15	0x3ea2ebb6	0.31820458
16	0xbd10a56c	-0.03531401
17	0x3e2e9c02	0.170517
18	0xbe8d221f	-0.27565095
19	0x3eb2205a	0.34790307
20	0xbcc878f4	-0.024471737
21	0xbd5183a7	-0.051150944
22	0xbe1d44fb	-0.15358345
23	0x3e26b62b	0.16280429
24	0x3e45c5af	0.19313692
25	0x3d0a9694	0.03383501
26	0x3dee3cf5	0.116327204
27	0x3c384718	0.011247419
28	0xbd742a9f	-0.05961096
29	0x3a60ff64	0.0008582978
30	0xbd000819	-0.031257723
31	0x3dc13832	0.094345465
32	0xbe1a1daa	-0.15050378
33	0x3c39b25d	0.011334029
34	0x3cbb0741	0.022830607
35	0xbd76f741	-0.060294393
36	0x3d1d6d22	0.038434155
37	0xbbeea7ea	-0.0072832005
38	0xbd2f9869	-0.04286996
39	0xbe264b76	-0.16239724
40	0xbd5890ac	-0.052872345
41	0x3d8876b8	0.06663269
42	0xbe162f1a	-0.14666405
43	0x3d7e4652	0.06207878
44	0x3cb4184e	0.021984246
45	0x3cb8a2e2	0.022538606
46	0x3dfa95e3	0.1223562
47	0xbbf655e9	-0.0075175655
48	0xbb189a1a	-0.002328521
49	0x3e0c9a2a	0.13730684
50	0xbcfba169	-0.030716615
51	0x3de4fbc6	0.111808345
52	0x3d623f77	0.055236306
53	0x3d64cb59	0.05585799
54	0xbddeaaf1	-0.10872448
55	0xbe2dd9fa	-0.16977683
56	0xbd56ea80	-0.05246973
57	0xbde74df1	-0.11294163
58	0x3e03a6af	0.12856553
59	0xbd1ec42a	-0.038761295
60	0xbd289c9b	-0.041164976
61	0xbd2b655f	-0.041844722
62	0x3d6e8bf2	0.05823893
63	0x3e0d7f4d	0.13818093
64	0xbc6c753f	-0.0144322505
65	0xbcf54371	-0.029939385
66	0x3dd7c36a	0.10535319
67	0x3af9c694	0.0019056373
68	0x3d9f6084	0.07782081
69	0x3d46bfa6	0.048522614
70	0xbd9c1ee7	-0.07623082
71	0x3db88b10	0.09010899
72	0xbe0bac42	-0.1363993
73	0x3dbe7174	0.09298983
74	0x3d529d6e	0.051419668
75	0xbd86c2a2	-0.06580092
76	0x3d4a38e1	0.04937065
77	0x3c7b5eb0	0.0153423995
78	0x3c41db90	0.011832133
79	0xbde8cb62	-0.11366917
80	0x3d290463	0.04126395
81	0x3ce1395f	0.027493177
82	0xbdada7bc	-0.084792584
83	0x3e06ef8a	0.13177314
84	0x3e11005e	0.14160296
85	0x3d5013d1	0.05080015
86	0x3e31b902	0.17355731
87	0xbd29e339	-0.041476462
88	0xbd54a06f	-0.051910814
89	0x3e2a49ef	0.16629766
90	0x3de230c0	0.110444546
91	0x3e3f361c	0.18672985
92	0x3c926fa9	0.01787551
93	0x3d298070	0.041382253
94	0xbe29bc67	-0.16575776
95	0xbe0f015b	-0.13965361
96	0xbd309530	-0.043111026
97	0xbb3e4d72	-0.002903786
98	0x3dfa41d9	0.12219591
99	0xbcbc6a61	-0.022999944
100	0xbdac90ff	-0.08426093
101	0xbd132409	-0.035923038
102	0xbdd0d375	-0.10196582
103	0x3d6fabd8	0.058513492
104	0xbdcbaa2b	-0.09944566
105	0x3d86a078	0.06573576
106	0xbd0e23d3	-0.034702133
107	0x3c0dd7a7	0.008657373
108	0xbd9c4000	-0.076293945
109	0xbe367e95	-0.17821725
110	0xbca720a5	-0.020401308
111	0x3d9781f7	0.07397836
112	0x3d0550b7	0.03254768
113	0xbe739613	-0.23787718
114	0xbd800475	-0.0625085
115	0x3d615346	0.055011056
116	0x3dd51d47	0.10405975
117	0x3d9b2f1e	0.07577346
118	0x3c9ca4a7	0.019121481
119	0xbdf3df0d	-0.11907778

action_model._discrete_distribution.branches.0.bias f4 [6]
0	0xbd6d466c	-0.057928488
1	0x3d53df28	0.05172649
2	0xbd6c92f6	-0.05775734
3	0x3dca8f9a	0.09890671
4	0x3d8ba559	0.06818647
5	0x3c03d775	0.008046974

action_model._discrete_distribution.branches.1.weight f4 [4, 20]
0	0x3d6af3af	0.0573613
1	0x3dbe2ff9	0.09286494
2	0x3e8f4b5b	0.2798718
3	0xbeb3d6ee	-0.35124916
4	0x3dc4fc1f	0.09618401
5	0xbdd5c822	-0.10438563
6	0xbe045016	-0.12921175
7	0xbe0e63a1	-0.13905193
8	0x3db73ef8	0.08947557
9	0xbe0efba1	-0.13963176
10	0xbb23699c	-0.0024934774
11	0xbed17896	-0.40912312
12	0x3cdd0cd5	0.026983658
13	0x3afe767c	0.0019413973
14	0x3e633dd4	0.22191554
15	0x3e52d669	0.20589603
16	0x3cc292a3	0.023751562
17	0x3ddb5e96	0.107114
18	0xbe00756e	-0.12544796
19	0x3e61aaa4	0.2203775
20	0xbef995ad	-0.48747006
21	0xbee08d95	-0.4385802
22	0xbe6649a9	-0.22489037
23	0x3eb52fb1	0.35387948
24	0xbdbab218	-0.09116
25	0xbeac6deb	-0.3367761
26	0x3e95d14a	0.29261237
27	0x3e081362	0.13288644
28	0x3e716d1d	0.2357678
29	0x3e559c0e	0.20860311
30	0xbeebbda4	-0.46043122
31	0x3d759ea1	0.059965733
32	0xbece5482	-0.4029885
33	0x3e6474fb	0.2231025
34	0x3d072750	0.032996476
35	0xbf1315de	-0.5745524
36	0x3eb21448	0.34781098
37	0x3e07aa13	0.13248472
38	0x3a246db6	0.0006272452
39	0xbf2d1058	-0.67603064
40	0x3e76fc92	0.24119785
41	0x3eb14851	0.34625486
42	0xbf062e4c	-0.52414393
43	0x3e9462fb	0.28981766
44	0xbda0f96a	-0.07860072
45	0x3e5b684b	0.21426503
46	0x3e058b03	0.1304131
47	0x3ddca331	0.10773314
48	0xbec02693	-0.3752943
49	0x3e193829	0.1496283
50	0x3eb8760e	0.3602757
51	0x3ef4e7e1	0.4783316
52	0x3e53e005	0.20690925
53	0xbe61beb3	-0.22045402
54	0xbf10cb51	-0.56560236
55	0xbda3762a	-0.079815224
56	0xbec84dbc	-0.39121807
57	0xbf019743	-0.5062143
58	0x3e885d3b	0.2663363
59	0xbb8f8620	-0.0043800026
60	0x3daaeae1	0.08345581
61	0xbd138a31	-0.03602046
62	0x3e489311	0.19587351
63	0xbe828bc3	-0.25497255
64	0x3dcf0125	0.1010764
65	0x3da0022e	0.07812916
66	0xbe7b834c	-0.24561805
67	0xbda698e5	-0.08134631
68	0x3d1ddf53	0.038543057
69	0xbe3a9a88	-0.18223011
70	0x3c9b546e	0.018961158
71	0xbe7741e1	-0.24146225
72	0x3dc3b72f	0.09556424
73	0x3d182cdf	0.037152167
74	0x3e097717	0.13424335
75	0x3e52bbb5	0.20579417
76	0xbc10b0aa	-0.0088311825
77	0x3d4808e4	0.048836604
78	0xbd4dbcf4	-0.050229028
79	0x3e27b274	0.16376668

action_model._discrete_distribution.branches.1.bias f4 [4]
0	0xbc938da7	-0.018011881
1	0xbdc3dc70	-0.095635295
2	0x3d308cbc	0.043102965
3	0x3d477c68	0.048702627

action_model._discrete_distribution.branches.2.weight f4 [3, 20]
0	0xbbd2120f	-0.006410844
1	0x3e04b92c	0.12961262
2	0x3d5eea11	0.054422442
3	0xbd5a6d63	-0.053326976
4	0x3cdbc7c0	0.026828647
5	0x3c00b66d	0.007855994
6	0xbc7c59d5	-0.015402277
7	0x3cc2a746	0.023761403
8	0xbd70610c	-0.0586863
9	0x3e294546	0.16530332
10	0x3d5fbde3	0.05462445
11	0xbe216ccb	-0.15764157
12	0x3dfe18bc	0.124070615
13	0x3db06ffd	0.0861511
14	0x3d67be10	0.056577742
15	0x3d4a9ff4	0.04946895
16	0xbda19f07	-0.0789166
17	0xbdb49df9	-0.088191934
18	0x3e037530	0.12837672
19	0x3d53bb01	0.051692013
20	0x3ac0a61a	0.001469794
21	0x3d25212d	0.040314842
22	0x3d095f43	0.033538114
23	0x3d232341	0.039828543
24	0xbbbbbd65	-0.0057293647
25	0x3d65cae3	0.05610169
26	0x3df5ea6a	0.120076016
27	0xbd7859ab	-0.06063239
28	0x3dbcc124	0.09216526
29	0x3a29f761	0.00064837007
30	0xbd0bd356	-0.034137093
31	0x3d87ab04	0.066244155
32	0x3c38e1b9	0.011284285
33	0xbc562716	-0.013070842
34	0xbd1ec6f8	-0.03876397
35	0x3d62bfd5	0.055358727
36	0x3dd9346b	0.10605701
37	0x3de74216	0.11291902
38	0xbe037236	-0.12836537
39	0x3cb7286d	0.022358144
40	0xbd34c425	-0.04413237
41	0xbe40967b	-0.18807404
42	0x3d2c7ec3	0.042113077
43	0x3d16005c	0.036621436
44	0x3d3ba8d5	0.045815308
45	0x3cf1b2dc	0.029504232
46	0xbd035425	-0.03206267
47	0x3e2c794f	0.1684315
48	0xbba52cb4	-0.0050407294
49	0xbde9cadb	-0.11415645
50	0xbd01fc12	-0.031734534
51	0x3d5e27d9	0.05423722
52	0xbd25194e	-0.040307336
53	0xbd26d74d	-0.04073267
54	0x3ca26997	0.01982574
55	0xbcc599f8	-0.02412127
56	0x3cec9a90	0.028882295
57	0x3cb5e8d2	0.022205744
58	0x3d94d8e0	0.07267928
59	0x3d9d40d6	0.07678382

action_model._discrete_distribution.branches.2.bias f4 [3]
0	0x3e00b1a7	0.12567769
1	0xbd2caea3	-0.042158734
2	0xbce811c3	-0.028328782

exp_avg f4 [20, 128]
0	0xb8a2e1b3	-7.766802e-05
1	0x3a1cda87	0.0005983491
2	0x3a3ba044	0.00071573653
3	0xb8834620	-6.2596286e-05
4	0x3a00ecf1	0.00049181195
5	0x3a36c08f	0.00069714425
6	0x370bf294	8.341525e-06
7	0x3855b3de	5.095067e-05
8	0x39c2ede3	0.00037179803
9	0xb8834620	-6.2596286e-05
10	0xb9db9142	-0.0004187916
11	0x39d98889	0.00041491192
12	0x378dedf7	1.691932e-05
13	0xb953a66a	-0.00020184522
14	0x39c52de1	0.0003760895
15	0x380dd6b6	3.3816985e-05
16	0xb945e9a3	-0.0001887442
17	0x3a203b71	0.0006112373
18	0x380dd6b6	3.3816985e-05
19	0xba166655	-0.00057372946
20	0x38c4dd41	9.38722e-05
21	0x380dd6b6	3.3816985e-05
22	0xb98fd418	-0.00027433108
23	0x3a21d679	0.00061736215
24	0x24a39123	7.093585e-17
25	0xb9af33c1	-0.0003341716
26	0x397aa88f	0.00023904651
27	0x23b2fed1	1.9406718e-17
28	0x3978f714	0.00023743167
29	0x3a61282e	0.0008589056
30	0x24a39158	7.0936204e-17
31	0xb9d902cb	-0.00041391546
32	0x391286a8	0.00013973808
33	0xa1d353a2	-1.4320054e-18
34	0x3956b88e	0.00020477382
35	0x3a4e52da	0.0007870622
36	0x23cc7332	2.2166511e-17
37	0xb983b025	-0.00025117505
38	0x3912f213	0.00014013825
39	0xa1d35e27	-1.4322838e-18
40	0xb7b06fd9	-2.1032918e-05
41	0x3a4ad1e8	0.0007736967
42	0x23f49d71	2.6521212e-17
43	0xb8bba385	-8.947313e-05
44	0x39127039	0.00013965451
45	0x23601df3	1.2149406e-17
46	0xba19b8df	-0.0005864035
47	0x3a12671e	0.00055848237
48	0x23410c06	1.0465097e-17
49	0x376bf7e4	1.4064808e-05
50	0x39974940	0.0002885554
51	0x223c66aa	2.55331e-18
52	0xba2f0b43	-0.00066773983
53	0x3a0b89b6	0.000532295
54	0x23410966	1.0464541e-17
55	0x38efe590	0.000114391674
56	0x39ca12c3	0.0003854242
57	0x23684f5c	1.259355e-17
58	0xb995dec7	-0.00028585477
59	0x3a28f9e4	0.0006445928
60	0x999450bb	-1.5335448e-23
61	0x38cb8fce	9.70658e-05
62	0x3991351e	0.0002769613
63	0x23684f7a	1.2593575e-17
64	0xb956b514	-0.00020476087
65	0x3a6b76c9	0.0008982239
66	0x9993acb5	-1.52692e-23
67	0x398df92a	0.00027079257
68	0x396e58c5	0.00022730518
69	0x23684f7a	1.2593575e-17
70	0xb98243bb	-0.00024845995
71	0x3a807c97	0.0009802756
72	0x98d14169	-5.409128e-24
73	0x38b26027	8.505611e-05
74	0x390405ce	0.00012590663
75	0xa0921d2c	-2.4752666e-19
76	0xb98a2303	-0.00026347497
77	0x3a839698	0.0010039387
78	0x1c18ab83	5.0514255e-22
79	0x38b4f0a6	8.627893e-05
80	0x390f8ff4	0.0001369117
81	0x19f9a537	2.5812726e-23
82	0xb98943f6	-0.0002618131
83	0x3a8a0edc	0.0010532993
84	0x143b843b	9.467165e-27
85	0x38b55809	8.6471504e-05
86	0x38c337ed	9.3087416e-05
87	0x80000004	-6e-45
88	0xb983ed0c	-0.0002516288
89	0x3a8ab709	0.0010583113
90	0x143b843b	9.467165e-27
91	0x384f7c35	4.9468323e-05
92	0xb783566f	-1.5656666e-05
93	0x1339564f	2.3392836e-27
94	0xb964aa31	-0.00021807176
95	0x3a88e99f	0.0010445601
96	0x91b073cd	-2.7839272e-28
97	0xb831af38	-4.2363274e-05
98	0xb894826b	-7.081482e-05
99	0x80000004	-6e-45
100	0xb9ae5b48	-0.00033255876
101	0x3a82691b	0.0009949537
102	0x91b073cd	-2.7839272e-28
103	0x38b5c2fc	8.667071e-05
104	0xb800f78e	-3.074813e-05
105	0x00000004	6e-45
106	0xb9adf136	-0.00033176848
107	0x3a84fe9f	0.0010146684
108	0x9466f73a	-1.1660789e-26
109	0x38b55687	8.6468695e-05
110	0x37e4aa85	2.7259122e-05
111	0x00000004	6e-45
112	0xb9a2ee70	-0.00031076698
113	0x3a86d61e	0.00102872
114	0x9466f73a	-1.1660789e-26
115	0x38b55687	8.6468695e-05
116	0x38a8efac	8.0555066e-05
117	0x00000004	6e-45
118	0xb8d19623	-9.993862e-05
119	0x3a901494	0.0010992461
120	0x9466f73a	-1.1660789e-26
121	0x38a002d4	7.629921e-05
122	0x38eba74e	0.00011236836
123	0x3c49e143	0.012321773
124	0xba8ebb42	-0.0010889547
125	0xb79f1475	-1.8963803e-05
126	0xbaac2d2c	-0.0013136021
127	0xb8a2e1b3	-7.766802e-05
128	0xb9115068	-0.00013858231
129	0x3aaec36c	0.0013333387
130	0x3aa671b1	0.0012698678
131	0x37e0933a	2.6771439e-05
132	0x3a98e2ca	0.0011664268
133	0x3ab4796f	0.00137691
134	0x39b41232	0.00034345832
135	0x3a218e8f	0.00061629055
136	0x3a3bcf4d	0.0007164374
137	0x37e0931a	2.677138e-05
138	0xb9c21325	-0.00037016827
139	0x3a552ec5	0.00081322744
140	0x3a011108	0.00049234973
141	0x39ac047c	0.00032809738
142	0x3a2f34b3	0.0006683573
143	0x39e09ac5	0.00042839922
144	0xb75b38ed	-1.3066671e-05
145	0x3a745211	0.000932009
146	0x39e09ac5	0.00042839922
147	0xb9f31f86	-0.0004637206
148	0x39f919f0	0.00047512306
149	0x39e09ac5	0.00042839922
150	0xb92f14eb	-0.00016697093
151	0x3a5df506	0.00084669923
152	0x23bc8e4f	2.0443271e-17
153	0xb9887bb5	-0.0002603211
154	0x3a20af81	0.0006129668
155	0xa503fc84	-1.1447994e-16
156	0x38c65d71	9.4587806e-05
157	0x3a5a14ff	0.00083191687
158	0x23bc9b04	2.0448653e-17
159	0xb98e74c4	-0.00027171348
160	0x3a1495dd	0.00056680833
161	0xa3ae0a0d	-1.8869374e-17
162	0xb92a2529	-0.00016226307
163	0x3a3dae83	0.0007235782
164	0xa305c772	-7.252179e-18
165	0xb98ab64b	-0.0002645723
166	0x39bfb21c	0.0003656306
167	0xa3ae0ba3	-1.8870046e-17
168	0xb9b211b8	-0.00033964007
169	0x3a44a589	0.00075014733
170	0xa328e419	-9.1556e-18
171	0xb9cf43ee	-0.00039532728
172	0x388e7bef	6.794172e-05
173	0x24a860cb	7.302236e-17
174	0xb8f8ebe2	-0.00011869498
175	0x3a61b659	0.0008610241
176	0xa1717da9	-8.1820286e-19
177	0xb9858626	-0.00025467685
178	0x397f1db8	0.00024329766
179	0xa48d6da1	-6.133472e-17
180	0xb9b48355	-0.00034430125
181	0x3a4a779b	0.0007723511
182	0xa171f041	-8.197195e-19
183	0x35c0c46e	1.4362283e-06
184	0x39ee87a8	0.0004549597
185	0x241e3265	3.4303474e-17
186	0xb9599725	-0.00020751038
187	0x3a4ee08f	0.0007891738
188	0x9b985d46	-2.5206567e-22
189	0x343b083d	1.7418729e-07
190	0x39c76b0c	0.00038035994
191	0x241e3265	3.4303474e-17
192	0xb963d26e	-0.00021726798
193	0x3a5378e1	0.00080670236
194	0x9b985746	-2.520269e-22
195	0x395b69d1	0.00020924887
196	0x39ea3f02	0.00044678902
197	0x241e3265	3.4303474e-17
198	0xb98c4460	-0.00026753824
199	0x3a5552d3	0.0008137647
200	0x9b498316	-1.6668686e-22
201	0xb6444c66	-2.9250746e-06
202	0x399fefde	0.00030505558
203	0x22a29a99	4.4073875e-18
204	0xb9d3d29c	-0.00040401972
205	0x3a51ca43	0.00080028566
206	0x1c81a95b	8.580281e-22
207	0xb62428fc	-2.446176e-06
208	0x39a9f52d	0.00032416862
209	0x9914b455	-7.6878384e-24
210	0xb9d35b48	-0.00040313066
211	0x3a4ad629	0.0007737601
212	0x14bea2d7	1.9249326e-26
213	0xb63e52e7	-2.8360462e-06
214	0x3981422c	0.000246541
215	0x80000004	-6e-45
216	0xb9d14df3	-0.00039921663
217	0x3a57eabc	0.0008236577
218	0x14bea2d7	1.9249326e-26
219	0x3712eea1	8.757838e-06
220	0x3890cd50	6.9046975e-05
221	0x146bcc15	1.1904716e-26
222	0xb9b15361	-0.00033822193
223	0x3a576892	0.00082171813
224	0x14b1167b	1.78813e-26
225	0xb9288156	-0.0001606991
226	0xb856d68b	-5.1221385e-05
227	0x80000004	-6e-45
228	0xba0a4c42	-0.00052756455
229	0x3a3d8bf5	0.0007230633
230	0x14b1167b	1.78813e-26
231	0xb619688d	-2.2859633e-06
232	0xb8878f29	-6.463967e-05
233	0x80000004	-6e-45
234	0xba02b0ab	-0.0004985432
235	0x3a5d3882	0.0008438901
236	0x14a7170c	1.6871781e-26
237	0xb5a24e9c	-1.2092819e-06
238	0x382bf922	4.10016e-05
239	0x80000004	-6e-45
240	0xba0272c3	-0.0004976207
241	0x3a5aac53	0.00083417183
242	0x14a7170c	1.6871781e-26
243	0xb5a24e9c	-1.2092819e-06
244	0x386d35c6	5.6555284e-05
245	0x80000004	-6e-45
246	0x39946cd5	0.00028309846
247	0x3a8de0e6	0.0010824471
248	0x14a7170c	1.6871781e-26
249	0x354669f4	7.391493e-07
250	0x3823e3d7	3.907442e-05
251	0x3c86e12b	0.01646479
252	0xbce65117	-0.028114839
253	0x34cb771b	3.7898357e-07
254	0xba5b7bb1	-0.00083726185
255	0xb9115068	-0.00013858231

exp_avg_sq f4 [20, 128]
0	0x367b5252	3.7449831e-06
1	0x36a65f76	4.9582986e-06
2	0x3753ae49	1.2617159e-05
3	0x366f54c2	3.566311e-06
4	0x36ad364e	5.1621237e-06
5	0x375f4d91	1.3309896e-05
6	0x364c4379	3.0437643e-06
7	0x36ab1ce9	5.0995627e-06
8	0x37591b4c	1.29405635e-05
9	0x35be909a	1.4198188e-06
10	0x371048b1	8.599994e-06
11	0x378cd4b3	1.6788346e-05
12	0x3632cbaf	2.6642626e-06
13	0x369b8c18	4.635669e-06
14	0x374db468	1.2260956e-05
15	0x357a8e1d	9.333906e-07
16	0x3710f101	8.639182e-06
17	0x378c8cca	1.675486e-05
18	0x36643838	3.4007371e-06
19	0x367cb389	3.765543e-06
20	0x37353855	1.08015565e-05
21	0x3539a616	6.915956e-07
22	0x370de6cc	8.4579915e-06
23	0x378c0c7d	1.6695116e-05
24	0x3624dd7c	2.4566825e-06
25	0x363ea0e8	2.8405866e-06
26	0x3733ce78	1.0717304e-05
27	0x351adfdd	5.7695235e-07
28	0x370088d9	7.661257e-06
29	0x3789ac3c	1.6411876e-05
30	0x3622c3c1	2.4253825e-06
31	0x360720ac	2.0135585e-06
32	0x371cceb8	9.346455e-06
33	0x357f718a	9.5160124e-07
34	0x36f00e4e	7.1542227e-06
35	0x3782eaba	1.560651e-05
36	0x35e53568	1.7077373e-06
37	0x35dfe01a	1.6680017e-06
38	0x370e3ad8	8.47756e-06
39	0x341ff620	1.4897569e-07
40	0x36ce5103	6.1487094e-06
41	0x37723d71	1.44386295e-05
42	0x35b1296f	1.3199586e-06
43	0x35c0b2ea	1.4357186e-06
44	0x3705c2fb	7.972815e-06
45	0x33c85153	9.3280185e-08
46	0x36b2cf99	5.328981e-06
47	0x376b4dbf	1.4025193e-05
48	0x349778a0	2.8213708e-07
49	0x35f3f4a8	1.8176115e-06
50	0x370de474	8.457446e-06
51	0x348523aa	2.479913e-07
52	0x36ac117b	5.1280344e-06
53	0x37635dac	1.3552064e-05
54	0x33c11e9c	8.992831e-08
55	0x35d4080e	1.5797575e-06
56	0x37018383	7.719619e-06
57	0x33b06ac2	8.215058e-08
58	0x36aad3cf	5.0910526e-06
59	0x3761f18b	1.3467284e-05
60	0x3363ebd8	5.3067055e-08
61	0x3591b4e3	1.0855987e-06
62	0x36edf4ba	7.0916403e-06
63	0x3392428e	6.810761e-08
64	0x36a6c3eb	4.9699934e-06
65	0x375d3772	1.3185536e-05
66	0x32a5f05b	1.931783e-08
67	0x35990988	1.1402162e-06
68	0x3719ab4e	9.159396e-06
69	0x339a855a	7.19544e-08
70	0x36a411a0	4.8896327e-06
71	0x3755a571	1.2734309e-05
72	0x32ef28fd	2.7841901e-08
73	0x36281e8d	2.5051734e-06
74	0x37181a51	9.066033e-06
75	0x335d5027	5.152847e-08
76	0x36a286db	4.8436755e-06
77	0x375079e0	1.2426142e-05
78	0x3428acb9	1.5709055e-07
79	0x368bb95a	4.1641006e-06
80	0x371427e1	8.8307725e-06
81	0x33751095	5.705859e-08
82	0x36a46aa1	4.899994e-06
83	0x374e1c96	1.22852125e-05
84	0x323665e2	1.061696e-08
85	0x35b213bf	1.326778e-06
86	0x36e65b08	6.8651316e-06
87	0x33037cea	3.0614423e-08
88	0x36a3bfa8	4.8800903e-06
89	0x374d486e	1.2235816e-05
90	0x3209ceb3	8.0214475e-09
91	0x35b5ff6f	1.3559892e-06
92	0x36e5b9dc	6.8463687e-06
93	0x348c73c5	2.6161266e-07
94	0x36a63167	4.9529367e-06
95	0x374d9a62	1.2254897e-05
96	0x329fe0d7	1.8612281e-08
97	0x35bab637	1.3911111e-06
98	0x36da02c0	6.4972264e-06
99	0x338201dd	6.053936e-08
100	0x36a36901	4.8700026e-06
101	0x374c9f49	1.2196434e-05
102	0x34315c27	1.6517934e-07
103	0x35ba064d	1.3859914e-06
104	0x36df4555	6.653989e-06
105	0x33813451	6.016547e-08
106	0x36a148a7	4.8066318e-06
107	0x37482536	1.1929593e-05
108	0x33367478	4.2481105e-08
109	0x35c9f865	1.5047959e-06
110	0x36e1a4fa	6.7247283e-06
111	0x33829d35	6.0821925e-08
112	0x36a17789	4.8120896e-06
113	0x37489c7f	1.1957366e-05
114	0x33fbbc46	1.1722345e-07
115	0x35bdd7d8	1.4144416e-06
116	0x36e30044	6.765158e-06
117	0x33dbcd17	1.0235288e-07
118	0x36a25e62	4.838964e-06
119	0x374360af	1.1645417e-05
120	0x344d873d	1.9141312e-07
121	0x359ffd24	1.1920097e-06
122	0x36df6f50	6.6588764e-06
123	0x3d12f8b2	0.035881706
124	0x3c6d2f07	0.014476544
125	0x361890a5	2.273396e-06
126	0x37a1d9f7	1.9294193e-05
127	0x367b5252	3.7449831e-06
128	0x378dd514	1.6907732e-05
129	0x36693da1	3.4755578e-06
130	0x373fc6c8	1.14307695e-05
131	0x375b9339	1.3087695e-05
132	0x369506e1	4.441347e-06
133	0x375c7a8b	1.3141554e-05
134	0x376bb7b4	1.4049863e-05
135	0x365ef54b	3.3223357e-06
136	0x373bd332	1.1195241e-05
137	0x3707a3da	8.084777e-06
138	0x371aa77c	9.218111e-06
139	0x379c528c	1.8635088e-05
140	0x371014fc	8.587955e-06
141	0x3635f596	2.7114052e-06
142	0x374ebb9b	1.2322237e-05
143	0x364ef6d9	3.0840076e-06
144	0x371f1fcd	9.484543e-06
145	0x37a07455	1.9127658e-05
146	0x36d1cacc	6.252294e-06
147	0x35c32322	1.4538857e-06
148	0x373447e6	1.0745576e-05
149	0x364ca000	3.04915e-06
150	0x37160cc1	8.943666e-06
151	0x37a1ea8c	1.9301915e-05
152	0x36948510	4.426234e-06
153	0x3583789a	9.79536e-07
154	0x37276549	9.977558e-06
155	0x35a0f3b4	1.1991856e-06
156	0x371ac782	9.225567e-06
157	0x37a84a88	2.0061867e-05
158	0x368f860a	4.2773363e-06
159	0x3570946d	8.9622955e-07
160	0x36f3e27a	7.2683297e-06
161	0x35cdcf21	1.5333973e-06
162	0x3724767b	9.802748e-06
163	0x37a9d641	2.024614e-05
164	0x36618ccb	3.3609565e-06
165	0x356714e8	8.608463e-07
166	0x36d56603	6.3597704e-06
167	0x34a5f252	3.0909956e-07
168	0x36deaa6a	6.6359544e-06
169	0x37965299	1.7919856e-05
170	0x363f6dae	2.852506e-06
171	0x3504c2df	4.9457407e-07
172	0x36ca4fab	6.0293437e-06
173	0x34ae24ed	3.2436893e-07
174	0x36c3276b	5.8160417e-06
175	0x378f49f9	1.7081375e-05
176	0x35c895f3	1.4944802e-06
177	0x35073030	5.036154e-07
178	0x36e1d044	6.729768e-06
179	0x34f9f093	4.6554905e-07
180	0x36d2cc6a	6.2822846e-06
181	0x37949e86	1.7716793e-05
182	0x3457d70d	2.010167e-07
183	0x34b3f2f8	3.351813e-07
184	0x36c16dca	5.7646293e-06
185	0x3510779a	5.3818223e-07
186	0x36bf4feb	5.7015473e-06
187	0x37949016	1.771007e-05
188	0x34401fb0	1.7892921e-07
189	0x33f4c72f	1.1398367e-07
190	0x36b22e59	5.310209e-06
191	0x3543f344	7.299716e-07
192	0x36be04cf	5.663001e-06
193	0x3793986b	1.759474e-05
194	0x342e7555	1.6247698e-07
195	0x34393203	1.7247662e-07
196	0x36b33efe	5.341949e-06
197	0x3519932d	5.721111e-07
198	0x36b3a025	5.353259e-06
199	0x378ffd85	1.7164983e-05
200	0x33d104f2	9.7332205e-08
201	0x34155310	1.3906924e-07
202	0x36af379d	5.2218807e-06
203	0x34c87cce	3.734371e-07
204	0x36b81933	5.486561e-06
205	0x378dc94c	1.6902246e-05
206	0x352c999c	6.4298524e-07
207	0x352245d1	6.04513e-07
208	0x36a3ca3b	4.8813213e-06
209	0x34c60a54	3.688789e-07
210	0x36b12e77	5.2804203e-06
211	0x378dc2a7	1.6899152e-05
212	0x34369a17	1.7006128e-07
213	0x34e7ed49	4.319975e-07
214	0x36a11c58	4.8014736e-06
215	0x3426b0f1	1.5524326e-07
216	0x36bc1b14	5.605989e-06
217	0x378f898b	1.7110977e-05
218	0x34359f89	1.6914977e-07
219	0x350a2f33	5.147769e-07
220	0x36a272a3	4.8413217e-06
221	0x34686f44	2.1647162e-07
222	0x36c0465b	5.7302364e-06
223	0x37914630	1.731803e-05
224	0x34365c96	1.6983753e-07
225	0x35167ace	5.605806e-07
226	0x369daf55	4.699376e-06
227	0x34853c8c	2.4817234e-07
228	0x36b4f3fd	5.392822e-06
229	0x379162bb	1.7331322e-05
230	0x34866fcd	2.504079e-07
231	0x3505f37e	4.990069e-07
232	0x36a172ec	4.8115526e-06
233	0x340e5b19	1.3257922e-07
234	0x36aa37f3	5.072908e-06
235	0x3789a9d9	1.6410764e-05
236	0x343803ad	1.7137673e-07
237	0x35134615	5.486375e-07
238	0x36a4c6ff	4.910747e-06
239	0x3415f37f	1.396529e-07
240	0x36a3dd93	4.883573e-06
241	0x3789cf74	1.6428276e-05
242	0x3436c16c	1.7020437e-07
243	0x35150638	5.5515875e-07
244	0x36a5de9f	4.9432997e-06
245	0x34cf76ea	3.8643276e-07
246	0x36a25da9	4.8388797e-06
247	0x3789c21d	1.6422064e-05
248	0x343f01fc	1.7788983e-07
249	0x350117cf	4.809089e-07
250	0x36aa54b9	5.076258e-06
251	0x3cc28e48	0.023749486
252	0x3c4ba957	0.0124305105
253	0x35a8ffce	1.2591424e-06
254	0x37b90dfc	2.206023e-05
255	0x378dd514	1.6907732e-05

exp_avg f4 [20]
0	0x3acd9bc1	0.0015686677
1	0x3aa99c77	0.0012940307
2	0xbb68a23a	-0.0035497085
3	0x3b5df9bb	0.0033870775
4	0x399384e8	0.00028137048
5	0x3a5fdcd0	0.00085396785
6	0x3af089bd	0.0018351596
7	0x38d7c783	0.00010289161
8	0xbb56e316	-0.0032789162
9	0x3a49df3f	0.0007700808
10	0x3b50b5bc	0.0031846603
11	0x3ba03079	0.004888591
12	0x3b0c0217	0.002136355
13	0xba76d6c1	-0.0009416156
14	0xbb86d6d1	-0.0041149636
15	0xba980a42	-0.0011599737
16	0xbb36d126	-0.0027895658
17	0xbb8d0601	-0.0043036942
18	0x3b05b7dd	0.002040378
19	0x3a22d8d9	0.00062121224

exp_avg_sq f4 [20]
0	0x38632cef	5.4162865e-05
1	0x38835ff7	6.2644416e-05
2	0x38a4f89c	7.8664365e-05
3	0x38ccfb5f	9.7742995e-05
4	0x37a91dab	2.0160185e-05
5	0x37c0801b	2.2947837e-05
6	0x386c6b3f	5.6366665e-05
7	0x3730e56a	1.0543832e-05
8	0x3819286c	3.651569e-05
9	0x3815137c	3.5542515e-05
10	0x388003a8	6.104197e-05
11	0x39053961	0.00012705244
12	0x3815cbac	3.5714053e-05
13	0x37dfa215	2.6659147e-05
14	0x38cfe9b7	9.914062e-05
15	0x388a3efb	6.592084e-05
16	0x384f386a	4.9405186e-05
17	0x389626a9	7.1597584e-05
18	0x380409bd	3.1480322e-05
19	0x388b5c6f	6.6452536e-05

exp_avg f4 [6, 20]
0	0x3ad6422e	0.0016346627
1	0xb990d5b8	-0.00027625053
2	0x39b716b9	0.0003492141
3	0xba13ae9c	-0.0005633624
4	0x3b089204	0.0020838985
5	0x3a9fc2cf	0.0012188795
6	0xba40acf9	-0.00073499937
7	0xb96c12d7	-0.00022513732
8	0xba61f4c1	-0.000861954
9	0xb959a95a	-0.00020757821
10	0x3aa23b15	0.0012377227
11	0xb9ea7a58	-0.0004472311
12	0xb95d31d9	-0.00021094772
13	0xb956a116	-0.0002046864
14	0x3976ad3e	0.00023524926
15	0x3a7e5e3b	0.00097033725
16	0xba3d7656	-0.0007227411
17	0xb9416600	-0.00018443912
18	0x3a4ebc39	0.0007886324
19	0x38254e1a	3.9411803e-05
20	0xbc2da976	-0.010599485
21	0x3b555d64	0.0032556886
22	0xbaf52b1f	-0.0018704868
23	0x3c0bfcf5	0.008544196
24	0xbce38ab4	-0.0277761
25	0xbb8388f3	-0.0040141284
26	0x3c1f39c2	0.00971836
27	0x39aa816a	0.00032521348
28	0x3b9aa862	0.00471978
29	0xbb4479ae	-0.0029979753
30	0xbba5b77f	-0.005057275
31	0x3b3a3e3f	0.002841845
32	0x3ab99043	0.0014157373
33	0x381d8511	3.7555645e-05
34	0x39e52187	0.00043703264
35	0xbaf71f14	-0.0018853866
36	0x3bb3d950	0.005488552
37	0x3ac174de	0.001475956
38	0xbb48ea3f	-0.00306572
39	0xb8b2f1ee	-8.532764e-05
40	0xbb5914ac	-0.0033123894
41	0x3ab92b36	0.0014127258
42	0x3a5ea6ac	0.0008493464
43	0x3a3ebe47	0.00072762783
44	0xbbe8aa6c	-0.007100394
45	0xbb9cb341	-0.004782111
46	0x3ad2bed3	0.0016078599
47	0xbb0079e5	-0.0019603905
48	0x3ae87c0b	0.0017737163
49	0x3b00af15	0.0019635607
50	0xbb8c3376	-0.0042785956
51	0x3aaa3e4f	0.001298854
52	0x3ae14b1c	0.0017188522
53	0x3b041f5b	0.002016029
54	0x3afa04b1	0.0019074884
55	0xbaf65470	-0.0018793475
56	0x3a930e81	0.0011219532
57	0xb9611150	-0.00021464122
58	0xbb61d00b	-0.0034456279
59	0x3a66cf56	0.0008804699
60	0xbb1a4128	-0.0023537371
61	0xbc1b10d7	-0.009464464
62	0xbbc60765	-0.006043362
63	0xbc52ae84	-0.012858991
64	0xbcce7e36	-0.025206666
65	0x3ba21391	0.00494618
66	0xbc7ae666	-0.01531372
67	0x3af6cb53	0.0018828906
68	0xbbb6210f	-0.00555814
69	0xbc461b5b	-0.012091483
70	0x3affc721	0.0019514301
71	0xbc2f06f0	-0.010682806
72	0xbbee7d4b	-0.0072781197
73	0xbc644c18	-0.013934158
74	0xbc77d05c	-0.01512536
75	0x3acc5db9	0.0015591896
76	0xbbb27098	-0.005445551
77	0xbba51bc9	-0.0050387126
78	0x3aac021d	0.0013123188
79	0xbb0f3671	-0.0021852518
80	0x3c7e890e	0.015535606
81	0x3be54bc1	0.006997556
82	0x3c0591fc	0.008152481
83	0x3c23c56c	0.0099957995
84	0x3d8aa4e8	0.067697346
85	0x3ae69fff	0.001759529
86	0x3c38c7c7	0.011278099
87	0xbb1b93ec	-0.0023739291
88	0x3b985ede	0.004649981
89	0x3c7d7886	0.01547063
90	0x3bcb9a45	0.0062134587
91	0x3c37771d	0.011197832
92	0x3bb2b077	0.005453165
93	0x3c6b43d4	0.014359433
94	0x3c8b6ba2	0.017019097
95	0x3ada9a44	0.0016678055
96	0x3b36a332	0.0027868268
97	0x3c02cbed	0.00798319
98	0x3b7e956c	0.0038846387
99	0x3ad68bf2	0.0016368611
100	0xba6d4783	-0.00090514886
101	0xbafc214d	-0.0019235999
102	0xbabc34c2	-0.0014358985
103	0xbbbf5e6d	-0.005840114
104	0xbc1ed5e9	-0.009694555
105	0x3a643c57	0.0008706501
106	0xbbd6a327	-0.006550211
107	0x3b1a135a	0.002351007
108	0xbb9aaf12	-0.004720577
109	0xbb0bfa28	-0.0021358822
110	0xb88cbe11	-6.711123e-05
111	0xbb89cf7f	-0.0042056437
112	0xba8ffd92	-0.0010985604
113	0xbb14e37f	-0.0022718606
114	0xbb927278	-0.004469212
115	0xb9e2cdee	-0.0004325951
116	0xbb537099	-0.0032263158
117	0xbb83a9ac	-0.004018029
118	0x3a09aff8	0.00052523566
119	0xb9960b2b	-0.0002861855

exp_avg_sq f4 [6, 20]
0	0x39c7e4ce	0.0003812671
1	0x3933944a	0.00017126012
2	0x3a1029e1	0.00054994045
3	0x38d25d42	0.00010030951
4	0x3a6e5344	0.0009091387
5	0x39282529	0.00016035572
6	0x393075f0	0.00016828603
7	0x386aac61	5.5950488e-05
8	0x3a0d3c47	0.0005387705
9	0x39a36741	0.00031166713
10	0x39633146	0.00021666763
11	0x389a24ec	7.3501695e-05
12	0x394adfc9	0.00019347588
13	0x3a0df343	0.0005414972
14	0x3a71f32d	0.00092296564
15	0x39d612bf	0.00040831228
16	0x39b015c3	0.0003358555
17	0x3a6a132d	0.0008929249
18	0x380d1098	3.3632474e-05
19	0x3996cf72	0.00028764788
20	0x3b0e3c89	0.0021703562
21	0x39988642	0.0002909173
22	0x3a2a3d2b	0.00064941
23	0x3af8e7c2	0.0018989968
24	0x3d3769ef	0.04477876
25	0x3a1ab77e	0.0005901976
26	0x3b0d50f8	0.0021563154
27	0x391e4ee1	0.00015097439
28	0x3aa4498f	0.0012534129
29	0x3b214e8b	0.0024613466
30	0x3a0ff4b9	0.00054914836
31	0x3ac55084	0.0015053903
32	0x3951d8c4	0.00020012545
33	0x3b182a70	0.0023218654
34	0x3b22610c	0.0024777083
35	0x39d9a8f5	0.00041515348
36	0x3aa8b6d4	0.001287187
37	0x3b03bdfa	0.0020102249
38	0x3941b8bd	0.00018474735
39	0x38ad1c95	8.254607e-05
40	0x39a1285d	0.00030738386
41	0x3a16c81f	0.0005751866
42	0x3944e710	0.00018778094
43	0x3a949ece	0.0011338831
44	0x3b1c1bf9	0.0023820384
45	0x39878b23	0.00025852871
46	0x3abf37b7	0.0014588748
47	0x390c34f7	0.00013371171
48	0x3a52da10	0.0008043358
49	0x3aac519b	0.0013146879
50	0x39b523fd	0.00034549824
51	0x3a520f6e	0.00080131635
52	0x39e39e80	0.00043414906
53	0x3a81691e	0.0009873246
54	0x3a02bd41	0.00049873075
55	0x38d71645	0.00010256147
56	0x3a0e345a	0.0005424671
57	0x3a11202d	0.00055361056
58	0x38f943f4	0.000118859025
59	0x38cb2738	9.6870994e-05
60	0x39c4bef5	0.00037526307
61	0x39dd44be	0.00042203622
62	0x3a1f8099	0.0006084531
63	0x3abd6f50	0.0014452729
64	0x3b46887b	0.003029375
65	0x39c459d1	0.00037450952
66	0x3b0982c6	0.0020982488
67	0x3928f6a9	0.00016113617
68	0x3aeb1a87	0.0017936983
69	0x3a841025	0.0010075612
70	0x398a261b	0.00026349802
71	0x3a6b7ec4	0.0008983428
72	0x39ab0b28	0.00032623974
73	0x3aa4936c	0.0012556142
74	0x3abd05d4	0.0014421293
75	0x39eedf7a	0.000455614
76	0x3ab3a2fc	0.0013705189
77	0x3af7e0d9	0.0018911614
78	0x38b911b3	8.824784e-05
79	0x3966eb83	0.00022022244
80	0x3b23228a	0.0024892413
81	0x3a65aea4	0.000876168
82	0x3a3dff02	0.0007247777
83	0x3b13fce6	0.002258116
84	0x3d3b1808	0.045677215
85	0x3a5c40da	0.00084019976
86	0x3b27c0aa	0.0025597014
87	0x39851702	0.0002538488
88	0x3aa82ab6	0.0012830112
89	0x3b443e9c	0.0029944545
90	0x3a8b9b7d	0.0010651198
91	0x3afd3b25	0.0019319995
92	0x3a280447	0.0006409329
93	0x3b1f3411	0.0024292509
94	0x3b2012f7	0.0024425366
95	0x39f2ebb8	0.0004633346
96	0x3a916c6d	0.0011094935
97	0x3ae44724	0.0017416221
98	0x39acba34	0.0003294513
99	0x399ff825	0.00030511725
100	0x38f3d380	0.00011626538
101	0x380e299c	3.389419e-05
102	0x36f1cc0a	7.206113e-06
103	0x397e7f1f	0.00024270684
104	0x3a1477fb	0.00056636304
105	0x39456726	0.0001882581
106	0x39947c8b	0.00028321552
107	0x388378d2	6.269071e-05
108	0x3999b5bd	0.0002931784
109	0x37369793	1.08833365e-05
110	0x38b6a61b	8.709376e-05
111	0x38d541b2	0.00010168868
112	0x37b44016	2.1487514e-05
113	0x37958b40	1.7827027e-05
114	0x38b861f9	8.7920525e-05
115	0x38f4e92a	0.00011678257
116	0x39851657	0.0002538438
117	0x3981d0dc	0.0002476041
118	0x37f91622	2.969342e-05
119	0x3749e3ab	1.2033542e-05

exp_avg f4 [6]
0	0x39d0a46f	0.00039795364
1	0x3abd6d7d	0.0014452186
2	0xbaa08bb9	-0.0012248672
3	0xbb71a604	-0.0036872635
4	0x3b71a0b2	0.0036869464
5	0xba22005d	-0.00061798637

exp_avg_sq f4 [6]
0	0x38a48117	7.844174e-05
1	0x39b97cb3	0.00035378858
2	0x3927488f	0.00015953391
3	0x395539cd	0.00020334795
4	0x39b971e4	0.00035370805
5	0x38529c62	5.0213544e-05

exp_avg f4 [4, 20]
0	0xbd2d6e74	-0.042341664
1	0xbb0bab40	-0.002131179
2	0xbc5bdc05	-0.013419156
3	0xbc2cbd58	-0.01054319
4	0xbe35671e	-0.17715117
5	0xbc86d024	-0.016456671
6	0xbc20ecd1	-0.009822086
7	0xba61e7b2	-0.0008617594
8	0xbc1b3f9a	-0.009475613
9	0xbc2f867a	-0.010713214
10	0xbc8f05b3	-0.017458772
11	0xbc767117	-0.015041611
12	0xba1646c3	-0.000573259
13	0xbc40168d	-0.0117241265
14	0xbd052f1e	-0.032515638
15	0xbc2a68d9	-0.010400974
16	0xbc000892	-0.007814543
17	0xbcc583ec	-0.024110757
18	0xbc432d1e	-0.011912612
19	0xba097a01	-0.0005244315
20	0x3ab05171	0.0013452006
21	0xbb8f66b9	-0.004376259
22	0xba5f71d2	-0.00085237355
23	0x38be82fe	9.084305e-05
24	0x3b2def2e	0.0026540267
25	0x3af6f111	0.0018840154
26	0xbaf71eae	-0.0018853748
27	0xba586dee	-0.0008256127
28	0x3a723e9f	0.00092408987
29	0xbb92c4b5	-0.0044790157
30	0xb9308dba	-0.00016837465
31	0xba9f38e7	-0.0012147696
32	0xbb144e94	-0.0022629844
33	0xbb73e184	-0.0037213275
34	0x3ad1a30e	0.0015994029
35	0x3ad0e20a	0.0015936506
36	0x3ad80c31	0.0016483126
37	0x3b33ef1f	0.002745576
38	0x390de196	0.00013530845
39	0xba80921b	-0.0009809168
40	0x3bbab8c8	0.005698297
41	0x3bf5d4e2	0.0075021842
42	0x3b4a6fc4	0.0030889371
43	0x3c2f75cd	0.010709238
44	0x3cb973e8	0.022638276
45	0x3bd4d8b5	0.00649556
46	0x3c5acf7f	0.013355135
47	0x3b67864b	0.0035327848
48	0x3bd67c1d	0.006545557
49	0x3c0ce2db	0.008599008
50	0x3be6b31d	0.007040395
51	0x3c0e6eca	0.008693406
52	0x3b85c170	0.0040818974
53	0x3c0f7462	0.008755775
54	0x3bd52502	0.006504656
55	0x3b93db55	0.0045122304
56	0x3bab7e44	0.005233558
57	0x3bfaabbd	0.0076498673
58	0x3b55a967	0.0032602192
59	0x3ae0e3c1	0.001715772
60	0x3d108f7b	0.035293084
61	0xba821476	-0.0009924311
62	0x3c3731e4	0.011181328
63	0xb9867173	-0.00025642998
64	0x3e1b807d	0.15185733
65	0x3c044fd8	0.008075677
66	0xbad7e4b9	-0.0016471363
67	0xbaf1e1d8	-0.0018454148
68	0x3b037a90	0.0020062067
69	0x3bd81a8a	0.0065949606
70	0x3c2d6349	0.010582753
71	0x3bf7d439	0.0075631407
72	0xbaa2f3d3	-0.0012432284
73	0x3bdb4f23	0.0066927834
74	0x3cc7f8b8	0.02441059
75	0x3b8c9c2c	0.004291078
76	0x3a7467f4	0.00093233516
77	0x3c60b008	0.013713844
78	0x3c0b8710	0.008516088
79	0xb95ea0a2	-0.0002123141

exp_avg_sq f4 [4, 20]
0	0x3b8242e8	0.003975261
1	0x3ad294f0	0.0016066115
2	0x3bb6c0a6	0.0055771647
3	0x3a1693fa	0.0005744096
4	0x3d23e61b	0.040014368
5	0x39e27794	0.00043195172
6	0x3a166f96	0.00057386735
7	0x38d939b1	0.00010358112
8	0x3ad98d14	0.0016597831
9	0x3b289f3d	0.002572968
10	0x3a94c354	0.0011349716
11	0x3a2b4513	0.0006533425
12	0x3b141e51	0.0022601078
13	0x3b40955d	0.0029385902
14	0x3bf3cea6	0.007440406
15	0x3b815542	0.003946931
16	0x3a627de8	0.00086399773
17	0x3b5d087c	0.003372698
18	0x39052832	0.00012698842
19	0x3b76e383	0.0037672229
20	0x39849c83	0.00025293612
21	0x3947a3ff	0.00019039212
22	0x39dc2907	0.00041992238
23	0x3a3d48b6	0.00072206126
24	0x3bf35582	0.007425965
25	0x390ba2bb	0.00013316695
26	0x3a64f577	0.0008734087
27	0x3828b18a	4.0219667e-05
28	0x3a1cfaf7	0.00059883244
29	0x3a77e59a	0.00094565155
30	0x38ee2dd5	0.00011357261
31	0x3a2050cd	0.0006115556
32	0x393288d8	0.00017026381
33	0x3a88d10f	0.0010438281
34	0x3a86dbf8	0.0010288944
35	0x39282bcf	0.00016038048
36	0x39f90fea	0.00047504838
37	0x3a63e553	0.0008693535
38	0x3811a845	3.4727407e-05
39	0x38ac0e89	8.2043065e-05
40	0x39f43fbb	0.0004658679
41	0x395b5bac	0.00020919618
42	0x38c7b8c7	9.523477e-05
43	0x3a1a489a	0.0005885452
44	0x3b860e5c	0.0040910672
45	0x39a38055	0.00031185398
46	0x3a44336c	0.0007484469
47	0x38c913ae	9.5880925e-05
48	0x3988e956	0.0002611379
49	0x39c88f60	0.00038253795
50	0x39a69834	0.00031775387
51	0x3a0fc34b	0.0005484118
52	0x391eea3c	0.00015155313
53	0x39a679ed	0.0003175283
54	0x398e1b6e	0.00027104787
55	0x395cf003	0.00021070246
56	0x394b0f59	0.00019365306
57	0x399b3dc3	0.0002960992
58	0x38a7162e	7.967312e-05
59	0x38c929e1	9.5922274e-05
60	0x3b7aa7c2	0.0038246964
61	0x3ad4f3a7	0.001624693
62	0x3bae5f64	0.00532143
63	0x39f72b0f	0.00047143592
64	0x3d1859cb	0.03719501
65	0x39f7f135	0.00047291224
66	0x39f0f2a5	0.0004595715
67	0x38fbd920	0.00012009055
68	0x3ab2e678	0.0013649007
69	0x3b166430	0.00229479
70	0x3a92cf95	0.001120078
71	0x3a1cdf19	0.0005984172
72	0x3b135671	0.0022481943
73	0x3b28a8ee	0.0025735456
74	0x3be3ac9b	0.0069480664
75	0x3b7719f4	0.0037704678
76	0x3a2a71c0	0.00065019354
77	0x3b3efd66	0.0029142736
78	0x39129e3d	0.00013982593
79	0x3b725418	0.0036976393

exp_avg f4 [4]
0	0xbba767fc	-0.0051088315
1	0xb9c60ebd	-0.00037776484
2	0x3bb95609	0.005656008
3	0xb931a43d	-0.00016941219

exp_avg_sq f4 [4]
0	0x39ea7e25	0.00044725943
1	0x39085fa6	0.00013005603
2	0x39410721	0.0001840857
3	0x39d67b38	0.00040909066

exp_avg f4 [3, 20]
0	0xbbfd6c35	-0.0077338465
1	0x3bc1bdd7	0.0059125233
2	0x3c1a723e	0.0094266515
3	0x3ba782f7	0.005112048
4	0xbd908285	-0.070561446
5	0xb9b563b0	-0.00034597283
6	0x3bea2f23	0.0071467324
7	0x3aaa8ef5	0.0013012575
8	0x3c304e0d	0.010760796
9	0x3a8b08f6	0.0010607529
10	0x3b715ca8	0.003682891
11	0xbb83b4cf	-0.004019357
12	0x3bd98500	0.0066381693
13	0x3ae6b55d	0.0017601658
14	0x3b9a735a	0.004713458
15	0x3c683d53	0.014174777
16	0x3c1ada76	0.009451499
17	0x3b602ad9	0.0034205227
18	0x3aad0e01	0.0013203026
19	0x3c512791	0.012765781
20	0xbc13d305	-0.009022479
21	0xbc8e4ad4	-0.017369665
22	0xbcb0e9ba	-0.021595825
23	0x3accd05e	0.0015626063
24	0xbb240e3e	-0.0025032903
25	0x3b818110	0.003952153
26	0xbb851fa6	-0.0040626107
27	0x3b50fcd0	0.003188897
28	0xbc0e25cb	-0.008676003
29	0xbc158dcc	-0.009128045
30	0xbc181ce4	-0.009284232
31	0x3a39e1ca	0.0007090835
32	0xbc8049bc	-0.01566016
33	0xbc230b39	-0.009951406
34	0xbc9181bf	-0.017762063
35	0xbc7df410	-0.015500084
36	0xb966078c	-0.0002193732
37	0xbb9b63be	-0.004742115
38	0xbb2c4453	-0.0026285842
39	0xbcb2cc21	-0.021825852
40	0x3c894d2b	0.01676043
41	0x3c3bca7b	0.011461849
42	0x3c47781f	0.012174635
43	0xbbdaad52	-0.0066734934
44	0x3d95a4e3	0.0730684
45	0xbb6c4046	-0.0036049052
46	0xbb49fed8	-0.0030822065
47	0xbb931d72	-0.004489594
48	0xbb0878c0	-0.0020823926
49	0x3c043b04	0.008070711
50	0x3bb7a9a6	0.0056049405
51	0x3b590422	0.0033114036
52	0x3c13e65b	0.009027089
53	0x3c064170	0.008194312
54	0x3c55df0d	0.013053668
55	0x3aae5fa8	0.0013303654
56	0xbc173d7c	-0.009230968
57	0x3aad883f	0.0013239457
58	0x3aaba54b	0.0013095526
59	0x3c1486cc	0.009065341

exp_avg_sq f4 [3, 20]
0	0x3ba06ff6	0.0048961593
1	0x3b0057dc	0.0019583618
2	0x3be88f94	0.007097194
3	0x3ab4d927	0.0013797627
4	0x3d3ad1e2	0.045610316
5	0x3a2148aa	0.00061524904
6	0x3ae4a921	0.0017445424
7	0x39562c0d	0.0002042504
8	0x3b51e6ad	0.0032028363
9	0x3b7a1aba	0.0038162903
10	0x3aded0e8	0.0016999515
11	0x3ac41ed7	0.0014962804
12	0x3b1f865c	0.002434156
13	0x3b9cf422	0.004789845
14	0x3c26ac22	0.010172876
15	0x3b96d6a6	0.004603225
16	0x3ac65047	0.0015130126
17	0x3bafc1f2	0.0053636963
18	0x399e8f4c	0.00030242873
19	0x3b8f096f	0.0043651382
20	0x3b7f06bb	0.0038913924
21	0x3aff567e	0.0019480733
22	0x3bd609f6	0.006531949
23	0x3b0e1f77	0.0021686235
24	0x3cdc2284	0.026871927
25	0x3a50184b	0.000793819
26	0x3b2bd267	0.002621794
27	0x39a38b48	0.00031193555
28	0x3b73277a	0.0037102387
29	0x3b559333	0.0032588958
30	0x3adc5f4c	0.0016813069
31	0x3ae455b3	0.001742056
32	0x3b1853d9	0.0023243336
33	0x3b8a5d72	0.0042225653
34	0x3c1c4045	0.009536807
35	0x3b94321e	0.004522576
36	0x3b086217	0.002081042
37	0x3bbd06db	0.0057686395
38	0x39a80279	0.000320453
39	0x3b8741fb	0.0041277385
40	0x3b4e0db0	0.0031441264
41	0x3a247b8b	0.0006274513
42	0x3b302e52	0.0026883078
43	0x3ab7ebf0	0.0014032107
44	0x3d15aaf8	0.03654
45	0x3a3e809e	0.000726709
46	0x3ab759d9	0.0013988569
47	0x399129ad	0.00027687606
48	0x3ad08e8b	0.0015911622
49	0x3aa55a68	0.0012615444
50	0x3a9ce816	0.0011971022
51	0x3a965569	0.0011469546
52	0x3a4e75b4	0.00078758155
53	0x3ac04c6a	0.0014671211
54	0x3b98d4e8	0.0046640523
55	0x3b14ca24	0.0022703493
56	0x3a946764	0.0011322317
57	0x3b4136c1	0.0029482099
58	0x399e2495	0.00030163364
59	0x3af00261	0.0018311256

exp_avg f4 [3]
0	0x3b962143	0.004581602
1	0xbb867385	-0.0041031265
2	0xb9fadbd8	-0.00047847512

exp_avg_sq f4 [3]
0	0x3a1f5bd9	0.0006079055
1	0x3a273dd5	0.0006379758
2	0x39c79b97	0.0003807216
