config/ppo/results/RayShoot0610_92만번/Shooting/Shooting-499998.pt (torch, 80967 bytes, 34 tensors)

discrete_act_size_vector f4 [1, 3]
6.0 4.0 3.0
00000000: 0000 c040 0000 8040 0000 4040

network_body._body_endoder.seq_layers.0.weight f4 [20, 128]
0.6104661 0.03526334 -0.122099735 0.5135798 0.046475105 -0.0080057345 0.025772294 -0.13109332
0.13218816 0.38373733 -0.024655761 0.08023143 -0.35404012 -0.08827415 0.021189282 0.41021088
-0.0039690817 0.056224737 -0.47400093 -0.06479851 0.13651584 0.59749347 -0.015054132 0.13076401
-0.45901817 -0.09489347 -0.108164124 0.5906456 -0.20475687 0.2504273 -0.52672625 -0.30487448
-0.030733425 0.3954757 -0.12014071 0.020308495 -0.37025174 -0.17288432 0.07116828 0.2687488
-0.14057395 0.13781369 -0.4294854 -0.37891924 0.17848654 0.3755297 0.057773005 0.13069792
-0.14199004 -0.13110332 0.08688516 0.21714363 -0.16708381 0.132584 -0.16616453 0.02009653
0.13438857 0.3889411 -0.08172128 0.08344203 -0.37469274 0.017118167 -0.08250449 0.26909754
-0.061274022 0.18850408 -0.25386348 -0.09595172 0.11286294 0.17823748 -0.0021936449 0.15181196
-0.20759997 -0.06638688 0.09186649 0.13515112 0.005139181 0.2090964 -0.1847281 -0.15130657
-0.012668354 0.15631612 0.21824668 0.032955058 -0.15812896 -0.15910697 -0.09250577 0.09306849
-0.011343075 0.055724483 -0.27735278 -0.13293794 -0.0014713194 0.12021982 0.037361965 0.059496604
-0.40374756 -0.16886058 0.13782926 0.04456331 0.09657724 -0.0035225814 -0.19410758 -0.11059475
0.098020315 0.08953881 0.15057929 0.057986252 -0.14391007 -0.057427086 0.21491052 0.20696402
0.14471442 0.11347633 -0.054738224 -0.0110704815 3.5104047e-05 0.4423294 0.020965172 0.07338943
-0.2599087 -0.04115485 0.028494362 0.036827814 0.015050352 0.109147705 -0.011079413 0.6872655
0.49122968 -0.21543641 0.0039434936 0.35149157 0.09718672 0.09310496 -0.24592564 0.0511002
0.124524236 0.32965913 0.14415291 -0.033242147 -0.29113364 0.040766295 0.19630067 0.23361062
0.3051496 0.27121875 -0.49602252 0.076436095 0.13456626 0.4086636 -0.0129270945 0.076383345
-0.42751464 -0.14541124 0.12599272 0.554218 -0.085103214 0.15878125 -0.37121028 -0.031446822
-0.03582428 0.26791227 0.007763882 0.30277276 -0.5692376 -0.0795418 0.09260998 0.47142413
0.011785774 0.08711534 -0.45901802 -0.050882366 0.023033634 0.3229834 0.11508232 0.085177906
-0.24094677 0.07307854 -0.08846533 0.2779973 0.07741347 0.042781204 -0.1208498 -0.08123952
0.22371015 0.2501925 -0.044867422 0.289457 -0.2748131 -0.13142897 0.058199696 0.22962469
-0.015350071 0.21856487 -0.32486764 -0.1373289 -0.09345286 0.14541225 -0.10362175 0.083893895
-0.21643862 -0.24529256 0.01095539 0.2240603 0.050971877 0.3323013 -0.33515418 -0.12351017
-0.05512579 0.25867248 -0.07409347 0.11325479 -0.17462714 -0.19054465 0.18338579 0.114888094
-0.06443485 0.02518764 -0.32249 -0.09471067 -0.06671887 0.24989343 -0.112451434 0.003504383
-0.5809513 0.050828308 0.018266706 0.15707493 0.16918872 0.046582077 -0.32306087 -0.018891064
0.114813834 0.14220816 0.12520838 0.14691865 -0.32971457 0.058552336 0.07522194 0.12264763
0.10854291 -0.015124599 -0.3003979 -0.032920964 0.109073274 0.39103997 -0.06820745 0.07164539
-0.5563941 -0.07450067 0.06615763 -0.039638143 0.020702029 0.13290103 -0.043324377 0.16704574
00000000: 8247 1c3f 4b70 103d 6d0f fabd f779 033f
00000010: ae5c 3e3d 7c2a 03bc 6b20 d33c 543d 06be
00000020: 555c 073e 3879 c43e e1fa c9bc 6050 a43d
00000030: bf44 b5be 14c9 b4bd 2595 ad3c 2907 d23e
00000040: 120f 82bb e94b 663d 40b0 f2be 15b5 84bd
00000050: cfca 0b3e 55f5 183f 9ba5 76bc 00e7 053e
00000060: 6e04 ebbe 8257 c2bd 2785 ddbd 8d34 173f
00000070: c9ab 51be 0238 803e 88d7 06bf 8218 9cbe
00000080: aac4 fbbc ca7b ca3e 550c f6bd 005e a63c
00000090: a391 bdbe 9608 31be adc0 913d 7199 893e
000000a0: 9ef2 0fbe 081f 0d3e 83e5 dbbe b401 c2be
000000b0: 2dc5 363e 6e45 c03e 63a3 6c3d add5 053e
000000c0: d665 11be f33f 06be d9f0 b13d e65a 5e3e
000000d0: 0518 2bbe 1ac4 073e 0927 2abe 7aa1 a43c
000000e0: 289d 093e 4a23 c73e 7d5d a7bd a8e3 aa3d
000000f0: bad7 bfbe 663b 8c3c 1df8 a8bd 27c7 893e
00000100: 78fa 7abd 3707 413e 65fa 81be 5682 c4bd
00000110: af24 e73d e383 363e 41c3 0fbb 9874 1b3e
00000120: 1695 54be d8f5 87bd 8024 bc3d 0e65 0a3e
00000130: 9366 a83b 5e1d 563e 5d29 3dbe 1cf0 1abe
00000140: ee8e 4fbc 5511 203e 0f7c 5f3e e2fb 063d
00000150: 8fec 21be f0ec 22be aa73 bdbd b19a be3d
00000160: 4ed8 39bc 5b3f 643d 2f01 8ebe e220 08be
00000170: 49d9 c0ba cf35 f63d dc08 193d b6b2 733d
00000180: 00b8 cebe cae9 2cbe 1d23 0d3e 0488 363d
00000190: 4aca c53d 1cdb 66bb 23c4 46be 807f e2bd
000001a0: e0be c83d 2060 b73d 7531 1a3e fe82 6d3d
000001b0: 295d 13be aa38 6bbd 8111 5c3e 60ee 533e
000001c0: 0430 143e 4766 e83d 3035 60bd f760 35bc
000001d0: af3c 1338 0079 e23e 27bf ab3c 334d 963d
000001e0: c112 85be fd91 28bd 026d e93c c3d8 163d
000001f0: c095 763c d588 df3d 6d86 35bc a2f0 2f3f
00000200: 7582 fb3e 5d9b 5cbe 6c38 813b b4f6 b33e
00000210: d509 c73d d0ad be3d eed3 7bbe 714e 513d
00000220: 9006 ff3d 15c9 a83e d29c 133e eb28 08bd
00000230: 780f 95be 8ffa 263d 0b03 493e 9f37 6f3e
00000240: 923c 9c3e 2fdd 8a3e aaf6 fdbe 878a 9c3d
00000250: bdcb 093e 5b3c d13e 2acc 53bc df6e 9c3d
00000260: 33e3 dabe afe6 14be 3c04 013e 3be1 0d3f
00000270: 984a aebd 8d97 223e 460f bebe 62ce 00bd
00000280: 7bbc 12bd cc2b 893e 2a68 fe3b 0805 9b3e
00000290: 8eb9 11bf d0e6 a2bd 4daa bd3d 815e f13e
000002a0: 1e19 413c 8769 b23d 6904 ebbe 076a 50bd
000002b0: 08b1 bc3c 155e a53e 48b0 eb3d c171 ae3d
000002c0: c0ba 76be 34aa 953d 502d b5bd a955 8e3e
000002d0: f48a 9e3d 583b 2f3d 1a80 f7bd e860 a6bd
000002e0: 4614 653e 3b19 803e e7c6 37bd b533 943e
000002f0: 4db4 8cbe 5195 06be ce62 6e3d bc22 6b3e
00000300: dd7e 7bbc 78cf 5f3e 0d55 a6be f29f 0cbe
00000310: 3764 bfbd f3e6 143e a437 d4bd 90d0 ab3d
00000320: 16a2 5dbe f92d 7bbe 3c7e 333c 1070 653e
00000330: e3c7 503d 6523 aa3e 5499 abbe e6f2 fcbd
00000340: 95cb 61bd b870 843e 51be 97bd 21f2 e73d
00000350: 75d1 32be 231e 43be 7cc9 3b3e 734a eb3d
00000360: 6bf6 83bd 4f56 ce3c 691d a5be abf7 c1bd
00000370: e7a3 88bd 10e4 7f3e f04c e6bd caa9 653b
00000380: 39b9 14bf 5831 503d 0fa4 953c 40d8 203e
00000390: cf3f 2d3e d9cc 3e3d 3c68 a5be 6fc1 9abc
000003a0: 8423 eb3d 049f 113e a036 003e d871 163e
000003b0: 59d0 a8be 93d4 6f3d f60d 9a3d ae2e fb3d
000003c0: bf4b de3d 2bcd 77bc c1cd 99be 22d8 06bd
000003d0: cf61 df3d 6436 c83e 59b0 8bbd d1ba 923d
000003e0: d86f 0ebf cf93 98bd a77d 873d 9b5b 22bd
000003f0: 4d97 a93c 3517 083e e774 31bd 0a0e 2b3e

network_body._body_endoder.seq_layers.0.bias f4 [20]
0.115245074 0.097014025 0.10790486 0.11505584 -0.001904695 0.080172494 0.115486264 0.0138956765
0.06174897 -0.038071774 0.11029606 0.084592246 0.10067 0.09195392 0.13016674 0.15606542
0.09454156 0.13852572 0.07044818 0.14487092
00000000: 9c05 ec3d 4aaf c63d 39fd dc3d 65a2 eb3d
00000010: f5a6 f9ba 7a31 a43d 1084 ec3d b1aa 633c
00000020: 7dec 7c3d 26f1 1bbd e7e2 e13d b33e ad3d
00000030: 132c ce3d 5652 bc3d 6e4a 053e 9dcf 1f3e
00000040: 019f c13d b0d9 0d3e 2347 903d 0b59 143e

action_model._discrete_distribution.branches.0.weight f4 [6, 20]
0.17530315 0.11260424 0.43427655 -0.34636986 -0.047055498 -0.059855722 -0.27375963 -0.032866083
0.13547154 -0.106174566 0.055504467 -0.21979618 0.18196476 0.08269546 0.31264013 0.3063767
0.018531958 0.18172805 -0.23776884 0.30782905 -0.023415634 -0.08447915 -0.16715711 0.10642823
0.1198056 -0.0452714 0.047491897 -0.013203411 -0.10511966 0.08973778 -0.028989827 0.043881666
-0.078827724 0.012782277 -0.014886615 -0.18918279 -0.07349049 -0.09600329 -0.0056409813 -0.13210177
-0.02645116 0.032453794 -0.15781109 0.10838683 0.03844193 0.031324133 0.1557443 -0.04838678
0.027489496 0.122441635 -0.031077161 0.16681091 -0.00983824 0.07348654 -0.009149839 -0.09405488
0.022039816 -0.028418051 0.10282105 -0.071689636 -0.054434456 -0.0019585928 0.0029666584 0.0581362
-0.043135073 -0.022097873 0.017481731 -0.04405741 -0.017375821 -0.020319797 -0.04743527 0.012320319
-0.012548155 -0.034061175 -0.053316463 -0.03784937 -0.027974077 -0.0723124 0.028353797 -0.060747955
0.024488773 0.06171457 -0.12455376 0.13905206 0.12959106 0.050292667 0.19994242 -0.05750258
0.0008784006 0.044146694 0.07963479 0.18830153 -0.01590039 0.009600157 -0.16258068 -0.08793634
-0.017469646 0.013843074 0.09411004 -0.08392927 -0.09577522 -0.050916 -0.016167754 0.058238376
-0.08571009 0.027416851 -0.022565804 0.0843336 -0.014312098 -0.035515863 -0.0489742 0.02324653
-0.020615812 -0.11283257 -0.040224615 0.012972429 0.12518185 0.098250456 0.030763177 -0.049085807
00000000: ab82 333e 0d9d e63d 7f59 de3e 6457 b1be
00000010: 44bd 40bd 462b 75bd 392a 8cbe 969e 06bd
00000020: 0db9 0a3e 0d72 d9bd a758 633d 4012 61be
00000030: f854 3a3e 3d5c a93d 5e12 a03e 68dd 9c3e
00000040: 55d0 973c eb16 3a3e ad79 73be c59b 9d3e
00000050: 25d2 bfbc 6803 adbd 3c2b 2bbe 0bf7 d93d
00000060: a35c f53d 816e 39bd dd86 423d 1f53 58bc
00000070: fa48 d7bd 71c8 b73d 137c edbc 43bd 333d
00000080: 6e70 a1bd c16c 513c fde6 73bc 22b9 41be
00000090: 2f82 96bd 5f9d c4bd fbd7 b8bb b045 07be
000000a0: 1ab0 d8bc 45ee 043d 3b99 21be eaf9 dd3d
000000b0: 4975 1d3d bc4d 003d 6f7b 1f3e 3731 46bd
000000c0: a731 e13c aec2 fa3d 8895 febc 7bd0 2a3e
000000d0: 9230 21bc 1c80 963d 35e9 15bc d89f c0bd
000000e0: d88c b43c f9cc e8bc d893 d23d 04d2 92bd
000000f0: aaf6 5ebd bc5b 00bb 456c 423b 3920 6e3d
00000100: 67ae 30bd 9906 b5bc d935 8f3c 8b75 34bd
00000110: bd57 8ebc b475 a6bc 7c4b 42bd 2adb 493c
00000120: c796 4dbc bb83 0bbd 5d62 5abd f107 1bbd
00000130: e429 e5bc 8618 94bd 3946 e83c d9d2 78bd
00000140: ae9c c83c 6bc8 7c3d 0b16 ffbd aa63 0e3e
00000150: 85b3 043e afff 4d3d b5bd 4c3e d387 6bbd
00000160: 7744 663a 2ad3 343d 9117 a33d 1ed2 403e
00000170: 8941 82bc fa49 1d3c 8d7b 26be f817 b4bd
00000180: 811c 8fbc 10ce 623c c4bc c03d 1ce3 abbd
00000190: cc25 c4bd 4c8d 50bd 3d72 84bc 5d8b 6e3d
000001a0: c688 afbd 4e99 e03c ecdb b8bc 18b7 ac3d
000001b0: 4a7d 6abc 1579 11bd 2c99 48bd 826f be3c
000001c0: 7ee2 a8bc c314 e7bd 91c2 24bd 508a 543c
000001d0: ac2f 003e 8937 c93d 0f03 fc3c 330e 49bd

action_model._discrete_distribution.branches.0.bias f4 [6]
-0.025793865 -0.018843774 -0.007448572 0.023786074 0.022367934 0.08669676
00000000: a84d d3bc 425e 9abc 2713 f4bb 03db c23c
00000010: f53c b73c 128e b13d

action_model._discrete_distribution.branches.1.weight f4 [4, 20]
0.036864173 0.049522154 0.26226154 -0.34847602 0.07105715 -0.025287049 -0.15423113 -0.07116266
0.08241742 -0.13958555 0.0020266885 -0.39317253 0.020815454 -0.014321265 0.20948555 0.21073192
-0.0013059167 0.07397587 0.006641094 0.1998762 -0.390007 -0.40198913 -0.19758834 0.3169878
-0.04223729 -0.27783072 0.2720857 0.062054425 0.21440758 0.14599015 -0.39325342 0.060420252
-0.35830653 0.24623227 0.037590776 -0.5038147 0.32986468 0.14993054 -0.076232016 -0.6178736
0.18865095 0.2708029 -0.4863349 0.26401198 -0.07147645 0.18633221 0.13349445 0.1620646
-0.28424564 0.096294984 0.2909951 0.4429771 0.12108076 -0.19581686 -0.510666 -0.089588314
-0.29570735 -0.43805388 0.17408966 -0.03023656 0.079435445 0.026490193 0.17424086 -0.21152155
0.07744368 -0.00011936747 -0.22482675 -0.15553437 0.016701581 -0.13132182 0.020899491 -0.22945116
0.110866204 -0.00021819667 0.11402229 0.17082663 -0.037785646 0.029390106 -0.08327342 0.16044262
00000000: e3fe 163d bed7 4a3d 2547 863e 736b b2be
00000010: 6986 913d c926 cfbc c4ee 1dbe bbbd 91bd
00000020: 77ca a83d 84ef 0ebe 31d2 043b e94d c9be
00000030: 2c85 aa3c bda3 6abc 6183 563e 1cca 573e
00000040: 4b2b abba a980 973d 899d d93b 59ac 4c3e
00000050: ffae c7be 85d1 cdbe 9954 4abe 3a4c a23e
00000060: 0201 2dbd d43f 8ebe d14e 8b3e c82c 7e3d
00000070: a98d 5b3e 717e 153e 8358 c9be 3a7b 773d
00000080: f473 b7be 5024 7c3e c9f8 193d 00fa 00bf
00000090: 06e4 a83e 6487 193e 881f 9cbd f72c 1ebf
000000a0: b72d 413e ada6 8a3e e300 f9be 942c 873e
000000b0: 3f62 92bd dfcd 3e3e c5b2 083e 43f4 253e
000000c0: a588 91be 4e36 c53d 4ffd 943e e5cd e23e
000000d0: 31f9 f73d 3784 48be 02bb 02bf 147a b7bd
000000e0: f466 97be 9948 e0be 8f44 323e aab2 f7bc
000000f0: 0daf a23d f601 d93c 326c 323e 1b99 58be
00000100: cb9a 9e3d ec54 fab8 fc38 66be 6744 1fbe
00000110: c1d1 883c 3a79 06be 6935 ab3c 3ff5 6abe
00000120: d20d e33d b9cb 64b9 8584 e93d 2ded 2e3e
00000130: 1fc5 1abd 85c3 f03c 418b aabd 124b 243e

action_model._discrete_distribution.branches.1.bias f4 [4]
0.04942391 -0.024741339 -0.06077039 0.0028926225
00000000: ba70 4a3d 59ae cabc 5fea 78bd 2792 3d3b

action_model._discrete_distribution.branches.2.weight f4 [3, 20]
-0.032713693 0.089638256 0.0070344084 -0.05628579 0.013133169 0.034384705 0.008097954 -0.022631321
-0.010460536 -0.012523331 0.012102999 -0.12852073 0.07773405 0.022704134 0.033665717 0.06609598
-0.01314263 -0.058131367 0.009511572 0.024870599 -0.018167343 0.017023591 0.006483463 0.022882646
0.08861413 0.02685748 0.10197761 -0.04141206 0.031645685 0.03374672 -0.025621714 0.055739667
-0.017815992 -0.04130585 -0.07042683 0.01346293 0.041683067 0.07837847 -0.0526936 -0.008350487
-0.03384321 -0.14865543 0.06943285 0.057375565 -0.05512345 0.0067787203 -0.030685028 0.16875684
-0.011380732 0.015232187 -0.024090286 0.030085916 -0.005208765 0.04069996 0.03190781 -0.04704251
0.02788087 -0.0012862289 0.09672674 0.09148178
00000000: cbfe 05bd 4394 b73d e580 e63b ee8b 66bd
00000010: 812c 573c fad6 0c3d 48ad 043c 5265 b9bc
00000020: ab62 2bbc a82e 4dbc a84b 463c f09a 03be
00000030: 0833 9f3d 05fe b93c 10e5 093d 545d 873d
00000040: 3054 57bc 281b 6ebd 6dd6 1b3c 6dbd cb3c
00000050: aed3 94bc 0f75 8b3c 3b73 d43b 6374 bb3c
00000060: 537b b53d 3804 dc3c a3d9 d03d b19f 29bd
00000070: e89e 013d 003a 0a3d a1e4 d1bc 474f 643d
00000080: d8f2 91bc 5330 29bd f13b 90bd 9f93 5c3c
00000090: ddbb 2a3d e484 a03d 3fd5 57bd 7bd0 08bc
000000a0: 2e9f 0abd 2139 18be cf32 8e3d a402 6b3d
000000b0: 20c9 61bd 0720 de3b 2b5f fbbc 98ce 2c3e
000000c0: 4076 3abc 6c90 793c fe58 c5bc bd76 f63c
000000d0: 4aae aabb 00b5 263d c4b1 023d a6af 40bd
000000e0: 6c66 e43c ae96 a8ba ab18 c63d cd5a bb3d

action_model._discrete_distribution.branches.2.bias f4 [3]
0.08242735 -0.008174815 -0.042933557
00000000: accf a83d a9ef 05bc 19db 2fbd

exp_avg f4 [20, 128]
-0.000119349075 0.00071803835 0.0008084539 -0.00026866846 0.00084382336 0.000953511 -0.00042166558 0.00025306226
0.00094830414 0.00012124992 0.00081224873 0.00084350235 -0.00093523064 0.000119221644 0.0009472637 0.00020035566
0.00081616815 0.00080378156 -0.00084223744 -1.7961044e-06 0.00080509536 -0.000139391 0.00081399106 0.000890502
-0.0011542229 -7.435127e-06 0.00086909276 6.0938397e-05 0.00049808295 0.0007886401 -0.00039472728 7.528602e-05
0.00069414894 -1.5634e-05 0.00047321853 0.00078250014 -0.00016380624 0.00011752391 0.00074548065 2.39934e-05
0.0002726553 0.00073181064 -0.00016380624 0.00010209869 0.0007184196 2.4508125e-05 -0.00021088016 0.00057631783
-0.00013446649 9.892314e-05 0.00072366174 5.121218e-07 -0.0002213671 0.0004597998 6.5990214e-05 9.092661e-05
0.00066267885 5.150647e-07 -0.00015167859 0.00039724575 -1.1638036e-05 0.00010339408 0.00066776306 -8.798664e-06
-0.00012704692 0.0005977742 1.367166e-06 6.511972e-05 0.00059153273 -1.0404401e-05 9.8056735e-05 0.000486454
-2.281972e-14 0.00013433317 0.0006217745 -1.5587412e-09 9.135106e-05 0.00046170063 2.0420153e-05 0.00012504244
0.0006185779 2.3396474e-09 0.00020161242 0.0004726467 3.8296454e-05 1.887214e-05 0.0006203282 4.232312e-09
0.00026138843 0.0005358476 1.7876304e-05 -1.0493504e-05 0.0008482438 6.414622e-10 0.00026992077 0.00056422356
1.7876304e-05 -1.049437e-05 0.0009466812 -1.3495659e-10 0.00031494704 0.0005547744 1.7876304e-05 0.0004770625
0.00096276816 3.3168682e-10 0.00014986449 0.0002645923 1.0953884e-06 -1.7317998e-05 0.00068082206 1.4938312e-09
0.00014011066 0.0002545032 -1.6332862e-05 -2.7202253e-05 0.0006308434 1.1981584e-09 7.905388e-05 0.00022939028
0.0013127014 -6.638734e-05 -0.00022586004 0.0033126515 0.022498345 0.0010143936 -0.00037668066 -0.000119349075
-0.00012796311 0.00069632113 0.00075151393 -4.912666e-05 0.00075392914 0.000846746 -0.0018957536 0.0003016654
0.0011860164 -0.00023229954 0.000650169 0.0008866513 -0.002309021 7.656847e-05 0.0010925427 -0.00035618967
0.000656693 0.0008227282 -0.002198212 3.3822667e-05 0.00092144945 -0.0006368981 0.00071010605 0.00084382313
-0.0018129364 7.3344097e-07 0.0008384034 -0.000387268 0.00043194025 0.0007109392 -0.00032677254 0.00016801701
0.00052757404 -0.00063415064 0.00042697176 0.00075042294 -0.00011403704 0.0002541159 0.00062166655 2.8994298e-05
0.00020503628 0.0006331984 -0.00011403704 0.00022643586 0.0005658534 1.5255109e-05 -0.000249972 0.00046322058
-7.57582e-05 0.00022970488 0.0005862531 -1.3746316e-05 -0.00014881139 0.00063434266 -7.582849e-05 0.0002320685
0.00069031015 -1.374212e-05 -7.108606e-05 0.00067187 -6.661755e-05 0.0002409678 0.00061732857 5.0263126e-05
-3.5596022e-05 0.00054243073 1.1491416e-06 0.00016956714 0.0005235979 4.388602e-05 0.00043210786 0.000514237
3.5830178e-14 0.00025325836 0.0005507818 -4.6842095e-09 0.00048109805 0.0005269837 2.408668e-05 0.00023829656
0.0005029652 -1.3299193e-09 0.0004231578 0.00046268795 3.2877215e-05 8.4015155e-05 0.00048200777 -1.996984e-09
0.00050735887 0.00031983183 8.790526e-06 5.6141933e-05 0.00058833114 -3.4293512e-11 0.0005102266 0.00036009296
8.790526e-06 5.6147703e-05 0.00072963897 -2.9774143e-09 0.0005825031 0.00014359706 8.790526e-06 0.00051735574
0.00075438526 2.2389073e-11 0.00048014452 0.00023012607 4.4699914e-07 3.8598373e-05 0.00048327548 4.418578e-09
0.0004647699 0.00018889728 -2.716012e-05 3.5292254e-05 0.00045420093 1.5873683e-09 0.00028470255 9.9861165e-05
0.001392314 -2.5447851e-05 -0.00046007152 0.006392605 0.013885867 0.0012242756 -0.0010625625 -0.00012796311
00000000: 0c4b fab8 bd3a 3c3a 6cee 533a 12dc 8cb9
00000010: 0734 5d3a 0af5 793a ff12 ddb9 71ad 8439
00000020: 9d97 783a 8e47 fe38 17ed 543a 7c1e 5d3a
00000030: 442a 75ba a206 fa38 ca51 783a 9016 5239
00000040: 1ef4 553a deb4 523a 99c9 5cba ad11 f1b5
00000050: 090d 533a 7d29 12b9 0462 553a 9470 693a
00000060: 4b49 97ba 417b f9b6 d4d3 633a 1b98 7f38
00000070: c891 023a bebc 4e3a 66f3 ceb9 e0e2 9d38
00000080: 8cf7 353a c225 83b7 511a f839 b220 4d3a
00000090: 67c3 2bb9 2b77 f638 5c6c 433a 6f45 c937
000000a0: 2df3 8e39 fbd6 3f3a 67c3 2bb9 d11d d638
000000b0: 5354 3c3a cc96 cd37 b61f 5db9 0914 173a
000000c0: 93ff 0cb9 f574 cf38 1eb4 3d3a be78 0935
000000d0: c71e 68b9 4911 f139 3a64 8a38 daaf be38
000000e0: a0b7 2d3a fa42 0a35 e90b 1fb9 6c45 d039
000000f0: fc40 43b7 46d5 d838 d20c 2f3a f99d 13b7
00000100: e637 05b9 f3b3 1c3a 777f b735 e290 8838
00000110: 1711 1b3a 908e 2eb7 cfa3 cd38 c00a ff39
00000120: b18a cda8 c9db 0c39 95fe 223a 553b d6b0
00000130: ba93 bf38 6910 f239 f24b ab37 d31d 0339
00000140: 0f28 223a 83c7 2031 ec67 5339 91cd f739
00000150: 81a0 2038 9d4f 9e37 859d 223a cf6b 9131
00000160: f60a 8939 2078 0c3a 12f5 9537 420d 30b7
00000170: ae5c 5e3a e452 3030 2784 8d39 67e8 133a
00000180: 12f5 9537 fa10 30b7 b32a 783a e762 14af
00000190: 7a1f a539 486e 113a 12f5 9537 3f1e fa39
000001a0: 4762 7c3a c558 b62f f124 1d39 fab8 8a39
000001b0: 4205 9335 1e46 91b7 3279 323a 834f cd30
000001c0: abea 1239 d76e 8539 8e02 89b7 6530 e4b7
000001d0: 2f5f 253a 73ac a430 bbc9 a538 7c88 7039
000001e0: f30e ac3a 6f39 8bb8 d8d4 6cb9 1219 593b
000001f0: 734e b83c 67f5 843a 397d c5b9 0c4b fab8
00000200: d62d 06b9 5289 363a 3f01 453a 590d 4eb8
00000210: 54a3 453a 2af8 5d3a ef7a f8ba d828 9e39
00000220: 1b74 9b3a 6f95 73b9 1a70 2a3a 296e 683a
00000230: f252 17bb 6293 a038 a633 8f3a f8be bab9
00000240: ec25 2c3a 5bac 573a e10f 10bb d0dc 0d38
00000250: 6d8d 713a 82f5 26ba 6926 3a3a 0334 5d3a
00000260: 0da0 edba aee1 4435 4dc8 5b3a 3b0a cbb9
00000270: 0a76 e239 525e 3a3a ab52 abb9 b92d 3039
00000280: e54c 0a3a 213d 26ba 2edb df39 08b8 443a
00000290: 2b27 efb8 dc3a 8539 56f7 223a c838 f337
000002a0: 02ff 5639 3afd 253a 2b27 efb8 6a6f 6d39
000002b0: c755 143a 32f0 7f37 ad0e 83b9 6adc f239
000002c0: 60e0 9eb8 efdc 7039 c8ae 193a fa9f 66b7
000002d0: 410a 1cb9 044a 263a 1c06 9fb8 6a57 7339
000002e0: eef5 343a f58d 66b7 0a14 95b8 6f20 303a
000002f0: 06b5 8bb8 4dac 7c39 38d4 213a 9fd1 5238
00000300: f04c 15b8 e931 0e3a 343c 9a35 d5cd 3139
00000310: 0f42 093a 4112 3838 898c e239 dccd 063a
00000320: 625d 2129 c3c7 8439 5762 103a bef2 a0b1
00000330: e33b fc39 4725 0a3a c00d ca37 3fdf 7939
00000340: 6cd9 033a 60c8 b6b0 47db dd39 ed94 f239
00000350: a4e5 0938 4b31 b038 fdb5 fc39 503b 09b1
00000360: 4700 053a 1aaf a739 067b 1337 f179 6b38
00000370: 3c3a 1a3a 10d3 16ae bac0 053a dcca bc39
00000380: 067b 1337 2380 6b38 3e45 3f3a 3a9b 4cb1
00000390: 1fb3 183a 8b92 1639 067b 1337 289f 073a
000003a0: f0c1 453a b6ef c42d e8bb fb39 ff4d 7139
000003b0: 18fb ef34 b0e4 2138 2360 fd39 39d2 9731
000003c0: 5cac f339 ba12 4639 ead5 e3b7 c506 1438
000003d0: d121 ee39 8f2a da30 2144 9539 8e6c d138
000003e0: 4e7e b63a d878 d5b7 c135 f1b9 0f79 d13b
000003f0: 8c81 633c df77 a03a ae45 8bba d62d 06b9

exp_avg_sq f4 [20, 128]
7.827538e-06 5.8717883e-06 2.2690703e-05 6.7123806e-06 8.19037e-06 2.3570132e-05 9.256478e-06 7.1231925e-06
2.2086235e-05 6.7114283e-06 1.1997147e-05 2.4973944e-05 7.873929e-06 6.6839903e-06 2.188894e-05 3.5680976e-06
1.197701e-05 2.7117776e-05 1.0086027e-05 3.3509064e-06 1.9003279e-05 3.0779163e-06 1.1595623e-05 2.7456499e-05
9.361487e-06 2.8677791e-06 2.0755762e-05 1.8250768e-06 1.2817281e-05 2.8601471e-05 8.8784955e-06 3.0875951e-06
2.0919593e-05 1.7214093e-06 1.2696528e-05 2.9470031e-05 4.644911e-06 2.7081385e-06 2.0766576e-05 1.6110921e-06
1.2356025e-05 2.9809233e-05 3.7609075e-06 2.4033257e-06 1.9279263e-05 1.2553842e-06 1.1829075e-05 2.9583716e-05
3.243686e-06 1.2911831e-06 1.792323e-05 6.4861285e-07 8.2947545e-06 2.848708e-05 2.6140947e-06 3.7625373e-06
1.8664508e-05 2.8727385e-07 5.841427e-06 2.7017335e-05 1.5181091e-06 3.6524532e-06 1.8092685e-05 1.1279902e-06
8.669927e-06 2.8997114e-05 1.2941248e-06 9.157687e-07 1.5203948e-05 1.0708216e-06 9.36726e-06 2.8221884e-05
4.810966e-07 8.92521e-07 1.5402531e-05 1.1699058e-07 8.848949e-06 2.7107044e-05 1.5642158e-07 7.266343e-07
1.5242705e-05 2.9289066e-07 9.816341e-06 2.7415323e-05 1.1614948e-07 6.371998e-07 1.2507891e-05 1.06980956e-07
1.14948825e-05 2.7792183e-05 1.1510952e-07 5.785713e-07 1.157015e-05 2.756342e-07 7.989126e-06 2.5787589e-05
1.6135242e-07 5.5249126e-07 1.0923215e-05 3.070374e-07 9.978176e-06 2.6260745e-05 1.0474174e-07 9.040125e-07
1.1359561e-05 3.5415638e-07 9.116167e-06 2.45407e-05 1.0436689e-07 5.907632e-07 1.11756135e-05 3.506171e-07
8.868901e-06 2.3975e-05 8.331682e-08 1.0913126e-06 1.1603836e-05 4.7332044e-08 7.9469155e-06 2.318905e-05
1.8630781e-06 2.0497714e-06 1.0960927e-05 0.016179858 0.021266915 1.7776007e-05 4.046236e-05 7.827538e-06
1.3936576e-05 9.0366675e-06 3.4344568e-05 1.2445024e-05 1.1455439e-05 3.5503195e-05 1.2809254e-05 1.1330761e-05
3.4118257e-05 1.2834978e-05 1.6238258e-05 3.6816196e-05 9.918736e-06 1.0494595e-05 3.416879e-05 8.579565e-06
1.6224752e-05 3.8913466e-05 1.223292e-05 6.3202806e-06 3.114544e-05 8.227304e-06 1.5964688e-05 3.881737e-05
1.0843682e-05 5.347593e-06 3.268055e-05 6.2720246e-06 1.7570512e-05 4.023041e-05 8.2858905e-06 5.7854904e-06
3.188301e-05 5.8085443e-06 1.751768e-05 4.088406e-05 3.3019626e-06 6.1089995e-06 3.1069918e-05 4.658597e-06
1.7555736e-05 4.139368e-05 2.5788586e-06 5.522461e-06 2.8557277e-05 2.6237278e-06 1.7215656e-05 4.1527313e-05
2.1749377e-06 3.740148e-06 2.7191621e-05 1.284966e-06 1.25231545e-05 3.9959414e-05 1.9673787e-06 6.5378e-06
2.7642853e-05 9.221431e-07 8.81936e-06 3.7598165e-05 8.582553e-07 5.835175e-06 2.4626312e-05 2.1221329e-06
1.3169322e-05 4.0916235e-05 3.7067926e-07 2.0889563e-06 2.0715646e-05 1.916545e-06 1.4200611e-05 3.9914827e-05
2.5623407e-07 2.102454e-06 1.9934554e-05 4.917221e-07 1.3168207e-05 3.8281793e-05 2.7383254e-07 1.7135665e-06
1.937466e-05 5.0159076e-07 1.2487512e-05 3.7312995e-05 1.0953924e-07 1.6138923e-06 1.636611e-05 4.1942286e-07
1.4074178e-05 3.7937327e-05 5.3844566e-08 1.2476303e-06 1.6797292e-05 5.394651e-07 9.579325e-06 3.562241e-05
1.5388869e-07 1.2315173e-06 1.6378075e-05 4.2942997e-07 1.2176533e-05 3.591082e-05 1.7812052e-07 1.615069e-06
1.6839573e-05 5.1050824e-07 1.1289107e-05 3.3383036e-05 8.21717e-08 1.433235e-06 1.6580874e-05 5.884537e-07
1.1489507e-05 3.3135304e-05 3.6526913e-08 1.7866781e-06 1.693503e-05 1.6910757e-07 1.0721902e-05 3.2076307e-05
1.9800468e-06 2.8593693e-06 1.5789074e-05 0.022270476 0.03184999 2.5081054e-05 5.6528817e-05 1.3936576e-05
00000000: 0553 0337 4706 c536 ea57 be37 e93a e136
00000010: 5f69 0937 79b8 c537 454c 1b37 c203 ef36
00000020: d445 b937 bb32 e136 5b47 4937 237f d137
00000030: 441a 0437 0a47 e036 249e b737 7373 6f36
00000040: def0 4837 fb7a e337 2837 2937 22e0 6036
00000050: 3b69 9f37 338e 4e36 d28a 4237 6252 e637
00000060: 480f 1d37 1274 4036 a91c ae37 29f5 f435
00000070: cd09 5737 31ed ef37 d9f4 1437 7b34 4f36
00000080: 7c7c af37 2c0b e735 2c03 5537 6936 f737
00000090: 7bdb 9b36 77bd 3536 e233 ae37 b43c d835
000000a0: b94c 4f37 d70e fa37 e663 7c36 d248 2136
000000b0: e7b9 a137 ac7e a835 7e75 4637 8c2a f837
000000c0: 1aae 5936 b74c ad35 d859 9637 561c 2e35
000000d0: b329 0b37 8af7 ee37 ce6d 2f36 e67f 7c36
000000e0: ba91 9c37 9e3a 9a34 7a01 c436 49a3 e237
000000f0: d5c1 cb35 ab1c 7536 bfc5 9737 7365 9735
00000100: 0e75 1137 d43e f337 cab1 ad35 25d3 7535
00000110: 7614 7f37 26b9 8f35 1328 1d37 09be ec37
00000120: b524 0135 9395 6f35 af34 8137 403c fb33
00000130: f275 1437 ef63 e337 d6f4 2734 ee0d 4335
00000140: ebba 7f37 963e 9d34 ddb0 2437 f5f9 e537
00000150: da6d f933 090c 2b35 fcd8 5137 67bd e533
00000160: 25da 4037 4223 e937 2132 f733 1e4f 1b35
00000170: 6a1d 4237 e0fa 9334 0909 0637 6d52 d837
00000180: 3740 2d34 e94e 1435 da42 3737 e6d6 a434
00000190: f167 2737 854a dc37 61ee e033 44ab 7235
000001a0: f194 3e37 e222 be34 a4f1 1837 c1dc cd37
000001b0: 4e20 e033 f094 1e35 e57e 3b37 733c bc34
000001c0: a4cb 1437 ec1d c937 e8eb b233 3779 9235
000001d0: 19ae 4237 224a 4b33 be53 0537 1b86 c237
000001e0: e00e fa35 ce8e 0936 d3e4 3737 9f8b 843c
000001f0: f437 ae3c af1d 9537 21b6 2938 0553 0337
00000200: 23d1 6937 319c 1737 330d 1038 f9ca 5037
00000210: bc30 4037 44e9 1438 54e7 5637 3f19 3e37
00000220: 331a 0f38 d055 5737 6537 8837 176b 1a38
00000230: a668 2637 f111 3037 7550 0f38 f3f0 0f37
00000240: 641a 8837 0437 2338 fe3b 4d37 cc12 d436
00000250: 29a2 0238 0008 0a37 e8eb 8537 d5cf 2238
00000260: 42ed 3537 796f b336 7912 0938 4874 d236
00000270: 6364 9337 13bd 2838 a103 0b37 fc20 c236
00000280: 1fba 0538 04e7 c236 eef2 9237 ed7a 2b38
00000290: 4997 5d36 e8fb cc36 1251 0238 0b51 9c36
000002a0: a844 9337 209e 2d38 7410 2d36 944d b936
000002b0: 498e ef37 4d13 3036 576a 9037 9d2d 2e38
000002c0: 25f5 1136 41ff 7a36 9019 e437 1877 ac35
000002d0: 8a1a 5237 189a 2738 4f07 0436 465f db36
000002e0: 93e2 e737 3189 7735 ddf6 1337 b9b2 1d38
000002f0: db62 6635 c6cb c336 9a94 ce37 f769 0e36
00000300: cff1 5c37 799d 2b38 c501 c734 ff2f 0c36
00000310: 83c6 ad37 fe9d 0036 293f 6e37 386a 2738
00000320: 8b90 8934 e217 0d36 2139 a737 e3fe 0335
00000330: 05ed 5c37 c390 2038 4203 9334 b2fd e535
00000340: c486 a237 0ea5 0635 7581 5137 8680 1c38
00000350: d63b eb33 eb9c d835 f449 8937 0a2d e134
00000360: 2220 6c37 e51e 1f38 ba42 6733 4074 a735
00000370: e9e7 8c37 c2cf 1035 e3b6 2037 4669 1538
00000380: 9a3c 2534 9d4a a535 a663 8937 688c e634
00000390: d049 4c37 f39e 1638 6541 3f34 59c5 d835
000003a0: b542 8d37 dc09 0935 5866 3d37 c304 0c38
000003b0: 5f76 b033 945d c035 2817 8b37 3bf6 1d35
000003c0: 0fc3 4037 c3fa 0a38 c4e1 1c33 cbcd ef35
000003d0: b30f 8e37 ef93 3534 38e2 3337 ac89 0638
000003e0: f2e0 0436 97e3 3f36 c772 8437 9370 b63c
000003f0: 2375 023d 2765 d237 5b19 6d38 23d1 6937

exp_avg f4 [20]
0.00087806245 0.00050240685 9.683909e-05 -0.00021167398 3.882855e-05 0.0006517344 -0.0008966392 0.0018584203
-0.0008516795 -0.0005519217 0.0010463126 -0.00030314169 0.00029989498 -0.0008674509 -1.6342477e-05 0.00073144736
-0.00020687716 -0.00039650526 0.0012307899 0.0010494952
00000000: c62d 663a f4b3 033a 1716 cb38 cdf4 5db9
00000010: d7db 2238 28d9 2a3a 700c 6bba 3d96 f33a
00000020: 3e43 5fba d7ae 10ba 6d24 893a fdee 9eb9
00000030: 393b 9d39 a565 63ba 3417 89b7 9abe 3f3a
00000040: 2aed 58b9 09e2 cfb9 7552 a13a 378f 893a

exp_avg_sq f4 [20]
6.908533e-05 9.959203e-05 0.00010535045 0.000120706754 8.258175e-06 2.7409365e-05 8.650832e-05 1.7725048e-05
5.025093e-05 2.0071182e-05 8.1341524e-05 0.00013366564 3.905626e-05 3.474042e-05 0.000107843574 0.000107616346
7.566045e-05 8.217245e-05 2.290593e-05 0.00013104598
00000000: e7e1 9038 10dc d038 98ef dc38 f223 fd38
00000010: 978c 0a37 2aed e537 cd6b b538 40b0 9437
00000020: 86c4 5238 895e a837 e695 aa38 9928 0c39
00000030: 57d0 2338 3eb6 1138 142a e238 16b0 e138
00000040: e5ab 9e38 0054 ac38 1c26 c037 6369 0939

exp_avg f4 [6, 20]
0.002159749 0.0017477965 -0.00080843916 -0.0029299383 0.0054265396 0.0006900391 -0.0036764673 -0.0007148495
-0.0021325573 -0.0014522626 0.0008256589 1.1420343e-05 -0.0012044493 -0.0018286025 -0.001061396 0.0020003219
0.0004723229 0.0022657705 -0.0017165864 -0.00056747685 -0.0008738566 -0.00019624353 -6.476691e-05 -0.0012738415
-0.0012951668 0.0001150525 -0.00094393117 -0.00030879985 0.0001924448 -0.00069493084 -0.00075629534 -0.00079532125
-0.00021159824 -0.0006086465 -0.0009146772 0.00052173523 -9.398742e-05 -0.0003719392 -0.0004090049 -0.0007299186
-0.0026088944 -0.0016629336 -0.00370039 -0.007538109 -0.006537903 -0.0002376985 -0.007850092 -0.002556535
-0.008097548 -0.0030853697 -0.00034057652 -0.0063021635 -0.0015205883 -0.0018483129 -0.00884633 -0.0039050032
-0.010929183 -0.014252395 -0.0021016973 -0.0033662864 -0.00089514867 -0.003034692 -0.0006258642 -0.0019923593
0.0018712769 -0.0018330929 -0.002553217 -0.0014673073 -0.0009701704 -0.00020417439 -0.002845271 -0.0016009548
-0.0018310361 -0.00041916745 -0.00021963814 -0.0034069724 -0.0016427992 -0.0023010944 -0.0029778916 -0.0017246836
0.003971763 0.0022133354 -0.002843289 -0.0012759431 -0.0013700839 0.0016480188 -0.0043591578 0.00069425773
-0.008263348 -0.000930882 0.0030763648 0.0005788443 0.0019066017 -0.00671767 -0.0029570784 -0.000109959685
-0.005408042 -0.0060281027 0.0015080507 0.0022670408 -0.0017470085 0.0009408649 0.00804555 0.015023181
0.00191311 -0.00037829237 0.019397026 0.0043556653 0.019281028 0.006372401 4.74733e-05 0.00812088
0.002865219 0.0114271585 0.014004798 0.0049064187 0.01761121 0.020700932 0.0057015214 0.004126092
00000000: 938a 0d3b 5216 e53a 6fed 53ba 3504 40bb
00000010: 1dd1 b13b bde3 343a e3f0 70bb bd64 3bba
00000020: 60c2 0bbb d959 beba 0871 583a 009a 3f37
00000030: 9dde 9dba b8ad efba 8a1e 8bba d517 033b
00000040: 1ba2 f739 527d 143b 15ff e0ba bac2 14ba
00000050: 8613 65ba b9c6 4db9 78d3 87b8 07f7 a6ba
00000060: 96c2 a9ba 5748 f138 2672 77ba 6ae6 a1b9
00000070: 02cb 4939 052c 36ba 1f42 46ba 1b7d 50ba
00000080: 78e0 5db9 938d 1fba f3c6 6fba 0fc5 083a
00000090: 1d1b c5b8 d600 c3b9 b56f d6b9 0258 3fba
000000a0: fcf9 2abb cbf6 d9ba 3e82 72bb 3e02 f7bb
000000b0: e83b d6bb b53e 79b9 ac9d 00bc 8a8b 27bb
000000c0: 94ab 04bc ea33 4abb 688f b2b9 6182 cebb
000000d0: 7a4e c7ba 1743 f2ba 33f0 10bc 15eb 7fbb
000000e0: 5110 33bc e182 69bc a1bc 09bb ea9c 5cbb
000000f0: 69a8 6aba afe1 46bb 0911 24ba 3e92 02bb
00000100: a245 f53a 6444 f0ba e053 27bb aa52 c0ba
00000110: 0953 7eba a517 56b9 ba77 3abb 21d7 d1ba
00000120: 60ff efba b4c3 dbb9 aa4e 66b9 8347 5fbb
00000130: 3253 d7ba f5cd 16bb bb28 43bb c70e e2ba
00000140: 9025 823b 9b0d 113b 7956 3abb 8c3d a7ba
00000150: 6394 b3ba 5602 d83a 44d7 8ebb d9fe 353a
00000160: fe62 07bc 6f06 74ba d69c 493b 95bd 173a
00000170: f0e6 f93a e61f dcbb 8bcb 41bb 289a e6b8
00000180: f235 b1bb 6487 c5bb c9a9 c53a a292 143b
00000190: e1fb e4ba 60a4 763a 7cd1 033c ca23 763c
000001a0: 52c1 fa3a 8b55 c6b9 83e6 9e3c f8b9 8e3b
000001b0: 3ff3 9d3c 93cf d03b 111e 4738 710d 053c
000001c0: 66c6 3b3b fa38 3b3c 6174 653c 06c6 a03b
000001d0: 6245 903c 0095 a93c d4d3 ba3b 2b34 873b

exp_avg_sq f4 [6, 20]
0.000764852 0.0007635063 0.00053906685 0.0010236921 0.0016552225 0.00014652156 0.0011399842 0.0004334284
0.0010613799 0.0002132343 0.0006239989 0.00091957615 0.00029909387 0.00044388347 0.0011505517 0.0009115946
0.0011757996 0.0024610097 0.00029392345 0.00073346955 0.0003154473 0.00020648661 4.639785e-05 0.0006444941
0.0012849702 3.9436658e-05 0.0007452998 7.0542546e-06 0.0002528702 0.0001357961 0.00019786037 0.00058768975
4.7109414e-05 0.0002265282 0.0003429765 0.00012710721 0.00027478437 0.000641182 2.8350374e-05 8.943579e-05
0.0018265942 0.0024144566 0.0004850869 0.0048525985 0.0070736883 0.00046388392 0.005680028 0.00044838013
0.0025667371 0.0008791142 0.0017475182 0.0052206824 0.0005071312 0.0014518492 0.0017839986 0.0012148774
0.0033569175 0.0061057587 0.00053161714 0.00083469105 0.00014456092 0.0002380356 0.000116366115 0.00046238006
0.00016803488 4.4517015e-05 0.0005524305 0.00018226713 0.0004531521 7.6009565e-05 0.00015608394 0.00032541394
6.749115e-05 0.0001561705 0.00029960263 0.00018264484 0.00057296414 0.0007551778 0.00011424715 0.00016908944
0.0019754258 0.0025050172 0.00030681476 0.004505734 0.008919076 0.00042893703 0.005494794 0.00017534658
0.002056949 0.0008433999 0.0017425228 0.0053788265 0.00041329983 0.0012169636 0.0013379068 0.0012850374
0.0031677708 0.006323724 0.00036419672 0.00059727795 0.00022809938 0.0005032151 0.00015689853 0.0011679631
0.00072147226 8.114182e-05 0.0015216229 0.00010814966 0.0009245567 0.00016508019 0.00023139041 0.0009714633
9.0303656e-05 0.00032859895 0.00044647956 0.00038945788 0.0010964287 0.0016736495 0.000114171184 0.00015178995
00000000: 5980 483a 0a26 483a 2a50 0d3a 682d 863a
00000010: 0df4 d83a 95a3 1939 866b 953a c63d e339
00000020: 001e 8b3a a697 5f39 db93 233a b60f 713a
00000030: b3cf 9c39 08b9 e839 1cce 963a 14f8 6e3a
00000040: 4a1d 9a3a e448 213b bd19 9a39 4f46 403a
00000050: 9f62 a539 5484 5839 509b 4238 44f3 283a
00000060: 726c a83a ca68 2538 3960 433a 96b3 ec36
00000070: aa93 8439 7d64 0e39 bd78 4f39 310f 1a3a
00000080: 5997 4538 3388 6d39 87d1 b339 1548 0539
00000090: ef10 9039 ff14 283a f7d1 ed37 798f bb38
000000a0: 556a ef3a dc3b 1e3b 4353 fe39 8c02 9f3b
000000b0: 66ca e73b 7235 f339 871f ba3b 9014 eb39
000000c0: b436 283b 5b74 663a fb0c e53a 4212 ab3b
000000d0: 00f1 043a fa4b be3a 0fd5 e93a 853c 9f3a
000000e0: bbff 5b3b d112 c83b 395c 0b3a 2bcf 5a3a
000000f0: 4795 1739 3299 7939 9509 f438 9a6b f239
00000100: 8532 3039 c8b7 3a38 fcd0 103a f61e 3f39
00000110: 0c95 ed39 5367 9f38 77aa 2339 529c aa39
00000120: 098a 8d38 b3c1 2339 fc13 9d39 5a84 3f39
00000130: f932 163a 20f7 453a f997 ef38 9a4d 3139
00000140: 2576 013b 372b 243b fbdb a039 d6a4 933b
00000150: 5121 123c f4e2 e039 ac0d b43b 3ddd 3739
00000160: e1cd 063b 9c17 5d3a 5d65 e43a de40 b03b
00000170: 2ab0 d839 8682 9f3a b45c af3a b36e a83a
00000180: 609a 4f3b 3e37 cf3b a8f1 be39 a592 1c3a
00000190: f62d 6f39 32ea 033a 2185 2439 5716 993a
000001a0: 2f21 3d3a af2a aa38 3171 c73a 68ce e238
000001b0: f35d 723a 6019 2d39 64a1 7239 cca9 7e3a
000001c0: 6861 bd38 ce47 ac39 7915 ea39 2730 cc39
000001d0: 0bb6 8f3a 5c5e db3a 306f ef38 ce29 1f39

exp_avg f4 [6]
-0.00012073833 -9.130222e-05 -0.0013487762 -0.0015042031 -0.0005827462 0.0036477647
00000000: e634 fdb8 8279 bfb8 6bc9 b0ba ae28 c5ba
00000010: 6fc3 18ba 560f 6f3b

exp_avg_sq f4 [6]
0.00016144651 8.9828485e-05 0.00042380998 7.23769e-05 0.00037855643 0.00011745616
00000000: f849 2939 4d62 bc38 d032 de39 0dc9 9738
00000010: fc78 c639 cc52 f638

exp_avg f4 [4, 20]
0.0018495643 -0.0015874816 0.007558178 0.004878441 -0.005136911 -0.00096316484 0.0027842405 0.004838881
0.0076395916 0.00087860535 0.0016507637 -0.00050697284 0.003291174 0.0011836534 0.0099487845 0.0026002948
0.0051472527 0.0071751955 0.003974093 0.0073298 -0.0046059056 -0.004971351 0.0010194367 -0.0069328416
-0.006030002 -0.0020361778 -0.0070812977 0.00092320744 -0.0040883156 -0.0013421072 -0.003970184 -0.0077149067
-0.0015414229 -0.00011495855 -0.00049844093 -0.0034311176 -0.0036205575 -0.005601761 -0.00070737215 -0.0012828772
0.0002384663 0.0015350067 0.0008464638 0.0037633486 -0.0017898419 0.0001210016 0.0045764307 -0.00045241305
0.004176199 0.0009955525 0.0001929924 0.0027348218 0.0013096804 0.0017730545 0.002182716 0.00064150325
0.0013632873 0.0016543892 0.0006711164 0.0006100949 0.0025140177 0.005021476 -0.009426149 -0.0017108975
0.012950169 0.0028769993 -0.0002810456 -0.005310052 -0.007729558 -0.00053285586 0.002123852 0.0054839537
-0.003060171 -0.0028427579 -0.011636176 0.00018609858 -0.0028936076 -0.0032341252 -0.0039376095 -0.006659509
00000000: 146d f23a 0b13 d0ba 98aa f73b 54db 9f3b
00000010: 8853 a8bb e67c 7cba ce77 363b 7a8f 9e3b
00000020: 8a55 fa3b 3552 663a 705e d83a 5fe6 04ba
00000030: bdb0 573b d124 9b3a 3a00 233c b569 2a3b
00000040: 49aa a83b e71d eb3b 1c39 823b d22e f03b
00000050: 23ed 96bb b7e6 a2bb 9f9e 853a e42c e3bb
00000060: 5397 c5bb 6571 05bb 3b0a e8bb 6703 723a
00000070: 47f7 85bb a5e9 afba 5118 82bb 54cd fcbb
00000080: 9209 caba e715 f1b8 cea9 02ba 9adc 60bb
00000090: e046 6dbb fa8e b7bb f16e 39ba 3726 a8ba
000000a0: cf0c 7a39 4732 c93a 39e5 5d3a 83a2 763b
000000b0: 2199 eaba 3dc2 fd38 e2f5 953b da31 edb9
000000c0: 7fd8 883b 337d 823a 015e 4a39 b23a 333b
000000d0: 95a9 ab3a d665 e83a e60b 0f3b 8e2a 283a
000000e0: 55b0 b23a 17d8 d83a dced 2f3a c7ee 1f3a
000000f0: 38c2 243b 328b a43b 2270 1abc 3240 e0ba
00000100: f22c 543c 0a8c 3c3b 4d59 93b9 f2ff adbb
00000110: 3b48 fdbb 5aaf 0bba 5330 0b3b bdb2 b33b
00000120: 268d 48bb 904d 3abb a9a5 3ebc 7523 4339
00000130: aea2 3dbb 9ef3 53bb 1007 81bb 0338 dabb

exp_avg_sq f4 [4, 20]
0.0025310058 0.0018429968 0.003460099 0.0009140637 0.0023133308 0.0003562139 0.0008938314 0.0006559359
0.0029816455 0.00020308982 0.0017339643 0.0008169054 0.0012733192 0.000995524 0.0051841065 0.0037559285
0.0023371847 0.0060299756 0.00044287296 0.0038179467 0.00078830513 0.00085512205 0.00078642595 0.0018520193
0.004781405 9.797307e-05 0.002480351 0.00017175835 0.0017420107 0.00036548497 0.0006070847 0.0022102017
0.00011832921 0.0007445119 0.0017532853 0.0005968332 0.0021938798 0.0043323617 9.689073e-05 0.00037631954
0.0012138316 0.0011758492 0.00019436744 0.0015900076 0.0045988597 0.00023439499 0.0019746989 0.0002511034
0.00066432834 0.00031279042 0.0010467997 0.0020595517 0.00029499948 0.00032069738 0.00047757756 0.00079072505
0.0011724975 0.0025376324 0.00025101306 0.0006461292 0.002446375 0.0018139959 0.002892556 0.001317712
0.0033324973 0.00031594306 0.0015218084 0.00043164272 0.0024398614 0.00025703953 0.0016150977 0.0013430768
0.0011538176 0.0009947312 0.004390544 0.0034252785 0.0019111487 0.00528781 0.00033912552 0.0033699817
00000000: 3bdf 253b b690 f13a d4c2 623b c79d 6f3a
00000010: 409b 173b 38c2 ba39 0350 6a3a 1df3 2b3a
00000020: b667 433b 82f4 5439 3046 e33a 9825 563a
00000030: 81e5 a63a 3e7c 823a 70df a93b 0626 763b
00000040: 742b 193b 1a97 c53b 6731 e839 8436 7a3b
00000050: 43a6 4e3a 452a 603a 2728 4e3a 75bf f23a
00000060: 55ad 9c3b e476 cd38 628d 223b 081a 3439
00000070: 2e54 e43a 909e bf39 c424 1f3a 08d9 103b
00000080: 8327 f838 592b 433a 7ece e53a cc74 1c3a
00000090: 32c7 0f3b 7cf6 8d3b d131 cb38 c14c c539
000000a0: 6e19 9f3a f41e 9a3a 1dcf 4b39 cd67 d03a
000000b0: 08b2 963b edc7 7539 f369 013b 87a6 8339
000000c0: 5226 2e3a 05fe a339 c534 893a 8bf9 063b
000000d0: 29aa 9a39 4623 a839 6063 fa39 a948 4f3a
000000e0: 7dae 993a 684e 263b 679a 8339 ff60 293a
000000f0: 5d53 203b 9ac3 ed3a 0991 3d3b 14b7 ac3a
00000100: 0766 5a3b 29a5 a539 6b77 c73a 1b4e e239
00000110: 15e6 1f3b 43c3 8639 b0b1 d33a 2e0a b03a
00000120: b23b 973a a461 823a 8dde 8f3b a37a 603b
00000130: 827f fa3a 5e45 ad3b a8cc b139 e9da 5c3b

exp_avg f4 [4]
0.0008695999 -0.0011676811 0.0011482524 -0.00085017126
00000000: ddf5 633a e00c 99ba f580 963a 07de 5eba

exp_avg_sq f4 [4]
0.00030452764 0.00023336166 0.00019944191 0.0003156074
00000000: 02a9 9f39 8bb2 7439 4821 5139 1c78 a539

exp_avg f4 [3, 20]
0.006555407 0.005817889 0.0075964415 -0.0057184575 0.014695475 -0.0028233551 0.00016097714 -0.009554421
0.008318386 -0.003341569 0.0017472706 0.0009704247 0.0021815083 0.00670066 0.011802113 0.008433722
0.00431395 0.014250931 -0.010404878 0.0018950382 -0.007434102 -0.0007112234 -0.02597643 -0.0009897456
-0.012035206 0.0018059929 -0.0065672123 -0.0008968977 -0.028259186 -0.00014778737 -0.0034727037 0.0013070382
-0.0065425583 -0.013942899 -0.03270235 -0.017247854 -0.02426115 -0.03894749 0.0015515347 -0.014929454
0.00087542285 -0.005112079 0.018385636 0.0067054057 -0.0026621285 0.001013681 0.006404171 0.010452138
0.019945776 0.0034882925 0.0017216842 -0.0022833133 0.0043598185 0.007245227 0.020907579 0.008813469
0.019951213 0.024701832 0.008852607 0.013035173
00000000: bdce d63b fda3 be3b 92eb f83b e661 bbbb
00000010: 4ac5 703c 0a08 39bb f9cb 2839 258a 1cbc
00000020: d749 083c 3afe 5abb ac04 e53a 1964 7e3a
00000030: a3f7 0e3b 3691 db3b a65d 413c 982d 0a3c
00000040: 095c 8d3b bd7c 693c 3979 2abc ee62 f83a
00000050: c499 f3bb 6571 3aba 86cc d4bc 5aba 81ba
00000060: 502f 45bc 11b7 ec3a c531 d7bb c91d 6bba
00000070: cf7f e7bc 5ff7 1ab9 4d96 63bb ed50 ab3a
00000080: f562 d6bb c270 64bc e6f2 05bd 5f4b 8dbc
00000090: 52bf c6bc 6787 1fbd de5c cb3a ab9a 74bc
000000a0: a27c 653a 3a83 a7bb 799d 963c 05b9 db3b
000000b0: 1b77 2ebb 7ddd 843a 15da d13b 723f 2b3c
000000c0: 5365 a33c d69b 643b 23aa e13a a4a3 15bb
000000d0: cfdc 8e3b 5f69 ed3b 5f46 ab3c 5e66 103c
000000e0: ba70 a33c 7f5b ca3c 860a 113c 7a91 553c

exp_avg_sq f4 [3, 20]
0.0035900646 0.0028378272 0.003939264 0.0026169815 0.0033188448 0.000648926 0.0028924283 0.0008532497
0.003773085 0.0005332495 0.0026367551 0.0024350984 0.0018895967 0.001480415 0.005776178 0.004711372
0.0031326504 0.007232299 0.0007274093 0.005215802 0.0035337587 0.003159932 0.004674021 0.0042222487
0.005071664 0.000659364 0.004788167 0.0010137811 0.005701144 0.0008275609 0.0026839578 0.003970289
0.0016556873 0.0022958124 0.007680719 0.0047046216 0.0053564673 0.010955569 0.0008070016 0.0047568465
0.0033810562 0.0026548344 0.0049910597 0.0031291822 0.002351996 0.0006663859 0.0032206548 0.0013387904
0.0050550923 0.00067619846 0.002568216 0.0027507888 0.0018094981 0.0019312939 0.0077112224 0.0046834163
0.004188678 0.008714402 0.0010117566 0.0054461663
00000000: 4a47 6b3b d7fa 393b f114 813b aa81 2b3b
00000010: fa80 593b b01c 2a3a e58e 3d3b 9eac 5f3a
00000020: dd45 773b c5c9 0b3a 69cd 2c3b 2c96 1f3b
00000030: 58ac f73a 7c0a c23a 1846 bd3b da61 9a3b
00000040: 274d 4d3b ecfc ec3b 9daf 3e3a 52e9 aa3b
00000050: a296 673b dd16 4f3b 8828 993b ca5a 8a3b
00000060: 3430 a63b 2bd9 2c3a 0ee6 9c3b d9e0 843a
00000070: aad0 ba3b acf0 583a 57e5 2f3b 3319 823b
00000080: a603 d93a 5775 163b 8aae fb3b 3a29 9a3b
00000090: 4e85 af3b fd7e 333c f68c 533a 52df 9b3b
000000a0: b694 5d3b bbfc 2d3b 0b8c a33b f712 4d3b
000000b0: f223 1a3b 67b0 2e3a 9f11 533b 5a7a af3a
000000c0: 30a5 a53b e942 313a 844f 283b 9446 343b
000000d0: ae2c ed3a 7823 fd3a 6cae fc3b 5877 993b
000000e0: 2e41 893b dac6 0e3c eb9c 843a c175 b23b

exp_avg f4 [3]
-3.0955405e-05 -0.003948487 0.0039794417
00000000: 1dd6 01b8 4f62 81bb fa65 823b

exp_avg_sq f4 [3]
0.0004681489 0.0006170303 0.0005145251
00000000: e271 f539 34c0 213a 32e1 063a

exp_avg f4 [20, 128]
0.016063219 0.017673658 -0.0013778362 0.014530395 0.018826967 -0.0033106364 -0.003920649 0.0027182535
0.00023618442 -0.0091542555 0.019455913 0.0052504605 -0.010664107 0.007522004 0.0042591323 -0.021769155
0.019182358 0.002611742 -0.010846504 0.0029230076 0.00011077456 -0.013968436 0.02016497 -6.1400984e-05
-0.028382966 -0.0029333574 0.0023412416 -0.015033212 0.018315863 -0.0025810949 -0.011010479 -0.00466313
-0.0012329232 -0.0012092713 0.0135044195 -0.0069107185 0.0005268155 -0.0030356476 -0.0048877504 -0.0015869702
0.00399523 -0.0066181184 0.0005268155 -0.0025764885 -0.0037266423 -0.0010684326 -0.008870411 -0.009852473
-0.0033933588 0.0014380559 -0.0019631726 0.00051819754 -0.0032048952 -0.007246184 -0.00030556493 0.0020175087
-0.008602112 0.00051811896 -0.001982703 -0.0036395225 -0.00052001467 0.0013636276 -0.0065448303 0.00083624513
-0.0032265612 -0.011091638 8.618553e-05 0.0014433577 -0.0071946736 0.0009777432 -0.0050748973 -0.012300327
1.6966078e-13 -0.0026887886 -0.0088419495 1.3970457e-08 -0.004193689 -0.012100169 -9.887386e-05 -0.002159749
-0.008838865 -2.1168928e-07 -0.0047012293 -0.0130530745 0.00070376706 0.0003207117 -0.0071599837 -1.99024e-08
-0.0029055944 -0.014795839 0.0008026408 0.0040531973 -0.0005746084 -2.6320668e-08 -0.0029451875 -0.02153201
0.0008026408 0.004053344 0.0023263742 9.0643304e-08 -0.004626604 -0.021751666 0.0008026408 0.016146423
0.0027495548 1.4090284e-07 -0.006024469 -0.016829249 -5.2826625e-05 0.0038177134 -0.004760616 -6.07287e-09
-0.0065982966 -0.02176866 -0.000373585 0.0027932664 -0.006076899 -7.6947956e-08 0.0015050068 -0.019634442
0.008215711 0.00247826 -0.011389482 0.45232242 0.53683287 -0.012149422 -0.022961307 0.016063219
0.011459928 0.017253516 0.0037429545 0.009186651 0.018368797 0.0019510981 -0.0058043227 0.0025257054
0.004856567 -0.0026295823 0.018885778 0.005967684 -0.013314157 0.007954082 0.009671994 -0.012234079
0.018617105 0.0044733034 -0.013785378 0.0034657377 0.006629334 -0.0070836823 0.019544713 0.0035063326
-0.025366768 -0.0027805222 0.0075273933 -0.008074086 0.01798483 0.0036108706 -0.006448222 -0.0046558627
0.0035953072 -0.0004769071 0.013287663 0.00065765943 0.00035195443 -0.0029259427 0.00044499116 -0.0007143009
0.0072856536 0.0007252399 0.00035195443 -0.0023833648 0.001503967 -0.00028933643 -0.005295622 -0.0018567987
-0.0036069402 0.001628384 0.0021815887 0.0004246283 -0.0029399104 -0.0010554079 -0.0003613965 0.002199532
-0.0015599198 0.00042455184 -0.0016823729 0.0012324647 -0.0005159907 0.0014678403 0.0002730273 0.0006179475
-0.002998793 -0.005240829 3.7559854e-05 0.0015607667 -0.00048862485 0.0006794815 -0.004919999 -0.0065174885
9.84532e-14 -0.0025959783 -0.0024109383 1.2056519e-08 -0.0043567778 -0.006320653 -0.0002366667 -0.0019453814
-0.0022683062 -2.5498656e-07 -0.004642679 -0.007121531 0.0002623343 0.00039813068 -0.0004926646 -2.4265693e-08
-0.0029931224 -0.008743735 0.000499001 0.0051126103 0.0039196606 -2.5632398e-08 -0.0030325018 -0.0120668905
0.000499001 0.005112763 0.0065881284 9.2661175e-08 -0.0047398238 -0.012308473 0.000499001 0.01694341
0.006839818 1.3698703e-07 -0.006296781 -0.008727271 -0.000105616935 0.0049592964 -0.000657188 -1.1336215e-08
-0.0068532536 -0.012518358 -0.00039933302 0.0038576894 -0.0020656663 -7.572907e-08 0.0017512585 -0.009978098
0.008678008 0.0035301424 -0.0076997 0.19668736 0.4871991 -0.0036168902 -0.016752897 0.011459928
00000000: 0397 833c 59c8 903c 8398 b4ba e510 6e3c
00000010: 033b 9a3c 43f7 58bb ca78 80bb ba24 323b
00000020: 46a8 7739 bbfb 15bc 0262 9f3c 0e0c ac3b
00000030: 82b8 2ebc 257b f63b 3190 8b3b 3a55 b2bc
00000040: 5224 9d3c c229 2b3b 89b5 31bc ee8f 3f3b
00000050: a44f e838 dedb 64bc 0231 a53c 67c4 80b8
00000060: 6583 e8bc 923d 40bb 846f 193b dc4d 76bc
00000070: 260b 963c 9627 29bb 4c65 34bc 2bcd 98bb
00000080: 0a9a a1ba 6980 9eba a441 5d3c 4f73 e2bb
00000090: fd19 0a3a b7f1 46bb 6c29 a0bb e201 d0ba
000000a0: 6bea 823b cddc d8bb fd19 0a3a 4eda 28bb
000000b0: af3a 74bb a60a 8cba 3355 11bc 446c 21bc
000000c0: 1d63 5ebb 267d bc3a 92a8 00bb a6d7 073a
000000d0: 3809 52bb 6671 edbb 3b34 a0b9 2e38 043b
000000e0: dfef 0cbc 60d2 073a 3df0 01bb 0e85 6ebb
000000f0: 9851 08ba c0bb b23a 0476 d6bb 7637 5b3a
00000100: b774 53bb b4b9 35bc 81be b438 0c2f bd3a
00000110: 4cc1 ebbb 9e27 803a 534b a6bb 5087 49bc
00000120: 6405 3f2a 6336 30bb d3dd 10bc b802 7032
00000130: 376b 89bb ca3f 46bc 805a cfb8 938a 0dbb
00000140: e3d0 10bc b54c 63b4 c50c 9abb 90dc 55bc
00000150: 027d 383a 3225 a839 4c9e eabb d7f5 aab2
00000160: c96b 3ebb 3f6a 72bc 5068 523a afd0 843b
00000170: 51a1 16ba c317 e2b2 0c04 41bb e663 b0bc
00000180: 5068 523a ead1 843b 1576 183b afa7 c233
00000190: c49a 97bb 8d30 b2bc 5068 523a 8145 843c
000001a0: e031 343b 144b 1734 e968 c5bb 7edd 89bc
000001b0: 2892 5db8 9a32 7a3b f1fe 9bbb 88a9 d0b1
000001c0: 8636 d8bb 3054 b2bc bbdd c3b9 3c0f 373b
000001d0: b920 c7bb 963e a5b3 a643 c53a 69d8 a0bc
000001e0: 319b 063c 4e6a 223b f39a 3abc ce96 e73e
000001f0: e16d 093f 5f0e 47bc 5a19 bcbc 0397 833c
00000200: 6cc2 3b3c 3f57 8d3c 5b4c 753b 9b83 163c
00000210: 297a 963c fdbb ff3a 3032 bebb 4e86 253b
00000220: d623 9f3b 1255 2cbb 59b6 9a3c 908c c33b
00000230: 9f23 5abc d751 023c 4877 1e3c 7271 48bc
00000240: e682 983c ca94 923b 11dc 61bc 6e21 633b
00000250: e23a d93b 3c1e e8bb 3c1c a03c 80ca 653b
00000260: f8cd cfbc 6c39 36bb 5aa8 f63b 2c49 04bc
00000270: ec54 933c 5ba4 6c3b 9b4b d3bb 3590 98bb
00000280: 3f9f 6b3b 6309 fab9 80b4 593c c766 2c3a
00000290: 8686 b839 2cc1 3fbb b44d e939 ec3f 3bba
000002a0: 7ebc ee3b 071e 3e3a 8686 b839 3a32 1cbb
000002b0: c220 c53a 14b2 97b9 e686 adbb d35f f3ba
000002c0: 6a62 6cbb 806f d53a fcf8 0e3b a5a0 de39
000002d0: 83ab 40bb 9d55 8aba d179 bdb9 0626 103b
000002e0: 3976 ccba 6296 de39 1183 dcba a78a a13a
000002f0: 8d43 07ba 8c64 c03a 1b25 8f39 c1fd 213a
00000300: 6687 44bb 43bb abbb 9689 1d38 a492 cc3a
00000310: 0f17 00ba 3b1f 323a f137 a1bb a890 d5bb
00000320: 68b2 dd29 4a21 2abb d500 1ebb 2221 4f32
00000330: 4dc3 8ebb 7b1d cfbb bc29 78b9 2bfc feba
00000340: dda7 14bb 16e5 88b4 9d21 98bb bb5b e9bb
00000350: ea89 8939 32bc d039 2926 01ba d370 d0b2
00000360: 4328 44bb e241 0fbc 64cf 023a af87 a73b
00000370: 7f70 803b 3d2e dcb2 f0bc 46bb 35b4 45bc
00000380: 64cf 023a f788 a73b 3ae1 d73b 05fd c633
00000390: 8650 9bbb 7aa9 49bc 64cf 023a e8cc 8a3c
000003a0: 8d20 e03b b516 1334 3a55 cebb d4fc 0ebc
000003b0: a97e ddb8 9881 a23b 2447 2cba 33c1 42b2
000003c0: 4291 e0bb cd19 4dbc 925d d1b9 4ad1 7c3b
000003d0: 2160 07bb 7fa0 a2b3 7c8a e53a 2d7b 23bc
000003e0: 342e 0e3c f659 673b c44d fcbb 6968 493e
000003f0: 2972 f93e 5909 6dbb 5f3d 89bc 6cc2 3b3c
