config/ppo/results/RayShoot0610_157만번/Shooting/Shooting-1574307.pt (torch, 80967 bytes, 34 tensors)

discrete_act_size_vector f4 [1, 3]
0	0x40c00000	6.0
1	0x40800000	4.0
2	0x40400000	3.0

network_body._body_endoder.seq_layers.0.weight f4 [20, 128]
0	0xbeffe6f1	-0.49980882
1	0xbe38ac14	-0.18034393
2	0x3e9fa3f8	0.31179786
3	0xbe8c9479	-0.27457026
4	0xbe9d73b7	-0.30752346
5	0x3e0bade8	0.13640559
6	0xbd8121c7	-0.06305271
7	0xbe75d2ac	-0.24006146
8	0x3d1a3eb5	0.03765746
9	0xbf064ccc	-0.5246093
10	0x3d8f97fe	0.07011412
11	0x3eaf4502	0.34232336
12	0x3e9a62ed	0.301536
13	0xbd5cfd98	-0.053952783
14	0xbe09e730	-0.13467097
15	0xbed3bea8	-0.41356397
16	0xbc7dad1a	-0.015483165
17	0x3ede977a	0.43474942
18	0x3ee50034	0.44726717
19	0xbe2c38be	-0.1681852
20	0xbe1e1caf	-0.1544063
21	0xbea12f84	-0.31481564
22	0x3c8731d4	0.016503252
23	0x3e79359a	0.24336854
24	0x3f325123	0.69655055
25	0xbdb54b29	-0.08852226
26	0xbe9762e6	-0.2956764
27	0xbe06780d	-0.13131733
28	0xbdfbfebb	-0.12304445
29	0x3d580331	0.05273742
30	0x3f1ee78e	0.62072074
31	0xbc895b38	-0.01676713
32	0xbedd0ea0	-0.4317522
33	0xbea71ae9	-0.32637718
34	0xbde9c085	-0.11413673
35	0x3e117925	0.14206369
36	0x3f48eaaf	0.784831
37	0x3d721ee4	0.05911149
38	0xbeb979b2	-0.3622566
39	0xbec1bfcd	-0.37841645
40	0xbde6f0bb	-0.112763844
41	0x3ec3cf07	0.38243887
42	0x3f6b40ac	0.91895556
43	0xbe0916c3	-0.13387589
44	0xbee77047	-0.45202848
45	0xbeb42f20	-0.35192204
46	0xbe389942	-0.18027213
47	0x3e891bfc	0.26779163
48	0x3f6bcbc1	0.9210778
49	0x3c67e1bc	0.01415294
50	0xbe480ba2	-0.19535688
51	0xbf081195	-0.5315183
52	0x3d2f00ce	0.042725377
53	0x3deccfaf	0.1156305
54	0x3f21a31a	0.631395
55	0xbc53eb06	-0.012934452
56	0xbe040cb7	-0.12895475
57	0xbf13d3d0	-0.57745075
58	0x3e389b04	0.18027884
59	0x3e906db9	0.28208712
60	0x3f10fbfd	0.56634504
61	0x3d793a51	0.06084663
62	0xbdaf32c7	-0.08554607
63	0xbed9e88f	-0.4256024
64	0xbd3cacd5	-0.046063263
65	0x3ec3ab4d	0.3821663
66	0x3f24c31e	0.64360225
67	0xbd97333c	-0.07382819
68	0xbce8daf6	-0.028424721
69	0xbedc754b	-0.43058237
70	0x3b4c940c	0.0031216173
71	0x3e9acb1d	0.30233088
72	0x3f200f21	0.62523085
73	0xbd08262f	-0.03323954
74	0x3daa474d	0.08314381
75	0xbf06c7c4	-0.5264857
76	0xbd89fac4	-0.06737283
77	0x3e229231	0.1587608
78	0x3ededd26	0.43528098
79	0xbb88999d	-0.0041687028
80	0x3d4c59d6	0.04989036
81	0xbf02c32a	-0.51079047
82	0xbdc8b9b9	-0.09801049
83	0x3eb2a0a9	0.348882
84	0x3f1e9d05	0.6195834
85	0x3d8fdf9a	0.070250705
86	0x3e29088e	0.1650717
87	0xbf36c879	-0.71399647
88	0xbd99aae6	-0.075032994
89	0x3e47ea38	0.19522941
90	0x3eb1c5b0	0.34721136
91	0x3d724780	0.05915022
92	0x3e2ee4b7	0.17079435
93	0xbf396388	-0.724175
94	0x3de3a445	0.11115316
95	0x3d994ef6	0.07485764
96	0x3eec6513	0.46170864
97	0x3de5228e	0.111882314
98	0x3db9a2fe	0.090642914
99	0xbf204fa7	-0.6262154
100	0xbbfb3b90	-0.0076670125
101	0xbcfaa5a3	-0.03059656
102	0x3ef712c1	0.48256496
103	0x3dadfacd	0.08495102
104	0x3e79758a	0.24361244
105	0xbf430ebc	-0.7619436
106	0x3d67188b	0.05641989
107	0x3d9e4420	0.077278376
108	0x3eb5b6e0	0.35491085
109	0x3e065720	0.13119173
110	0x3e2b45c4	0.16725832
111	0xbf60c17f	-0.8779525
112	0xbe0b82fd	-0.13624187
113	0xbdff1ee2	-0.12457062
114	0x3eba676d	0.36407033
115	0x3e91338c	0.2835964
116	0x3e41904e	0.18902704
117	0xbf8245d1	-1.0177556
118	0xbdf2181a	-0.11821003
119	0x3df1e5f3	0.118114375
120	0x3ef748bf	0.48297688
121	0x3d52c334	0.05145569
122	0x3e5c2650	0.2149899
123	0xbca08002	-0.019592289
124	0x3c931f18	0.017959163
125	0xbd5351de	-0.051591747
126	0x3cf28418	0.029604003
127	0xbf067442	-0.52521145
128	0x3f1c8342	0.61137784
129	0xbe8a9ddd	-0.27073565
130	0xbe512fb3	-0.20428352
131	0x3e010d46	0.1260272
132	0xbe050733	-0.12991028
133	0xbe32e443	-0.17469887
134	0x3f5738eb	0.84071225
135	0xbde6943a	-0.11258741
136	0xbef8cbe5	-0.4859306
137	0x3e080e4b	0.13286702
138	0xbe276ff7	-0.16351305
139	0xbdb467e8	-0.08808881
140	0x3f733ce3	0.9501478
141	0xbe32aca5	-0.17448671
142	0xbf1592b4	-0.58426976
143	0xbaa8908e	-0.0012860463
144	0x3c58ea84	0.013239507
145	0x3dec66f0	0.11543071
146	0x3f625b90	0.88420963
147	0xbe831c26	-0.25607413
148	0xbea85859	-0.32879904
149	0xbed6c27e	-0.4194526
150	0xbde89aac	-0.11357626
151	0x3ef0a9cf	0.47004554
152	0x3f202156	0.62550867
153	0xbe17be99	-0.14818801
154	0xbe7afff0	-0.24511695
155	0xbf173f12	-0.5908061
156	0xbe18c4bd	-0.149188
157	0x3ed258bf	0.41083333
158	0x3eaa8aeb	0.3330911
159	0xbd33e216	-0.043916784
160	0x3d880705	0.06641964
161	0xbf39f974	-0.7264626
162	0xbe014193	-0.12622671
163	0x3ef78b14	0.48348296
164	0x3ea94e99	0.33067778
165	0xbd335406	-0.043781303
166	0xbdb16c3e	-0.08663224
167	0xbf2f9a97	-0.6859526
168	0x3d752cad	0.05985706
169	0x3e88c24b	0.26710734
170	0x3e99b990	0.30024385
171	0xbe002f70	-0.12518096
172	0x3d225015	0.039627153
173	0xbf2a93ee	-0.6663197
174	0xbde0623e	-0.10956238
175	0x3eafa405	0.34304824
176	0x3e9375a9	0.28800705
177	0xbd369ec3	-0.044585
178	0x3deba04b	0.11505183
179	0xbeeadde7	-0.45872423
180	0x3c69dc3f	0.014273702
181	0x3e81130d	0.25209847
182	0x3e697498	0.22798383
183	0xbe07c4e8	-0.13258708
184	0xbb10473f	-0.0022015122
185	0xbefdfc91	-0.49606755
186	0xbd0462d2	-0.032320805
187	0x3e1fed2e	0.1561782
188	0x3e588a2c	0.21146458
189	0xbd441848	-0.04787472
190	0x3e6acf3f	0.2293062
191	0xbf052fa5	-0.52025825
192	0xbd8986f7	-0.067151956
193	0x3e0780eb	0.13232772
194	0x3e55d73b	0.20882885
195	0xbcce6656	-0.025195282
196	0x3dfb5e65	0.12273864
197	0xbebca725	-0.3684627
198	0xbeabc02c	-0.33545053
199	0x3e30995a	0.17245999
200	0x3ea05e1d	0.31321803
201	0x3dfdea52	0.12398209
202	0x3db0c803	0.08631899
203	0xbef07908	-0.4696734
204	0xbdea57df	-0.11442541
205	0x3ea50d20	0.32236576
206	0x3e9f9431	0.3116775
207	0x3c9be11c	0.019028239
208	0xbc97ec4a	-0.018545289
209	0xbf0d9cfe	-0.55317676
210	0xbd6e95ad	-0.05824821
211	0x3d6c4fef	0.057693418
212	0x3e63f702	0.22262195
213	0x3e1fe549	0.15614809
214	0xbd1551a4	-0.03645481
215	0xbf0c4a29	-0.5480066
216	0x3c9221b2	0.017838333
217	0x3a318755	0.000677218
218	0x3d5fe3b3	0.05466051
219	0xbe4befbd	-0.19915672
220	0x3c56b2cb	0.013104151
221	0xbedb6546	-0.42850703
222	0x3d9f296d	0.07771573
223	0x3dade393	0.08490672
224	0x3e5b6aad	0.21427412
225	0xbe622775	-0.22085364
226	0x3e0e08f8	0.13870609
227	0xbef08f2f	-0.4698424
228	0x3e688d82	0.22710231
229	0x3e328d23	0.17436652
230	0x3e32d287	0.17463122
231	0xbe4c0777	-0.19924723
232	0x3e53cd1d	0.20683713
233	0xbedec965	-0.43513027
234	0x3e746971	0.23868348
235	0x3dbf1c75	0.093315996
236	0x3e002133	0.12512664
237	0xbbb25e9f	-0.0054434086
238	0x3e1eae08	0.15496075
239	0xbedfe116	-0.43726414
240	0x3db5930a	0.08865936
241	0x3d3d1fe8	0.046173006
242	0x3daf22c5	0.08551554
243	0xbdc90c23	-0.09816768
244	0x3e3b5060	0.1829238
245	0xbf231cc2	-0.63715756
246	0xbda9b39c	-0.08286211
247	0xbd8edf06	-0.06976132
248	0x3e62644d	0.22108574
249	0xbd91f558	-0.07126874
250	0x3e24053a	0.16017619
251	0x3ba6188f	0.0050688456
252	0x3c804c51	0.01566139
253	0xbeb16d0b	-0.34653506
254	0xbc6ae228	-0.014336146
255	0x3f0d6dbf	0.55245584

network_body._body_endoder.seq_layers.0.bias f4 [20]
0	0x3e2cb2dd	0.16865106
1	0x3e05a116	0.1304973
2	0x3e1df1c8	0.15424263
3	0xbd8d3fd8	-0.06896943
4	0x3c869056	0.016426247
5	0x3db93cb4	0.09044781
6	0xbc187486	-0.009305125
7	0x3e0eae84	0.1393376
8	0x3e0ac9d8	0.1355356
9	0x3ded9b67	0.11601906
10	0x3df0b2b0	0.11752832
11	0x3e4638cb	0.19357602
12	0x3d9f891a	0.07789822
13	0x3e1edb57	0.15513359
14	0x3e1cad54	0.15300494
15	0x3cdb0737	0.026736839
16	0x3dd905f6	0.1059684
17	0xbd90c59c	-0.07068941
18	0x3e1d5cbb	0.15367405
19	0x3e650726	0.22366008

action_model._discrete_distribution.branches.0.weight f4 [6, 20]
0	0xbdb5b5d6	-0.08872573
1	0x3eb56697	0.35429832
2	0xbf0085e4	-0.502043
3	0x3c440e17	0.01196625
4	0x3deea33d	0.11652229
5	0xbe10d0a2	-0.14142087
6	0x3bb5a78c	0.005543655
7	0x3eb0a533	0.34501037
8	0xbd59490d	-0.053048182
9	0xbdaa77f0	-0.083236575
10	0x3ef1e067	0.47241518
11	0x3c821c81	0.015882732
12	0x3e82d3ac	0.25552118
13	0x3e168f92	0.14703205
14	0xbe55ad8c	-0.20866984
15	0x3e9b020a	0.30274993
16	0xbd0ecb61	-0.034861926
17	0xbe793b07	-0.24338923
18	0x3d4aed0e	0.04954248
19	0x3dfa3916	0.122179195
20	0x3e7cc6ce	0.24685213
21	0x3dc28c99	0.09499473
22	0x3e7031c2	0.23456481
23	0x3e1c283c	0.15249723
24	0x3e0f53f7	0.13996874
25	0x3e63180a	0.22177139
26	0xbdcde2ce	-0.10053025
27	0xbbb67b5c	-0.005568905
28	0x3e8f9229	0.280412
29	0xbd8704ea	-0.06592734
30	0x3ce3f17e	0.027825113
31	0xbd61ef88	-0.055160075
32	0x3dfb6a73	0.12276163
33	0x3e5d590e	0.21616003
34	0x3e107cea	0.14110151
35	0x3a9c0f92	0.0011906496
36	0x3e1e6bff	0.15470885
37	0x3d39bb21	0.045344476
38	0xbc39fbb9	-0.011351519
39	0xbd90151e	-0.07035278
40	0x3dad4ba5	0.08461694
41	0xbdab05ee	-0.083507404
42	0x3e9d6f36	0.3074891
43	0x3e2aac57	0.16667305
44	0x3de24b38	0.11049503
45	0x3d83731a	0.06418438
46	0x3da53788	0.08067232
47	0xbe38b95b	-0.18039457
48	0x3e5addb2	0.21373633
49	0x3d4490be	0.0479896
50	0xbd1a5e27	-0.037687447
51	0x3ca2a3fd	0.019853586
52	0xbd03bebd	-0.032164324
53	0xbdca1906	-0.09868054
54	0x3e099cff	0.13438796
55	0xbd541cb5	-0.05178519
56	0x3e3f764b	0.18697469
57	0x3e15a36e	0.14613125
58	0x3d96ae09	0.07357413
59	0x3dc33fa8	0.09533626
60	0x3df6d09c	0.12051508
61	0xbd83dd79	-0.06438727
62	0x3e86eb5c	0.2635144
63	0x3dacddf9	0.084407754
64	0x3e1d62c9	0.15369715
65	0x3df42d1f	0.11922669
66	0x3ccc18d8	0.02491419
67	0xbcb0f897	-0.021602912
68	0x3e42fa1f	0.19040726
69	0xbda88557	-0.082285576
70	0x3d4eae73	0.050459336
71	0x3dae3108	0.08505446
72	0x3e190f05	0.14947136
73	0x3c682a1e	0.014170198
74	0x3e1a5550	0.15071607
75	0xbd9a40c7	-0.075318865
76	0x3e1e4a66	0.15458068
77	0xbcff04fd	-0.031130308
78	0x3c9840b4	0.01858554
79	0x3d8485a3	0.06470802
80	0x3d59bb2a	0.05315701
81	0xbd348721	-0.04407418
82	0x3e6eb294	0.2331031
83	0x3e9d5363	0.30727682
84	0x3cf27ad4	0.029599585
85	0x3dd58e29	0.104275055
86	0xbc8a50f4	-0.016884305
87	0xbd9a0040	-0.07519579
88	0x3b18a0c7	0.002328919
89	0xbb636ecc	-0.0034703491
90	0xbdda1714	-0.10648933
91	0x3d0b8fec	0.0340728
92	0xbc64571f	-0.013936787
93	0x3cd9698c	0.026539586
94	0xbc96d64a	-0.018412728
95	0x3d42d0d2	0.047562428
96	0x3d291c6d	0.041286875
97	0x3e9e4524	0.30912125
98	0xbd7fc7ab	-0.062446278
99	0xbda87c1d	-0.08226798
100	0x3d1eaa36	0.038736545
101	0xbdfe92a7	-0.124303155
102	0xbe17c4b4	-0.1482113
103	0xbf076d5a	-0.5290123
104	0xbde8e901	-0.11372567
105	0xbd877cde	-0.066156134
106	0x3e0d2985	0.1378537
107	0x3df2c460	0.11853862
108	0xbe997990	-0.29975557
109	0x3eb15999	0.3463867
110	0xbe90cfe4	-0.28283608
111	0x3e0ca170	0.13733459
112	0xbf038ecb	-0.5138976
113	0x3c7d6660	0.015466303
114	0x3e5d64db	0.21620505
115	0x3cefb166	0.029259395
116	0xbe0d7c18	-0.1381687
117	0xbe079705	-0.13241203
118	0x3e4b2e75	0.1984194
119	0x3e32fa20	0.17478228

action_model._discrete_distribution.branches.0.bias f4 [6]
0	0x3dd9343a	0.106056646
1	0x3990612d	0.00027538222
2	0x3c3e172b	0.011602203
3	0x3d2d2cc0	0.042279005
4	0x3d817776	0.063216135
5	0x3db1e619	0.08686466

action_model._discrete_distribution.branches.1.weight f4 [4, 20]
0	0xbe66fccd	-0.22557373
1	0x3caf833c	0.021424882
2	0xbc114e4b	-0.008868764
3	0x3e1b9d0b	0.15196626
4	0x3cae3819	0.021266984
5	0x3d1650c1	0.036698107
6	0x3dbeb749	0.093123026
7	0x3da8acc8	0.082360804
8	0xbd0fbd69	-0.035092745
9	0xbe0f9eb9	-0.14025392
10	0x3e942d40	0.28940773
11	0x3e001d8f	0.12511276
12	0x3d30c7a4	0.043159142
13	0xbda101be	-0.078616604
14	0xbe81eb3d	-0.25374785
15	0x3dce2f87	0.10067659
16	0xbe18d5b4	-0.14925271
17	0xbd2147d5	-0.039375145
18	0x3da59df6	0.08086769
19	0x3dc5bb14	0.09654823
20	0x3f4e318a	0.8054434
21	0x3e5e2914	0.21695358
22	0x3d9b395f	0.07579302
23	0x3d0cd34a	0.03438119
24	0xbe25f20c	-0.16205615
25	0xbe5c2346	-0.21497831
26	0xbec37078	-0.38171744
27	0x3e3bf478	0.18354976
28	0x3e2dd5a4	0.16976029
29	0x3cd168a6	0.025562596
30	0xbefde939	-0.49591997
31	0xbf3e3073	-0.7429268
32	0xbe9be317	-0.30446693
33	0x3eefa9d5	0.4680926
34	0x3f19dd32	0.6010314
35	0xbc9d476f	-0.019199101
36	0x3f521bb5	0.8207353
37	0xbe22cef4	-0.15899259
38	0xbecd8e55	-0.40147653
39	0xbf3b48b4	-0.7315781
40	0xbf26db1e	-0.65178096
41	0xbf71d245	-0.9446147
42	0x3e22ef86	0.15911683
43	0x3bf4f458	0.007475417
44	0x3e5110bc	0.2041654
45	0x3eb69a3c	0.35664546
46	0x3e9f202b	0.3107923
47	0xbf68bd63	-0.9091398
48	0xbefb8d62	-0.49131304
49	0x3ea7d54c	0.3277992
50	0xbef707fc	-0.4824828
51	0x3f190553	0.5977375
52	0x3d937f29	0.07201988
53	0xbf8058ce	-1.0027101
54	0xbd6a0633	-0.05713482
55	0xbf06c9f8	-0.5265193
56	0xbece244d	-0.4026207
57	0x3e00b43b	0.12568752
58	0x3e7515f8	0.23934162
59	0x3e88a28e	0.2668652
60	0xbe00746f	-0.12544416
61	0x3e98b75e	0.29827398
62	0xbe0978be	-0.13424966
63	0xbd684ee9	-0.05671588
64	0x3d0d1ede	0.034453265
65	0xbde0bf89	-0.109740324
66	0xbd94ebe0	-0.07271552
67	0x3e951fac	0.29125726
68	0x3e799c58	0.24376047
69	0xbd86c417	-0.0658037
70	0x3eaec7df	0.34136865
71	0xbe0008b5	-0.12503321
72	0x3da81d20	0.0820868
73	0x3e8c2f91	0.2738004
74	0xbe7af07b	-0.24505799
75	0x3e50a5f1	0.20375802
76	0xbea5aa0b	-0.32356295
77	0x3dfcea97	0.12349432
78	0x3cd00c2a	0.025396425
79	0x3e281a9a	0.16416398

action_model._discrete_distribution.branches.1.bias f4 [4]
0	0xbd59c870	-0.053169668
1	0xbe504124	-0.20337349
2	0x3e4b1d0b	0.19835298
3	0x3dfedcbb	0.12444445

action_model._discrete_distribution.branches.2.weight f4 [3, 20]
0	0x3d73abbf	0.05948996
1	0x3d47d8b4	0.04879065
2	0xbaa34f13	-0.0012459479
3	0x3c886098	0.016647622
4	0xbcf2f0a4	-0.029655762
5	0xbd69964e	-0.057028107
6	0x3d136385	0.03598358
7	0x3d272f12	0.040816374
8	0x3d18f144	0.037339464
9	0x3d592bbc	0.053020224
10	0x3e112196	0.14172968
11	0x3d6eba19	0.058282945
12	0xbb0b9afa	-0.002130209
13	0x3d7d6aca	0.06186942
14	0x3bb5882a	0.0055399137
15	0x3e2d8eed	0.16949053
16	0xbd145b1d	-0.036219705
17	0xbe4b3f55	-0.19848378
18	0x3e000222	0.12500814
19	0x3d42d527	0.04756656
20	0x3c53f6a7	0.0129372245
21	0xbdfa62eb	-0.12225898
22	0x3e1b2369	0.15150227
23	0x3d37e826	0.04489913
24	0xbc9c14fb	-0.019052973
25	0x3c778246	0.015106743
26	0x3d26e1b7	0.040742602
27	0xbd3e9aff	-0.046534535
28	0xbdc1c52b	-0.09461435
29	0x3cb95745	0.022624621
30	0xbd801b57	-0.06255215
31	0x3dd36752	0.10322441
32	0x3d441a30	0.047876537
33	0xbd9852f6	-0.074376985
34	0x3d8cf60c	0.06882867
35	0xbd20cdcb	-0.03925876
36	0x3caaab4e	0.020833638
37	0x3d93840f	0.072029226
38	0x3db981f2	0.09057988
39	0x3cc5e7af	0.024158327
40	0x3d442254	0.0478843
41	0x3df69a85	0.12041191
42	0xbd8de255	-0.06927935
43	0x3cf999b4	0.0304688
44	0x3cef0167	0.029175473
45	0x3d93fa1e	0.072254404
46	0x3d275bbd	0.040858973
47	0x3d2a1242	0.04152132
48	0x3d8e5774	0.06950274
49	0xbcc2a6cb	-0.023761174
50	0xbb65f4ef	-0.0035088619
51	0xbda4a250	-0.08038771
52	0x3ccec747	0.025241507
53	0x3a90dab8	0.0011051511
54	0x3d0d7fc7	0.034545686
55	0x3cc95986	0.02457882
56	0x3d4328f9	0.047646496
57	0x3e0a550e	0.13509008
58	0xbdd4f2f9	-0.10397906
59	0xbd003804	-0.03130342

action_model._discrete_distribution.branches.2.bias f4 [3]
0	0xbc26c525	-0.010178839
1	0x3d6d5a42	0.057947405
2	0x3d3d2306	0.04617598

exp_avg f4 [20, 128]
0	0x390451d0	0.00012618979
1	0x38a59bf9	7.896865e-05
2	0xb9057be1	-0.00012730017
3	0x390f9182	0.00013691749
4	0x38b05041	8.4072824e-05
5	0xb901a161	-0.00012362517
6	0xb9754f8a	-0.00023394651
7	0x38a59bd6	7.89684e-05
8	0xb916ffe8	-0.00014400447
9	0x39bc738c	0.00035944243
10	0x388e13e9	6.774796e-05
11	0xb90b26b4	-0.00013270491
12	0xb79abcc0	-1.8446124e-05
13	0x38a4a186	7.8502155e-05
14	0xb927b810	-0.0001599493
15	0x35ed5217	1.7681767e-06
16	0x38cf8e91	9.897084e-05
17	0x37a6eccd	1.9899011e-05
18	0xb766c97c	-1.375598e-05
19	0x38ae5ec9	8.314622e-05
20	0xb930aa7b	-0.00016848177
21	0x37000a9c	7.631865e-06
22	0x38ae55e9	8.3129686e-05
23	0x37c3186d	2.3257186e-05
24	0xb75b254a	-1.3062099e-05
25	0x38695d35	5.5638335e-05
26	0xb94d23a4	-0.000195636
27	0x37000a9c	7.631865e-06
28	0xb7c0771c	-2.2943648e-05
29	0x3801220f	3.0787716e-05
30	0xb6cb1e6e	-6.053414e-06
31	0x386c3334	5.631447e-05
32	0xb95bf687	-0.00020977306
33	0x37000a9c	7.631865e-06
34	0xb7c780d2	-2.3782635e-05
35	0x389e8494	7.558722e-05
36	0x9987d12d	-1.4043158e-23
37	0x38a05793	7.6457065e-05
38	0xb85ebb6e	-5.3103482e-05
39	0x290633dc	2.9798958e-14
40	0xb8028ebd	-3.112735e-05
41	0xb8ad917a	-8.27638e-05
42	0x18e6cbc3	5.9659353e-24
43	0xb99a2452	-0.0002940023
44	0xb86aaedb	-5.5952794e-05
45	0x12061f23	4.2321323e-28
46	0x3676b3e4	3.6761567e-06
47	0xb945d22d	-0.0001886568
48	0xb0b5875e	-1.3207957e-09
49	0xb95eb892	-0.00021240328
50	0xb831e0e2	-4.2409527e-05
51	0x3643b64b	2.9163373e-06
52	0x3676aed0	3.675861e-06
53	0xb9152adb	-0.00014225712
54	0xb0b5875e	-1.3207957e-09
55	0xb99327b4	-0.00028067606
56	0xb894ad37	-7.089454e-05
57	0x3643b64b	2.9163373e-06
58	0x365b35a4	3.2664766e-06
59	0xb97ba3f4	-0.00023998303
60	0x9a233e5e	-3.375799e-23
61	0xba373e84	-0.00069902116
62	0xb9f0886f	-0.00045878018
63	0x1225c5e9	5.2308763e-28
64	0xb7220131	-9.65623e-06
65	0xb99776c4	-0.00028889452
66	0x9a233e5e	-3.375799e-23
67	0xba3b449a	-0.00071437063
68	0xb9752674	-0.00023379346
69	0x12cf8d66	1.3098394e-27
70	0xb770d125	-1.435381e-05
71	0xb9eaf77d	-0.0004481635
72	0x9a233e5e	-3.375799e-23
73	0xba44efaf	-0.0007512522
74	0xb8db798f	-0.00010465376
75	0x12a3a928	1.0328446e-27
76	0xb8274c69	-3.9887065e-05
77	0xb9e6aa39	-0.00043995844
78	0x9a233e5e	-3.375799e-23
79	0xb82d9e6a	-4.139395e-05
80	0x381dfc01	3.7666414e-05
81	0x3565131b	8.533695e-07
82	0xb827441c	-3.9879335e-05
83	0xb9dbe9a4	-0.0004194501
84	0x9a233e5e	-3.375799e-23
85	0x38dbf100	0.000104876235
86	0x3912a4b4	0.00013985002
87	0x3565131b	8.533695e-07
88	0xb81fe062	-3.8117527e-05
89	0xb9ccfd0b	-0.00039098444
90	0x9a233e5e	-3.375799e-23
91	0x39359ebf	0.00017320643
92	0x380ab259	3.3067863e-05
93	0x3565131b	8.533695e-07
94	0xb8259e14	-3.9486287e-05
95	0xb9fb5bbb	-0.00047942795
96	0x9a4bd319	-4.214994e-23
97	0x3927e00e	0.00016009828
98	0x38b733ce	8.7357694e-05
99	0x12a0c217	1.0145266e-27
100	0x38152034	3.555436e-05
101	0xba2658a6	-0.0006345607
102	0xb91a4c7d	-0.00014715079
103	0xb7d83b55	-2.5776835e-05
104	0x387560a0	5.850254e-05
105	0x12a0c217	1.0145266e-27
106	0x3846cc27	4.739701e-05
107	0xba261937	-0.0006336155
108	0xb1e33205	-6.612256e-09
109	0x391b205e	0.0001479401
110	0x39c86ced	0.0003822813
111	0xac44f442	-2.7988866e-12
112	0xb9aff2d0	-0.0003355951
113	0xba35dbe9	-0.0006937371
114	0xb1e33205	-6.612256e-09
115	0x3952476f	0.00020053772
116	0x3a04fc73	0.0005073018
117	0xac44f442	-2.7988866e-12
118	0xb9bbd076	-0.00035822735
119	0xba30b51d	-0.0006740855
120	0x9a67aa52	-4.7907264e-23
121	0x38c7fd86	9.536282e-05
122	0x39e293d9	0.00043216234
123	0x3bdf7a22	0.0068199793
124	0x3cf222be	0.029557582
125	0x38dfcb93	0.00010671387
126	0x39a0a23c	0.00030638452
127	0x390451d0	0.00012618979
128	0x3a0172d7	0.0004938072
129	0x3905a3bc	0.00012744864
130	0xb9bbaf15	-0.00035797866
131	0x3a13e025	0.0005641005
132	0x394237b7	0.00018522037
133	0xb997d14b	-0.000289569
134	0xba6a740a	-0.0008943683
135	0x3905a383	0.00012744781
136	0xb9c72d85	-0.00037990152
137	0x3a87ba8e	0.001035528
138	0x38fe2194	0.00012117918
139	0xb9ad873f	-0.00033097898
140	0xb9d03bf2	-0.00039717514
141	0x390763ae	0.00012911737
142	0xb9efdf9e	-0.0004575224
143	0xb9af3e56	-0.00033425045
144	0x3918bc3c	0.00014565972
145	0xb9c1c96b	-0.00036961897
146	0xb9a692ce	-0.00031771365
147	0x38dd71ec	0.00010559321
148	0xb9fb018a	-0.00047875597
149	0xb9a2060e	-0.0003090356
150	0x38eeb3f2	0.00011382242
151	0xb9d698c0	-0.00040931068
152	0x381285cd	3.4933724e-05
153	0x3909f882	0.00013157915
154	0xba1b2a50	-0.0005919086
155	0xb9a2060e	-0.0003090356
156	0xb824dbd9	-3.9305396e-05
157	0xb9d36f21	-0.00040327854
158	0x37197ada	9.148114e-06
159	0x3950bffc	0.00019907946
160	0xb9b00b61	-0.00033577814
161	0xb9a2060e	-0.0003090356
162	0xb77f087f	-1.5201163e-05
163	0xb9cb28db	-0.00038749617
164	0x9b263efb	-1.3751548e-22
165	0x3949fd40	0.00019263197
166	0xb99ea2db	-0.00030257445
167	0x2931235e	3.933257e-14
168	0xb78337f0	-1.5642465e-05
169	0xb9cc74a3	-0.00038996813
170	0x9b1766db	-1.2523662e-22
171	0xb9e65b66	-0.00043937116
172	0xb9e8c182	-0.00044394663
173	0x13f6cba4	6.2299936e-27
174	0x37fb3aaa	2.994885e-05
175	0xba14d6db	-0.0005677768
176	0xb133c1d4	-2.6158107e-09
177	0xb96b25b7	-0.00022425396
178	0xb9edd4ad	-0.00045362618
179	0xb7d2f334	-2.5147201e-05
180	0x37fb3810	2.9947638e-05
181	0xba0a4602	-0.0005274714
182	0xb133c1d4	-2.6158107e-09
183	0xb9c5a89d	-0.00037700395
184	0xba0d76b1	-0.00053964095
185	0xb7d2f334	-2.5147201e-05
186	0x3804c8f6	3.1658412e-05
187	0xba42f7fe	-0.00074374664
188	0x9b120b97	-1.2080582e-22
189	0xb9b99c45	-0.0003540238
190	0xba1dee49	-0.0006024582
191	0x932561fe	-2.0874242e-27
192	0xb77b51da	-1.4979823e-05
193	0xba3e0598	-0.00072487583
194	0x9b120bad	-1.208061e-22
195	0xb99bf83d	-0.00029748856
196	0xba790134	-0.00094987755
197	0x12162d64	4.7387603e-28
198	0xb8c60f24	-9.444196e-05
199	0xba6a6cf2	-0.0008942626
200	0x9b120bad	-1.208061e-22
201	0xba340012	-0.00068664656
202	0xba952570	-0.0011378955
203	0x11b8cf63	2.9157893e-28
204	0xb9ba90f0	-0.0003558467
205	0xba87b43b	-0.0010353395
206	0x9b120bad	-1.208061e-22
207	0xba183910	-0.0005806843
208	0xba744286	-0.0009317774
209	0x371b7ae5	9.267334e-06
210	0xb9ba90dc	-0.00035584613
211	0xbaa337a1	-0.0012452492
212	0x9b120bad	-1.208061e-22
213	0xb9ab5b6d	-0.0003268378
214	0xba600fc2	-0.000854727
215	0x371b7ae5	9.267334e-06
216	0xba34e889	-0.00069011055
217	0xbaa238b8	-0.0012376523
218	0x9b120bad	-1.208061e-22
219	0x381992ff	3.6614943e-05
220	0xba0aaf7e	-0.00052904326
221	0x371b7ae5	9.267334e-06
222	0xba359d11	-0.0006928007
223	0xbabfcfc9	-0.0014634068
224	0x185bae70	2.8393155e-24
225	0xb86375c2	-5.4230688e-05
226	0xb9edc2f3	-0.0004534941
227	0x90f3d7ee	-9.617929e-29
228	0xb979cea4	-0.0002382347
229	0xbaa20c90	-0.0012363363
230	0xb9833648	-0.0002502671
231	0x3934a700	0.0001722835
232	0xb9e0eab9	-0.0004289949
233	0x90f3d7ee	-9.617929e-29
234	0x378c1fdc	1.6704136e-05
235	0xba83980a	-0.0010039818
236	0xb24be99d	-1.1869273e-08
237	0x39bc002b	0.0003585828
238	0x39843d4e	0.00025222678
239	0xaf05488c	-1.2122053e-10
240	0xba86f8b5	-0.0010297509
241	0xbaa9ee1c	-0.0012964639
242	0xb24be99d	-1.1869273e-08
243	0x390edb9f	0.0001362399
244	0x3977581c	0.00023588579
245	0xaf05488c	-1.2122053e-10
246	0xba8c61ab	-0.001071026
247	0xbaa83aa2	-0.0012834857
248	0x17ea2a4c	1.5132573e-24
249	0xb6edb67a	-7.0843935e-06
250	0x38f924b5	0.000118800825
251	0xbca12d0c	-0.0196748
252	0x3b690005	0.003555299
253	0x355d57c5	8.2456637e-07
254	0xba57033f	-0.0008202083
255	0x3a0172d7	0.0004938072

exp_avg_sq f4 [20, 128]
0	0x36920034	4.3511627e-06
1	0x356ea621	8.890366e-07
2	0x3735dc71	1.0839766e-05
3	0x36c812ee	5.962668e-06
4	0x3538a2b4	6.8782106e-07
5	0x373432f8	1.0740703e-05
6	0x369b062c	4.6200785e-06
7	0x35016959	4.8209546e-07
8	0x371b5632	9.258789e-06
9	0x36b99f96	5.532008e-06
10	0x354f281f	7.7171893e-07
11	0x373f0138	1.1384771e-05
12	0x372a7dbd	1.0162065e-05
13	0x357c4ad6	9.3986216e-07
14	0x370d0884	8.406238e-06
15	0x364f42a2	3.088419e-06
16	0x35757509	9.143992e-07
17	0x3751dd99	1.25089655e-05
18	0x3779a2b0	1.4879435e-05
19	0x358bbb9f	1.0410912e-06
20	0x3706e01b	8.039201e-06
21	0x35ca98dd	1.5094662e-06
22	0x3587bb9e	1.0112888e-06
23	0x375a64cc	1.3017281e-05
24	0x37762d1c	1.46732455e-05
25	0x35ed5a8c	1.7684229e-06
26	0x370e3f15	8.478547e-06
27	0x35523259	7.830436e-07
28	0x358874d0	1.0166787e-06
29	0x3769dd73	1.3939442e-05
30	0x3761ac62	1.3451181e-05
31	0x35fc9e83	1.8821596e-06
32	0x37148b3a	8.853904e-06
33	0x34b69163	3.4005924e-07
34	0x35982711	1.1336252e-06
35	0x37732da4	1.4494555e-05
36	0x3605d4ab	1.9942333e-06
37	0x35c59ad7	1.4722708e-06
38	0x375674b6	1.2782568e-05
39	0x34515cdb	1.9498422e-07
40	0x36d1752b	6.2423255e-06
41	0x379f6a14	1.9003674e-05
42	0x35aeb7a4	1.3017457e-06
43	0x368365f0	3.9159713e-06
44	0x375ef8b9	1.3290141e-05
45	0x3444d039	1.8329673e-07
46	0x370f6da7	8.548995e-06
47	0x37b283e1	2.1280664e-05
48	0x35d26108	1.5674459e-06
49	0x36750b28	3.6514339e-06
50	0x375d7c0e	1.320151e-05
51	0x3455add3	1.9900408e-07
52	0x37137b36	8.79057e-06
53	0x37c0ddf8	2.2991546e-05
54	0x3596e2c4	1.1241868e-06
55	0x3684f6df	3.962646e-06
56	0x3763fafe	1.3588693e-05
57	0x343e6477	1.7731678e-07
58	0x371d9fc0	9.395124e-06
59	0x37c89432	2.3910867e-05
60	0x348e9dc5	2.6564354e-07
61	0x368de983	4.229312e-06
62	0x37754fe9	1.46217435e-05
63	0x34487408	1.8668663e-07
64	0x36a92717	5.041143e-06
65	0x37ba3e35	2.2201895e-05
66	0x3516e4c1	5.6212235e-07
67	0x36873caf	4.030378e-06
68	0x37747c14	1.45724225e-05
69	0x3437e697	1.7127091e-07
70	0x3697d886	4.5253573e-06
71	0x37b59a45	2.1648719e-05
72	0x3515c1f3	5.578906e-07
73	0x368b855c	4.158048e-06
74	0x3772df3b	1.4476299e-05
75	0x3444a8a5	1.8315275e-07
76	0x36a91047	5.0384874e-06
77	0x37b6bd31	2.178419e-05
78	0x35111723	5.405038e-07
79	0x36778efc	3.6889096e-06
80	0x3766e83c	1.376314e-05
81	0x3488b758	2.5465374e-07
82	0x36ae142b	5.187952e-06
83	0x37b8c8fb	2.2028098e-05
84	0x3509b8cb	5.1305386e-07
85	0x3685ffc1	3.9934826e-06
86	0x373c043c	1.1206659e-05
87	0x34937ca1	2.7471563e-07
88	0x36ca3bb9	6.0270218e-06
89	0x37b6aeda	2.1777512e-05
90	0x3423c67f	1.525277e-07
91	0x361a6170	2.3004504e-06
92	0x373a70de	1.1112743e-05
93	0x340c2137	1.30506e-07
94	0x36a3e832	4.8848096e-06
95	0x37af7b1e	2.0918957e-05
96	0x342299df	1.5143404e-07
97	0x360447de	1.9711365e-06
98	0x372f6eff	1.0456656e-05
99	0x3408b352	1.2731223e-07
100	0x36865be7	4.00421e-06
101	0x37a6b142	1.9871284e-05
102	0x35bdab34	1.4131424e-06
103	0x360a2fe0	2.059147e-06
104	0x373d35af	1.1277777e-05
105	0x340969e8	1.2797648e-07
106	0x36886e68	4.065969e-06
107	0x37a18e04	1.9258827e-05
108	0x345b6769	2.0433585e-07
109	0x364a1232	3.0110937e-06
110	0x374d4911	1.2235964e-05
111	0x31f7dbba	7.213626e-09
112	0x364e5fd1	3.0752165e-06
113	0x37963cbf	1.790968e-05
114	0x3439979e	1.7284626e-07
115	0x364e4cb2	3.0741035e-06
116	0x373e31b8	1.1336459e-05
117	0x3169937d	3.39898e-09
118	0x364c5864	3.044982e-06
119	0x3791fabc	1.7402104e-05
120	0x349071bb	2.690484e-07
121	0x363d2a65	2.8187872e-06
122	0x372fa356	1.0468842e-05
123	0x3c8dda8d	0.017316127
124	0x3c72387b	0.014783974
125	0x35b8e229	1.377489e-06
126	0x3800e42f	3.073009e-05
127	0x36920034	4.3511627e-06
128	0x38059633	3.1849555e-05
129	0x3585f446	9.980365e-07
130	0x37944c35	1.7678462e-05
131	0x38578821	5.1386774e-05
132	0x357d2851	9.430851e-07
133	0x378a0115	1.6451386e-05
134	0x37acb022	2.0586016e-05
135	0x3502f06c	4.8778634e-07
136	0x378479a4	1.579227e-05
137	0x383e7c69	4.5415396e-05
138	0x3585a419	9.957031e-07
139	0x3791102f	1.7292883e-05
140	0x3742549f	1.15830035e-05
141	0x354733b1	7.42085e-07
142	0x376f7492	1.4272651e-05
143	0x37d7af47	2.5711617e-05
144	0x35a3be69	1.2199863e-06
145	0x37a4669f	1.959811e-05
146	0x3714c53e	8.867411e-06
147	0x3564b923	8.520603e-07
148	0x3771d751	1.4414852e-05
149	0x3783a657	1.5693875e-05
150	0x35bb0c5d	1.3936184e-06
151	0x37b653ab	2.1735052e-05
152	0x36b25d1c	5.3156527e-06
153	0x35b6850d	1.359878e-06
154	0x3780e62a	1.5365968e-05
155	0x37190da6	9.122688e-06
156	0x35c04e62	1.4327927e-06
157	0x37e0a2a8	2.6778624e-05
158	0x366bbef2	3.5128874e-06
159	0x35eaa979	1.7483682e-06
160	0x3787be16	1.618177e-05
161	0x36963949	4.4770172e-06
162	0x3637fb8a	2.741554e-06
163	0x37efdf6a	2.8595055e-05
164	0x35cfd50e	1.5484709e-06
165	0x3613a5e4	2.2001268e-06
166	0x3794e188	1.7747996e-05
167	0x36076a3f	2.017841e-06
168	0x362f96f0	2.616489e-06
169	0x37fe0dc2	3.0285566e-05
170	0x35c35c2a	1.4555455e-06
171	0x36bf1517	5.6946988e-06
172	0x37a1a764	1.9270643e-05
173	0x35e891e9	1.7327812e-06
174	0x364b77e5	3.0319145e-06
175	0x380577e1	3.1821317e-05
176	0x35db2fe3	1.6330708e-06
177	0x36ea0db7	6.97534e-06
178	0x37bb2916	2.231127e-05
179	0x35db7a31	1.6352334e-06
180	0x363bd71c	2.7990382e-06
181	0x380d7dd9	3.3734224e-05
182	0x35dcb097	1.6442672e-06
183	0x36ddc3a1	6.6090874e-06
184	0x37b57d39	2.1635193e-05
185	0x35d88018	1.6130534e-06
186	0x363e6248	2.8369413e-06
187	0x3811174c	3.459239e-05
188	0x354be4d5	7.595639e-07
189	0x36e70282	6.8846284e-06
190	0x37b86ec2	2.1986085e-05
191	0x3589271a	1.0218675e-06
192	0x36afa41a	5.2345104e-06
193	0x381debea	3.765143e-05
194	0x357545ed	9.137137e-07
195	0x36e8a0d9	6.932864e-06
196	0x37b525bc	2.1594453e-05
197	0x35387cf9	6.87272e-07
198	0x37bf35ad	2.2793969e-05
199	0x384a1418	4.8179267e-05
200	0x356d2d85	8.835562e-07
201	0x36b428ee	5.369183e-06
202	0x37ac4f99	2.0541063e-05
203	0x3539ac38	6.916848e-07
204	0x37f816c2	2.9574501e-05
205	0x385a0fb5	5.198988e-05
206	0x355d2e13	8.239596e-07
207	0x36b08171	5.2602777e-06
208	0x37b5a3a3	2.165308e-05
209	0x3542a575	7.2511403e-07
210	0x37fda188	3.023517e-05
211	0x3866d53a	5.5034856e-05
212	0x35495b20	7.501094e-07
213	0x36797795	3.7173497e-06
214	0x37a23993	1.9338715e-05
215	0x354506ab	7.339792e-07
216	0x3809e6b7	3.2878215e-05
217	0x3869c480	5.5734534e-05
218	0x35378d80	6.837872e-07
219	0x360e7bb3	2.1231651e-06
220	0x379695f5	1.7951223e-05
221	0x353b85aa	6.9857435e-07
222	0x37b1955f	2.11696e-05
223	0x38582a54	5.1537834e-05
224	0x354e1de8	7.67845e-07
225	0x36095ffd	2.0470463e-06
226	0x3790e61a	1.7273287e-05
227	0x3537df11	6.8497417e-07
228	0x373b21b3	1.1153915e-05
229	0x3840a523	4.5930163e-05
230	0x359515e7	1.110774e-06
231	0x3614ead9	2.2190418e-06
232	0x3790e318	1.7271886e-05
233	0x3538e35a	6.887618e-07
234	0x36f71074	7.363089e-06
235	0x3832c507	4.2622003e-05
236	0x3521b818	6.0245065e-07
237	0x3604b760	1.977627e-06
238	0x379a45a2	1.8390656e-05
239	0x330ae2eb	3.233701e-08
240	0x37224b65	9.673507e-06
241	0x3839ce89	4.4299788e-05
242	0x34c11125	3.5961526e-07
243	0x360a222f	2.05835e-06
244	0x379a79d5	1.8414963e-05
245	0x323ba851	1.0923103e-08
246	0x372484bc	9.806066e-06
247	0x383a581c	4.4427914e-05
248	0x33957f0c	6.961463e-08
249	0x362b75fc	2.5549662e-06
250	0x379899e3	1.8191471e-05
251	0x3ccef6e7	0.025264217
252	0x3cb95bbf	0.022626756
253	0x350e364a	5.2978123e-07
254	0x387b2348	5.987592e-05
255	0x38059633	3.1849555e-05

exp_avg f4 [20]
0	0x38a063e6	7.648002e-05
1	0xbafbef80	-0.0019221157
2	0x3ab49b42	0.0013779181
3	0xb93b6406	-0.00017870971
4	0x3a39dafa	0.000708982
5	0x39fd8252	0.00048353017
6	0x3886ff37	6.4371554e-05
7	0xbacebfca	-0.001577371
8	0x3a2f4c8e	0.0006687128
9	0x3a9e881e	0.001209501
10	0xbb0cafc8	-0.0021467078
11	0xba45f8b9	-0.0007552016
12	0xb9f91790	-0.00047510536
13	0xba1ec0eb	-0.00060559687
14	0x3ae4ec9e	0.0017465537
15	0xbb168be0	-0.0022971556
16	0x399f7300	0.00030412525
17	0x3ab173a8	0.0013538497
18	0xba8c4f89	-0.0010704856
19	0x39c5ca85	0.00037725657

exp_avg_sq f4 [20]
0	0x389a0ae2	7.345319e-05
1	0x390e066a	0.00013544565
2	0x38b7ff98	8.773728e-05
3	0x36bbb00f	5.59353e-06
4	0x373cc7bc	1.12521775e-05
5	0x37f4664c	2.9134702e-05
6	0x37b6d701	2.179621e-05
7	0x38dfc00b	0.000106692394
8	0x38896af0	6.552588e-05
9	0x3806ebc4	3.2167663e-05
10	0x38fd02df	0.00012064515
11	0x38ad1301	8.2528226e-05
12	0x3801309a	3.080126e-05
13	0x38fdc1c5	0.000121000725
14	0x386dcce3	5.669602e-05
15	0x3874ec35	5.839412e-05
16	0x38a32436	7.7791905e-05
17	0x37e91a30	2.7787959e-05
18	0x38213005	3.8430113e-05
19	0x38299c6f	4.043843e-05

exp_avg f4 [6, 20]
0	0xba98750a	-0.001163156
1	0xbb4a3d5f	-0.0030859334
2	0xb956a4b8	-0.00020469993
3	0xba81bd33	-0.0009898305
4	0x3adf0e17	0.0017017749
5	0xb9a783d7	-0.0003195095
6	0xba02cc28	-0.0004989528
7	0xbb39ab00	-0.0028330684
8	0xb9f6f452	-0.0004710281
9	0xba244c7d	-0.0006267501
10	0xba2c5bfa	-0.0006574985
11	0xbb617865	-0.0034404036
12	0xbc877a2d	-0.01653775
13	0xbb4f2a04	-0.0031610737
14	0x3a0d92ac	0.0005400579
15	0xb9557c0d	-0.00020359475
16	0xba4a8256	-0.000772511
17	0x3a174569	0.0005770536
18	0xbb44dda3	-0.0030039332
19	0xbaf03ebc	-0.0018329243
20	0xba84e492	-0.001013892
21	0xbaf93dcc	-0.0019015609
22	0xbb4bbcfb	-0.0031087983
23	0xb56cd0b8	-8.8220577e-07
24	0xbc1d8660	-0.009614557
25	0xbb31d45f	-0.002713464
26	0xbb61ee47	-0.00344743
27	0xba117e64	-0.00055501447
28	0x3a28874f	0.0006428854
29	0xbc2990e4	-0.010349486
30	0x382b4e7c	4.084267e-05
31	0xbb8b9e3e	-0.0042608073
32	0x3bd9e064	0.006649064
33	0x39bbe50c	0.00035838073
34	0xbb426a10	-0.002966527
35	0x390aadf6	0.00013225511
36	0xbb39c8eb	-0.0028348516
37	0x3b1fccd2	0.0024383557
38	0xbb406ea9	-0.0029362834
39	0xbc53871b	-0.01291063
40	0xb90802ce	-0.00012971016
41	0x3b5877d5	0.003303041
42	0xbb83bc45	-0.004020246
43	0x38a4493b	7.8337696e-05
44	0x3bba470e	0.00568474
45	0x39e1d996	0.00043077458
46	0x3bb5e003	0.005550386
47	0x3b47aca9	0.0030467904
48	0xbb8af17e	-0.004240214
49	0x3c2e521d	0.0106396945
50	0xbaf67f7a	-0.0018806302
51	0x3b70e5bc	0.0036758026
52	0xbc06eb8b	-0.008234869
53	0x3ace1ec3	0.001572572
54	0x3abe07b6	0.0014498148
55	0x39bfbd09	0.000365712
56	0x3702c0c5	7.7934865e-06
57	0xbba56ef6	-0.005048628
58	0x3b992367	0.0046734097
59	0x3c77ce0e	0.015124811
60	0x3b50ed6c	0.0031879796
61	0x3ac7cdd3	0.0015243836
62	0x3c3682c4	0.011139575
63	0x39779f82	0.00023615177
64	0x3bc72097	0.006076883
65	0x3bb4b282	0.005514444
66	0x3b107188	0.0022040326
67	0x38a596c0	7.8958925e-05
68	0x3bd83bf7	0.0065989452
69	0x3b6b019a	0.003585911
70	0x3bb2a58c	0.0054518636
71	0x3c08cc17	0.00834944
72	0x3c6bded3	0.014396387
73	0x3ac8ef9b	0.0015330197
74	0x3bb629a4	0.005559163
75	0x3a8bcd5f	0.0010666064
76	0x3ba41fb9	0.0050086644
77	0x3b9d96d5	0.0048092403
78	0x3b94eb52	0.004544654
79	0x3b9061be	0.004406183
80	0xbab80f86	-0.0014042712
81	0xb948c6c9	-0.0001914754
82	0xbb5b9142	-0.0033503328
83	0x39e6aeae	0.00043999165
84	0xbb27fa41	-0.002563134
85	0xbab5e5da	-0.0013877705
86	0xbaf08c97	-0.0018352446
87	0xb731ba1e	-1.0593356e-05
88	0xbb147be3	-0.002265685
89	0xbae84827	-0.0017721698
90	0xbb349d9b	-0.002755976
91	0xbb0a5cca	-0.0021112435
92	0x3afe9291	0.0019422342
93	0xb9f49594	-0.0004665075
94	0xbb56ab8f	-0.0032756065
95	0xbacb849b	-0.001552719
96	0xbaf80003	-0.0018920902
97	0xbb208a2c	-0.002449642
98	0xbab95187	-0.0014138677
99	0xbb13c7fe	-0.0022549625
100	0x3a08eec9	0.000522357
101	0x39b8eebc	0.00035273086
102	0xb9f0553a	-0.00045839866
103	0x39773614	0.00023575901
104	0xbaa81bd8	-0.0012825681
105	0xbac7cfa3	-0.0015244376
106	0xbb0131a6	-0.001971343
107	0x398fd71c	0.00027435354
108	0xb98c63f2	-0.00026777346
109	0xbac0fd54	-0.0014723935
110	0xb9513258	-0.00019950548
111	0xbb10e26b	-0.0022107612
112	0x3ae99bec	0.0017822958
113	0x392c0de2	0.0001640837
114	0xbaab526e	-0.0013070831
115	0x39494f06	0.00019198292
116	0x39fcf584	0.0004824811
117	0xb9ac3e71	-0.0003285292
118	0xbaf3ff1f	-0.0018615461
119	0xbb25808b	-0.002525362

exp_avg_sq f4 [6, 20]
0	0x392635d9	0.00015851053
1	0x3ab648ba	0.0013907172
2	0x39a36f53	0.00031172726
3	0x39544e2d	0.00020247018
4	0x3a6d56dc	0.00090537756
5	0x39db6f83	0.00041854018
6	0x3a3a8129	0.0007114583
7	0x3a97bfb2	0.0011577515
8	0x3a48e1d8	0.0007663048
9	0x3a0b8f91	0.0005323822
10	0x3b006552	0.0019591642
11	0x3b0cc870	0.0021481775
12	0x3ae5ba5a	0.001752685
13	0x3a6374b0	0.00086767506
14	0x395b327f	0.00020904279
15	0x3a7e987e	0.0009712054
16	0x3902413d	0.00012422069
17	0x39250155	0.00015736122
18	0x3aa9bf79	0.001295074
19	0x3b3e1256	0.0029002628
20	0x3a02e026	0.0004992507
21	0x3a8a8cb0	0.0010570493
22	0x3abd62b8	0.0014448976
23	0x3994063e	0.0002823341
24	0x3a8d1c1c	0.0010765824
25	0x3a0dd61a	0.0005410627
26	0x3a0d5939	0.00053920184
27	0x3a362950	0.0006948905
28	0x3a98135b	0.0011602448
29	0x39fc4a8e	0.00048120733
30	0x3aad33af	0.0013214255
31	0x3ad9291d	0.0016568039
32	0x3b0778e8	0.002067143
33	0x3a6f0d95	0.00091191503
34	0x3a43fc3d	0.0007476246
35	0x3a211eab	0.00061462325
36	0x39fc8f66	0.00048172026
37	0x39f6bfd3	0.00047063697
38	0x3a36b4ae	0.00069696724
39	0x3aafd657	0.0013415319
40	0x39a8daf7	0.000322066
41	0x39db7217	0.0004185594
42	0x3ad0b1c0	0.0015922114
43	0x38986aff	7.2678544e-05
44	0x3aedb23b	0.0018134782
45	0x3a84430c	0.0010090782
46	0x3a9cee7b	0.0011972928
47	0x396b8ad6	0.00022463067
48	0x3a49a823	0.0007692596
49	0x3a8685ca	0.0010263261
50	0x3a892fff	0.0010466574
51	0x3b4c64b1	0.0031187946
52	0x3a0f812a	0.0005474264
53	0x39998ace	0.00029285852
54	0x3a51ae7d	0.0007998718
55	0x399b6950	0.00029642368
56	0x39d6d32c	0.00040974596
57	0x3a2404c1	0.0006256812
58	0x3aa5194a	0.0012596038
59	0x3b4561c6	0.0030118092
60	0x39e42a4c	0.00043519062
61	0x3a395589	0.00070699357
62	0x3b00922d	0.0019618378
63	0x39093812	0.00013086226
64	0x3aef7a32	0.001827067
65	0x3a874132	0.0010319112
66	0x3aa6a8ac	0.0012715063
67	0x39f68b9f	0.00047024802
68	0x3a914178	0.0011082133
69	0x3a6ffc8e	0.000915476
70	0x3abeca21	0.0014556089
71	0x3b6ff13e	0.0036612297
72	0x3afaeac9	0.0019143458
73	0x3a0f7052	0.0005471754
74	0x3a56f408	0.00081998156
75	0x39e2136f	0.00043120558
76	0x39f481d6	0.00046636042
77	0x39cb387a	0.00038761256
78	0x3acf61f9	0.0015822045
79	0x3b5eff6f	0.0034026762
80	0x38ae12e6	8.300487e-05
81	0x38ebb64d	0.000112396294
82	0x39ab2900	0.0003264621
83	0x3946ca7e	0.00018958186
84	0x39caaf5d	0.00038659098
85	0x3986ceca	0.00025712542
86	0x396bee59	0.00022500138
87	0x38b2977e	8.515919e-05
88	0x395f8760	0.00021317368
89	0x39259521	0.00015791181
90	0x3a06c812	0.0005141507
91	0x3a2c4de5	0.00065728865
92	0x3a219efe	0.0006165354
93	0x38fa3886	0.00011931457
94	0x392b0b16	0.0001631196
95	0x39248cc4	0.00015692698
96	0x388cf897	6.722024e-05
97	0x39ece2c6	0.00045182387
98	0x39944f87	0.00028288012
99	0x3a22fbcf	0.0006217332
100	0x38ce890c	9.8483724e-05
101	0x3988f8bb	0.0002612526
102	0x395418a0	0.00020227069
103	0x372fc46f	1.0476549e-05
104	0x39da85fe	0.00041680032
105	0x393bc1c0	0.00017905887
106	0x3a0ac0ed	0.00052930304
107	0x3957e4bf	0.00020589212
108	0x38d46acb	0.000101288395
109	0x3a44a75d	0.0007501746
110	0x3932705b	0.00017017259
111	0x3a9da64f	0.0012027713
112	0x38b40239	8.583483e-05
113	0x3933001f	0.00017070815
114	0x3961cff5	0.00021535142
115	0x38d27078	0.00010034529
116	0x38dab418	0.00010428595
117	0x37b37b4d	2.139588e-05
118	0x3a1d50b0	0.0006001098
119	0x3aee86ff	0.0018198191

exp_avg f4 [6]
0	0xbb4f4e0b	-0.003163221
1	0xbb1a7727	-0.0023569555
2	0x39e36b85	0.00043376922
3	0x3b9fc571	0.004875832
4	0xb9e1bd82	-0.0004305654
5	0x3a28122e	0.00064114004

exp_avg_sq f4 [6]
0	0x393cddd2	0.00018011712
1	0x3932f88d	0.00017067995
2	0x3953b3d7	0.00020189524
3	0x398019ae	0.00024433195
4	0x388a80aa	6.604318e-05
5	0x38deb095	0.00010618676

exp_avg f4 [4, 20]
0	0xbabfb6c9	-0.0014626618
1	0xbc3964b6	-0.011315515
2	0xba5526d3	-0.00081310904
3	0x3ade0a45	0.0016940316
4	0xba8cf05c	-0.0010752785
5	0xbb2bafcb	-0.002619731
6	0xbb5ca882	-0.0033669774
7	0xbc64c70d	-0.013963473
8	0xbc23150b	-0.0099537475
9	0xbb052dbb	-0.0020321447
10	0xbc830c91	-0.015997203
11	0xbc26a580	-0.010171294
12	0xbc17c630	-0.00926356
13	0xbc2429f7	-0.010019771
14	0xbb1c9ff4	-0.002389905
15	0xbc72151b	-0.01477554
16	0xb98c1598	-0.0002671897
17	0x3911b2e2	0.00013894917
18	0xbc29033c	-0.010315713
19	0xbc425cf6	-0.011862984
20	0x39da59f0	0.0004164721
21	0x3a20ca57	0.00061336666
22	0xba619af2	-0.00086061575
23	0xb9b24a18	-0.0003400601
24	0xb92e35b0	-0.00016613933
25	0x3889c41f	6.5691995e-05
26	0xba0ca166	-0.00053646264
27	0x39fca8ac	0.00048190856
28	0xba9dd52e	-0.0012041682
29	0x3a84df28	0.0010137307
30	0xba900aad	-0.001098951
31	0x38da158d	0.00010399064
32	0x3942a05f	0.00018561025
33	0x3a29eae6	0.0006481841
34	0xb7884bf4	-1.6247832e-05
35	0xb9759776	-0.00023421444
36	0x39b41840	0.00034350343
37	0xba805ed8	-0.0009793891
38	0xb86c2fa2	-5.6311146e-05
39	0x3a4db160	0.00078465603
40	0x3a7b473d	0.00095855055
41	0x3aa6b4ce	0.0012718679
42	0x3aacf498	0.0013195453
43	0xb9bdb91e	-0.00036186812
44	0x3b3a8022	0.002845772
45	0x38c09c06	9.184335e-05
46	0x3ad0be39	0.0015925831
47	0x3aa49195	0.0012555594
48	0x3aa1b2b8	0.0012336588
49	0x3b556a5e	0.003256462
50	0x3b1a1985	0.0023513746
51	0x3b52b6b1	0.003215235
52	0xb952a455	-0.00020088379
53	0x3a522d85	0.0008017647
54	0x3ac32ff0	0.0014891606
55	0x3a927d31	0.0011176226
56	0x3abc6c00	0.0014375448
57	0x38c571f2	9.414916e-05
58	0x3b299579	0.0025876446
59	0x3b8322c5	0.0040019476
60	0x38b8ae32	8.80625e-05
61	0x3c1a8679	0.009431475
62	0x39bb172c	0.00035684684
63	0xba82112f	-0.0009923334
64	0xbad211a9	-0.0016026992
65	0x3b21710b	0.002463403
66	0x3b179487	0.00231293
67	0x3c4853f3	0.012227046
68	0x3c22a3ba	0.009926731
69	0xbb12a69f	-0.0022377146
70	0x3c71a276	0.014748206
71	0x3be0a4b4	0.0068555716
72	0x3c180b74	0.009280074
73	0x3c0c6afc	0.008570429
74	0x3a70c01e	0.0009183901
75	0x3c63a2d7	0.0138938045
76	0xbac652c9	-0.0015130873
77	0x3a43f081	0.00074744975
78	0x3bff282a	0.0077867704
79	0x3be7f2c5	0.007078501

exp_avg_sq f4 [4, 20]
0	0x38f3c0df	0.00011623068
1	0x3a8037cc	0.0009782254
2	0x3a33ddc6	0.0006861355
3	0x3915ecaf	0.00014297919
4	0x3a61cfa3	0.0008614009
5	0x3991c31f	0.00027801932
6	0x3a6520f3	0.00087405666
7	0x3a4f18fc	0.00079001463
8	0x3a23e832	0.00062525563
9	0x39e0c029	0.0004286778
10	0x3b006749	0.0019592813
11	0x3b1f0bec	0.002426858
12	0x3af92dbe	0.0019010825
13	0x39c7e4f8	0.00038126833
14	0x3986fb3a	0.0002574565
15	0x3a4d4913	0.00078310183
16	0x390f474f	0.00013664107
17	0x398bad08	0.00026641064
18	0x3ac1f61c	0.0014798078
19	0x3b3811b5	0.0028086726
20	0x394cb61f	0.00019522801
21	0x3980bcb9	0.00024554672
22	0x39a702c8	0.00031854794
23	0x38b430f9	8.592191e-05
24	0x3982b267	0.00024928452
25	0x389e690f	7.553596e-05
26	0x39089b4c	0.00013027823
27	0x390aaa61	0.00013224177
28	0x3988558b	0.00026003676
29	0x39316a11	0.00016919548
30	0x38cbd039	9.718579e-05
31	0x399b9986	0.00029678288
32	0x3a0386f0	0.00050173607
33	0x3992c214	0.0002799189
34	0x39724faf	0.00023108603
35	0x388d4c4b	6.7376146e-05
36	0x3932c79d	0.00017049765
37	0x381e299d	3.770889e-05
38	0x38f29d2f	0.00011568737
39	0x398f39b1	0.0002731807
40	0x38a29fc5	7.754521e-05
41	0x38d5697a	0.00010176278
42	0x3a00193b	0.0004886572
43	0x3888ec86	6.529041e-05
44	0x39da7b21	0.00041671938
45	0x39351839	0.00017270529
46	0x398c706e	0.00026786648
47	0x386eda21	5.694677e-05
48	0x396637e6	0.00021955333
49	0x39a5e7d0	0.00031643966
50	0x394fa55a	0.00019802657
51	0x3a5cb36d	0.00084190705
52	0x39f179b1	0.0004605777
53	0x38a7734d	7.984657e-05
54	0x393b0e7d	0.00017839107
55	0x382c25ad	4.1043084e-05
56	0x38d2bb22	0.000100484365
57	0x38a964bc	8.077311e-05
58	0x39c47308	0.00037469738
59	0x3a683e47	0.00088593777
60	0x398838c4	0.00025982235
61	0x3aa8e456	0.0012885432
62	0x3a50a962	0.00079598103
63	0x3957b50a	0.0002057144
64	0x3a9f97eb	0.0012176012
65	0x39b90a1f	0.0003529349
66	0x3a8d56a6	0.001078327
67	0x3a7ae745	0.0009571205
68	0x3a51e280	0.00080064684
69	0x3a23c8f8	0.0006247903
70	0x3b095a0f	0.002095822
71	0x3b3974a4	0.0028298283
72	0x3b0ee79f	0.0021805537
73	0x3a261ac1	0.0006336384
74	0x39db42ff	0.0004182085
75	0x3a63d726	0.00086914224
76	0x3988fb78	0.000261273
77	0x39a17acc	0.00030799804
78	0x3adc2914	0.001679691
79	0x3b614492	0.0034373146

exp_avg f4 [4]
0	0xbc0397fa	-0.0080318395
1	0x39864996	0.00025613297
2	0x3ad2291b	0.0016033979
3	0x3bca410e	0.006172306

exp_avg_sq f4 [4]
0	0x39378b64	0.00017504167
1	0x38569541	5.116058e-05
2	0x38a43f92	7.83197e-05
3	0x3967df72	0.00022113117

exp_avg f4 [3, 20]
0	0xbb55a03e	-0.0032596732
1	0xbd03991d	-0.032128442
2	0xbc0e71ac	-0.008694094
3	0x38ab5dc5	8.171381e-05
4	0xbbea49ad	-0.007149896
5	0xbbfb23d9	-0.0076641855
6	0xbc9cfb69	-0.01916285
7	0xbd013ae6	-0.03155031
8	0xbcb1ea5c	-0.021718197
9	0xbb6b63f6	-0.0035917736
10	0xbd170702	-0.036871918
11	0xbd1131af	-0.035447773
12	0xbcc28015	-0.023742715
13	0xbcc33d2f	-0.023832886
14	0xbbb6a500	-0.0055738688
15	0xbceb644d	-0.02873435
16	0x38c19190	9.23007e-05
17	0x3a8fd431	0.0010973272
18	0xbd028a93	-0.031870436
19	0xbd0d725e	-0.034532897
20	0x3b70c5d0	0.0036739
21	0x3c8ffe73	0.017577386
22	0x3c11275e	0.0088594835
23	0x385b28c2	5.2251627e-05
24	0x3a1a80db	0.0005893835
25	0x3bc3aa9f	0.0059712674
26	0x3c41d47f	0.011830448
27	0x3c9112a9	0.017709093
28	0x3c84e581	0.016222717
29	0x3a6c9c47	0.00090259727
30	0x3cb2b440	0.021814466
31	0x3cb1a9f5	0.021687487
32	0x3c8c0358	0.017091438
33	0x3c756d13	0.014979619
34	0x3bdbc8da	0.006707293
35	0x3c8f6d43	0.017508155
36	0x3acf8c7f	0.0015834718
37	0xb9eca58b	-0.00045136767
38	0x3ca01c42	0.019544724
39	0x3c7df41b	0.015500094
40	0xb9d9a23a	-0.00041510334
41	0x3c6e32c0	0.014538467
42	0xb932fb7b	-0.00017069087
43	0xb90b55e8	-0.00013288076
44	0x3bd6b220	0.006551996
45	0x3add8a55	0.0016902188
46	0x3bf00549	0.007324849
47	0x3c628fc3	0.013828221
48	0x3bb3bed7	0.0054853964
49	0x3b2fe637	0.00268401
50	0x3c767012	0.015041368
51	0x3c613929	0.013746538
52	0x3bd9e2f9	0.0066493717
53	0x3c10e2c6	0.0088431295
54	0xba950135	-0.0011368158
55	0x3c37be4a	0.011214802
56	0xbadba4f1	-0.001675753
57	0xba295333	-0.0006459236
58	0x3c49bcd2	0.012313085
59	0x3c9bc2e7	0.019013835

exp_avg_sq f4 [3, 20]
0	0x3ac55c28	0.0015057372
1	0x3bd1c03d	0.0064010904
2	0x3b04d40e	0.0020267996
3	0x3a016c4c	0.0004937097
4	0x3b4f407a	0.0031624124
5	0x3ad68edd	0.0016369481
6	0x3b1d2b4c	0.0023982106
7	0x3bae1966	0.0053130863
8	0x3b7a42d1	0.0038186798
9	0x3ad2a7fb	0.0016071791
10	0x3bf5b498	0.007498335
11	0x3be0da06	0.006861928
12	0x3ba4446e	0.0050130403
13	0x3b9b8178	0.0047456585
14	0x3ad3af83	0.0016150329
15	0x3b974b57	0.0046171355
16	0x3aa3555b	0.0012461351
17	0x3a5c1ae1	0.0008396339
18	0x3b7a6a1f	0.0038210226
19	0x3c03b533	0.008038807
20	0x3a13c521	0.00056369795
21	0x3b06a236	0.0020543463
22	0x3b04c854	0.0020261006
23	0x39d6615c	0.000408898
24	0x3b1f9e21	0.0024355727
25	0x3adde171	0.0016928149
26	0x3b01b9c1	0.0019794556
27	0x3ad3b2ce	0.001615131
28	0x3ad1841e	0.0015984809
29	0x3ab4fd7b	0.0013808453
30	0x3b415797	0.002950167
31	0x3bb8752e	0.0056292033
32	0x3b68a2e9	0.0035497493
33	0x3ab18f28	0.0013546692
34	0x3a83a423	0.0010043423
35	0x3aad5e10	0.0013226885
36	0x3a15fc1f	0.0005721468
37	0x3a5aa777	0.0008340994
38	0x3b2cdaa8	0.0026375446
39	0x3bae5f9c	0.005321456
40	0x3a87af9a	0.0010352016
41	0x3bad2ab9	0.005284634
42	0x3a65ca19	0.00087657716
43	0x3a18cfb7	0.0005829292
44	0x3af5c381	0.0018750281
45	0x3a4dc35f	0.0007849242
46	0x3a848fa5	0.001011361
47	0x3b8fc955	0.0043880143
48	0x3b45fa0f	0.003020886
49	0x3a21a56c	0.00061663124
50	0x3bc9cace	0.0061582094
51	0x3b423930	0.0029636137
52	0x3b650627	0.0034946294
53	0x3b84dbae	0.004054508
54	0x3a7ca3a2	0.00096374203
55	0x3b823e68	0.0039747246
56	0x3a411d7b	0.00073667587
57	0x3a9c3417	0.001191738
58	0x3af9f72d	0.0019070857
59	0x3b8c37ce	0.0042791134

exp_avg f4 [3]
0	0xbc0605f6	-0.008180132
1	0x3b9e6e27	0.0048349085
2	0x3b5b3b86	0.0033452227

exp_avg_sq f4 [3]
0	0x3a192864	0.00058425055
1	0x39cc16dd	0.00038926947
2	0x39d08090	0.00039768638
