config/ppo/results/RayShoot0610_157만번/Shooting/Shooting-499998.onnx (onnx, 15002 bytes, 9 tensors)

action_model._discrete_distribution.branches.0.bias f4 [6]
0	0x3dc7639b	0.09735795
1	0xbd7ae2c4	-0.061251417
2	0x3dfd0a63	0.12355497
3	0xbd7c0f69	-0.061538134
4	0x3d4df993	0.05028684
5	0xbcbb442f	-0.02285966

action_model._discrete_distribution.branches.0.weight f4 [6, 20]
0	0xbd85be23	-0.06530406
1	0x3e5dcba7	0.21659718
2	0xbe69e996	-0.22843012
3	0xbdc661c1	-0.09686614
4	0x3e0ba658	0.13637674
5	0x3d0982d3	0.03357203
6	0x3d7741a4	0.060365334
7	0x3e6187f4	0.22024518
8	0xbb0a2ada	-0.002108267
9	0xbd3065bc	-0.04306577
10	0x3ea9c995	0.33161607
11	0x3d319aa2	0.04336036
12	0x3df8789c	0.121323794
13	0x3d979f19	0.07403392
14	0xbd828a5c	-0.06374046
15	0x3e163515	0.14668687
16	0xbc1e7807	-0.009672171
17	0xbdf697fb	-0.12040707
18	0x3d3c9492	0.046040125
19	0x3da8b50c	0.08237657
20	0x3dc00631	0.09376181
21	0x3ac4304f	0.001496801
22	0x3dddcc67	0.10830002
23	0x3dcef48b	0.101052366
24	0x3d9ce4de	0.076608405
25	0x3db451a9	0.08804638
26	0xbda3998c	-0.07988271
27	0xbd67a7ea	-0.05655662
28	0x3d8a0130	0.06738508
29	0xbde08708	-0.10963255
30	0x3c0b1e93	0.008491176
31	0xbdcef315	-0.10104958
32	0x3cccca13	0.0249987
33	0x3d8d6ab8	0.069051206
34	0xbc9305b2	-0.017947052
35	0xbbfd4d6c	-0.0077301767
36	0xbb260d13	-0.0025337383
37	0x3d2dcc24	0.04243101
38	0xbd366c82	-0.044537075
39	0xbd89e3f4	-0.06732932
40	0x3d6f0054	0.058349922
41	0xbc788943	-0.0151694445
42	0x3e479da6	0.19493732
43	0x3e5fe200	0.21863556
44	0x3c94e247	0.018174304
45	0xbbca92ee	-0.006182066
46	0xbd17fd0b	-0.037106555
47	0xbd27e619	-0.040990923
48	0x3dda49f9	0.106586404
49	0x3c5b2ec7	0.013377852
50	0xbd1849fb	-0.03717993
51	0xbd8dc0cd	-0.069215395
52	0x3d869d05	0.06572918
53	0x3cbc6d40	0.023001313
54	0x3da58397	0.080817394
55	0x3ced262b	0.028948864
56	0x3df31b89	0.11870486
57	0x3e026816	0.12735018
58	0x3d5f9fdc	0.054595813
59	0x3d9d73d9	0.07688112
60	0x3dbb7194	0.09152523
61	0xbdbd4c45	-0.09243063
62	0x3e0c188c	0.13681239
63	0xbd553f49	-0.052062307
64	0x3e03a2dd	0.12855096
65	0x3d987cb3	0.074456595
66	0xbc6b0347	-0.014344043
67	0xbdaf25a8	-0.08552104
68	0x3d83b8e2	0.06431748
69	0xbddac01b	-0.106811725
70	0xbd5196e9	-0.05116931
71	0x3d509a73	0.050928544
72	0x3dc8259b	0.09772798
73	0xbd93ff5f	-0.072264425
74	0x3dcd1f5a	0.100157455
75	0xbe073b7b	-0.13206284
76	0x3dc98d7c	0.09841439
77	0xbd97612d	-0.07391582
78	0xbd8b4150	-0.06799567
79	0x3c471066	0.012149906
80	0x3d2c8924	0.042122975
81	0xbc53d06d	-0.012928111
82	0x3e08d62f	0.13362955
83	0x3e089d96	0.13341364
84	0x3b89ea3a	0.00420883
85	0x3dbfae6a	0.09359439
86	0xbb4221d2	-0.002962221
87	0xbd8753a6	-0.066077515
88	0x3cb061db	0.021531036
89	0x3cf9d85c	0.030498676
90	0xbd2d03e5	-0.042240042
91	0x3da0d032	0.0785221
92	0xbcc1572b	-0.023601135
93	0x3c7ab1f6	0.015301218
94	0xbc8c86cb	-0.017154118
95	0x3dbcee2c	0.09225115
96	0x3c9ac9f7	0.018895132
97	0x3e06e17e	0.13171956
98	0xbcd8f497	-0.026483817
99	0xbd0061e7	-0.031343367
100	0xbd9b3bcf	-0.07579767
101	0xbe230867	-0.15921174
102	0xbe3ab989	-0.18234839
103	0xbe501ce0	-0.20323515
104	0xbe392f51	-0.18084456
105	0xbe045846	-0.12924299
106	0x3d899a83	0.06718924
107	0x3d08d99f	0.033410665
108	0xbe609c6e	-0.21934673
109	0x3e6949ab	0.22782008
110	0xbe76b2dc	-0.24091667
111	0x3daf67da	0.0856473
112	0xbeb42bca	-0.35189658
113	0xbd582a7a	-0.052774884
114	0x3d7ae3f7	0.06125256
115	0x3b86d5b7	0.0041148323
116	0xbde47d23	-0.111566804
117	0xbd8f11f6	-0.06985848
118	0x3e0e7733	0.13912658
119	0x3da060e8	0.078309834

action_model._discrete_distribution.branches.1.bias f4 [4]
0	0x3ce15b2f	0.0275093
1	0xbe037a9e	-0.12839743
2	0x3dbcb98e	0.09215079
3	0x3d10ac7c	0.035320744

action_model._discrete_distribution.branches.1.weight f4 [4, 20]
0	0xbe649bf9	-0.22325124
1	0x3d6d5cfd	0.05795001
2	0xbd9fe3d9	-0.0780713
3	0x3dd811b6	0.10550253
4	0x3d01ac83	0.03165866
5	0x3c14396c	0.009046894
6	0x3d6a9e76	0.057280026
7	0x3dcd2dd0	0.10018504
8	0xbcf9cf9d	-0.030494506
9	0xbdc712c5	-0.09720377
10	0x3e82faf9	0.25582102
11	0x3d8afaaf	0.06786095
12	0x3d3b8ce4	0.04578866
13	0xbc0854c5	-0.008320992
14	0xbe519932	-0.20468596
15	0x3de2759d	0.11057589
16	0xbe0cfde2	-0.13768724
17	0x3ca202e1	0.019776763
18	0x3d704bcd	0.05866604
19	0x3d480fc4	0.04884316
20	0x3f20d6e2	0.62827885
21	0x3e5e0108	0.21680081
22	0x3e0aac41	0.13542272
23	0x3dd44ec6	0.10366587
24	0xbde230a9	-0.110444374
25	0xbe33a90d	-0.17544957
26	0xbe834998	-0.25642085
27	0x3e43de11	0.1912768
28	0x3e6793d1	0.22614981
29	0xbb89b9e3	-0.0042030676
30	0xbe975f16	-0.29564732
31	0xbf1bb6f3	-0.60826033
32	0xbe117d37	-0.14207922
33	0x3ec14f8f	0.3775601
34	0x3efaae22	0.48960978
35	0xbba0dc6b	-0.0049090884
36	0x3f21b7cb	0.6317107
37	0xbdd339e5	-0.10313777
38	0xbea9edf9	-0.3318937
39	0xbf08eb81	-0.5348435
40	0xbf00b461	-0.50275236
41	0xbf4ac590	-0.79207706
42	0x3dd3cc97	0.10341757
43	0xbe15cfcf	-0.14630054
44	0x3de7e684	0.11323264
45	0x3e6c6f29	0.23089279
46	0x3e721b20	0.2364316
47	0xbf3ae161	-0.7300015
48	0xbef482f7	-0.47756168
49	0x3e78a6ec	0.24282426
50	0xbebf7bae	-0.37399048
51	0x3eef21f8	0.46705604
52	0xbbdfbcde	-0.0068279346
53	0xbf45b588	-0.7723012
54	0xbd232457	-0.03982958
55	0xbeae0cc0	-0.33994102
56	0xbe9e80f8	-0.3095777
57	0x3c811e40	0.015761495
58	0x3e1f2e9b	0.15545122
59	0x3e4c209f	0.19934319
60	0xbdeb712b	-0.114961945
61	0x3e30e967	0.17276536
62	0xbddb8c5b	-0.1072013
63	0xbd2978c5	-0.04137494
64	0x3d1c02dc	0.038088664
65	0xbcc35f88	-0.023849264
66	0xbd953eeb	-0.07287391
67	0x3e2d60b9	0.16931428
68	0x3e28c15b	0.1648001
69	0xbd813824	-0.06309536
70	0x3e6fab1e	0.2340512
71	0xbdaf70c4	-0.0856643
72	0x3c2e729d	0.010647443
73	0x3e11b8a7	0.14230596
74	0xbe823191	-0.2542844
75	0x3daf766f	0.08567511
76	0xbe8a0a8b	-0.2696117
77	0x3dd0617f	0.10174846
78	0x3cbb12b2	0.022836063
79	0x3e12910f	0.14313148

action_model._discrete_distribution.branches.2.bias f4 [3]
0	0xbd09797d	-0.033563126
1	0xbd47082c	-0.048591778
2	0x3dde2024	0.10845974

action_model._discrete_distribution.branches.2.weight f4 [3, 20]
0	0x3d72a6dd	0.059241164
1	0xbd505c59	-0.05086932
2	0xbd49701e	-0.04917919
3	0x3d907d5d	0.07055161
4	0xbd9bb2a6	-0.07602434
5	0xbd3ea5fd	-0.046545018
6	0xbccf8c64	-0.025335498
7	0xbd8c5d41	-0.06853724
8	0xbdd99dc4	-0.106257945
9	0x3d9e84dc	0.07740185
10	0x3c82690c	0.01591923
11	0x3ce6de43	0.028182155
12	0xbd11c6d0	-0.035589993
13	0xbc73632e	-0.014855189
14	0x3d3f7a70	0.046747625
15	0x3d890ad4	0.066915184
16	0x3cca99bd	0.024731511
17	0xbd813bc0	-0.063102245
18	0x3dac7c75	0.08422176
19	0xbc85608f	-0.016281394
20	0x3c98c74f	0.018649725
21	0xbcf1583a	-0.029461015
22	0x3d75c7d1	0.060005013
23	0xbda797f4	-0.0818328
24	0x3acf5f11	0.0015821179
25	0xba3d407a	-0.00072193856
26	0xbc819a1b	-0.015820554
27	0x3b1d69f9	0.0024019463
28	0x3cea621f	0.02861124
29	0xbd43a260	-0.047762275
30	0xbdbc26d5	-0.09187094
31	0x3ce2dca8	0.027693108
32	0xbda07de6	-0.07836513
33	0xbbf3a2ee	-0.007435194
34	0x3c4c4de6	0.012469744
35	0xbd55d5b7	-0.052205767
36	0xbd1c6750	-0.038184464
37	0x3cc6cdc8	0.024268046
38	0x3d024039	0.03179953
39	0xbc58323a	-0.013195569
40	0xb92afd0a	-0.00016306728
41	0x3dd52595	0.10407559
42	0xbc566bda	-0.013087237
43	0x3d53b3d7	0.05168518
44	0x3cb4e448	0.02208151
45	0x3d2c0732	0.04199905
46	0x3dd7e72e	0.10542141
47	0x3d8c5d8d	0.06853781
48	0x3db157e0	0.08659339
49	0xbca65c50	-0.02030769
50	0x3db03579	0.08603949
51	0xbd2e7895	-0.042595465
52	0x3db04e8c	0.086087316
53	0x3b0c43ca	0.002140271
54	0xbb9045c1	-0.0044028466
55	0x3dad06bc	0.0844855
56	0xba9923df	-0.0011683664
57	0x3d056f0d	0.03257661
58	0xbd71a6e0	-0.058997035
59	0x3bcc70ed	0.0062390477

discrete_action_output_shape f4 [1, 3]
0	0x40c00000	6.0
1	0x40800000	4.0
2	0x40400000	3.0

network_body._body_endoder.seq_layers.0.bias f4 [20]
0	0x3e1d0163	0.1533256
1	0x3e021a86	0.1270543
2	0x3db92643	0.09040501
3	0x3d2c890d	0.04212289
4	0xbd1e0764	-0.038581267
5	0x3d854c78	0.06508726
6	0x3d90ef1c	0.070768565
7	0x3de062a1	0.10956312
8	0x3e0b389a	0.1359581
9	0x3d8fab70	0.07015121
10	0x3e27e9df	0.16397808
11	0x3dfb42a1	0.12268568
12	0x3cfd81fa	0.030945767
13	0x3e06b241	0.13153936
14	0x3e06bd8a	0.13158241
15	0x3d9da763	0.07697942
16	0x3e157805	0.14596565
17	0xbd1251df	-0.03572261
18	0x3de39db7	0.11114066
19	0x3e3ca460	0.18422079

network_body._body_endoder.seq_layers.0.weight f4 [20, 128]
0	0xbea0c276	-0.31398362
1	0x3bc733d7	0.006079178
2	0x3e9d133e	0.30678743
3	0xbe9cc721	-0.30620673
4	0xbe80dc4b	-0.2516807
5	0x3e1cd133	0.15314178
6	0xbe472ce1	-0.19450714
7	0xbe1d095c	-0.15335602
8	0x3db219da	0.08696337
9	0xbee569d1	-0.44807294
10	0xbc21d425	-0.009877239
11	0x3ea61e16	0.3244483
12	0x3e465d58	0.19371545
13	0x3df74867	0.120743565
14	0xbda48ddb	-0.08034869
15	0xbed1ad84	-0.40952694
16	0x3be524bb	0.006992904
17	0x3ee33821	0.4437876
18	0x3eb4388c	0.35199392
19	0xbbdba2d1	-0.006702759
20	0xbdf14b48	-0.11781937
21	0xbed03607	-0.4066622
22	0x3d6ed52d	0.05830877
23	0x3e8cad86	0.27476138
24	0x3efc70ac	0.49304712
25	0xbda0b675	-0.07847301
26	0xbe45b69c	-0.19307941
27	0xbe883a93	-0.2660719
28	0xbe505220	-0.20343828
29	0x3d397f6a	0.045287527
30	0x3f067442	0.52521145
31	0xbdc5952f	-0.09647595
32	0xbea6ea07	-0.32600424
33	0xbed5f242	-0.4178639
34	0xbdcffcf1	-0.101556666
35	0x3de7a3f0	0.113105655
36	0x3f0e75a3	0.5564825
37	0x3db5b4f6	0.08872406
38	0xbe8b0676	-0.27153367
39	0xbec8a649	-0.39189366
40	0x3b59b249	0.0033217838
41	0x3ec47521	0.38370612
42	0x3f1e05c6	0.6172756
43	0xbd90f802	-0.07078554
44	0xbed6c8a1	-0.41949943
45	0xbed78d79	-0.42100123
46	0x3cb0df98	0.021590993
47	0x3e85b3aa	0.26113635
48	0x3f072a6d	0.5279911
49	0x3dd52394	0.104071766
50	0xbe3938b3	-0.18088035
51	0xbf1c8553	-0.61140937
52	0x3e032a5c	0.12809128
53	0x3d825706	0.06364255
54	0x3ebb4c8d	0.3658184
55	0x3d66f9ae	0.056390457
56	0xbde4b027	-0.11166411
57	0xbec74478	-0.38919425
58	0x3e151767	0.14559709
59	0x3e353e48	0.1769954
60	0x3eaf8388	0.34280038
61	0x3e47d57f	0.19515036
62	0xbd5387eb	-0.051643293
63	0xbe975457	-0.29556534
64	0xbcd94b44	-0.026525147
65	0x3e83ae96	0.25719136
66	0x3eadac2c	0.3392042
67	0x3dbe479c	0.09291002
68	0xbce4d618	-0.02793412
69	0xbeddf967	-0.4335434
70	0x3d63fb2c	0.055659458
71	0x3e29caa1	0.16581203
72	0x3e9b61de	0.30348104
73	0x3e054613	0.13015012
74	0x3d410a8c	0.0471292
75	0xbeb0c692	-0.34526497
76	0x3cd5dd60	0.026106536
77	0x3d3f13a8	0.046649605
78	0x3e7acc90	0.24492097
79	0x3e07a95b	0.13248198
80	0xbb161974	-0.0022903355
81	0xbe8ea85e	-0.2786283
82	0x3b1f3bf2	0.0024297205
83	0x3e8982a7	0.26857492
84	0x3eaafb24	0.3339473
85	0x3e5572d7	0.20844589
86	0x3e0c0212	0.13672665
87	0xbf127eba	-0.5722462
88	0xbc53e12f	-0.012932106
89	0x3e0a8904	0.1352883
90	0x3e32c2fa	0.1745719
91	0x3dd35c24	0.10320309
92	0x3e1e0f3a	0.15435496
93	0xbef2d4d3	-0.47427997
94	0x3e7fef2e	0.24993584
95	0x3da30ebe	0.07961796
96	0x3e8ae33a	0.27126485
97	0x3e04753f	0.12935351
98	0x3d12e9f6	0.035867654
99	0xbeefe7eb	-0.46856627
100	0x3dbb51c2	0.091464534
101	0xbced7d55	-0.028990427
102	0x3e84514b	0.25843272
103	0x3dd846ad	0.10560355
104	0x3e431386	0.19050416
105	0xbf181345	-0.594044
106	0x3e2e9c72	0.17051867
107	0x3dabcf11	0.08389104
108	0x3e106934	0.14102632
109	0x3e32eec2	0.17473891
110	0x3e160182	0.14649013
111	0xbf0f90ae	-0.5608014
112	0xbce6abb7	-0.028158052
113	0xbdf860cc	-0.121278375
114	0x3dece06f	0.11566245
115	0x3e931596	0.28727406
116	0x3e1f68c5	0.1556731
117	0xbf2fc302	-0.68656933
118	0xbd210b28	-0.03931728
119	0x3e0980b6	0.13428006
120	0x3e90e727	0.28301355
121	0x3d6e0ea1	0.05811942
122	0x3e09d101	0.13458635
123	0xbd0caaab	-0.03434245
124	0xbcccc539	-0.024996387
125	0x3b06f745	0.0020594161
126	0x3c1bf50e	0.009518875
127	0xbeadc3c7	-0.3393843
128	0x3ef1560f	0.4713597
129	0xbe494fae	-0.19659302
130	0xbda24332	-0.07922973
131	0xbc7bbc11	-0.015364663
132	0xbe3e1469	-0.18562473
133	0xbd367a37	-0.044550147
134	0x3f3f88a9	0.748179
135	0x3b1f75c0	0.002433166
136	0xbeb4a32c	-0.3528074
137	0x3c7b13f2	0.01532458
138	0xbe93d4e3	-0.28873357
139	0xbb87d763	-0.004145549
140	0x3f3f2837	0.7467074
141	0xbda88d48	-0.08230072
142	0xbedf8e3d	-0.43663207
143	0xbd627284	-0.05528499
144	0xbd50f1ef	-0.051011976
145	0x3dc119fc	0.09428784
146	0x3f0d2fcb	0.5515105
147	0xbd43737a	-0.04771755
148	0xbe2db658	-0.1696409
149	0xbe90cbfe	-0.28280634
150	0xbdbe6f49	-0.0929857
151	0x3ee41cbb	0.4455317
152	0x3f092bcb	0.5358245
153	0xbda047a9	-0.07826168
154	0xbe0c66f1	-0.13711144
155	0xbe9ecfa8	-0.31017804
156	0xbe4241ce	-0.18970415
157	0x3ea9e17c	0.33179843
158	0x3ec29659	0.3800533
159	0xbc92782b	-0.017879566
160	0x3e230f98	0.15923917
161	0xbefab741	-0.48967937
162	0xbe26d087	-0.16290484
163	0x3ed7eac4	0.421713
164	0x3ecf68b0	0.40509558
165	0xbd0fbb9b	-0.035091024
166	0xbcc8a66d	-0.02449342
167	0xbf0edf25	-0.5580924
168	0xbd92974c	-0.07157764
169	0x3e50d7a7	0.20394765
170	0x3e9cd589	0.30631664
171	0xbc945809	-0.018108385
172	0x3d8a216b	0.06744655
173	0xbf1f057d	-0.6211775
174	0xbdbe07d3	-0.09278836
175	0x3ea086d0	0.31352854
176	0x3ea32a74	0.31868327
177	0x3d6c00d8	0.057617992
178	0x3e14cd6f	0.14531492
179	0xbedae558	-0.427531
180	0xbccf98ca	-0.02534141
181	0x3e74315a	0.23846951
182	0x3e28d6d3	0.16488199
183	0x3cee9c1e	0.029127177
184	0xbc2deb63	-0.010615203
185	0xbec95aa6	-0.39326972
186	0xbb96afce	-0.0045985943
187	0x3e284927	0.16434155
188	0x3e2b7bf9	0.1674651
189	0x3d780255	0.0605491
190	0x3e4e71f8	0.20160663
191	0xbef55f5a	-0.4792431
192	0xbbbbe9ad	-0.0057346434
193	0x3e0ae776	0.13564858
194	0x3e5b1658	0.21395242
195	0xbbda2cbc	-0.006658165
196	0x3d923431	0.07138861
197	0xbe98885f	-0.29791543
198	0xbe82bb45	-0.255335
199	0x3e0aabc9	0.13542093
200	0x3e55b82a	0.20871034
201	0x3e420241	0.18946172
202	0x3d521d4a	0.051297463
203	0xbeb965a5	-0.3621036
204	0x3b7a996c	0.003823842
205	0x3e80b69d	0.25139323
206	0x3e3b1572	0.182699
207	0x3e01f771	0.12692048
208	0xbc7791a6	-0.015110409
209	0xbe9cf277	-0.30653736
210	0xbcb63ca3	-0.02224571
211	0xbb4946c4	-0.0030712346
212	0x3d93b12d	0.07211528
213	0x3e923a44	0.28560078
214	0xbd5050f5	-0.050858457
215	0xbee8446f	-0.4536471
216	0x3d4af69d	0.049551595
217	0xbd6c9bc2	-0.05776573
218	0xbc16aedc	-0.009196963
219	0xbd8d5cef	-0.06902491
220	0x3d287293	0.04112489
221	0xbe7b5da0	-0.24547434
222	0x3e287559	0.16451015
223	0x3cdcf9d7	0.026974602
224	0x3d6b5f84	0.057464138
225	0xbdae0866	-0.084976956
226	0x3e24e1dd	0.16101785
227	0xbe98bdf5	-0.29832426
228	0x3e468d92	0.19389942
229	0x3dd4fda1	0.103999384
230	0x3ddfdd98	0.109309375
231	0xbdc41976	-0.09575169
232	0x3e597b05	0.21238334
233	0xbe919566	-0.28434294
234	0x3e5a5ea8	0.21325171
235	0x3d143f79	0.036193345
236	0x3d8d3bd8	0.0689618
237	0x3d258632	0.04041118
238	0x3e0bfda8	0.13670981
239	0xbe58f62a	-0.21187654
240	0x3e2bc2dc	0.16773552
241	0x3c6c6397	0.014428041
242	0x3c25aff7	0.010112754
243	0xbd6baf51	-0.05754024
244	0x3e0c9943	0.1373034
245	0xbe88ba54	-0.26704657
246	0x3b2e9915	0.0026641537
247	0xbd920061	-0.071289785
248	0x3d269305	0.040667553
249	0xbd899a7f	-0.06718921
250	0x3d7a03be	0.061038725
251	0xbb8befcc	-0.0042705294
252	0x3d3eccd0	0.046582043
253	0xbe37a029	-0.1793219
254	0xbe01c4a9	-0.12672676
255	0x3ed32b01	0.41243747
