config/ppo/results/myMoveBall/My_Basic/My_Basic-400847.onnx (onnx, 73994 bytes, 9 tensors)

50 f4 [8]
000000 6c b2 19 40 0b 75 e7 3a 90 7d 14 40 4c 97 09 40
       2.401515 0.0017658783 2.3201637 2.1498594
000010 20 14 93 3b c7 81 ff 3f c4 9c b9 3f a1 20 b7 3f
       0.004488483 1.996148 1.4500966 1.4306833

action_model._continuous_distribution.log_sigma f4 [1, 2]
000000 37 6a 08 be 38 3a a2 be
       -0.13321768 -0.31685042

action_model._continuous_distribution.mu.bias f4 [2]
000000 90 7a 9f bd c4 be e9 3b
       -0.07787049 0.0071333367

action_model._continuous_distribution.mu.weight f4 [2, 128]
000000 b0 dd 8c bc a6 2e 6f 3d f5 f2 23 bd 4a ea 26 bd
       -0.017195553 0.058394097 -0.040026624 -0.04075078
000010 e1 d3 81 bd 39 96 e8 3c 89 da ad bd 1c ef 3a 3e
       -0.06339241 0.028391944 -0.08488948 0.18255275
000020 31 8d 09 3c db 24 bd 3c b4 75 ff 3d bd 50 2e b9
       0.008395479 0.023088863 0.12473622 -0.0001662401
000030 f3 13 10 bd 55 94 ed 3d ea e0 1c bc 41 1e 8b 3d
       -0.035175275 0.11600558 -0.009575108 0.0679288
000040 4f 0d 92 3d 52 33 41 3d 25 0b af bb f6 53 8e 3d
       0.07131445 0.047168083 -0.0053419047 0.06949608
000050 f3 99 49 3a 27 ec 45 bd 27 c8 61 3c 92 2b be 3b
       0.0007690482 -0.048320916 0.01378063 0.005803534
000060 7f 79 ea ba 4f 62 df bc f7 f8 5c bd cc b6 fc 3b
       -0.0017888992 -0.027268557 -0.05394837 0.007712221
000070 b1 fc 02 3d 76 33 be bc 1f 06 07 be a1 20 93 bb
       0.031979267 -0.023217898 -0.13185929 -0.0044899737
000080 2e 73 61 bc 70 50 f6 3d dd 56 dd bb 21 f2 11 3d
       -0.013760371 0.12027061 -0.0067547397 0.035631303
000090 53 eb 99 bd 1a 5f 42 ba 36 e8 f6 bd e9 af 37 ba
       -0.07515588 -0.0007414684 -0.120560095 -0.00070071087
0000a0 26 ae 2e bd a6 61 11 bd 9c 7a 9c 39 17 65 19 bb
       -0.04264655 -0.035493515 0.0002984599 -0.0023406202
0000b0 8f 00 07 bd f6 93 f4 bb e4 9c 4f bd c3 69 13 3d
       -0.032959517 -0.0074639274 -0.050686732 0.035989534
0000c0 54 ba c8 3d d9 58 aa 3b a1 4a 8c 3e 7c 6b 19 bd
       0.09801164 0.0051985797 0.27400687 -0.03745602
0000d0 01 9d 12 3e d6 a8 b3 39 ca 2c 05 3d 91 c8 81 3d
       0.14317705 0.00034267333 0.032513417 0.06337083
0000e0 31 c3 29 3e 2e 53 ee 3c 6b 29 82 3d 00 e7 37 bc
       0.16578366 0.029092398 0.06355556 -0.011224508
0000f0 59 b6 05 bc ef f5 02 be 5e a1 d3 3c b4 87 1f 3e
       -0.008161151 -0.12789129 0.025833782 0.1557911
000100 bb 14 b6 bd 9d b5 d4 bc e1 22 bc 3c 43 8b a7 3c
       -0.08890673 -0.025965506 0.02296585 0.020452147
000110 ca bc d0 3d 50 4d 0a bb 78 46 e2 3d 46 77 9c bb
       0.10192259 -0.002110321 0.11048597 -0.0047749607
000120 5a 49 8a 3b cc fb 85 3c cf e1 27 3c d6 7c c6 bb
       0.00422017 0.016355418 0.010246708 -0.006057362
000130 9f 30 59 3c 93 11 5a 3e 21 61 f6 bb d4 aa 93 3d
       0.013256221 0.21295767 -0.007518903 0.07210317
000140 3f 9f ec 3a c5 33 1f 3b 37 77 c6 3d 0d b4 c2 3b
       0.001805283 0.0024292332 0.09690707 0.005941874
000150 9b 75 b3 3d 0a f2 28 bd ce 5d b8 3d 86 01 2c be
       0.08762666 -0.04124645 0.09002267 -0.16797456
000160 4c 6e de ba 75 60 1a be 87 07 e0 bc 28 c0 96 3d
       -0.0016970127 -0.15075858 -0.02734734 0.0736087
000170 84 47 4e bb 96 bb 08 bd 39 a4 6f bd 5a 44 db 3d
       -0.0031475732 -0.03338202 -0.058506224 0.107063964
000180 67 79 a3 3d 61 59 33 be b0 79 29 3c c2 17 00 3d
       0.0798214 -0.17514564 0.010343954 0.031272657
000190 7b 0d 21 3b 2e ca 68 3e 3c dd c7 3d ba 9a fb 3d
       0.0024574685 0.22733375 0.09758994 0.12285371
0001a0 7c 5a 98 bc 4d de c8 bc 55 dd c6 bd 95 f0 1e be
       -0.018597834 -0.024520064 -0.097101845 -0.15521462
0001b0 63 7c c1 bd c1 cc 3e 3a 3c 47 01 bd 8f c8 97 3a
       -0.09447553 0.00072784355 -0.031562075 0.0011580157
0001c0 17 d6 0b 3e 87 25 83 3d 12 66 6a bd d1 62 69 bd
       0.13655888 0.06403642 -0.057226248 -0.056979004
0001d0 11 17 b9 bb 59 17 20 3d ab e0 1b 3c e1 b3 75 bd
       -0.0056485017 0.039084766 0.009514014 -0.059986
0001e0 c0 24 1d 3e 72 f4 5a 3d 1d 9f cf bb 74 10 09 bb
       0.1534605 0.053455777 -0.0063361065 -0.0020914348
0001f0 50 70 2f 3e bb af 0b bb 32 61 73 bd 91 3d 2c 3e
       0.17132688 -0.002131446 -0.059418865 0.1682036
000200 84 dc aa 3c 82 14 01 3e 58 f6 ec bc 41 b8 d7 bc
       0.020857103 0.1260548 -0.02892606 -0.026332976
000210 69 19 d4 bd 41 da bf bb e4 b7 c0 3d 01 f1 e5 3d
       -0.10356409 -0.0058548753 0.09410074 0.112276085
000220 5d 64 06 3b fb 27 10 3c 0c dd 85 bd 1b 63 94 bd
       0.0020506599 0.008798595 -0.06536302 -0.07245465
000230 a9 7f 37 3d ce ac 64 3d 3b 81 a7 bb 77 89 0f 3d
       0.04479948 0.055828862 -0.005111841 0.035043206
000240 e8 21 c9 3d 4c df 41 bc 30 6e c1 bb 60 aa e2 3c
       0.0982092 -0.011833023 -0.005903028 0.027669132
000250 2a 93 1c bd c3 a6 85 3d 38 ef c8 bb e4 eb b3 3b
       -0.038226284 0.06525948 -0.0061320327 0.005490767
000260 1c cc fa 3a 0f 82 18 3e 5f f9 58 bc cf 49 7d 3d
       0.0019134316 0.14893363 -0.013243048 0.061837967
000270 92 4a 0e 3d eb cb cb bc b3 18 0d 3e 7c 37 06 3c
       0.034739085 -0.02487751 0.13778953 0.008191939
000280 58 13 14 3d 5f c2 03 3e 03 cd dc bd 89 da 13 be
       0.03615126 0.12867115 -0.107812904 -0.14438833
000290 7c 2e 7e be 87 2b 3c bb 6c 67 a1 3d 83 d4 8e ba
       -0.2482242 -0.0028712468 0.07881054 -0.0010897074
0002a0 47 a2 73 3d 13 b2 ed bc d0 c1 c0 bb 1b f2 db b9
       0.05948093 -0.029015576 -0.0058824793 -0.00041951318
0002b0 8a 73 d3 3a 41 22 4a 3d 76 61 38 bd 9e 37 d9 3d
       0.0016132456 0.049349073 -0.04501482 0.10606311
0002c0 14 6b 2d 3d e7 ee b1 3a 29 a6 f4 bc 44 41 0a be
       0.042338446 0.0013575227 -0.029864388 -0.1350146
0002d0 df 40 d2 3d c0 43 9c 3b 6b d0 ae bd c2 3e 0b 3e
       0.102662794 0.0047688186 -0.08535846 0.13598159
0002e0 b9 18 bf 3c 08 05 54 3d 20 2e 0c 3d e7 1a b8 bc
       0.023327218 0.05176261 0.034223676 -0.022473766
0002f0 8f f4 5a 3d 8b 32 b3 3d 12 ae 59 bd 59 99 95 bd
       0.053455885 0.08749875 -0.053144522 -0.07304639
000300 74 9d bf 3c bf b3 9a bc 41 bd 70 bc 57 83 bc 3d
       0.02339051 -0.018884538 -0.014693559 0.092047386
000310 bc 4d 81 bd 2a 84 38 3b d8 66 e3 3d 26 60 6e be
       -0.06313655 0.0028154948 0.111036 -0.23278865
000320 31 26 8e 3d 60 c0 3e be 8d ec 4e ba ca 51 dc 3c
       0.06940878 -0.18628073 -0.0007893525 0.026894469
000330 12 cc 11 bb 98 cb 81 3c 26 1d 62 bd e7 37 4f bd
       -0.002224688 0.015844151 -0.05520358 -0.050590422
000340 dd 9c e4 bb fc 8f 84 ba 16 e8 8f bd bd d0 13 bd
       -0.0069767074 -0.0010113711 -0.07026689 -0.03608774
000350 f4 e0 34 3d e7 14 51 bd f3 d5 c5 3d 7e 7d 63 bd
       0.044159845 -0.051045325 0.09659948 -0.0555396
000360 88 a7 b2 bb 89 2b 78 bd 00 27 86 3d cf d5 3c be
       -0.0054521 -0.060588393 0.065504074 -0.18440937
000370 d2 d3 b4 b9 25 f7 f5 3d 91 c5 c8 bd bc d8 6f bd
       -0.00034490094 0.1201003 -0.09803308 -0.058556303
000380 18 d9 17 be 11 01 c2 bc df 7f 14 bd e1 fb 20 bd
       -0.14828908 -0.02368215 -0.03625476 -0.03930271
000390 c2 35 53 3a 5f 44 0b bd ac 79 38 bd cd d4 70 3c
       0.0008057022 -0.03400075 -0.04503791 0.014699173
0003a0 d6 b9 56 bb 46 ef 52 3d 0f 7e 19 be e4 be c8 3d
       -0.0032764575 0.05149772 -0.14989494 0.098020345
0003b0 7a 87 fa 3d 17 91 44 3a 09 71 c1 3c 67 20 04 bc
       0.12232871 0.0007498427 0.02361347 -0.008064366
0003c0 28 f9 da 3c 69 80 ad bd 9e 42 55 3d da b0 f6 3d
       0.026730135 -0.08471758 0.052065484 0.120454505
0003d0 5c 68 b3 bd e2 e0 8d bc 12 96 54 be b2 b9 05 3d
       -0.08760139 -0.017319147 -0.20760372 0.032647796
0003e0 ad 4d 45 be 90 d0 3e bd 1e db 94 3d 62 cc 82 bb
       -0.19267912 -0.04658562 0.07268356 -0.0039916495
0003f0 b3 47 4d 3d 1b 9c 54 bb a6 ce 29 3e e5 4e 68 bd
       0.050117206 -0.003244168 0.16582736 -0.056715865

network_body._body_endoder.seq_layers.0.bias f4 [128]
000000 f2 80 31 bd 35 9c e2 bd a9 b0 ba 3c c8 3c 63 bd
       -0.043335862 -0.110649504 0.022789316 -0.055477887
000010 36 c9 53 bd af 4d 4b 3c b8 ef db bd 89 fd 76 bc
       -0.05170556 0.012408658 -0.10739082 -0.015075096
000020 0b 4e 83 3d 3b 1e 07 3d 52 79 2a bd 14 f2 90 3d
       0.0641137 0.032987814 -0.041619606 0.07077423
000030 d6 42 db bd 3f b9 23 bd f3 f8 06 3c f2 84 af bc
       -0.10706107 -0.039971586 0.008238065 -0.021425698
000040 05 46 36 3c 64 97 9d bd 32 95 d2 bd f3 a6 13 3c
       0.011125092 -0.07694891 -0.10282363 0.009011972
000050 41 a3 73 bc 17 80 07 bd 35 d5 ea 3d 8b 7c 6b bd
       -0.014870466 -0.03308114 0.11466447 -0.05749182
000060 03 36 4a bd dd 4e 56 bd 51 28 d8 bc b6 a1 b5 bc
       -0.049367916 -0.052321304 -0.026386412 -0.022171836
000070 49 4f 6e bd 86 6c f7 bb 26 10 e0 bd ac dd b5 3c
       -0.05818108 -0.007550779 -0.1094058 0.022200428
000080 da ac aa bd bd eb 8b 3d a8 fe d6 bd cd a2 e8 bd
       -0.0833375 0.06832073 -0.104977906 -0.11359177
000090 eb 4c 93 3c be 1a c6 bc f5 9a 09 bd 6e 54 d5 bc
       0.017981013 -0.024182674 -0.033595044 -0.026041236
0000a0 09 b6 ef bc f8 45 f9 bc fe 9e f8 bd f0 9a 1a 3c
       -0.029261606 -0.030428872 -0.121397 0.009436354
0000b0 0d 7f cf bc 8c ca 12 3b 37 96 fa bc 3f 50 64 bc
       -0.025329137 0.002239856 -0.030589206 -0.013935148
0000c0 de 09 11 bb a7 3e 15 bd 3a 1a 14 bd e1 6c e2 bb
       -0.0022131125 -0.036436703 -0.036157824 -0.006909952
0000d0 47 89 9d bc c6 09 b5 bd 18 1d 06 be 9c 21 3f bc
       -0.019230498 -0.08839755 -0.13097036 -0.011665728
0000e0 39 46 3f bc b8 9f eb 3d c6 27 8c 3b b9 95 d9 bc
       -0.011674457 0.11505073 0.0042772023 -0.026560651
0000f0 4c ba 79 3d ec 46 3b bb 3d c1 ff bd 93 17 1b bc
       0.060968682 -0.0028576208 -0.12488029 -0.00946607
000100 8f 32 a2 bb a7 ba 53 bd 34 fc 92 bd e7 ee ee ba
       -0.0049498747 -0.051691677 -0.0717701 -0.0018229157
000110 be 0e 10 be 2e cb a5 bd 6e a8 10 be 56 2b d9 bd
       -0.14068124 -0.08095394 -0.14126751 -0.10603969
000120 e5 f5 e8 3b f8 b5 4c bd 40 f3 e8 bd 8d 70 a0 bd
       0.007109391 -0.049978226 -0.11374521 -0.07833967
000130 c8 c6 af bd 08 4e a8 bc 0d 61 44 bc f9 78 12 be
       -0.085828364 -0.02054502 -0.011986029 -0.1430396
000140 36 5c 89 bd db 47 6d 3c 3a 9a 87 bc a6 f3 1e 3d
       -0.06707041 0.014482464 -0.016553033 0.03880658
000150 6c c6 60 bb a5 1d 55 bd a7 f4 eb bd 81 31 b1 bc
       -0.0034297956 -0.052030224 -0.11521273 -0.02163005
000160 5e 82 a7 3c 20 43 c5 bd 55 aa 29 3d 14 99 58 bd
       0.020447906 -0.09631944 0.041422207 -0.05288036
000170 80 4c ef bc 7c a6 66 3d a1 c6 32 3e e7 c8 6a bc
       -0.029211283 0.056311116 0.17458583 -0.014330125
000180 b7 6a b2 3d f1 8e 9d bd b4 e7 af 3c c7 13 56 bd
       0.087117605 -0.076932795 0.02147279 -0.052264955
000190 98 67 c8 bc 72 3b 44 bd 55 7e e0 bd 5f 82 c7 bd
       -0.02446346 -0.047908254 -0.10961596 -0.09741663
0001a0 e9 03 10 3c 2e a0 0b 3d f1 e4 45 3d 73 a9 0f be
       0.008789995 0.034088306 0.04831404 -0.14029483
0001b0 1c af 97 bd b2 fe 90 bd da e6 4c bc 19 98 18 3d
       -0.07406446 -0.07079829 -0.012506211 0.037254427
0001c0 35 02 1a 3d 8f a5 82 bc 75 31 55 ba a1 e4 53 bc
       0.03759976 -0.015948085 -0.0008132675 -0.012932927
0001d0 27 42 eb bc f5 e9 c7 bd 4c e8 f6 3c 50 2f e2 bc
       -0.028718067 -0.09761421 0.030140065 -0.027610451
0001e0 eb f5 42 bc 26 3d 57 bd 00 cf 38 3e 45 7e 01 be
       -0.011899452 -0.05254855 0.18047714 -0.12645824
0001f0 d9 77 cf bd b4 3d 01 be 3f 81 b0 3b fb 39 65 bd
       -0.10130281 -0.12621194 0.005386501 -0.055963498

network_body._body_endoder.seq_layers.0.weight f4 [128, 8]
000000 3d 97 d1 3c 6e 93 c3 be 52 a4 87 be 68 b7 c7 3e
       0.025584811 -0.38198417 -0.26492554 0.39007115
000010 af b7 c5 3e f0 1c 89 be 01 d2 e5 be a2 b7 80 3c
       0.38616702 -0.2677989 -0.44886783 0.015712563
000020 fe 91 d6 bd 16 c0 43 3e cf 0f 54 3c fb 6f 3c 3e
       -0.104770645 0.19116244 0.012943222 0.18402092
000030 ca f8 9e 3e e9 4a 41 3f 85 e4 4d 3e 0b dd 42 3f
       0.31049186 0.7550493 0.20106705 0.76118535
000040 75 73 b3 3d 24 9f 05 3f a1 de 39 bf e7 c3 8d 3d
       0.08762256 0.52195954 -0.7260533 0.06922131
000050 78 6f 1f 3f 0f 9e 22 bd f0 9e d3 3e 0b c2 85 3e
       0.6227946 -0.039701518 0.41332197 0.26124606
000060 47 56 95 bd 0e c6 82 be a3 3b 4b 3e 63 e8 4e 3f
       -0.07291847 -0.2554173 0.19846968 0.80823344
000070 d6 0f dd 3d e6 c0 ca 3e 64 f5 44 be aa 8e 0b 3e
       0.10794036 0.39600295 -0.19234234 0.13628641
000080 04 4f 5e 3f 1c a3 29 3f cd ba f2 3e a7 0f db bd
       0.8683932 0.6626451 0.47408143 -0.10696345
000090 4f 58 85 3c 97 1f f3 be 43 17 58 3d 33 ab e0 be
       0.01627746 -0.4748504 0.05275656 -0.43880615
0000a0 b6 94 e2 bc 3e 93 04 3e 63 0c 13 be aa 44 84 3e
       -0.027658802 0.12946793 -0.14360194 0.25833637
0000b0 e3 4b 68 3e a3 b2 b6 bd c8 c0 8c 3d 47 2d 21 bf
       0.22685198 -0.08920791 0.068727076 -0.6295971
0000c0 97 fc b8 be c6 03 9e bd f4 f1 8b 3e 39 86 d2 3e
       -0.3613021 -0.077155635 0.27333033 0.4111803
0000d0 e0 87 19 3e 1e f2 8a be ae 59 16 be ac 15 a6 3c
       0.14993238 -0.27137846 -0.14682648 0.020274006
0000e0 e6 bf 01 bf ee f3 18 bf 75 0c a2 3e 42 dc 9c be
       -0.5068344 -0.5974721 0.3165013 -0.30636793
0000f0 74 16 35 3e ec ab 82 be 7c a4 2d 3f ce ca 60 3f
       0.17684346 -0.2552179 0.6782911 0.87809455
000100 53 08 ba 3e 06 bf 0e 3f 12 1c 47 bf 2f 4d 48 bf
       0.36334476 0.5576023 -0.77777207 -0.7824277
000110 04 16 0a 3f 22 bf 6b 3f af 06 37 be 04 91 8e 3e
       0.53939843 0.9208852 -0.17873643 0.27845013
000120 a9 4e 2c bf e0 42 1b be 74 f2 47 3f 31 e4 ab 3e
       -0.67307526 -0.1516223 0.7810433 0.33572534
000130 9c 45 0f 3e fc 9a b4 be 44 e4 69 3e 40 45 a8 3e
       0.13991398 -0.35274494 0.22840983 0.32865334
000140 23 99 b4 3e 50 a3 96 3e 71 16 2c 3e b0 71 ba 3d
       0.35273084 0.29421473 0.16805436 0.091037154
000150 5c 40 05 be 8c d0 98 be cc ad 4a bf 58 16 fe 3d
       -0.13012832 -0.2984661 -0.79171443 0.124066055
000160 ce 0c 03 bf b2 fd 26 3f 33 17 37 3e 4e 64 3f bd
       -0.51191413 0.6523086 0.17879944 -0.046726517
000170 f4 42 fe 3d 6d cc ab 3e a0 bb f4 bc 4f c6 5e 3d
       0.12415114 0.33554402 -0.029874623 0.05438834
000180 e6 61 49 3e ab dd 49 bd f3 a5 c0 be 61 4f 50 3e
       0.19666252 -0.049283665 -0.3762661 0.2034278
000190 54 c7 6f be 5f f1 cd 3e af bb 7d bf fb 2e de be
       -0.23415881 0.40223214 -0.9911451 -0.43395218
0001a0 9c d0 91 3d 1a 93 d8 bc 27 f1 0e 3f ee 90 76 3e
       0.07119867 -0.026437331 0.5583672 0.24078724
0001b0 84 b9 eb 3e 1a fb 6e 3f 2c 47 38 bd 18 14 37 3e
       0.46039975 0.933519 -0.04498975 0.17878759
0001c0 a8 48 e1 3c 0e 49 9e 3e 6c 43 0f bf 9c 66 05 bf
       0.027500466 0.3091511 -0.5596225 -0.52109694
0001d0 4f 00 4e 3d 7d e5 a1 3e cb 5f ba bd 79 e4 99 3d
       0.050293263 0.31620398 -0.09100302 0.07514281
0001e0 73 a2 11 bf e0 51 ac 3e f3 2f 9e bc 47 c6 9c 3d
       -0.568885 0.33656216 -0.019309973 0.07655006
0001f0 3a dd 04 bd 37 85 50 3e 32 14 9d 3e fd 20 5c be
       -0.03243754 0.20363317 0.3067947 -0.21496959
000200 bd 79 36 bf 4a 09 18 3f 6b 31 ee be 62 d9 90 3e
       -0.7127951 0.59389174 -0.46522078 0.2829085
000210 9c 91 8e be c4 b2 bd 3d 89 fc 78 3e 52 f9 fd 3e
       -0.27845466 0.092626125 0.24315085 0.4960428
000220 e8 aa 90 3e 7c ba 98 be 6e 0e 50 be b8 86 59 bf
       0.2825539 -0.29829776 -0.20318004 -0.8497119
000230 14 93 9b bd cc fc 5e bf cb 55 ae bd f4 43 a8 bc
       -0.07596412 -0.8710449 -0.085124575 -0.020540215
000240 4e 4b 54 3e 5a 7c 54 3d af db 21 3e ca 67 5c bd
       0.20731851 0.051876403 0.15806459 -0.05380992
000250 04 4a de be 0d 9d ea be 38 6d 45 be b6 43 16 3f
       -0.43415844 -0.45822945 -0.19279945 0.5869707
000260 c2 a4 06 bd b8 e0 8e 3e 3f 74 7e 3f 29 fb 05 bf
       -0.03287197 0.27905822 0.9939613 -0.52336365
000270 09 77 28 3e 86 46 00 bf 86 b0 0d bf 2d fd 99 be
       0.16451658 -0.5010761 -0.5534748 -0.3007597
000280 42 77 39 be 0a 38 a5 3e 85 f0 9b 3e 22 1f 30 bf
       -0.181119 0.32269317 0.3045694 -0.68797505
000290 74 95 17 be 19 8e 5a be 29 15 8a bd e8 73 51 bd
       -0.14803106 -0.21343268 -0.06742317 -0.051135927
0002a0 6a 60 62 bc 15 c5 1b 3e 0d e4 af be e9 ca 15 3f
       -0.013816932 0.152119 -0.34353676 0.5851274
0002b0 6f 91 93 3d 0d 27 f6 be fb c9 3d bf 8c ee 81 be
       0.07205474 -0.48076668 -0.7413632 -0.2537731
0002c0 be 88 27 bf 21 b4 d7 bd 3a 2e 3f 3f 55 32 9b be
       -0.65443027 -0.10532404 0.7467991 -0.30311838
0002d0 0f 95 fd be 68 99 24 3f 8e f4 01 bf 2e c3 01 bd
       -0.49527785 0.6429658 -0.50763786 -0.03168028
0002e0 64 8a 63 be e5 ac 19 bf 04 2f 3e bf 50 33 ac be
       -0.2222076 -0.6002944 -0.7429049 -0.33632898
0002f0 10 90 2f 3e 65 80 75 3e de 4d 6b be aa de 37 3e
       0.17144799 0.2397476 -0.22978923 0.17956033
000300 d4 91 0f 3e 82 3a 8c be 74 14 c9 be 50 86 83 bd
       0.14020473 -0.27388388 -0.39273417 -0.064221025
000310 a3 e1 ab 3d ae 37 63 3e 6e 1b 37 be 1d 5b 2b 3d
       0.08392646 0.22189209 -0.17881557 0.04183494
000320 47 41 cf be c8 1e 9a 3e 3c d4 b4 be c4 76 be 3e
       -0.4047949 0.3010161 -0.35318172 0.37199986
000330 fa 62 a5 3d 3d 6f dd 3e 91 8b 61 be 6a 59 e6 3e
       0.08075519 0.4324893 -0.22025897 0.44990093
000340 da eb 0f bf af 86 50 3e 22 cf ab bd 03 9e 94 bd
       -0.56219256 0.20363878 -0.08389117 -0.07256701
000350 9e 3d 2e bd 6a b5 1b bf d5 94 a1 3d bd 0d 10 3b
       -0.04253923 -0.6082369 0.078897156 0.0021980845
000360 64 32 ac 3c a3 45 6a be 0e c0 0d bf 71 85 04 be
       0.021020122 -0.22878127 -0.5537118 -0.12941529
000370 75 3c 63 3e 71 2d 1e be 61 c8 03 3f ef e9 2f 3f
       0.22191031 -0.15447022 0.5147763 0.6871633
000380 71 28 ee 3e 9e 87 0e be aa 6f be 3e f1 1c ef bc
       0.4651523 -0.13918921 0.37194568 -0.029188605
000390 b2 77 9c 3d 2e 16 00 3d 7e df 13 be 94 79 dc 3e
       0.076400176 0.031271152 -0.14440724 0.43061507
0003a0 3c 81 84 3d e8 e4 0a 3f 7a 06 95 be 98 6f cc 3d
       0.06469962 0.54255533 -0.29106504 0.09982222
0003b0 35 f6 02 be 70 ee 04 bf cd fe 90 bd 41 34 7e bd
       -0.12789233 -0.51926327 -0.070798494 -0.062061552
0003c0 3e a6 3f be e5 0e 6d 3d e9 c8 84 3e 78 bc ae 3e
       -0.1871576 0.057875533 0.25934532 0.34128165
0003d0 fd 7e 2c 3f 6d 0c a4 3f b2 fe 19 3e 7a 3e 0b 3f
       0.6738127 1.2816292 0.15038565 0.54392207
0003e0 bb 6b 38 be 0d 9a ea be c7 f9 de 3e 03 0b ce be
       -0.18009846 -0.45820656 0.4354994 -0.40242776
0003f0 f2 13 1d 3f 0c f3 72 be 48 cc 21 3e 98 2f 16 3e
       0.6135856 -0.23725528 0.15800583 0.14666593

network_body._body_endoder.seq_layers.2.bias f4 [128]
000000 1e fd be 3b 68 d0 e9 3c a9 e7 14 3d a5 4e 1c 3d
       0.0058285138 0.028541759 0.03635374 0.03816094
000010 d1 a9 9b 3d 85 71 8d bd 8e 12 37 3d ad 3e e8 3b
       0.07600749 -0.06906418 0.04469543 0.0070875497
000020 10 30 1a bd 43 ea f2 bc 76 0f ab bb 21 34 a0 3c
       -0.037643492 -0.02965272 -0.005220349 0.019556107
000030 e9 23 ce 3c ad e4 40 bd 4b b4 2e 3c f8 8f 30 bd
       0.025163608 -0.047093082 0.010663102 -0.04310605
000040 9b 12 0b b9 1a 48 ae bd 35 7f 2e 3d 69 2d cb bc
       -0.00013263004 -0.08509846 0.042601783 -0.024801927
000050 68 01 a0 bd 34 ff 63 3d 4a ab 82 bd 76 ae e4 bb
       -0.07812768 0.055663303 -0.06380327 -0.006978805
000060 8f bc 11 bd 68 a2 71 3d c7 d6 48 3d 56 d3 15 bd
       -0.035580214 0.058992773 0.049032953 -0.0365785
000070 df cd 94 bc 10 af 3f bd d5 82 5e 3d f0 57 20 bd
       -0.018164573 -0.046797812 0.05432399 -0.039146364
000080 0d bb c7 bc f2 bc 45 3c 73 8e 23 bd 99 bc 7c bd
       -0.024381185 0.012068974 -0.039930772 -0.0617033
000090 db 9f b9 3d 99 fe 51 bd 93 e4 b7 3d 4f 57 fd 3c
       0.09063693 -0.051268194 0.08979144 0.030925421
0000a0 a5 98 8e 3c 0b b6 7d bc c1 43 22 bb cd be 97 bc
       0.017406771 -0.015485297 -0.0024759623 -0.018523598
0000b0 6d ac 43 3a 06 0f 21 3d e7 29 15 3d b4 80 9d bc
       0.0007464353 0.039320968 0.036416914 -0.01922641
0000c0 3d d9 79 bc 85 10 1a bd 06 02 05 3e 33 99 86 3d
       -0.015249548 -0.03761341 0.12989053 0.06572189
0000d0 61 95 ff 3c a3 61 a1 bc ee 1e 6a bd 30 56 82 3d
       0.03119916 -0.019699877 -0.057158403 0.06364095
0000e0 46 13 c9 3b 8b 2e 2a bd 27 76 44 bd d6 4b 94 bd
       0.006136331 -0.041548293 -0.04796424 -0.07241027
0000f0 1e 65 bb bb 3b 65 bb 3d 2e 11 e6 bc 4b 29 2d 3d
       -0.005718841 0.091501676 -0.028084364 0.04227571
000100 1e f1 89 3d 0e c0 ac 3c 5a 52 18 bd 3c 61 89 3c
       0.067354426 0.021087673 -0.03718791 0.016769998
000110 3a 7e 5f bd 90 a3 97 bd 2c b6 43 3c 11 3e 54 3d
       -0.05456374 -0.07404244 0.011945289 0.051817004
000120 57 57 84 bc 8b 25 f2 3c 5b c9 fe bc c5 a9 7c 3b
       -0.016154928 0.029558918 -0.031101873 0.003855334
000130 33 e4 92 bd 3b 67 18 3d 0c 10 af bd 3c cd b5 bc
       -0.07172432 0.037207823 -0.085479826 -0.02219259
000140 4c a5 23 bd 0b 24 9e bd 07 c6 09 bd cf 85 98 bd
       -0.03995256 -0.077217184 -0.03363612 -0.07447397
000150 c5 eb 46 bd 6a 4a f6 bc 7e 3a 87 bb 4a be e3 3d
       -0.04856469 -0.03006478 -0.004126846 0.11120279
000160 0b 25 89 bc 80 7f 0a 3e df fd 88 bb 3d e9 a1 3c
       -0.016741296 0.135252 -0.0041806544 0.019764537
000170 a8 f6 12 3c 31 d6 47 3d 78 b8 74 3d 4f 47 63 bd
       0.00896994 0.048788253 0.059746236 -0.055487927
000180 6c c1 1c 3d fd d6 03 3e b1 27 87 bd 6d 59 da bc
       0.0382704 0.1287498 -0.065993674 -0.02665397
000190 c8 97 46 bd 7b 8d e0 3c 92 06 f1 bc 99 f2 66 bd
       -0.048484594 0.027411213 -0.029422078 -0.056383703
0001a0 32 e3 5e bd f0 e1 a2 3b 5d ac 85 3d ba c9 e2 3d
       -0.05441589 0.0049707815 0.06527016 0.110736325
0001b0 48 70 b7 3d 59 12 69 bd 71 0e 05 3d 9f ca 83 bd
       0.08956963 -0.056902263 0.032484476 -0.06435131
0001c0 48 1c 42 bc ef 73 81 bc 26 ce 9e 3c 19 7d bc 3c
       -0.011847563 -0.015802352 0.019385409 0.02300887
0001d0 05 ed 76 3b 04 0b 64 bd f4 59 75 3d 81 74 1a 3c
       0.0037677896 -0.055674568 0.05990024 0.009427191
0001e0 19 cb 09 3d 6d 14 83 bd 0f f4 18 3d a0 a9 a5 bd
       0.033640955 -0.0640038 0.037342127 -0.08088994
0001f0 e5 45 df bc ff 5e f4 ba 7e a6 4d 3d 63 72 9f bc
       -0.027255008 -0.0018644034 0.050207607 -0.019463724

network_body._body_endoder.seq_layers.2.weight f4 [128, 128]
000000 8d 50 44 3e e7 d2 23 bd b3 f4 31 bd 68 b8 e8 bc
       0.19171353 -0.039996054 -0.043446254 -0.028408244
000010 1f dd 28 be 23 7b ae bd 7a 4b ee 3c ce 15 36 bc
       -0.16490601 -0.0851958 0.029088724 -0.011113597
000020 e9 b1 da bc cc 84 8b be d7 4b ce bc c1 49 82 bd
       -0.026696162 -0.27249753 -0.025182648 -0.06361724
000030 1c 46 cf 3d 55 d8 8d 3d 7a ab 9b bd 3f e4 07 bd
       0.10120794 0.06926028 -0.07601066 -0.033176657
000040 6a d6 1c 3d b1 88 98 bd 8a a2 92 3c 12 d8 33 3d
       0.03829042 -0.07447947 0.01789977 0.043907233
000050 c1 bf 68 3c 36 ce c1 bb d2 d0 05 bc 66 16 84 be
       0.014205874 -0.005914475 -0.008167462 -0.2579834
000060 c8 15 95 bd 34 5d b3 3d 84 8e 09 be 31 37 35 3d
       -0.07279545 0.087580115 -0.13433272 0.044242088
000070 f7 7f 8c 3d d9 54 88 3d 3d 00 2b be 94 88 5e be
       0.06860345 0.066568084 -0.1669931 -0.21731788
000080 87 d4 63 bd 6e 72 04 3e c3 c9 cf 3c a5 07 eb bd
       -0.055622604 0.12934276 0.025364762 -0.114760675
000090 eb f2 7d ba 91 47 cc bd 07 d8 92 bd 8b 5c 0b 3e
       -0.00096873817 -0.09974588 -0.0717011 0.13609521
0000a0 24 ca 5d 3d 58 74 e6 3d 91 7a 90 3d c0 bf a8 3c
       0.054147854 0.112526596 0.07054628 0.020599246
0000b0 e9 b6 28 bd 5f 5a 32 be c2 d9 c2 3d 24 05 48 be
       -0.04119006 -0.17417286 0.0951419 -0.19533211
0000c0 e8 f2 e9 bc 3e 7d a8 3d 6c 7e 42 3e 55 5c 95 bd
       -0.02855821 0.08227013 0.18993539 -0.072930016
0000d0 dd 3e 3a bd 3d 48 c2 bd a6 31 71 bc b3 25 b5 3d
       -0.045470107 -0.094864346 -0.01472131 0.08845081
0000e0 10 01 a9 bd 85 54 2b be e2 8b 28 bd 91 06 24 3e
       -0.08252156 -0.1673146 -0.041149028 0.1601813
0000f0 5c a7 fc bd 3c 94 2b 3b 89 b5 dd bc 2d 76 e8 bd
       -0.12336609 0.0026180884 -0.027064102 -0.11350665
000100 a6 4d 14 be 76 18 55 bd 92 32 78 bd 18 41 b4 3d
       -0.14482746 -0.05202528 -0.060595103 0.08801478
000110 e9 a5 bc bd a3 9a df 3c 23 58 fd bd c0 90 68 bb
       -0.09211332 0.027295416 -0.12370326 -0.0035486668
000120 c8 f5 e0 3d fb 47 11 be 5d 62 19 be c4 96 23 3c
       0.10984379 -0.14187615 -0.14978929 0.009984676
000130 2e ad b9 bb 67 3b c0 3d 24 25 a0 3d c2 bf d8 bd
       -0.0056663966 0.0938633 0.07819584 -0.1058345
000140 94 54 1a bc 71 2f ce 3d 69 a7 b8 3a 98 c1 78 3d
       -0.009419579 0.100676425 0.0014087978 0.0607315
000150 66 23 fb 3c 98 ed 62 3d fc 98 89 bc 38 9d 25 3d
       0.030656528 0.05540237 -0.016796581 0.04043314
000160 cf aa 48 bd 61 e9 36 3d f9 81 b5 be 7a 12 6e 3d
       -0.04899102 0.04465616 -0.35450724 0.05812309
000170 5f fe 8e 3c 96 5d c1 3d 5c a3 33 3c 1c 8a 0d be
       0.017455278 0.09441678 0.010964241 -0.13822216
000180 d8 b4 32 be d7 53 83 3c 42 28 85 b8 24 fb 7e bd
       -0.17451799 0.016031189 -6.349433e-05 -0.062251225
000190 ce b7 97 bd 99 de 1a 3b ce 1a 84 bd 39 3d cc bd
       -0.07408105 0.0023631214 -0.06450425 -0.09972615
0001a0 7d 74 ad 3c 25 db 1e be 16 cd a0 bd 5d a0 0c bc
       0.02117371 -0.15513285 -0.07851617 -0.008583155
0001b0 b8 d8 26 be ca b2 9a 3d af c6 63 3c 08 5c df bd
       -0.16293609 0.075536326 0.01390235 -0.109062254
0001c0 1b aa d4 3d 42 bb fa bd 66 ef 2a be 5e a5 5d 3d
       0.103840075 -0.12242748 -0.16692886 0.054112785
0001d0 0a 06 0f 3e bf db 3e be c4 31 df 3c 22 e9 5c bd
       0.13967147 -0.18638514 0.02724541 -0.05393327
0001e0 2a 3d 59 3e 2b 78 0f 3c 58 02 ab bd 6f 6c fa bc
       0.21214738 0.008756678 -0.083500564 -0.030569283
0001f0 66 8f c5 bd e7 57 88 bd 4d af 33 bd 78 91 fd bd
       -0.09646492 -0.06657391 -0.04386835 -0.123812616
000200 7d a2 28 bd cb 8e d1 bd 83 5f 42 bd c8 f0 17 be
       -0.041170586 -0.10232314 -0.04745437 -0.14837945
000210 65 ad 3b be 4c c5 55 3e d1 aa 36 3d 4d da 96 bd
       -0.18327864 0.20876044 0.044596497 -0.07365856
000220 42 70 3d be 74 bc 10 3e 0b 9f bb 3d 2e 05 cf bd
       -0.18499854 0.14134389 0.091611944 -0.1010841
000230 70 ec 28 be 59 be 88 3d b9 52 a5 bc ae 03 26 be
       -0.16496444 0.06676931 -0.020181047 -0.16212341
000240 75 cc 77 be a5 52 d0 3d 9f 78 fe 3d a8 e0 29 3e
       -0.24199088 0.10172013 0.124253504 0.16589606
000250 87 be 67 3d 6a 37 15 3c 64 54 2c 3e 57 18 f4 bd
       0.056578185 0.00910745 0.16829067 -0.11918705
000260 21 07 80 bd ca 57 3b be 62 39 36 3e ae 63 13 be
       -0.0625136 -0.18295208 0.17795327 -0.14393494
000270 6e 42 26 3c 0a 85 1d 3e 5a 04 c7 3d 7e 12 c4 bc
       0.010147674 0.15382782 0.09717627 -0.023934599
000280 bf d2 c4 3d 30 89 5b be 7f fc 5e 3e 7f 73 92 3b
       0.09610509 -0.21439052 0.21776007 0.0044693346
000290 a4 3c 81 be e9 3e 2f bd f9 fd 51 3d 90 1b c6 bd
       -0.25241578 -0.042784605 0.051267598 -0.09673226
0002a0 2f 7e 45 3e 67 2d 24 3c a2 06 2b 3e e4 81 32 be
       0.19286416 0.01002059 0.16701749 -0.17432362
0002b0 fc d7 e8 3b 4b 66 35 bc 0a a4 11 be 11 9d 0d bd
       0.0071058255 -0.011071752 -0.14222732 -0.03457362
0002c0 33 6b 88 3d 5c e1 7d be 64 9b a4 bd d2 30 78 be
       0.06661072 -0.24792999 -0.08037451 -0.24237373
0002d0 4e 2f 5f bc a2 76 04 be 1c 0f d2 bd 75 01 2e bd
       -0.013622118 -0.1293588 -0.10256788 -0.04248186
0002e0 98 77 35 3d 81 a6 8f 3e 94 68 d7 bd 1f d6 27 bd
       0.044303507 0.2805672 -0.105179936 -0.040975686
0002f0 1b a5 f5 3d 5d 15 21 be 72 83 99 bd 43 4e 86 3d
       0.11994382 -0.15730806 -0.07495774 0.06557896
000300 31 b3 2a 3e bc 6a eb 3c 8d d2 8f 3c ba e2 50 be
       0.16669919 0.028737418 0.017556453 -0.2039899
000310 eb ec b2 3d ce 11 0d 3e cb 57 80 bc a7 33 19 be
       0.08736595 0.13776323 -0.015666863 -0.1496111
000320 ca 04 4e be b2 f5 5d 3d f4 73 25 bc 09 5a 07 3e
       -0.20119014 0.05418939 -0.010098446 0.1321794
000330 df 42 92 3d 20 2a 20 b8 8f 46 cf bd 02 f6 36 3e
       0.07141661 -3.8186205e-05 -0.1012088 0.17867282
000340 04 b2 1a bd ad b8 44 3e 4c 56 28 bd 9b 56 4f be
       -0.037767425 0.19211073 -0.041097924 -0.20247881
000350 41 e2 ef 3b 05 6a fe 3c dc 9d bd 3d 34 10 e3 3d
       0.0073206727 0.031056413 0.09258625 0.11087075
000360 ee b6 ac bd 22 4c c8 bd 66 bb 0b 3e 25 e5 67 3d
       -0.084333286 -0.09780146 0.13645706 0.056615014
000370 90 cc 61 3c 26 7b 6f bd 14 de 79 3d 33 80 03 be
       0.013781682 -0.058467053 0.061002806 -0.12841873
000380 02 43 30 be 20 83 9d 3d c6 09 f1 bc 56 3d be bd
       -0.17213061 0.07691026 -0.029423606 -0.09289043
000390 f9 4b 06 be d6 a6 9d bd 30 5d 6c 3c 94 b4 cf 3d
       -0.13114919 -0.07697837 0.0144265145 0.101418644
0003a0 a4 20 62 be be 2d 02 be e4 e8 cf bd f0 66 e2 bd
       -0.22082764 -0.12712762 -0.10151842 -0.1105479
0003b0 38 9c 84 3d 64 0e e7 bd 0c fc 80 be ae 27 d0 bd
       0.06475109 -0.11282042 -0.25192297 -0.10163818
0003c0 e9 ca 31 3e 14 79 3e bd de 89 2f 3c d8 c3 32 3d
       0.1736256 -0.046502188 0.010714022 0.043643802
0003d0 c4 cb 86 3d 0f 6c da 3d 79 99 8c bd 8a 81 0a bd
       0.06581834 0.10665142 -0.0686521 -0.033814944
0003e0 37 cc a8 3d ec 44 c6 3d 50 16 80 3d 8b af 12 3d
       0.08242076 0.096811146 0.06254256 0.035811942
0003f0 10 63 5a bd cd 2d ac bc 38 20 b7 bc f8 33 40 3c
       -0.05331713 -0.021017933 -0.02235423 0.01173114

network_body.observation_encoder.processors.0.normalizer.running_mean f4 [8]
000000 05 6d 89 3e 04 fe ff 3e 4a eb 9f bc 84 d7 4e be
       0.26840988 0.49998486 -0.019521374 -0.201994
000010 d4 0c 00 3f 8b af 3c 3e 44 99 37 3d 87 a9 b0 bc
       0.50019574 0.1842634 0.0448239 -0.021565212
