config/ppo/results/RayShoot0607/Shooting.onnx (onnx, 13687 bytes, 7 tensors)

action_model._discrete_distribution.branches.0.bias f4 [3]
00000000: 2664 3bbd 73a5 b63c f885 f43c
-0.045749806 0.02229569 0.029849038

action_model._discrete_distribution.branches.0.weight f4 [3, 20]
00000000: 1cab 8abd f5f0 be3d 5f33 593d 77df 5fbd
00000010: a83f f5bb 98cc 23bc 3048 3c3b abfa b33d
00000020: c9b6 9c3d 1f27 5cbd 2b43 243d cb4a 673b
00000030: 282a 8cbd eb7b 6d3d ca25 b43d 4aa7 2ebe
00000040: 36ee a9ba 8332 953d bc70 883c 5ecd 60bd
00000050: 51da caba 02bc 0b3c 17b8 b1bd 0e12 ccbd
00000060: 182e 083e d157 8abd 7b9a 163e 2608 2bbc
00000070: cf60 7a3c 6a4f b5ba 8d51 87bd c473 14bd
00000080: 31d7 a5bc fd41 953d 9fc7 313d 2ec3 fa3d
00000090: 07f6 43be 27c0 013e c7ad f83b eba5 9ebc
000000a0: fd6c 973d 7f72 dbbd 6632 f13c e4c5 043e
000000b0: ce4f f9bd 6c01 ba3d 3310 19be e426 fabc
000000c0: dbbf 09bd 9bd4 493d c56d d2bc 5581 d03d
000000d0: 812b 993d 9902 d7bd 5bb2 e1bd 9c2b 643d
000000e0: 0edf 223e 4c94 d0bd f45d 64bc 4270 af3d
-0.06770918 0.09323303 0.053027507 -0.054656472 -0.007484395 -0.009997509 0.002872955 0.087880455
0.07652051 -0.053748246 0.04010312 0.0035292383 -0.06843978 0.057979506 0.0879627 -0.17056003
-0.0012964669 0.07285025 0.016655318 -0.054883353 -0.001547644 0.008528711 -0.086776905 -0.09964381
0.13298833 -0.06755031 0.14707367 -0.010438954 0.01528187 -0.0013832871 -0.066073515 -0.036243215
-0.020244213 0.07287977 0.043403264 0.12244259 -0.1913682 0.12670957 0.0075890752 -0.019366225
0.07393835 -0.10715198 0.029442977 0.12966114 -0.12173425 0.090823025 -0.14947586 -0.030536123
-0.033630233 0.049275022 -0.025687108 0.10180918 0.07479001 -0.10498542 -0.11020347 0.05570565
0.15905401 -0.101845354 -0.013938416 0.08566333

action_model._discrete_distribution.branches.1.bias f4 [3]
00000000: d5c7 f1bc 9df2 ce3c fd56 143c
-0.029514233 0.025262171 0.009053943

action_model._discrete_distribution.branches.1.weight f4 [3, 20]
00000000: a703 ed3d 7dd1 373e 506b 753e 6057 223e
00000010: ac52 81be 65df 3eb9 dd0c 0abd 1ddc 783e
00000020: 667f 323e a859 3cbd e39f 853d d2bf 453d
00000030: 8d1e 193c 6168 1a3c 2c4f 2b3d e6e1 dabe
00000040: fc40 413e ff5f bfbb a632 53be 4d6b f9bd
00000050: 0697 0dbe 4f39 9cbe d9f4 31bd 11ef a9bd
00000060: b299 883e 5e7f 5bbe 77fe 463e 2ffd 74be
00000070: f32b 17be 4968 333e f4f2 79be 218b 3f3e
00000080: f78a 3f3e 5633 5d3e cb64 84be 92a3 393e
00000090: 10e8 643c ceca 1abe 763a b3bd cdc6 3ebe
000000a0: cebb 29bc dfa7 c63c f69e 95be 5ec4 d9bd
000000b0: 6c7e bd3b c602 2a3e e139 11be 1931 3ebd
000000c0: ee91 8dbd e823 16be 593f b23d a18b afbe
000000d0: 7ef3 22be 5f1f 84be 7dc0 293e 5ca4 8f3e
000000e0: ffa4 6bbe 976f ce3d f3c6 a63e dba4 a63e
0.11572962 0.17951007 0.23966718 0.15853643 -0.25258386 -0.00018203033 -0.033703674 0.24302717
0.17431411 -0.04598394 0.065246366 0.048278637 0.009345663 0.0094243 0.04182355 -0.42750472
0.18872446 -0.005840301 -0.2062479 -0.12178669 -0.13827142 -0.30512473 -0.043446396 -0.082975514
0.2667976 -0.21435305 0.19433008 -0.23924707 -0.14762859 0.1752025 -0.24409086 0.18705417
0.18705355 0.21601614 -0.2585815 0.18128803 0.013971344 -0.15116426 -0.08751385 -0.18630524
-0.0103597175 0.024249969 -0.2922284 -0.10633157 0.005782893 0.1660262 -0.14182235 -0.046433542
-0.069125995 -0.14662135 0.08703489 -0.34286216 -0.15913197 -0.25805184 0.16577335 0.28055084
-0.2301216 0.10079878 0.3257366 0.3254765

discrete_action_output_shape f4 [1, 2]
00000000: 0000 4040 0000 4040
3.0 3.0

network_body._body_endoder.seq_layers.0.bias f4 [20]
00000000: 3183 d2bc 8df2 253d 428a 243d 295a e23c
00000010: 3491 0a3e 4eaa 973d 7fca f23d 0fbe 9f3c
00000020: 780a bebc 9ca1 bb3d 4d64 1c3d 52e5 dd3d
00000030: a158 a73d 13f0 933d 92c1 393d 38c8 133e
00000040: 2bc4 933d 5e00 3a3d 6bd6 ad3d 3691 a23d
-0.025697323 0.040514518 0.040170915 0.027630882 0.13531953 0.0740553 0.11855029 0.019499807
-0.023198351 0.09161684 0.03818159 0.10834755 0.081712015 0.07223525 0.04535062 0.14431846
0.072151504 0.045410506 0.084881626 0.07937853

network_body._body_endoder.seq_layers.0.weight f4 [20, 130]
00000000: fc1c 613e 92e4 1dbe ddd3 5dbd e28d 723e
00000010: 2283 6bbd b57e b6bd a8d9 bd3d 235c eabd
00000020: a53f 073d 1531 8c3e 8c26 b6bd a916 c6bd
00000030: 482a eebb 5bff 5e3d 0473 78bc f6ce be3e
00000040: acd7 a8bd af8a 8fbc 9340 39be 4dde ddba
00000050: 9dbf 9abc 43b2 9d3e 7d3d 2abe 7d2b 47bd
00000060: c6ef 15be 825d 213e a7db 4f3d c34d c13e
00000070: bc2b 193d ab79 afbd 702d 5fbe 1a3c e03d
00000080: 13ca 783d 2cee d73e 1c48 28be cb5d 6ebe
00000090: 6a6d 9cbe f70c bc3d e225 73bb 6118 433e
000000a0: 3b92 bfbd 8c84 0e3e 5773 85be f0e6 a6bd
000000b0: 50c4 ffbd f57c c43d e0d4 05be 5c41 58be
000000c0: a536 51be 412f 10bd 70b1 4dbe 547b 883e
000000d0: ebd4 3bbd 2975 7b3d b4a8 a2be 2455 8bbd
000000e0: d659 593c 2704 7d3e e6d4 883d 42bb 38bd
000000f0: 0ef0 46be 3ae4 7bbd 6d37 71bc 80e7 0a3e
00000100: efa9 24be 5a01 213d 5b90 11be b080 0dbe
00000110: b4c2 453d 0b37 023e 371b 3cbe 0783 cabc
00000120: 9b89 32bd da1e 4a3c a072 d3bd 6cbc 093e
00000130: 4a46 f5bd 113b 90bd b547 1c3d 8f7f e83c
00000140: b553 913d 91ec 903e f4a9 71be 2f82 d6bd
00000150: e409 1fbe 4db9 cd3d ac6c 893c 383e 083e
00000160: 03cd 3dbe 1923 0ebd 45ea 68bd e483 c2bd
00000170: c267 6abc 484f 363d f5a2 35be 78e1 b4bd
00000180: 1895 5cbe e2a7 13be d7fd c23c 0f8c 473d
00000190: 4d78 3bbd 7ca3 9abc f9b8 83bc e028 5bbe
000001a0: 68bf 84bd 9bdf 243d c37c 86bb 4b1c c23b
000001b0: 932c 8cbe 20f3 5bbd 552c f63c f1e6 783d
000001c0: 4a11 8a3d c06c 063e b276 08be d811 bbbd
000001d0: b7f7 74be 1b42 d53d a5ad 393d 6961 8d3d
000001e0: 1578 f6bd 408e d7bd a930 1a3d 3cda f93d
000001f0: 27f7 aebc 392f 533c 0efc df3b 5b45 e1bc
00000200: 6e35 c43d b47c 8e3e 6205 003f 2ca9 0cbe
00000210: d9fe 093e fd8c ed3e 8f41 15be 1b41 ba3d
00000220: 3f6d be3e f193 50bd 5ce0 5a3d 706d f93e
00000230: 388d 64bd 26de 343e 1616 30be 74ab 443c
00000240: 6056 5a3e 14ff b63c f03b e93d 82a3 82bc
00000250: 92cc e0be f523 6c3e e0cc ad3e 36ca 0d3e
00000260: bf83 853d 7fac 21bd 73a0 e6be 4418 0d3e
00000270: 2970 0a3e 05d1 9ebd 48f4 0c3e 8de9 003e
00000280: 6a72 cdbe 513d a73d ce6f b13d 7f20 89bd
00000290: 94bf 87bc cf8a 923c f1b1 9cbe 8658 a7bc
000002a0: 1b88 963e 0ae2 fd3b bda9 e83c 9e15 8b3d
000002b0: f068 09be 4969 02bd 37cc d83d 89d5 5fbd
000002c0: b6b6 4dbd fd00 dc3d ec20 5ebe 9803 0fbd
000002d0: 00c6 9e3d 946f 173e 35d5 d5bd e9f8 713e
000002e0: 934a 15be d79d 05be d8a7 363e 2f52 653d
000002f0: de51 eabc dc75 4f3e 6819 80be 26ca 8f3e
00000300: 97de 15bc 7e98 11bc e2ae 903d d1a7 263e
00000310: 35af 5abe 618b 20bd a769 013c b4cf 77bc
00000320: 6813 a23d f86f 593e 2675 06be 7a81 f93b
00000330: 989c 31be bdcf 3f3e 8c82 053e a667 603e
00000340: c170 a8be a6fc 003e 9c7d 323e cf66 41bd
00000350: 1418 133e 38f9 eb3d 019e 2fbe 290f b03c
00000360: 57f8 b43d 28c6 6dbc b87d 003e 14e0 48bd
00000370: 336e 9fbe c848 0ebe 49c8 4ebe a8d0 10be
00000380: 4fcc 093d fafa 4f3c 12eb 22be c71f 6cbd
00000390: 395f 3cbd 615d d0bb 6a83 bd3d fa8d 913e
000003a0: 8e2d 82be 6101 053e ae65 1dba d82c 733d
000003b0: e51a 933e fb7d 3c3e 026a cbbd 01f4 abbd
000003c0: 0725 11be 51aa a73d 6ae8 1bbd d66e 17bc
000003d0: 9a5f 83be 16e7 e13c 98c4 063d a15f 023e
000003e0: d87b 4abd 3525 dc3d 4ed8 0bbe 3f9f a9bd
000003f0: cd35 a7bd 286d 81bd 3332 673d c222 8ebe
0.21983713 -0.15419224 -0.054157127 0.23686936 -0.057498105 -0.08910886 0.0927003 -0.11443355
0.03301968 0.27381197 -0.08894071 -0.09672291 -0.007268224 0.054442745 -0.015164141 0.37267274
-0.08244261 -0.017522184 -0.1809104 -0.0016927213 -0.018890196 0.30800065 -0.16625018 -0.048625458
-0.14642248 0.15758327 0.050746586 0.3775464 0.037395224 -0.08568128 -0.21794677 0.109489635
0.060739588 0.42173898 -0.16433758 -0.23277967 -0.30552226 0.0918216 -0.0037101437 0.19052269
-0.09354063 0.1391775 -0.2606456 -0.081495166 -0.124886155 0.09594146 -0.13069487 -0.21118683
-0.20431001 -0.035201315 -0.20087218 0.26656592 -0.04585735 0.06139103 -0.31769335 -0.06803349
0.013266047 0.24708615 0.06681232 -0.045100458 -0.19427511 -0.06149695 -0.014722687 0.13564873
-0.1608045 0.03930793 -0.14215223 -0.13818622 0.048281386 0.1271631 -0.18369757 -0.024720682
-0.043588262 0.012336457 -0.10324597 0.13450783 -0.11976297 -0.07042516 0.038154323 0.028381137
0.07096044 0.28305486 -0.23599988 -0.10474049 -0.15531117 0.10045109 0.016775452 0.13304985
-0.18535237 -0.03470144 -0.05686404 -0.094978124 -0.014306964 0.044509202 -0.17737944 -0.08832067
-0.2154125 -0.14419511 0.02380268 0.048717555 -0.045769025 -0.018876784 -0.016079413 -0.21402311
-0.0648182 0.04025231 -0.004104228 0.005923783 -0.27377757 -0.05369866 0.030050436 0.060767118
0.06741579 0.13127422 -0.13326529 -0.09134263 -0.2392262 0.10412999 0.045331616 0.06903345
-0.120346226 -0.10525179 0.037644062 0.12199828 -0.021358086 0.012889677 0.006835467 -0.027498892
0.095805034 0.27829516 0.50008214 -0.13736409 0.13476123 0.46396628 -0.1457579 0.09094449
0.37192723 -0.050922338 0.053436622 0.48716307 -0.05579874 0.17662868 -0.17195925 0.012003768
0.21322012 0.022338428 0.11388385 -0.015947107 -0.43906075 0.23060592 0.3394537 0.13846669
0.06519269 -0.039471146 -0.45044288 0.13778788 0.13519348 -0.07754711 0.13765061 0.12589093
-0.40126354 0.08165992 0.08663903 -0.06695651 -0.016570844 0.017888455 -0.3060451 -0.020427953
0.29400715 0.007747893 0.02840125 0.067912325 -0.13418937 -0.03183869 0.10585826 -0.054647002
-0.050223075 0.10742376 -0.21692246 -0.034915537 0.07752609 0.14788657 -0.10441057 0.23630108
-0.14579229 -0.13048492 0.17837465 0.05598658 -0.02860349 0.20259804 -0.25019383 0.28083915
-0.009147308 -0.008886455 0.07064606 0.16274954 -0.21355899 -0.039195422 0.007898725 -0.015125204
0.07913858 0.21234119 -0.13130626 0.0076143118 -0.17344892 0.1873159 0.13038081 0.21914539
-0.32898524 0.12596378 0.17430729 -0.047217187 0.14364654 0.11522144 -0.17150117 0.021491604
0.088364296 -0.014512576 0.12547958 -0.049041823 -0.31138763 -0.13894951 -0.2019359 -0.14142096
0.03364211 0.012694115 -0.15909985 -0.057647493 -0.04598925 -0.006358788 0.09253581 0.28428632
-0.2542538 0.12988807 -0.0006004226 0.05936894 0.28731456 0.18407433 -0.09932329 -0.083961494
-0.14174281 0.08186782 -0.038063444 -0.009242734 -0.25658876 0.02757601 0.03290233 0.12731792
-0.049434513 0.10749284 -0.13656732 -0.08282327 -0.081645586 -0.06319648 0.056444358 -0.27760893
